dqn_model_player_0.pth (torch, 840162 bytes, 44 tensors)

feature_layer.0.weight f4 [128, 6]
000000 47 74 10 3e a3 4d a9 3d b3 48 66 3e 2e 8c 2b 3e
       0.14106856 0.08266761 0.2248867 0.16752693
000010 5b 54 02 be cc 25 04 bf 46 9a 89 3c 00 7e 30 3e
       -0.12727492 -0.51620173 0.016797196 0.17235565
000020 38 c4 91 3d a7 28 fb 3d ce a3 49 bf aa 01 5a bf
       0.07117504 0.12263613 -0.7876557 -0.8515879
000030 d3 2a c5 3d 4e 31 68 3e b5 2b 2a 3e e8 98 3a 3e
       0.09627309 0.22675058 0.16618235 0.18222392
000040 a5 8e b0 bd f0 73 0f bf 17 95 4a 3e 38 1f 01 3e
       -0.08620957 -0.5603628 0.19783436 0.12609565
000050 9c 85 3c 3e d4 97 0e 3e b6 3a 5b bd ea 06 27 be
       0.18410343 0.13925105 -0.053522788 -0.16311231
000060 cb 71 06 3d d3 4a 1f 3e 80 86 b2 3d d4 0b 5c 3e
       0.032823365 0.15555887 0.0871706 0.21488887
000070 19 db f3 be ca 68 68 3d 93 f1 50 3d 82 31 5d bd
       -0.47628096 0.05674056 0.051011633 -0.054002292
000080 d4 bc 0a 3e d4 54 1b 3e c3 6d 75 bf 00 4c 7c 3e
       0.13548595 0.15169078 -0.9587061 0.24638367
000090 1f 3d 83 bd fb ac 1f 3d 6b 7d 2c be 69 d1 6c be
       -0.06408142 0.038983326 -0.16844718 -0.23126759
0000a0 b8 b0 bf be cd 8e d7 3e 34 7c 70 3e d8 87 41 bd
       -0.37439513 0.42101136 0.2348488 -0.04724869
0000b0 57 29 16 3d 07 8f 54 3c fc 3a 1c bf 08 2c ca 3e
       0.03666052 0.0129735535 -0.61027503 0.39486718
0000c0 9f c4 55 3d f2 c2 9b 3e a3 2a 42 3d ca 8f ee 3d
       0.052189466 0.3042217 0.047403943 0.11648519
0000d0 ff 3c f9 be b1 67 cf be 41 c8 11 3d 4d dc 93 bc
       -0.4867935 -0.40508798 0.035591368 -0.018049384
0000e0 9e 07 ef 3c 0d 00 0a be 94 33 48 3d bd 7c 87 bf
       0.029178437 -0.13476582 0.048877314 -1.0584942
0000f0 fe 38 1b bd b4 fb 09 3e 75 1a e2 3d 98 0c a7 3d
       -0.03789615 0.13474923 0.110402025 0.08156699
000100 e6 65 37 bf 88 e2 46 bf a4 22 52 bd f2 ff da bc
       -0.7163986 -0.7768941 -0.051302567 -0.026733372
000110 da ea 43 3e d6 99 e5 3d 9e f5 40 3c 82 b7 13 bf
       0.19132558 0.112109825 0.01177731 -0.57701886
000120 95 29 55 3c 7d c9 26 3e 9a 32 16 be 7c 12 8d bd
       0.013010402 0.16287799 -0.1466774 -0.06888291
000130 08 b0 f3 bd 0c 90 36 bf 7e 9c d2 bc 7d 06 16 bb
       -0.1189881 -0.7131355 -0.025709387 -0.002289205
000140 33 b2 9e 3d 70 40 1c 3e a3 13 02 bf e7 ea a5 bf
       0.077488326 0.15258956 -0.50811213 -1.2962312
000150 54 03 8a bc 4a 54 ca 3d 7f 2a 8d 3d 49 96 ee 3d
       -0.01684729 0.09879358 0.06892871 0.11649758
000160 ae 7f 1f bf 26 b6 72 be 0a e6 5a 3e 70 c6 b1 3d
       -0.623042 -0.23702297 0.21376815 0.08680427
000170 66 d8 be 3a 28 50 87 be 95 4e 29 3e b1 89 d4 bd
       0.0014560341 -0.26428342 0.16533883 -0.10377825
000180 88 1f 90 3a 25 f3 33 3d c8 c4 c6 3d 25 42 75 3d
       0.0010995725 0.043933053 0.09705502 0.059877533
000190 4a a6 60 bf 0a 9e 16 bf 85 b2 26 3e c0 4c 56 3c
       -0.87753737 -0.588349 0.16279037 0.013079822
0001a0 d0 05 dc 3d 8b 4b f9 bc 4a 09 b0 3e 29 35 30 bf
       0.10743296 -0.03043153 0.34382087 -0.68831116
0001b0 e2 df a1 bd cd 0a 65 3d e0 13 01 3e 8a df c7 3c
       -0.079040304 0.055918504 0.12605238 0.024398584
0001c0 eb 18 9b be e4 15 07 bc 79 bf 45 3d b7 23 bb bc
       -0.30292448 -0.008244965 0.048278306 -0.022844179
0001d0 e2 1c dd ba e4 aa ef 3c 94 13 04 bf 1b c2 0d bf
       -0.001686957 0.029256292 -0.51592374 -0.55374306
0001e0 8b a7 19 3e 26 c2 9c 3d 7a 7e 81 3d b8 b9 e8 3a
       0.15005319 0.076542184 0.063229516 0.0017755544
0001f0 f4 eb fa 3c 3a e7 22 3e df 69 df 3d 61 2c 03 be
       0.03063009 0.15908518 0.10908865 -0.12809898
000200 47 bd 03 be a4 ab dd bd 88 76 51 bf 01 36 04 3e
       -0.12865172 -0.108237535 -0.8182149 0.12911226
000210 5b 7f e4 3c 72 9b 06 3c 0a 94 ac 3d ca 17 f9 3b
       0.02789276 0.008215772 0.08426674 0.007601713
000220 79 b2 2d be bc 47 53 bf a0 e4 92 3d b0 c5 c6 3e
       -0.16962613 -0.8253133 0.07172513 0.388227
000230 25 9d c0 3d 14 86 8b 3d 20 09 ce 3e d9 5f 3a 3f
       0.09404973 0.06812683 0.40241337 0.728025
000240 98 0c f1 3d 59 92 dc 3c ed 3e 67 be 67 51 6b be
       0.1176998 0.026925253 -0.22582598 -0.22980271
000250 b1 dc 7c 3c 1a 14 d1 be 88 cf 46 3e 64 7d d8 3c
       0.015433476 -0.4083565 0.19415104 0.026426978
000260 d5 bb f7 3d 60 f1 11 bd e0 c9 de 3d 15 a8 a2 3d
       0.12096373 -0.035630584 0.10878348 0.07942215
000270 db 86 07 be 54 6c 6d bd c4 17 9a 3c 28 be 83 3d
       -0.13235037 -0.057964638 0.01881016 0.06432754
000280 39 52 90 3d 34 9c ae bf 9a 42 aa 3d 38 88 c4 3b
       0.07046933 -1.364142 0.083134845 0.005997684
000290 44 10 07 be fe 0d 05 be 9e 55 82 be dd 0d 3e bf
       -0.13189799 -0.12993619 -0.25455946 -0.74239904
0002a0 4c a8 e5 3d f3 e3 5e 3c 70 4a a8 b9 98 48 6e 3d
       0.11213741 0.013604152 -0.00032098917 0.0581747
0002b0 56 7e 53 3e ac b9 17 bf 0c f1 99 bd 05 ee bc bd
       0.20653662 -0.5926769 -0.07516679 -0.09225086
0002c0 6a 43 0b 3e 3c 0f 4f 3e ac 1b 3f 3e 7c 35 84 be
       0.13599935 0.20220655 0.186629 -0.25822055
0002d0 f2 96 3f 3e 14 67 6f 3d e7 93 65 3d 6e 89 d8 3d
       0.18709925 0.058447912 0.056049254 0.10573088
0002e0 f4 d8 91 be 60 26 0c bf 0f 34 75 3e a2 f3 73 be
       -0.28485835 -0.54746056 0.2394564 -0.23823407
0002f0 36 89 34 bd f7 51 43 3c 71 30 00 bf 1e 73 7c 3d
       -0.044076167 0.011921397 -0.50073916 0.06163322
000300 78 88 55 3e ac 50 ab bc ad cf 94 3d 5f 7c 86 3e
       0.2085284 -0.02091249 0.072661735 0.26266763
000310 89 7e 0c 3f 0d d2 21 be 47 ee 03 be 52 b4 12 be
       0.5488058 -0.15802784 -0.12883864 -0.14326599
000320 20 cc 18 3d 5e 55 13 bb 2c 73 5e be 83 0f ee bf
       0.037304044 -0.0022481303 -0.21723622 -1.8598484
000330 b8 f0 12 3e 5a 2c 70 3e 81 0b 4f 3e 4e 78 95 3d
       0.1434964 0.23454419 0.20219232 0.07298337
000340 e5 74 36 3e c0 72 64 3e 95 01 56 3d b8 63 f6 3d
       0.17818029 0.22309399 0.052247602 0.120307386
000350 75 ea 48 be f4 7f 3a be c5 8c 66 3d 3f c9 83 3e
       -0.19620688 -0.18212873 0.056286592 0.25739476
000360 f7 df ae bc 88 98 af 3d 9e 72 b2 3e 70 a8 b5 bd
       -0.02134703 0.08574015 0.3485307 -0.088700175
000370 87 3d 3f 3e 97 fa 00 bf bf 58 4c 3e b7 77 54 3d
       0.18675815 -0.5038237 0.19955729 0.05187198
000380 8e 9b 7a 3b d9 c6 45 3d 82 0d 25 bf fa da 59 bf
       0.003823969 0.04828534 -0.64473736 -0.85099757
000390 ed db b1 3c 08 92 6b bb 29 74 66 be d1 46 41 be
       0.021711314 -0.0035945196 -0.22505249 -0.1887467
0003a0 8c 21 8c 3d db 3c 51 bd a8 33 2e 3e a9 7d 3e 3d
       0.06842336 -0.051083427 0.17011893 0.046506558
0003b0 ed 2c c4 3c 8c 6a e7 3d e8 11 cb bd 36 42 5d bf
       0.023947204 0.11299619 -0.09915525 -0.86429155
0003c0 ba cd 83 3d 52 d7 2f 3e 4e c2 5a bd f8 1f 71 bd
       0.064357236 0.17171982 -0.05340796 -0.05886838
0003d0 e6 72 3d bf 44 49 87 be 64 0b 6f 3d c0 1a d1 3c
       -0.74003446 -0.26423085 0.058360472 0.02552545
0003e0 63 c7 39 bd 47 7f c8 3c 83 79 0a bd da 0c 80 bf
       -0.045356166 0.024474753 -0.03380729 -1.0003922
0003f0 92 f8 c4 3d 2e bd 01 bd 11 a7 68 3d 0a d3 d4 3d
       0.096177235 -0.031674556 0.056799952 0.10391815

feature_layer.0.bias f4 [128]
000000 e6 06 fe 3d fc 94 db be e9 69 a7 be 38 fe 58 bd
       0.124036595 -0.42887104 -0.3269799 -0.052976817
000010 ab c1 94 be 0f 78 8a be b0 82 10 3e 04 e2 4c be
       -0.29054007 -0.27044722 0.14112353 -0.20008093
000020 ba 07 0e bf 91 31 97 be 1b 42 cf be 7d 53 b5 3d
       -0.5548054 -0.29530004 -0.40480122 0.08853815
000030 1d 8d b7 bd 9b 6d d5 be d1 9c b3 be 22 f1 41 3e
       -0.08962462 -0.41685185 -0.3508058 0.18939641
000040 36 4d 0d bf ff da 96 bd 02 81 4f 3e 10 9a 8d be
       -0.5519594 -0.07365989 0.20264056 -0.27656603
000050 f0 78 2b be d6 b0 e6 bb 68 fb d3 be c6 99 2c be
       -0.16745353 -0.0070401235 -0.41402745 -0.16855535
000060 25 a5 df 3d 83 2b 39 be c5 4f fe be 80 06 c4 3c
       0.10920171 -0.18083005 -0.49670234 0.02392888
000070 a3 79 e2 be 17 15 05 bf 70 92 a2 be 6a 72 5d be
       -0.44233426 -0.51985306 -0.31752348 -0.21625677
000080 44 d4 3b 3d 2b 7d d8 be 65 43 96 be 0d d2 b3 3e
       0.04585673 -0.42282996 -0.29348293 0.35121194
000090 a4 56 71 3e 38 55 d2 be 6b 24 cf 3e 0b 7f 8e be
       0.23568207 -0.41080642 0.40457472 -0.278313
0000a0 4c d4 c5 bd dd 0c a4 be ae 0e c7 be 9e 14 cc be
       -0.09659633 -0.32041064 -0.38878387 -0.3985948
0000b0 bc c2 06 be 65 82 95 be d1 0e 7d 3e 0b fd 65 3d
       -0.13160223 -0.29201046 0.24712683 0.056149524
0000c0 19 2d a2 be 57 8f 01 bf 3d 3c a7 bd d8 c7 f4 bd
       -0.31675032 -0.50609344 -0.081657864 -0.1195218
0000d0 d9 2e 12 bf 2b c2 a7 be b6 73 02 be 67 3b f1 be
       -0.57102734 -0.32765326 -0.12739453 -0.47115633
0000e0 91 18 a8 3d 2f ee a3 3e e5 cf cf be 17 b4 85 be
       0.08207811 0.32017657 -0.40588298 -0.2611396
0000f0 94 73 d8 be 19 39 c6 be 5d 6b ac 3e 52 2f ac bc
       -0.4227568 -0.38715437 0.33675662 -0.021018658
000100 a8 d8 63 be c9 8d 99 3e 18 c0 82 3e e5 8f 3c be
       -0.22250617 0.29990986 0.2553718 -0.18414266
000110 12 bf ed be cc 23 d8 be dd 66 41 3e 1c cb a5 3d
       -0.46434838 -0.4221481 0.18886895 0.08095381
000120 7e 08 95 bd da d1 fb be bb 5e 1a be 74 0b d3 3d
       -0.072770104 -0.49183542 -0.150752 0.10304919
000130 b0 13 d3 be ea f1 64 3d 2e 31 15 be 2a 7e 89 3d
       -0.41225958 0.05589477 -0.14569542 0.06713517
000140 43 f2 4d be e4 c7 ba be 7f 49 a1 be 15 aa 19 bf
       -0.20111947 -0.3648063 -0.31501386 -0.6002515
000150 ef 71 17 bf 5f 3b a4 be 2f 24 01 bf 52 cc 75 be
       -0.59158224 -0.32076547 -0.50445837 -0.24003723
000160 33 68 b4 be 79 e5 35 bf 52 fd a3 3e da 2a 97 be
       -0.35235748 -0.7105327 0.32029206 -0.2952488
000170 eb f3 6a be fd 07 fd bd 9f bc 37 bf 54 b2 09 bf
       -0.2294461 -0.12355039 -0.7177219 -0.5378773
000180 d6 d8 2f be f7 50 c5 be e0 6e a6 3e c2 e9 8f be
       -0.1717256 -0.38538334 0.32506466 -0.2810803
000190 d7 31 c5 bd 1e ad 67 3e 10 cc 4a be de 60 87 3d
       -0.09628647 0.22624633 -0.19804406 0.06610273
0001a0 ea a9 be be 9e fb 03 bf 68 86 85 be a7 d2 74 bd
       -0.3723901 -0.5155581 -0.26079106 -0.059771206
0001b0 e4 ac 39 be 91 41 f9 bd 7b 1b 02 3e c2 cd ba be
       -0.18132359 -0.12170709 0.12705795 -0.36485106
0001c0 df d0 3e be 3d b7 b3 3d 29 52 e4 be 9c 8c 17 3d
       -0.18634365 0.08775184 -0.44593933 0.03699933
0001d0 d2 ec ac be 63 5d 23 be e3 da d7 be 57 f1 12 bf
       -0.3377443 -0.15953593 -0.42159185 -0.57399505
0001e0 ce 2f a0 3d 30 45 4c be 3b 29 27 be 73 64 c9 3d
       0.07821618 -0.19948268 -0.16324322 0.09833612
0001f0 c0 de 96 3c 0a 86 f6 3d 5d 7a 71 be 01 8f ff be
       0.018416762 0.12037285 -0.23581834 -0.4991379

feature_layer.2.weight f4 [128, 128]
000000 42 11 89 be 95 43 82 be a5 99 57 be 3f 70 2e be
       -0.2677098 -0.25442186 -0.21054704 -0.17035006
000010 c2 0a 74 bd 40 04 1c 3d 71 c7 4f 3e dd 55 42 3c
       -0.059580572 0.03808999 0.20290925 0.011861292
000020 c6 d9 c3 bd 45 5e a4 be 09 b4 c3 bd 9e c4 a2 be
       -0.09563021 -0.32103172 -0.09555823 -0.31790632
000030 11 f4 69 bc 29 69 c4 be fe df 52 be 8b 84 81 bc
       -0.014279381 -0.3836148 -0.20593259 -0.015810272
000040 3d 1a bb 3b 3d c0 a6 be 86 8f b5 bc bc 7b cd bc
       0.005709915 -0.3256854 -0.022163164 -0.025083415
000050 e4 25 32 be 64 f2 8e 3e aa a1 b4 be 26 cc c7 3d
       -0.17397267 0.27919304 -0.3527959 0.09755735
000060 61 70 13 bc 3e 6f 53 be 07 09 12 bf bf ae b3 3d
       -0.008998961 -0.20647904 -0.57045025 0.087735645
000070 58 dd db be bd b5 df bd 39 ca 63 be 9b c8 29 3e
       -0.4294231 -0.10923336 -0.2224511 0.16580431
000080 41 9b 04 be 7e 41 a2 bd e1 d5 74 be f1 af a4 bd
       -0.1294985 -0.07922648 -0.23909713 -0.08041371
000090 fa 95 dc be f8 2b b4 3d 34 e4 0f 3d ca b3 9a be
       -0.43083173 0.08797449 0.03512974 -0.30215293
0000a0 bb 7a 59 3e 4f 2c b7 be d4 4d 9d be a3 be 52 be
       0.21238224 -0.35775992 -0.3072344 -0.20580535
0000b0 b6 23 21 be 2e 00 12 3d 5a ec ba be 1e 0a 3e be
       -0.15736279 0.035644703 -0.36508447 -0.18558547
0000c0 d9 4e 03 bf 52 99 06 be 79 87 ab be 22 ab fc 3d
       -0.51292187 -0.13144425 -0.33501795 0.123373285
0000d0 a0 df c5 3c 47 7c f8 3d e8 7d 02 3e e3 1b 16 3c
       0.024154484 0.12133079 0.12743342 0.009161922
0000e0 b0 9c c3 be ef da 5e bd 05 53 e9 bd 21 15 06 bd
       -0.3820548 -0.05440801 -0.11392788 -0.032734994
0000f0 c1 ed 6c be cb fb 25 bd eb a8 a0 be 7e 2b c0 be
       -0.23137571 -0.04052333 -0.31378874 -0.37533182
000100 d5 b7 c6 3d 27 0f 7a bc 20 82 70 be 0b ff 92 3d
       0.09703032 -0.015262402 -0.23487139 0.07177552
000110 4b 70 cb be 86 3b c3 be 3c fb a3 be 1e 6b c1 3d
       -0.3973411 -0.3813135 -0.32027614 0.09444259
000120 6a d6 c6 3d e9 19 1a be 4a 8c b3 bc 2f c6 c1 3d
       0.09708865 -0.15048946 -0.021917481 0.09461629
000130 63 af a7 be 6a 9a d3 3e ec 61 81 be 78 3a 4c 3e
       -0.32750997 0.41328746 -0.2527002 0.19944179
000140 ea db 9a bd 6a c8 12 be 01 61 71 3d c3 27 70 be
       -0.075614765 -0.14334264 0.0589304 -0.23452668
000150 86 79 a1 be d5 32 0e bf ef ae d3 be 24 28 20 3d
       -0.31538028 -0.55546314 -0.413444 0.03910078
000160 4d 63 cb 3d 22 8c e8 bd 62 05 88 3e 67 74 5a 3e
       0.099310495 -0.11354853 0.26566607 0.21333466
000170 ef 87 7b be 09 ac 1d be 86 75 3d 3e fa 97 84 be
       -0.24563573 -0.15397657 0.18501863 -0.258972
000180 40 9a f3 3d 65 e9 af 3d a0 18 1e be 39 66 46 bc
       0.11894655 0.08589438 -0.15439081 -0.012109333
000190 bb d9 e4 be 6a 2f 26 be b0 e1 a2 bd ea d4 71 bc
       -0.44697365 -0.16229025 -0.07953203 -0.014760235
0001a0 dd 56 75 be 7c 43 99 be f7 a5 09 be c5 a9 e7 bd
       -0.23958917 -0.299343 -0.13442217 -0.11311678
0001b0 50 f2 30 bf 4f 2a 03 bd f9 ec cf bd c1 d0 47 bd
       -0.6911974 -0.03202277 -0.10152621 -0.048783068
0001c0 0f 58 ee bc dc 13 63 3f 27 b2 92 bd 71 e9 5f be
       -0.029094724 0.8870218 -0.07162886 -0.21866395
0001d0 21 67 36 be 2b 4d 30 be 1e 0c 9f bd 9f a3 46 be
       -0.17812778 -0.17216937 -0.07765983 -0.19398354
0001e0 0c 62 8e be b4 c2 76 be 7c aa 59 3e 97 21 99 be
       -0.2780918 -0.24097711 0.21256441 -0.2990844
0001f0 09 c5 b3 be ab 21 6f be 27 65 38 be 68 58 c0 be
       -0.35111263 -0.23352687 -0.18007337 -0.3756745
000200 f4 0c 72 bd 7e 56 a7 3d 15 78 56 be ed 53 42 3d
       -0.059094384 0.08170794 -0.20944245 0.04744332
000210 5d ff 5d 3e 9e b8 8d bd cf 26 3b bd 9b 6b 93 be
       0.21679445 -0.069199786 -0.045691308 -0.28793034
000220 12 97 d0 bc a8 59 d3 bd 67 cb be 3d ed d5 57 be
       -0.025462661 -0.10319835 0.0931614 -0.210777
000230 0c 96 88 3d 7b 73 b6 be 14 cf 91 3d 54 3f 69 be
       0.06669244 -0.3563498 0.07119575 -0.22778064
000240 4c d0 0e be e7 38 e1 3c a2 ab d1 3d 60 32 aa bd
       -0.13946646 0.027492953 0.102378145 -0.083103895
000250 a1 d5 16 3e e9 95 ce be 85 d0 a6 bd a4 3e dd 3e
       0.1472993 -0.40348747 -0.08145241 0.43211854
000260 af a6 1f be 4c e6 e0 3d 8a d1 53 be 05 14 0f bf
       -0.15590928 0.10981426 -0.20685402 -0.5588992
000270 2b 98 ba 3d 89 e4 37 be 97 75 bc bd 09 55 4f be
       0.09111055 -0.17958273 -0.09202116 -0.20247282
000280 38 b9 71 bb 7c 77 22 bc e5 2d cc 3e 94 a6 f2 3d
       -0.003688408 -0.009916183 0.39878765 0.118481785
000290 fd a2 d6 be f1 88 12 bd ec e9 a6 bd 08 fe 0b be
       -0.41921225 -0.03577513 -0.08150086 -0.13671124
0002a0 d3 62 22 bd 2e a4 0e bd f6 b4 39 be 35 29 06 bc
       -0.039645027 -0.034824543 -0.18135437 -0.008188535
0002b0 d0 e9 0d be e5 32 b4 bd 03 e3 a3 be 2e a8 47 bd
       -0.13858724 -0.0879877 -0.32009134 -0.048744373
0002c0 c3 ef 9e be a5 e9 d9 3d bd 97 08 3e 98 bc b8 be
       -0.310423 0.10640267 0.13339134 -0.36081386
0002d0 07 d9 38 be ee 06 74 bd 5a 78 a3 be 47 3a 72 3e
       -0.1805154 -0.05957692 -0.31927758 0.23655044
0002e0 22 9c 7e be 04 dc 07 3c ab ee 25 bd ac 2a 3e be
       -0.24864247 0.008292202 -0.040510815 -0.18570966
0002f0 9f e8 79 bd 2c 35 36 bd a3 28 42 be 34 b7 d9 3d
       -0.06101286 -0.044484302 -0.18960814 0.10630646
000300 1e c8 d1 3e 54 c8 42 bd 43 ec ff bd 52 4e 0b 3e
       0.4097299 -0.04755433 -0.12496235 0.13604096
000310 70 91 f2 bd ac fd 85 be c1 ca 95 be 45 fd 55 3d
       -0.11844146 -0.261701 -0.2925625 0.05224349
000320 7a f3 e2 3e 35 b2 1a bd 9a 9d bb bb c7 67 a7 3d
       0.44326383 -0.037767608 -0.0057255747 0.08174091
000330 a7 20 e9 bd a2 af 7e be a4 11 3c 3e 4e d1 bf be
       -0.11383181 -0.24871686 0.18366104 -0.37464374
000340 80 a6 11 3e 28 23 75 3d b8 d3 e8 bc 61 d6 a3 bd
       0.14223671 0.05984798 -0.028421268 -0.07999874
000350 3f 0e 55 be cc 22 f6 be de d5 0b 3d 2e 1b 73 3d
       -0.20806216 -0.48073423 0.034139507 0.059352092
000360 71 df 53 bd fe ae e8 bd 62 67 7a 3a 4c 44 59 be
       -0.051726762 -0.11361502 0.00095521484 -0.2121746
000370 d0 e0 72 3d 47 23 cd be c1 bb 90 3e 1e 07 6a be
       0.05929643 -0.40065977 0.28268245 -0.22854277
000380 d1 c0 aa 3e 6d 4a 04 be 77 bc 59 3e 16 7c be 3d
       0.33350232 -0.12919016 0.212633 0.09301011
000390 03 1e af be 2d 77 9b 3e 43 c9 10 3e 16 55 3b be
       -0.34202585 0.3036436 0.14139275 -0.18294176
0003a0 41 64 21 be 25 ab 53 be 4b 9f 27 be b1 24 2a bd
       -0.157609 -0.20670755 -0.16369359 -0.041538898
0003b0 12 48 37 bc 3a f0 98 be 4e 57 81 3d 0e 2b dc bd
       -0.0111866165 -0.29870778 0.0631548 -0.107503995
0003c0 a5 bc 9e bd 16 3d 71 be 58 58 2e 3e eb fd fd 3c
       -0.07750825 -0.23558459 0.17025888 0.031004867
0003d0 61 98 23 bd 21 91 9d be 17 da ce bd 91 56 04 be
       -0.03994024 -0.30774787 -0.10100191 -0.12923647
0003e0 eb 0d 04 bf fc 76 42 bc b6 d4 da be 6a 42 e0 3d
       -0.5158374 -0.011869188 -0.4274041 0.109501675
0003f0 72 f1 33 be 6a 6c 79 ba 4d a2 5f be e0 23 6d be
       -0.17572573 -0.0009514751 -0.21839257 -0.23158216

feature_layer.2.bias f4 [128]
000000 5a 19 2e be 6e 5f ef be 19 22 d5 be 5a 18 04 bf
       -0.17001858 -0.46752495 -0.41627577 -0.5159966
000010 5c 47 5e bf 11 cd 54 bf 52 b1 32 bf 8a 42 69 bf
       -0.86827636 -0.83125407 -0.6980182 -0.91117156
000020 5c 8c 4a bf e5 6b 5f bf c1 67 3a 3f 3d 41 53 bf
       -0.7912042 -0.8727401 0.72814566 -0.8252142
000030 6f 19 43 3f 2a 25 bd 3d 95 0f 52 bf 84 ca 92 be
       0.76210684 0.09235604 -0.82055026 -0.28670132
000040 8b b7 8d 3e 37 ba 31 3f 1a 34 7e be 66 8b 1c 3e
       0.27679095 0.69424766 -0.24824563 0.15287551
000050 14 e1 d2 3e c1 07 08 bf 59 7e f0 3d ce 74 49 bf
       0.41187346 -0.5313683 0.11742849 -0.78693855
000060 5e 94 63 bf 30 67 2f bf 2a 1f 8a bc 7b b1 ec 3c
       -0.88898265 -0.68516827 -0.016860563 0.028893223
000070 9d 52 13 3f ca c9 38 bf 8b e1 61 bf 2c ed 65 bf
       0.5754793 -0.72182906 -0.88234776 -0.8981502
000080 b1 92 31 bf 2b 26 7d be ca a1 e7 3e 69 ef ac 3e
       -0.6936446 -0.24721591 0.45240623 0.33776405
000090 f6 a5 28 be c0 3f 6b bf 91 fe ee 3e fb 59 b0 3e
       -0.16469559 -0.9189415 0.46678594 0.3444365
0000a0 b2 49 09 3f d1 df 71 3e 3a 3f 4d 3e d1 38 55 bf
       0.53628075 0.23620535 0.2004365 -0.8328982
0000b0 2d 33 3d 3f 8e cf 69 3e 50 3e c8 3e 7e 03 0c 3f
       0.73906213 0.22833082 0.3911004 0.5469283
0000c0 52 b0 75 3e e9 12 5f bf 7f 14 3f 3f 0b cb 5d bf
       0.23993042 -0.8713823 0.7464065 -0.86637944
0000d0 4e 3a b9 be 0b 9d d5 be 0d 78 a1 3e dd 80 2e 3f
       -0.36177295 -0.41721377 0.31536904 0.6816538
0000e0 7d 79 b8 be e8 2f 46 bf 79 f8 67 bf f2 fb ff 3e
       -0.36030188 -0.7741685 -0.90613514 0.49996907
0000f0 df 4c 47 bf ba 06 49 bf e7 90 06 3e f3 ee 60 bf
       -0.7785167 -0.7852589 0.13141213 -0.8786461
000100 40 92 5f bf 08 78 fc 3e 44 d9 b0 3d 15 e5 2b bf
       -0.87332535 0.49310327 0.0863519 -0.67146426
000110 1d bd 65 bf d9 c3 5d bf 0c 41 10 bf 98 43 5b bf
       -0.8974169 -0.86626965 -0.56349254 -0.85650015
000120 5f 51 33 bf 1c b8 1b 3f db 30 4a bf e6 f9 f6 3e
       -0.7004604 0.60827804 -0.789808 0.48237532
000130 f6 6e dd 3e 6c 47 dd 3e dc 37 30 3f c1 b4 35 be
       0.4324872 0.43218553 0.68835235 -0.17744733
000140 e3 c3 01 3f a6 b9 49 3f f5 c2 3a bf b1 1f 67 3e
       0.50689524 0.787989 -0.7295373 0.22570683
000150 d1 6f 2a bf 11 2f 4d bf 4a 08 0e 3f df 50 61 bf
       -0.6657687 -0.8014994 0.554814 -0.88014024
000160 61 b4 5e bf 55 c6 48 bf 7b a9 2f 3d 48 61 46 3f
       -0.86993986 -0.7842763 0.04288624 0.7749219
000170 bf 48 d4 3e 55 1c ae be 5c f6 2b 3f 59 14 98 3e
       0.4146175 -0.3400599 0.6717279 0.29703024
000180 4d e1 40 bf e6 34 18 3f e8 58 3d bf f3 46 b0 be
       -0.7534378 0.59455717 -0.73963785 -0.3442913
000190 8d fb 0a 3f 7a 47 35 bf bd 3b 68 3e 9e 20 66 bf
       0.54290086 -0.7081219 0.22679038 -0.8989352
0001a0 fc 7a 53 bf 74 00 57 bf 59 c8 05 3f cf 6c 23 3f
       -0.82609534 -0.83985066 0.5225883 0.63837904
0001b0 8c 57 3c bf 2f 1c 33 bf 8a d4 27 bf 46 90 04 be
       -0.73571086 -0.6996488 -0.65558684 -0.12945661
0001c0 9c 2d 58 bf 18 06 30 3f fd 94 d7 3e 32 00 4a 3f
       -0.84444594 0.687593 0.42105857 0.7890655
0001d0 29 21 30 3c 87 47 3a 3f c6 2d 41 3e 79 05 19 3f
       0.0107500935 0.7276539 0.18865117 0.59773976
0001e0 a5 89 47 bf a8 f6 1a 3f 16 bc 42 bf 33 51 16 bf
       -0.77944404 0.6053262 -0.76068246 -0.5871765
0001f0 66 23 fa be c0 5c 1f 3f 55 e6 f3 bd c2 f2 4a bf
       -0.48855132 0.622509 -0.11909167 -0.7927667

value_stream.0.weight f4 [128, 128]
000000 f3 4a e1 be e6 71 7e 3e 7d 74 86 3e 97 c8 35 bc
       -0.44002494 0.24848136 0.26260749 -0.011095188
000010 c1 5d 82 3e 1d db 5e 3e a0 b7 68 3e 4e e8 5b 3e
       0.25462154 0.21763273 0.22726297 0.21475336
000020 ff ab 58 3e ab 6c d6 3d 0a 57 1e be 7e 14 76 3e
       0.21159361 0.104699455 -0.1546289 0.24031255
000030 ca dc a7 bd 54 0e 04 be d1 24 40 3e a9 67 88 bd
       -0.08196409 -0.12896091 0.18764044 -0.066603966
000040 3a e1 ca bd ca f9 41 be b0 a1 22 be c9 12 34 be
       -0.0990624 -0.18942943 -0.15881991 -0.17585291
000050 3a 9c d8 be 94 f0 39 3d 89 83 a4 3d c5 43 14 3e
       -0.4230669 0.04539545 0.08032901 0.14478977
000060 8e f5 5e 3e e0 8f 6a 3e b9 65 1b 3f 80 73 93 3e
       0.21773359 0.22906446 0.6070209 0.28799057
000070 7e f4 17 3d b4 93 3b 3e 5b 1a 33 3e 2d 3c 1f 3e
       0.0370984 0.18318063 0.17490523 0.15550299
000080 d4 47 3f 3e fa 03 88 be 6e df 01 be 8c af 9d 3b
       0.18679744 -0.26565534 -0.12682888 0.0048121866
000090 e7 6d 1e bd 17 c0 2e 3e 12 02 44 be 4d c7 8f 3c
       -0.03867903 0.17065464 -0.19141415 0.017551089
0000a0 21 ae 40 be cc 86 28 be 6f c3 50 3d a4 5b ac 3d
       -0.18816425 -0.16457671 0.05096763 0.084159166
0000b0 49 63 28 be 2b 25 a6 bd d0 3a 0d be de 42 32 be
       -0.16444124 -0.08112558 -0.13791966 -0.1740832
0000c0 8b 0a b0 3d 54 fc 53 3e a7 d3 b7 bd e2 96 6e 3e
       0.08595761 0.20701724 -0.08975916 0.23299745
0000d0 34 66 71 3e 4a 14 b3 3e 2a af d4 3e 31 5d 84 bd
       0.23574144 0.34976417 0.4153989 -0.06463087
0000e0 f7 6e b3 3e 50 d8 56 bc 1f 7d 48 3e 3e 4a c1 bd
       0.35045597 -0.013113096 0.1957898 -0.09437989
0000f0 b4 28 79 3e a9 3b 06 3e 0f 87 d4 be 44 06 29 3e
       0.24331933 0.13108696 -0.41509292 0.16506296
000100 b3 0a 3e 3e 7a b7 ab bd f9 ee 15 3e 9a da 45 3d
       0.18558769 -0.08384605 0.14641942 0.048304178
000110 7b f6 4b 3e e1 dd 57 3e 14 7d 76 be f5 f2 60 3e
       0.19918244 0.21080734 -0.24071151 0.21967681
000120 a3 e8 43 3e 13 4d 85 3c ba de 3c 3e 93 f4 52 be
       0.19131713 0.016272103 0.18444338 -0.2060111
000130 72 2d 4b be ee 19 0d be e1 f3 24 be 89 98 33 3d
       -0.19841555 -0.13779423 -0.16108657 0.04384664
000140 b2 5d dc bd 87 5c 21 be 7a e7 3d 3e a1 91 c5 be
       -0.107600585 -0.15757953 0.18545333 -0.3858767
000150 a2 49 10 3e ef e9 99 3e 20 c3 75 be d4 01 69 3e
       0.14090589 0.3006129 -0.24000216 0.22754604
000160 61 48 30 3e 77 c4 9a 3e 0b 56 8d 3d 4f b8 12 be
       0.1721511 0.30228016 0.06901177 -0.1432812
000170 01 08 02 be 10 8e b9 3d 7e c6 3f be c7 7b eb ba
       -0.12698366 0.090602994 -0.18728063 -0.0017965966
000180 b6 14 9c bc 7a 8d 32 be e2 ba 24 3e 4a 2e a8 3c
       -0.019052844 -0.17436782 0.16086915 0.020529885
000190 55 da af 3c 69 45 3f 3e b4 e9 73 bc e8 f8 4a 3e
       0.021466414 0.18678822 -0.014887262 0.19821513
0001a0 98 1b 32 3e 78 f8 55 3e 6b 0a 43 be a6 52 52 bd
       0.17393339 0.20895565 -0.19046943 -0.05134835
0001b0 f8 50 16 3e f0 97 3d 3e 2a ab 6b 3e 48 6d b8 3c
       0.14679325 0.18514991 0.23014513 0.022513047
0001c0 73 9a 3a 3e f7 73 4d be fe d0 3f be 47 42 25 be
       0.1822298 -0.20063768 -0.18732068 -0.16138564
0001d0 58 86 82 bd 66 3a 69 be 6e 68 34 3d e4 23 af bd
       -0.0637328 -0.22776183 0.044044904 -0.085517675
0001e0 64 a7 4a 3e 24 a0 7d be 7b ea 75 3e ac 6a 8c 3e
       0.19790417 -0.2476812 0.24015228 0.27425134
0001f0 75 e3 25 3e 4d 5f 1d be 1d 35 f9 3e ed f1 86 3e
       0.16200049 -0.15368386 0.48673335 0.2635645
000200 de 56 56 be 73 f4 6d 3e ce be 23 3e f5 c4 be 3d
       -0.20931575 0.23237781 0.15990755 0.0931491
000210 83 2b 8d 3e 63 a3 5f 3e 42 58 3e 3e 86 67 93 3e
       0.2757226 0.21839671 0.18588355 0.2878992
000220 7d a6 59 3e a1 e2 1a 3e 68 b4 b3 be be db 29 3e
       0.21254916 0.15125515 -0.35098577 0.16587731
000230 ca 6f 85 be 60 50 53 be 34 35 2a 3e a8 35 15 3d
       -0.2606185 -0.2063613 0.16621858 0.036428124
000240 79 7a 5f be 89 a4 79 be 65 d6 9a bd 9e 0d 39 be
       -0.21824063 -0.24379171 -0.07560424 -0.18071601
000250 7d 83 67 be 0f 20 14 3b ec 63 31 bc 09 da 72 3e
       -0.22608753 0.0022602116 -0.010827046 0.23715986
000260 55 b0 71 3e 04 3e 45 3e 87 eb dd 3e 60 79 47 3e
       0.23602422 0.19261938 0.43343756 0.19479895
000270 df 48 71 be 0e 05 29 3e 9d ae 4e 3e bb b6 35 3e
       -0.23562954 0.16505834 0.20183797 0.17745487
000280 48 4c e7 3d 94 9e db bd 74 00 05 bd 55 fa 67 bd
       0.11293846 -0.10723606 -0.032471135 -0.05663522
000290 b0 74 b0 bd d9 ef 6a 3e e3 f9 22 be 0c 69 a3 be
       -0.086160064 0.22943057 -0.15915637 -0.31916082
0002a0 05 bb c1 bd c0 e2 ac be 4e a6 8f bc 4b c7 da 3d
       -0.09459499 -0.33766747 -0.017535355 0.10682543
0002b0 97 8e be be e8 d6 5d be 6d f6 1f be 26 0a c3 bd
       -0.37218162 -0.21664011 -0.15621348 -0.0952342
0002c0 c4 ab f7 bd 88 bf 81 3e 69 97 33 be a3 55 56 3e
       -0.120933086 0.2534144 -0.17538227 0.20931105
0002d0 0b f7 88 3e f2 e0 80 3e 86 e1 d2 3e 8f 23 88 be
       0.2675098 0.2517162 0.41187686 -0.2658963
0002e0 2b 2a 01 3f ab 4d fe 3d f7 19 2b 3e e4 8f 00 be
       0.5045497 0.12417158 0.16709124 -0.1255489
0002f0 18 5d a8 3e e5 12 35 3e 56 30 64 be fd dd 15 3e
       0.32883525 0.17682989 -0.22284064 0.14635463
000300 e5 d6 60 3e c4 f7 7a be 41 80 5e 3e 70 f7 a0 3e
       0.21956976 -0.24508578 0.21728612 0.3143878
000310 cd e2 82 3e e8 c6 81 3e dc 0a 60 be 99 d6 42 3e
       0.2556366 0.25347066 -0.21879143 0.19027175
000320 86 56 0b 3e be 85 57 bd 1b e8 5f 3e 9a 4e 53 be
       0.13607225 -0.05261778 0.21865885 -0.20635453
000330 40 62 cc be de 15 6c be 37 31 f3 be 3e f6 69 be
       -0.3991871 -0.23055217 -0.47498485 -0.2284784
000340 f8 ba 65 be 8a 4b 71 be 84 2b 04 3e 03 ec a9 be
       -0.22434604 -0.23563972 0.12907225 -0.33187875
000350 2a 6d 5d 3e 91 50 64 3e 64 df 7b be 17 42 44 3e
       0.21623674 0.22296359 -0.24596936 0.19165836
000360 f9 bb 29 3e a5 bd e6 3d a3 49 90 be e4 18 68 be
       0.16575612 0.112666406 -0.2818118 -0.22665745
000370 bc ff 9d be 99 f7 c0 3d 37 b0 91 be f9 1a a4 be
       -0.30859172 0.094222255 -0.28454754 -0.32051829
000380 ac a1 8f 3e 10 f2 f3 be 38 c2 6a 3e a8 97 d3 bd
       0.28053033 -0.47645617 0.22925651 -0.103316605
000390 68 cd 74 bd 23 7d 4d 3e d9 e3 2b be 2f b1 1c 3e
       -0.059766203 0.20067267 -0.16786136 0.15301965
0003a0 75 eb 11 3e eb 01 64 3e 5d 14 07 be 98 d9 84 be
       0.14249976 0.22266357 -0.13191362 -0.2594726
0003b0 9e 8e f8 3d 86 19 17 3e cd 40 a6 3e 1c 8a d2 bd
       0.12136577 0.1475583 0.32471314 -0.102802485
0003c0 10 d0 1e 3e 9a fc b1 be d3 d1 9d be 53 ad 77 be
       0.15509057 -0.34763032 -0.30824146 -0.24187212
0003d0 3a 73 cd bd f3 b0 4e be 71 a4 94 be d9 d7 a3 be
       -0.10031743 -0.20184688 -0.2903171 -0.32000616
0003e0 0e 95 6e 3e 25 04 8a bd d0 ff f5 3d 9f a9 8c 3e
       0.23299047 -0.06739072 0.12011683 0.2747316
0003f0 d4 bc d9 3e 8d ac bc be 73 f0 95 3e 19 8a 80 3e
       0.42526877 -0.36850396 0.2928501 0.2510536

value_stream.0.bias f4 [128]
000000 a6 68 6b bf cb d6 53 bf ea 96 35 bf eb c4 95 bf
       -0.91956556 -0.82749623 -0.709334 -1.170072
000010 0c 49 8d bf 83 eb 95 bf 6b 5d 02 3f 86 0a 94 3f
       -1.1037917 -1.1712497 0.50923795 1.1565711
000020 48 31 98 bf 4d f2 90 bf 79 42 97 bf 02 8b 97 bf
       -1.189004 -1.1323944 -1.1817161 -1.1839297
000030 8a e7 96 bf 13 d1 83 3f 86 6a 93 bf 8c f2 97 bf
       -1.178941 1.0298179 -1.1516883 -1.1870894
000040 b9 35 5f bf 21 74 93 3f 64 49 82 bf f4 a3 97 bf
       -0.8719135 1.1519815 -1.0178647 -1.184691
000050 61 90 0e be 34 33 55 bf 3c 56 4e 3f 21 8a 97 bf
       -0.13922264 -0.83281255 0.80600333 -1.1839029
000060 62 65 87 bf 41 b8 94 3f 29 40 3a bf eb 94 8b bf
       -1.0577815 1.161873 -0.7275415 -1.0904821
000070 4f 0c 97 bf bd e2 3e bf 8f f3 94 bf 17 a7 91 3f
       -1.1800631 -0.74564725 -1.1636828 1.1379117
000080 e9 62 96 3f 25 e5 92 3f 67 a6 92 bf f1 6e 8e bf
       1.1748935 1.1476179 -1.1457032 -1.1127607
000090 77 fb 93 3f 07 6b 68 bf 0b 16 88 bf fd 2e 81 bf
       1.1561116 -0.9078831 -1.0631727 -1.0092465
0000a0 17 b7 8e bf 82 3c 91 bf 34 69 93 3f a3 90 7f 3f
       -1.1149625 -1.134659 1.151648 0.99830073
0000b0 4f 84 8e bf 1d b9 30 bf 88 75 8a bf a5 bc 90 bf
       -1.1134127 -0.6903246 -1.0817118 -1.130757
0000c0 99 55 93 bf 7d 26 95 bf 93 15 93 3f 2c 79 90 bf
       -1.1510497 -1.1652371 1.1490959 -1.1286979
0000d0 32 cc 98 bf 7e bc 94 bf 4e 42 98 bf bb e2 27 3f
       -1.1937315 -1.1620023 -1.1895235 0.6558034
0000e0 2f 0d 94 bf 48 18 96 bf 87 1f 93 3f 82 13 98 bf
       -1.1566523 -1.172616 1.1493996 -1.1880953
0000f0 36 6d 96 3f 70 21 0f 3f 64 50 93 bf 90 09 97 bf
       1.1752079 0.55910397 -1.1508908 -1.1799793
000100 35 89 7f 3f 19 2c 90 bf 61 de 96 bf 0b db 93 bf
       0.99818736 -1.1263458 -1.1786615 -1.1551222
000110 4f db 87 bf 63 77 8e bf 40 d0 93 3f e4 76 76 3e
       -1.0613803 -1.1130184 1.1547928 0.2406879
000120 d7 e4 70 bf 15 cb 9b bf 71 e0 4f bd 63 49 98 bf
       -0.9409918 -1.2171351 -0.050751153 -1.1897396
000130 6a e1 1b bf 73 a2 95 3f 69 fb 93 3f 3a a4 98 bf
       -0.6089083 1.16902 1.1561099 -1.1925118
000140 5a 10 96 bf 45 57 94 bf 23 35 95 bf 3c f8 f6 be
       -1.172374 -1.1589133 -1.1656841 -0.48236263
000150 f8 dc 93 bf d6 b5 99 bf ed 52 96 3f 6a 19 96 bf
       -1.1551809 -1.2008617 1.1744057 -1.1726506
000160 63 ac 8f bf 4a ce 8f 3f de 50 94 bf 27 55 1a bf
       -1.1224483 1.123483 -1.1587179 -0.6028618
000170 fb 4b 94 bf 55 51 94 bf 72 2a 01 bf 32 18 20 3f
       -1.1585687 -1.158732 -0.5045539 0.6253692
000180 0d 48 96 bf d6 16 84 bf c6 f1 96 bf 0e 8c b5 be
       -1.1740738 -1.0319469 -1.1792533 -0.35458416
000190 8a ea ef be f2 d3 8e bf 1b a9 96 bf fc 9e 7e 3f
       -0.46858627 -1.115843 -1.1770357 0.9946134
0001a0 be 76 6c 3f 77 59 9a bf 1e bb 8f bf b0 61 97 bf
       0.92368686 -1.2058553 -1.1228979 -1.1826687
0001b0 a5 a1 95 bf b5 b2 96 bf d2 ba 01 3e fa c9 93 3f
       -1.1689955 -1.1773287 0.12668923 1.1546013
0001c0 d2 15 1d 3f b5 b1 92 bf 1e c7 98 bf 0a cc 3c 3f
       0.6136142 -1.1460482 -1.1935766 0.7374884
0001d0 74 13 95 3f 46 ea 92 bf 6e 5e 4e bf b4 3d 06 bf
       1.1646562 -1.1477745 -0.8061284 -0.524379
0001e0 9a 45 91 bf 72 5b d1 3e 2e 56 36 bf 7f fb 32 bf
       -1.1349366 0.4089008 -0.7122525 -0.69915
0001f0 04 dc 4b bf c1 0f f5 bd 9f b4 95 bf 45 05 95 3f
       -0.7963259 -0.119658954 -1.1695746 1.1642233

value_stream.2.weight f4 [1, 128]
000000 d4 96 0e be 89 17 3c be 13 2d ad bc c8 c0 54 be
       -0.13924724 -0.18368353 -0.021139657 -0.20776665
000010 96 74 4a be 9b 75 57 be 68 77 0a 3d 9c 78 56 3e
       -0.19771037 -0.21040957 0.03380528 0.20944446
000020 5a 88 5e be 0f 29 36 be 68 20 5a be e8 97 5d be
       -0.21731701 -0.177891 -0.21301425 -0.21639979
000030 f0 41 55 be cc 7a 15 3e 70 dc 3a be da d1 5a be
       -0.20825934 0.14597625 -0.18248153 -0.21369115
000040 20 ac 84 be 86 15 53 3e e9 b5 fb bd e5 66 56 be
       -0.2591257 0.2061368 -0.12290556 -0.20937689
000050 2c 18 41 bd d0 19 76 bd a5 f8 0c 3e ed 49 5a be
       -0.047142193 -0.06008321 0.13766725 -0.21317263
000060 5d bf 66 be 09 43 59 3e d6 81 cf bc 06 ef 2b be
       -0.22533937 0.21216978 -0.025330465 -0.16790399
000070 2b 8f 58 be b9 c9 b5 bc a8 66 4b be b2 1f 49 3e
       -0.21148364 -0.022190915 -0.19863379 0.19640997
000080 15 58 60 3e 63 02 4d 3e 2e c7 46 be b0 11 4a be
       0.219086 0.20020442 -0.19411919 -0.1973331
000090 64 a5 55 3e 3b 9c 4f be ee 07 28 be 8b 74 35 be
       0.20863873 -0.20274441 -0.16409275 -0.17720239
0000a0 c4 ce 35 be fb 53 2f be 5f a2 52 3e 7d 71 4c 3e
       -0.17754656 -0.1712188 0.20569752 0.19965167
0000b0 45 bb 4f be f0 de 2b be b6 49 42 be fc 60 34 be
       -0.20286281 -0.16784263 -0.18973431 -0.17615122
0000c0 ea 4c 3b be 3a b0 4c be 36 86 58 3e 06 a0 2a be
       -0.18291059 -0.199891 0.21144947 -0.16662607
0000d0 20 3e 61 be 22 d6 52 be b6 ae 59 be 7e a6 fb 3e
       -0.21996355 -0.20589498 -0.21258053 0.4915046
0000e0 27 f9 31 be d7 31 4f be 42 52 51 3e 65 54 47 be
       -0.173802 -0.20233856 0.20441535 -0.19465788
0000f0 20 ed 60 3e 77 83 06 3f dc 8a 3e be 97 69 55 be
       0.21965456 0.5254435 -0.18607658 -0.2084106
000100 4c 7d 25 3e df 91 47 be 31 7f 57 be d2 ee 3d be
       0.16161078 -0.19489239 -0.21044613 -0.18548134
000110 d6 a7 0f be 85 98 2e be 56 25 55 3e 8f e2 3e be
       -0.14028868 -0.17050369 0.20815024 -0.18641113
000120 ac a6 0a be 5b 23 69 be 0b b4 27 3e d4 76 5b be
       -0.13540143 -0.22767393 0.16377275 -0.21432048
000130 e0 4c 33 be 85 e6 5c 3e 40 d9 55 3e 8a d7 5c be
       -0.17509794 0.21572311 0.20883656 -0.21566597
000140 f8 2b 4e be 1e 97 41 be d7 1e 46 be 92 ba 4d be
       -0.2013396 -0.18905303 -0.19347702 -0.20090702
000150 00 01 4a be 05 d4 63 be 02 4e 60 3e bc 1c 43 be
       -0.19726944 -0.22248848 0.21904758 -0.1905393
000160 a2 d2 4a be d2 2b 4a 3e 48 99 46 be 84 84 01 bd
       -0.19806913 0.19743279 -0.1939441 -0.031620517
000170 a1 af 52 be ce 39 4c be 31 47 f3 bd 1c 45 de 3d
       -0.2057481 -0.19943926 -0.11878813 0.10853025
000180 b6 b9 52 be 38 ae 2e be 75 75 55 be ea f0 89 bd
       -0.20578656 -0.17058647 -0.20845588 -0.06735404
000190 c6 5e 4c be 6a 2d 43 be ba d0 55 be 4e a9 32 3e
       -0.19958028 -0.19060293 -0.20880404 0.17447397
0001a0 e2 ad 1c 3e f8 56 57 be b6 d1 77 be 7a 80 5f be
       0.15300706 -0.2102927 -0.24201092 -0.21826354
0001b0 f2 31 45 be 0b c1 52 be af 9d a3 3c b1 a2 5b 3e
       -0.19257334 -0.20581453 0.01997265 0.2144878
0001c0 a3 90 0c 3f db 32 45 be 8c b8 5e be 02 db bb 3d
       0.549082 -0.19257681 -0.21750087 0.09172632
0001d0 91 a7 5a 3e c1 01 56 be e1 59 2f bd 9b 8f 14 be
       0.21352984 -0.20899107 -0.042810325 -0.14507906
0001e0 7f 50 26 be 7e 59 48 3d 03 05 59 be 51 8f 2f be
       -0.16241644 0.04891347 -0.21193318 -0.17144515
0001f0 71 54 04 be 33 9d ce bd a5 21 52 be 79 c0 59 3e
       -0.12922837 -0.10088577 -0.20520647 0.21264829

adv_stream.0.weight f4 [128, 128]
000000 ea 39 f1 3c 50 0a 79 bd 86 24 ae 3e 86 84 d9 be
       0.02944656 -0.06080085 0.3401224 -0.4248392
000010 1d e8 7c 3e c4 80 51 3e c3 74 45 3e 7f f5 5c 3e
       0.24697919 0.20459276 0.19282822 0.21578024
000020 02 b5 72 3e 25 36 60 3e 28 29 7d 3e 34 cc 6e 3e
       0.23701862 0.21895654 0.24722731 0.23320085
000030 b0 82 b2 3d f3 fe 1d 3f f9 75 65 3e e5 44 fd be
       0.08716333 0.61717147 0.22408284 -0.49466625
000040 a2 cb ab 3e cb 0d cc bd b9 9e 13 be e0 70 d9 bd
       0.33553797 -0.09963568 -0.14416017 -0.10617232
000050 63 bc 9b 3d 39 c2 aa 3e 6e bc 0d 3e 57 1b 6b 3e
       0.07604291 0.33351305 0.13841411 0.22959648
000060 cf 15 72 3e 6a 84 7f 3e 65 62 85 be 44 46 74 3e
       0.23641132 0.24952856 -0.26051632 0.23854929
000070 b4 05 84 3e 18 ba 5d 3e 20 75 61 3e cb e2 88 3e
       0.257856 0.2165302 0.22017336 0.2673553
000080 72 35 95 3e 27 ff 2c bd 61 98 30 3e 4a 51 55 3d
       0.29142338 -0.04223552 0.17245628 0.052079476
000090 60 f5 31 bf 24 82 79 3e 56 88 5a be f8 a9 e9 3b
       -0.6951504 0.24366051 -0.2134107 0.0071308576
0000a0 f7 d7 b6 3c 9a 30 4e be 42 5e a4 3d d6 21 55 3e
       0.022319777 -0.20135728 0.08025791 0.20813689
0000b0 8a 3e 9d bd da 54 01 be 33 f9 4f 3c e8 ac 1b 3d
       -0.07677944 -0.12630025 0.012693691 0.038006693
0000c0 37 af 93 bc 8d fb 56 3e d5 ca 6a bb 15 0a 65 3e
       -0.018027885 0.20994397 -0.0035826464 0.22367127
0000d0 14 97 47 be 55 53 60 3c bf 0b 44 3d 3c a4 ee b9
       -0.19491225 0.013691743 0.047862764 -0.00045517262
0000e0 f8 f4 a2 3c 33 38 19 3e b0 81 6d 3e ea 56 a5 3e
       0.0198922 0.14962845 0.23194003 0.32292873
0000f0 a7 bf 90 3e 26 76 53 3e 34 95 f2 bd 1d 0c 8a 3e
       0.2827122 0.20650539 -0.118448645 0.26962367
000100 5f e1 69 3e 79 ea e1 bd b2 42 a0 be e7 b2 58 3e
       0.22839878 -0.1103105 -0.31300884 0.21161996
000110 8b 80 65 3e ec 2e 81 3e 0f 1c be bd 7e 81 6d 3e
       0.22412317 0.2523111 -0.092826955 0.23193929
000120 7d 49 0b 3e 72 fb 25 3b 19 05 85 3e 0f 26 79 bc
       0.13602252 0.0025326875 0.25980452 -0.015206828
000130 f4 16 e8 3d ad 37 1d 3e c2 8e 1c bd 6a 5e 3e bf
       0.11332503 0.1535327 -0.038222082 -0.74362814
000140 2e d9 14 3d 51 5f 6e be f5 8a 86 3e 21 fe 26 bd
       0.03633993 -0.23278548 0.2627789 -0.0407697
000150 b5 d9 62 3e 2f b0 b3 3e 39 77 ca 3e 0d 65 73 3e
       0.22153361 0.35095355 0.39544085 0.23769017
000160 f7 e7 61 3e ee ed 9a 3e 00 44 2b be ae bb 6c be
       0.22061144 0.3025965 -0.16725159 -0.23118469
000170 9e 76 7c bc fa c5 95 be b5 75 f5 bb 51 f1 aa bd
       -0.01540914 -0.29252607 -0.0074908384 -0.08346809
000180 be 33 34 3e e4 f2 8a 3e f7 b5 8d 3e 5f 5b 79 3e
       0.17597863 0.27138436 0.2767789 0.24351262
000190 34 a5 67 3e 36 1c 5d 3e cb e6 a9 bd 38 c0 66 3e
       0.22621614 0.21592793 -0.082959734 0.22534263
0001a0 3d 2f 89 3e ee 1a 64 3e 41 67 99 3d b2 e4 0a be
       0.26793852 0.22275898 0.07490397 -0.13563803
0001b0 ed 06 5e 3e 7a 2b 4c 3e da 2f 66 3e 3a 67 9c 3c
       0.2168233 0.1993846 0.22479191 0.019092191
0001c0 0f 63 82 3e e5 ee 64 3d 37 89 8c 3e ba 85 6d be
       0.254662 0.05589189 0.27448437 -0.23195544
0001d0 d6 a1 98 be 4e 77 fa be 85 fb 98 3e 13 9d 23 bd
       -0.2981097 -0.48919147 0.29879394 -0.03994472
0001e0 a5 92 84 3e 55 4b 2d 3e c2 58 87 3e 8a 19 80 3e
       0.2589313 0.16923268 0.26434904 0.25019485
0001f0 b3 4a dd 3d ad 74 38 be 6c b5 56 3d ce 60 90 3e
       0.10805263 -0.18013258 0.05241911 0.28198856
000200 6d d7 9a 3b 19 7d e5 3d 54 c7 91 be 58 03 1c be
       0.004725388 0.11205501 -0.28472388 -0.1523565
000210 92 37 31 bd 1a 59 49 3d 96 40 1d be 9b be 3c 3c
       -0.043265887 0.04915724 -0.15356669 0.011520053
000220 ec e5 3d 3c d6 a9 77 3d 18 63 c1 bd ce 0e 60 bd
       0.011590462 0.060464703 -0.09442729 -0.05470162
000230 97 db 2e be 78 0c 18 3f 9f 59 a4 3c 0a a7 94 be
       -0.17075954 0.59394026 0.020062266 -0.2903369
000240 75 96 b6 3e 66 6b ff bb b6 07 dd 3c d9 ea 16 be
       0.35661665 -0.0077947853 0.026981216 -0.14738025
000250 64 06 35 be ea 18 b1 3d 00 6c a3 3e 94 b6 ea 3a
       -0.17678219 0.0864733 0.31918335 0.0017907196
000260 e6 24 fb bb 8f 7d 65 bc 30 4a 4d be 21 0f ca bc
       -0.0076643107 -0.014006986 -0.20047832 -0.024665417
000270 11 ae a7 3e c6 ec eb 3c 46 0a 2f 3d dd c5 2e 3e
       0.3274999 0.028799426 0.042734407 0.17067666
000280 a1 05 a3 bd aa 77 02 be f9 9a 02 be 2e 37 ea 3c
       -0.07960058 -0.1274096 -0.1275443 0.028590765
000290 ff 74 ad be 32 7f 42 3c af d6 dc 3d 86 b6 da 3c
       -0.33878323 0.011871146 0.10783135 0.026698362
0002a0 f0 62 c9 bc 24 a2 48 3e 52 22 db 3d 0f 41 7f 3c
       -0.02458331 0.19593102 0.106999055 0.015579476
0002b0 73 63 78 3b e3 46 94 be 87 47 c6 bd 1a d3 72 3e
       0.0037901073 -0.28960332 -0.096816115 0.23713341
0002c0 7f 7c 77 3d ac fd 21 3d b3 99 a1 3d c0 c1 0d 3d
       0.060421463 0.03954856 0.07890644 0.034608603
0002d0 4e 7a 66 3e c6 db 98 be 52 4f b3 3c 62 9a ad bc
       0.22507593 -0.29855174 0.021888409 -0.02119178
0002e0 85 ca b8 bd 67 4f 55 bd bd 47 32 3d 60 63 ad bd
       -0.090230025 -0.052077677 0.043525446 -0.0846622
0002f0 bb 4d 15 3e d1 a5 33 3d cd 79 ad 3e b8 1d 1c 3d
       0.14580433 0.043859307 0.3388199 0.03811428
000300 7e 5a 27 3c 0e b9 07 3d a7 15 36 bc 45 5c 3b be
       0.010214446 0.033135466 -0.011113561 -0.18296917
000310 2a eb 6c bc 3b 22 9a bc a5 fa 75 be 49 8a 95 3c
       -0.014460364 -0.01881515 -0.24021395 0.018254416
000320 b9 42 1a bd f8 b1 44 3e b0 5c b9 bc 23 16 e6 bd
       -0.037661288 0.19208515 -0.022627205 -0.11234691
000330 07 b0 44 bd 88 b9 de 3c bc 7b b1 3c e9 2a 6a bf
       -0.048019435 0.027188078 0.021665446 -0.91471726
000340 64 b2 01 bb 91 0e 8d bc f3 2c 87 bd bd 23 09 be
       -0.0019790167 -0.01721886 -0.0660037 -0.1339254
000350 85 81 f4 3d ce 6e ea bb 3b 77 b9 3d 86 56 b5 3c
       0.119387664 -0.007154322 0.090559445 0.022135984
000360 bd 67 5d 3d 17 bb dd bd 03 33 08 be 1e 3a bb bc
       0.05405401 -0.108267 -0.1330071 -0.02285486
000370 71 08 3f 3d d9 23 de 3b 26 2f a8 3d 90 39 5a 3b
       0.04663891 0.0067791757 0.08212118 0.003329847
000380 a5 b6 e7 3c f4 ef c1 3e 34 b2 db 3b 18 55 41 bd
       0.028285334 0.37878382 0.006704593 -0.047200292
000390 c0 d9 78 be 72 05 a4 bd 78 b3 c4 bd ec 9c 1c 3d
       -0.24301815 -0.08008851 -0.096045434 0.03823559
0003a0 4b 86 d4 3d fd f3 47 3d 80 99 11 bd 39 07 bd bd
       0.10377177 0.04881667 -0.03554678 -0.09229893
0003b0 34 4e a5 3b a3 bb 53 3d c6 49 1d be 80 4c d4 be
       0.005044723 0.051692616 -0.15360174 -0.41464615
0003c0 f6 30 19 3d 18 2e 03 be df a1 8c 3e f2 79 aa bc
       0.03740021 -0.12810552 0.27467248 -0.020810101
0003d0 a9 1c 8e be e5 9c 3a be f9 9e 36 be 64 4b 6d 3e
       -0.2775624 -0.18223913 -0.17834081 0.2317329
0003e0 c8 b9 2f bd 22 66 93 bc e0 de 5e bc 4d 98 af bd
       -0.042901784 -0.017993037 -0.013602942 -0.08573971
0003f0 c7 b5 ad be f5 6c d5 bd e0 0a 3f be 0e 5e 3c bb
       -0.33927748 -0.104211725 -0.18656492 -0.0028742584

adv_stream.0.bias f4 [128]
000000 4d 9f 24 3e 72 4e 7b 3e 86 b5 28 3e 33 2d 86 bd
       0.16076393 0.24541643 0.16475496 -0.0655159
000010 92 48 d5 bd d7 a8 7e 3b 1d 84 5c 3e 0b 9b b0 3e
       -0.10414232 0.003885796 0.21534772 0.34493288
000020 ec de db be 2c 95 42 be d2 40 ab 3d f8 40 e8 3e
       -0.42943513 -0.19002217 0.08361973 0.45362067
000030 f2 6c f6 3d d2 e1 24 3d c6 1d 6e 3e ac b0 c3 3e
       0.120324984 0.04025442 0.23253545 0.38220727
000040 50 3f dc 3e c9 a8 90 3e b0 45 07 3f 3c 64 8a bd
       0.43017054 0.28253773 0.5284071 -0.067573994
000050 05 c1 6b 3e 40 b3 a6 3e e5 cc 36 3e b9 0d 52 be
       0.2302285 0.32558632 0.17851599 -0.20513047
000060 da b8 3f 3e 17 9f 45 3d 6e 7f 92 bd 57 36 97 3d
       0.18722859 0.048247423 -0.071532115 0.073834114
000070 11 63 d9 bd 86 28 b1 bd 4c 95 b4 3e 49 84 f3 3b
       -0.106145985 -0.08650307 0.35270154 0.007431541
000080 1f 87 57 3d d3 89 48 3e 5a 42 4f be 6b be 05 bd
       0.052619096 0.19583826 -0.20240155 -0.0326523
000090 df 31 81 3e 7f 22 34 3d 61 7a 91 ba a1 0c c8 bd
       0.2523336 0.04397821 -0.0011099094 -0.09768034
0000a0 f6 76 1b 3e 7f 39 d8 3d a7 b4 06 3d 7f f5 26 be
       0.15182099 0.105578415 0.032887127 -0.16304587
0000b0 a3 1a 21 be 67 df b8 bd 14 34 83 3e a2 e4 43 3d
       -0.15732817 -0.090269856 0.2562567 0.047825463
0000c0 e6 3c 67 be 9c 8b e2 bd d8 62 a6 3e f1 c5 bc 3e
       -0.22581825 -0.110617846 0.32497287 0.36869767
0000d0 4b b2 c8 bd 9c b2 4b 3d f6 86 ac 3e 5e 55 63 3e
       -0.09799632 0.049730882 0.33696717 0.22200534
0000e0 c4 ae 81 3e 09 9c a6 3e 24 25 04 3d f8 99 91 3e
       0.25328648 0.3254092 0.032261983 0.2843778
0000f0 a8 11 cc bc af e8 2b 3d a9 d2 4c 3e 18 7c 7e 3e
       -0.024910763 0.04196995 0.20002235 0.24852026
000100 be d8 c5 bd 27 d7 01 3f 1c f7 2d 3e 2f 4e 91 be
       -0.09660481 0.5071892 0.16988796 -0.28379962
000110 17 37 a3 be 84 2c b5 3e 41 1c 1a bd a9 4d 22 be
       -0.31877968 0.35385525 -0.0376246 -0.15849937
000120 bb b6 4e 3e 72 cc a6 3d 82 d4 85 bd c8 e1 2f 3e
       0.20186894 0.081444636 -0.06534673 0.17175972
000130 d6 00 00 bd bf cc 0a 3e c3 9b 11 be 0a 3e c8 3e
       -0.031250797 0.13554667 -0.14219575 0.39109832
000140 22 36 33 be f3 b0 89 3e 83 22 e9 3e cf 1c c0 be
       -0.17501119 0.26892814 0.45534143 -0.3752198
000150 ec 5b 9f 3e 6d 2f f0 bc 61 a5 e7 3d 69 78 16 bc
       0.31124818 -0.02931949 0.113108404 -0.009183981
000160 6a a0 bc 3e 07 e5 ad 3e f0 7e d5 3e 85 f7 02 3d
       0.36841136 0.33963796 0.41698408 0.031974334
000170 5e 06 f7 3d c7 2f 42 be d8 c0 2e bd 8c 0c 25 be
       0.12061761 -0.18963538 -0.04266438 -0.16118068
000180 9f 9b 7a 3e d5 71 e7 3d 18 7b 81 3e dc 4f 7b 3e
       0.24473427 0.113010086 0.25289226 0.24542183
000190 7c aa 84 be 0e a6 8b bd 59 7e eb 3d 57 a4 0a bd
       -0.2591132 -0.06818782 0.11498708 -0.033848133
0001a0 30 2b 64 be 08 35 da bc 92 63 0f be 50 f4 ff 3b
       -0.222821 -0.026636615 -0.14002827 0.0078111067
0001b0 4a 8f 20 be a0 20 0a 3f cc fb 48 3e 98 31 3c 3d
       -0.1567966 0.5395603 0.19627303 0.045945734
0001c0 22 7b 1e 3e d5 4c 7f 3c 0a 20 32 3e 92 ad 5b be
       0.15476659 0.015582283 0.17395034 -0.2145293
0001d0 f8 4d b1 3d 3a 55 03 be 97 17 1e be 7b 50 49 3d
       0.086574495 -0.1282548 -0.15438686 0.049149018
0001e0 0c d7 36 3c a1 00 0c 3c 28 45 02 3d b0 58 d2 bd
       0.01115967 0.008545072 0.031804234 -0.10270822
0001f0 88 42 a7 3e 14 04 2e 3e 7c d9 29 3e 56 7b a8 3d
       0.32667947 0.16993743 0.1658687 0.082266495
