dqn_model_player_0.pth (torch, 840162 bytes, 44 tensors)

feature_layer.0.weight f4 [128, 6]
0	0x3e0f06e0	0.13967466
1	0x3bacc127	0.005272049
2	0x3d838dca	0.064235285
3	0x3bfe793e	0.007765918
4	0xbe827d32	-0.2548614
5	0xbf4b6879	-0.7945629
6	0xbe14b644	-0.14522654
7	0x3e6870bc	0.22699255
8	0xbc0eb444	-0.008709971
9	0x3e6d4285	0.23169906
10	0xbe0572d2	-0.13032082
11	0xbf15cfc7	-0.5852017
12	0x3d4052f2	0.046954103
13	0x3e788b88	0.24271977
14	0x3d81695a	0.06318922
15	0x3daccd5a	0.08437605
16	0xbe2008ea	-0.156284
17	0x3b18f5c4	0.0023339847
18	0x3edbbabe	0.4291591
19	0x3dd92fb7	0.10604804
20	0xbcec6605	-0.02885724
21	0xbd4ad0ea	-0.049515642
22	0xbda31802	-0.079635635
23	0xbec4f936	-0.38471383
24	0x3e8065f9	0.250778
25	0x3e4ee848	0.20205796
26	0xbe134d3a	-0.14384928
27	0x3d72618d	0.059175063
28	0xbf1a240e	-0.60211265
29	0xbe81fe02	-0.25389105
30	0x3d1cb279	0.038256142
31	0xbd403958	-0.046929687
32	0x3d9d18d3	0.076707505
33	0x3ddd2fdc	0.10800144
34	0xbfa2a90e	-1.2707841
35	0x3e9b882b	0.30377325
36	0xbdac5bce	-0.08415948
37	0x3e7e73b2	0.24848822
38	0xbde7e531	-0.11323012
39	0xbe041e56	-0.12902197
40	0xbf147bcd	-0.58001405
41	0x3e187a72	0.14890459
42	0x3d9ce0ef	0.0766009
43	0xbd87dbd8	-0.06633729
44	0x3e12bbf2	0.14329508
45	0x3e09e7eb	0.13467376
46	0xbf4559d1	-0.77090174
47	0x3e4eeab2	0.20206717
48	0x3d653648	0.05595997
49	0x3d700d80	0.058606625
50	0xbd552009	-0.052032504
51	0xbd1c3ee9	-0.038145933
52	0xbecd8c9c	-0.4014634
53	0xbc586261	-0.013207049
54	0xbc000cd1	-0.007815556
55	0x3c69598f	0.014242544
56	0x3c2480ae	0.010040445
57	0xbd430a7f	-0.04761743
58	0xbdbac86d	-0.091202594
59	0xbebcd5d6	-0.36881894
60	0xbc4ec5e0	-0.012620419
61	0x3ceea722	0.02913243
62	0x3d333b67	0.043757822
63	0xbd2d9b08	-0.042384177
64	0xbec185b9	-0.37797335
65	0xbef5b4de	-0.47989553
66	0xbd3c3e3f	-0.0459578
67	0x3c8c49b2	0.017124984
68	0x3e012f28	0.12615645
69	0x3cef23fe	0.029191967
70	0x3d28b906	0.041192077
71	0xbee77f34	-0.45214236
72	0x3d5c05f3	0.05371661
73	0x3dde0eb1	0.10842646
74	0xbdd606d4	-0.10450521
75	0x3cd40a3b	0.025883785
76	0xbc391962	-0.011297556
77	0xbeeda678	-0.46416068
78	0xbab8d9d6	-0.0014103006
79	0x3d267ae7	0.040644553
80	0x3da5aa66	0.080891415
81	0x3cf0fa56	0.029416244
82	0xbd6152cb	-0.0550106
83	0xbf1bf076	-0.6091379
84	0x3ad8ac0a	0.0016530764
85	0x3c5596fe	0.013036488
86	0x3d2281d5	0.0396746
87	0x3c45f83b	0.012083109
88	0xbf4ca503	-0.7993929
89	0xbe1795ce	-0.1480324
90	0x3e1c19a3	0.15244155
91	0x3e3ba8b6	0.18326077
92	0xbbf02803	-0.0073289885
93	0xbd392f36	-0.04521104
94	0xbdab04d1	-0.08350528
95	0xbf2c6cdb	-0.673536
96	0xbd034992	-0.032052584
97	0x3d25f5be	0.04051756
98	0x3dc5c347	0.09656387
99	0xbd3cf8ed	-0.04613583
100	0xbefa061e	-0.48832792
101	0xbe440f78	-0.19146526
102	0x3e510592	0.20412281
103	0x3da69108	0.08133131
104	0x3d808717	0.06275766
105	0x3d3afb3c	0.045649752
106	0x3e057faf	0.13036989
107	0xbf010ac5	-0.5040706
108	0xbd871034	-0.065948874
109	0x3d5504c6	0.052006505
110	0xbe2405be	-0.16017815
111	0xbdbba363	-0.09162023
112	0xbf2b0c28	-0.66815424
113	0x3ef0a04f	0.46997306
114	0x3d00c489	0.03143743
115	0xbdd1c2fa	-0.10242267
116	0x3d874d68	0.06606561
117	0x3dff479d	0.12464831
118	0xbe848d58	-0.25889087
119	0xbec57c27	-0.38571283
120	0xbd263210	-0.040575087
121	0x3cfb5ab2	0.030682895
122	0xbe1bf4a7	-0.15230046
123	0xbdd0248b	-0.1016322
124	0x3e90d1e5	0.28285137
125	0x3efb538a	0.49087173
126	0x3e8860d0	0.26636362
127	0x3d40e2fb	0.047091465
128	0xbe0fb565	-0.1403404
129	0xbdfcc1b0	-0.123416305
130	0xbf866c11	-1.0501729
131	0x3d0c7cb5	0.034298617
132	0xbbb9ebf7	-0.005673881
133	0x3c5c3ae0	0.013441771
134	0x3cfc26e5	0.030780265
135	0xbca13e31	-0.019682975
136	0xbe1665ec	-0.14687318
137	0xbeda4bb5	-0.42635885
138	0x3e944d02	0.28965002
139	0x3e2a7685	0.16646774
140	0x3d76f355	0.060290653
141	0xbdbfd980	-0.09367657
142	0x3edf3354	0.43593848
143	0x3f22472e	0.6338986
144	0x3d978a3e	0.073994145
145	0x3e2f9dcc	0.17150038
146	0xbd8b3a32	-0.06798209
147	0xbdd6b247	-0.104832225
148	0xbdd5261f	-0.10407662
149	0xbf552015	-0.8325208
150	0x3dca064e	0.09864484
151	0x3e12ee26	0.14348659
152	0x3dd258c7	0.10270839
153	0xbcbcee74	-0.023062922
154	0x3b572eeb	0.0032834362
155	0x3e295f14	0.16540176
156	0xbd3c2344	-0.04593207
157	0xbc75fa33	-0.015013265
158	0x3e9bbbff	0.30416867
159	0x3e1391b3	0.14411049
160	0x3e85385c	0.2601956
161	0xbf56dc53	-0.8392994
162	0xbc115cc2	-0.008872213
163	0xbd19ee9a	-0.037581064
164	0x3da2d0dc	0.07949993
165	0xbda953c6	-0.08267932
166	0xbedb5d6e	-0.4284472
167	0xbf065b7e	-0.52483356
168	0x3ccca0cc	0.024979018
169	0xbc9acd49	-0.018896716
170	0xbc08776c	-0.008329254
171	0xbc8d228e	-0.017228391
172	0xbe14f1ca	-0.1454536
173	0xbe94f131	-0.29090264
174	0xbd9a6430	-0.075386405
175	0x3d991072	0.0747384
176	0x3e95cb0a	0.2925647
177	0x3da4c237	0.08044856
178	0x3ead13b7	0.33804104
179	0x3d81815e	0.06323503
180	0x3df42cda	0.11922617
181	0x3e06cef9	0.13164891
182	0xbdc4fd9d	-0.096186854
183	0xbe658c25	-0.22416742
184	0x3e83aef0	0.25719404
185	0xbe897e34	-0.26854098
186	0x3f238e36	0.6388887
187	0x3b54d9bf	0.003247842
188	0xbd6c799e	-0.05773317
189	0x3c305370	0.010762081
190	0xbf28e5bd	-0.6597555
191	0xbec3f6b5	-0.3827416
192	0x3ddcc453	0.107796334
193	0xbe293f90	-0.16528153
194	0x3c944033	0.018097019
195	0x3cc54a0f	0.024083165
196	0x3ee8f7bd	0.4550151
197	0xbe246b33	-0.16056518
198	0xbdb005d2	-0.0859486
199	0xbd2b8aec	-0.041880533
200	0x3da34b71	0.07973374
201	0x3d696da5	0.05698933
202	0xbd626ec5	-0.05528142
203	0xbfc6dbd9	-1.5535842
204	0x3e351b4e	0.17686197
205	0x3e776251	0.24158598
206	0x3e021ca3	0.12706237
207	0xbdfe86a4	-0.124280244
208	0x3eb338e6	0.35004348
209	0x3f132d4b	0.57490987
210	0x3d10b2f2	0.035326906
211	0x3da96f7d	0.08273218
212	0xbe5d9900	-0.21640396
213	0xbddd867d	-0.10816667
214	0xbd57ca4c	-0.05268316
215	0xbc6c7fa7	-0.014434732
216	0xbd88c22f	-0.066776626
217	0x3da25097	0.079255275
218	0x3ea1ef2d	0.3162779
219	0xbdecc1d1	-0.11560405
220	0xbdc59e80	-0.09649372
221	0xbf02b847	-0.51062435
222	0xbd9fcd11	-0.07802785
223	0x3e4a057a	0.19728652
224	0x3d08ef22	0.03343118
225	0xbe0d603c	-0.13806242
226	0xbe749ad9	-0.23887195
227	0xbf6964ca	-0.91169417
228	0x3e6da03b	0.23205654
229	0x3df67693	0.12034335
230	0xbd9f2cf0	-0.07772243
231	0xbd7cd54e	-0.06172686
232	0xbc86b409	-0.01644327
233	0xbf33ae0b	-0.70187443
234	0x3dde55f0	0.10856235
235	0xbdcfac97	-0.10140341
236	0x3d184741	0.037177328
237	0x3d90ef54	0.07076898
238	0xbedd0b34	-0.4317261
239	0xbf1b208f	-0.60596555
240	0xbbb960ff	-0.005657315
241	0x3db66f9d	0.08908007
242	0xbe026f14	-0.12737685
243	0xbe4c67bb	-0.19961445
244	0xbea182ac	-0.31545007
245	0xbef88baa	-0.48544055
246	0x3dca8d9d	0.09890292
247	0x3c850fb8	0.016242847
248	0x3db55aac	0.08855185
249	0x3c7a1a00	0.015264988
250	0xbd981a32	-0.07426871
251	0xbefe2bc4	-0.49642766
252	0xbaf66704	-0.0018799012
253	0x3c98629f	0.018601714
254	0x3c3b6bc4	0.011439268
255	0xbcc10c6f	-0.0235655

feature_layer.0.bias f4 [128]
0	0xbe3e846c	-0.18605202
1	0xbeb123d1	-0.34597638
2	0xbeb65e5d	-0.35618868
3	0xbf0b80ad	-0.5449322
4	0xbe4c9b62	-0.19981149
5	0xbe7f99de	-0.2496104
6	0xbe601d8c	-0.21886271
7	0xbebb69ff	-0.36604306
8	0xbeafd9d2	-0.3434587
9	0xbedb5018	-0.42834544
10	0xbee50f1f	-0.447381
11	0x3ddebecb	0.108762346
12	0x3eaddf0b	0.3395923
13	0xbe3de6f0	-0.18545127
14	0xbf11174c	-0.56676173
15	0x3e5720f7	0.21008669
16	0xbf0856f0	-0.53257656
17	0xbe8b79c6	-0.27241343
18	0x3eb48aa7	0.35262033
19	0xbe800d6e	-0.25010246
20	0x3ec367b5	0.3816506
21	0x3bcb767d	0.0062091933
22	0xbf0e365e	-0.5555171
23	0xbe6913e7	-0.22761498
24	0x3e079d24	0.13243538
25	0xbef63f81	-0.48095325
26	0xbecc463d	-0.39897338
27	0xbecb1709	-0.39666012
28	0xbeff70cd	-0.49890748
29	0xbf246138	-0.64210844
30	0x3e8d4582	0.27592093
31	0xbe4a67ab	-0.19766109
32	0x3e26192c	0.1622054
33	0xbefae462	-0.49002367
34	0xbeb650d5	-0.35608545
35	0x3e93c0fb	0.2885817
36	0x3e669097	0.22516094
37	0xbea7aee1	-0.3275061
38	0x3e9aed8b	0.30259356
39	0xbe529d3e	-0.20567796
40	0x3e80c525	0.2515041
41	0xbe5f17cf	-0.21786426
42	0xbec5ee31	-0.38658288
43	0xbedf83aa	-0.4365514
44	0xbe31f735	-0.17379458
45	0x3e5b1cb3	0.21397667
46	0x3e94262c	0.28935373
47	0xbdc859d6	-0.0978276
48	0xbf00fb4d	-0.50383455
49	0xbed9e774	-0.42559397
50	0x3d21ac14	0.039470747
51	0xbdc6f983	-0.09715559
52	0xbf1994eb	-0.59992856
53	0xbeaf32c8	-0.3421843
54	0x3c189d5e	0.009314863
55	0xbf014882	-0.50501263
56	0x3ec87c8f	0.3915753
57	0x3ef9139b	0.4864777
58	0xbf056c4c	-0.5211837
59	0xbef6b9a4	-0.48188508
60	0xbf0bb162	-0.5456754
61	0xbee5ec9b	-0.44907078
62	0x3edc6218	0.4304359
63	0x3e63ce1c	0.22246593
64	0xbea59a31	-0.323442
65	0x3dbf6b5e	0.093466505
66	0x3e648e1f	0.2231984
67	0xbc80c49a	-0.015718747
68	0xbec3cbae	-0.38241333
69	0xbf0eb214	-0.55740476
70	0x3ecccaf5	0.39998594
71	0x3ede8a39	0.4346483
72	0xbe754d83	-0.2395535
73	0xbf123a19	-0.571199
74	0x3e9760cb	0.29566035
75	0x3ea05b95	0.31319872
76	0xbee38e4f	-0.4444451
77	0xbda3ef62	-0.08004643
78	0x3c3fe077	0.011711231
79	0x3ea2db0c	0.31807745
80	0xbcd5ff5f	-0.026122747
81	0xbf009a5e	-0.50235546
82	0xbefcd78d	-0.49383202
83	0xbec361f2	-0.38160664
84	0xbf0f0e65	-0.5588134
85	0xbe251aad	-0.16123457
86	0xbec539cc	-0.38520658
87	0xbdfe231e	-0.12409042
88	0xbee837dc	-0.45355117
89	0xbf155366	-0.5833038
90	0x3ec8be1e	0.39207548
91	0xbed0dce2	-0.4079352
92	0x3d0ecb55	0.03486188
93	0xbdf1901c	-0.11795065
94	0xbf36e508	-0.71443224
95	0x3ca93dbc	0.02065932
96	0xbe176cc4	-0.14787585
97	0xbf0187bb	-0.50597733
98	0x3ee10656	0.43950146
99	0xbe31595d	-0.17319246
100	0xbe44a168	-0.19202197
101	0xbd881210	-0.0664407
102	0xbd235bcd	-0.03988247
103	0xbee2b3d1	-0.44277814
104	0xbe8e851a	-0.27835923
105	0x3cd2b8de	0.025722917
106	0xbe4e1823	-0.20126395
107	0x3e720085	0.2363301
108	0xbe53b985	-0.20676239
109	0xbddb204f	-0.10699522
110	0x3db37bd4	0.08763853
111	0xbe9eea64	-0.310382
112	0xbe48e3f3	-0.19618206
113	0x3e2b42d0	0.16724706
114	0xbee2fdd1	-0.44334272
115	0x3e4dbf2c	0.20092458
116	0xbf276bea	-0.6539904
117	0xbebdedf7	-0.37095615
118	0xbee5a5e8	-0.4485314
119	0xbed8dfeb	-0.42358336
120	0x3e3684c8	0.1782409
121	0xbedb4a6d	-0.4283022
122	0x3ed3d4ef	0.41373393
123	0x3e33b1c1	0.17548276
124	0xbebb850a	-0.36624938
125	0x3e0e82d7	0.13917099
126	0x3d9a2457	0.075264625
127	0xbec4c6cf	-0.3843293

feature_layer.2.weight f4 [128, 128]
0	0xbe1334a6	-0.14375553
1	0xbd816a79	-0.06319136
2	0xbdc87d3e	-0.09789513
3	0x3e0ed220	0.13947344
4	0x3e1ff675	0.1562136
5	0x3d9f500c	0.077789396
6	0x3d92a46c	0.07160267
7	0xbdcb17fc	-0.09916684
8	0xbdcb73f7	-0.09934228
9	0xbdfd2b85	-0.12361816
10	0xbce0567d	-0.02738499
11	0xbdb63738	-0.08897251
12	0x3d0fec14	0.03513725
13	0xbd7171d1	-0.058946434
14	0xbdb51a17	-0.08842867
15	0xbd6754d1	-0.05647737
16	0x3d9553a3	0.07291343
17	0x3d4f23a2	0.05057109
18	0xbc320f84	-0.010867957
19	0x3d806c1b	0.062706195
20	0x3c72244c	0.014779162
21	0x3e095cdc	0.1341433
22	0xbce28856	-0.0276529
23	0x3e839432	0.25699002
24	0xbdc0c27d	-0.09412096
25	0x3dc60562	0.096689954
26	0x3cefc73e	0.02926981
27	0xbe07e5c8	-0.13271248
28	0xbdbc5d90	-0.09197533
29	0x3dcd7c41	0.10033465
30	0xbd99d52b	-0.07511362
31	0x3e4d0b87	0.20023929
32	0xbca182f6	-0.019715767
33	0x3e4a4d6a	0.19756094
34	0x3e2b3805	0.16720589
35	0xbdcd94de	-0.1003816
36	0xbe4256aa	-0.18978372
37	0xbe113709	-0.1418115
38	0xbdc26ab3	-0.094930075
39	0xbe00ec0d	-0.12590046
40	0xbd97594d	-0.0739008
41	0xbe27366e	-0.16329357
42	0xbd3f00ff	-0.04663181
43	0xba4b366d	-0.00077519455
44	0xbd226449	-0.03964642
45	0x38a1940e	7.7046556e-05
46	0xbdda585d	-0.10661385
47	0xbd0fc878	-0.03510329
48	0x3cb3ec2d	0.021963203
49	0x3d935cbd	0.07195423
50	0x3dfcb333	0.12338867
51	0x3d94fc33	0.07274666
52	0xbc9f1b1e	-0.01942211
53	0x3d18a5e3	0.037267577
54	0xbcaf2cb7	-0.021383626
55	0x3c2e6d22	0.0106461365
56	0xbe11ba0e	-0.1423113
57	0xbe1ecc59	-0.1550764
58	0xbda2c05e	-0.079468474
59	0x3cf7bff2	0.030242894
60	0xbc42557d	-0.011861202
61	0x3e01b696	0.12667307
62	0xbe1e9600	-0.15486908
63	0xbcfc1b8d	-0.030774856
64	0x3e32c0df	0.17456387
65	0xbe9084bb	-0.28226265
66	0xbe951fc7	-0.29125807
67	0x3db8bc31	0.0902027
68	0xbdbd0860	-0.09230113
69	0x3d7ce683	0.06174327
70	0xbe327ba5	-0.17429979
71	0xbdbf9acd	-0.09355698
72	0x3e885e59	0.26634482
73	0xbc5707ff	-0.013124465
74	0xbdc4cad4	-0.09608999
75	0x3d7d55a2	0.061849244
76	0x3ddda236	0.10821955
77	0x3dcfea7f	0.101521485
78	0xbe239c58	-0.15977609
79	0xbd01d64f	-0.03169852
80	0x3e731e88	0.23742115
81	0x3c25b444	0.010113779
82	0x3db1f5c3	0.086894535
83	0xbdf35279	-0.11880965
84	0x3e24f9b8	0.16110885
85	0xbd5f5120	-0.054520726
86	0x3d51dad0	0.051234066
87	0x3e99d1e4	0.30042946
88	0xbdaa2066	-0.08306961
89	0x3e935782	0.287777
90	0xbd9a6570	-0.07538879
91	0xbda40769	-0.08009226
92	0xbddbd708	-0.10734373
93	0xbdc169a3	-0.09443977
94	0x3f07c763	0.53038615
95	0x3ddf991f	0.109178774
96	0x3e4f0b7c	0.20219225
97	0xbc297e2a	-0.010345021
98	0xbd83fce5	-0.0644472
99	0xbda58071	-0.08081139
100	0xbd855a76	-0.06511395
101	0x3ccc474b	0.024936339
102	0x3dbbeaf7	0.09175675
103	0xbe1f2b5c	-0.15543884
104	0x3e259176	0.1616877
105	0xbe02e5d6	-0.12782988
106	0x3d995557	0.074869804
107	0xbd624141	-0.055238012
108	0xbcd82e67	-0.026389314
109	0x3ca3211d	0.01991325
110	0x3de1c386	0.11023621
111	0xbd863999	-0.06553955
112	0xbc9f6406	-0.019456875
113	0x3eb0e794	0.3455168
114	0x3e9dcc1f	0.30819795
115	0xbcedc0c4	-0.029022582
116	0x3dd6eb42	0.104940906
117	0xbd61bfa2	-0.055114396
118	0x3d1839c8	0.03716448
119	0x3f0a68b9	0.54066044
120	0xbde4ff31	-0.111814864
121	0x3c2e0f1c	0.01062372
122	0xbdf16bdc	-0.11788151
123	0xbd41679c	-0.04721795
124	0xbdcbb1f1	-0.09946049
125	0xbdbb41b7	-0.091433935
126	0xbd809f8e	-0.06280433
127	0x3d084e51	0.033277813
128	0xbdb40156	-0.08789317
129	0xbe006099	-0.12536849
130	0xbd08df2d	-0.033415962
131	0x3e15bd79	0.1462306
132	0x3dc14eea	0.0943888
133	0x3c45bc56	0.012068829
134	0xbd8e62b0	-0.06952417
135	0x3cd87df7	0.026427252
136	0xbb240c80	-0.0025031865
137	0x3ba970d5	0.0051709213
138	0x3da6d1de	0.08145498
139	0xbdb25c66	-0.0870903
140	0xbdda9ca8	-0.10674411
141	0xbd50e075	-0.05099531
142	0x3d14e3c1	0.036350016
143	0xbe057311	-0.13032176
144	0x3dd32dfa	0.10311504
145	0xbcae7409	-0.021295564
146	0xbe1bd232	-0.15216902
147	0x3d576d14	0.05259426
148	0xbde110d6	-0.10989539
149	0x3dd87fb8	0.105712354
150	0x3dea6768	0.114455044
151	0x3e7e5558	0.24837244
152	0xbe0d00ec	-0.13769883
153	0x3e0c55e9	0.13704647
154	0x3c81b928	0.01583536
155	0xbd172194	-0.036897257
156	0xbd253705	-0.040335674
157	0x3e30c246	0.1726161
158	0xbe083ad0	-0.13303685
159	0x3e34f14c	0.17670172
160	0xbdb989e5	-0.090595044
161	0x3e981e5d	0.29710665
162	0x3e149b24	0.14512306
163	0xbe392be6	-0.18083152
164	0xbe626c16	-0.22111544
165	0xbd307495	-0.04307993
166	0xbe2821e7	-0.16419183
167	0xbdc8d6c1	-0.09806586
168	0xbe4197f6	-0.18905625
169	0xbd4ae6f0	-0.049536645
170	0x3c85a30f	0.016313104
171	0xbe0b2b15	-0.13590653
172	0xbd1215f4	-0.035665467
173	0xbd3d0615	-0.04614838
174	0xbe234441	-0.15944006
175	0xbd664ad2	-0.056223698
176	0x3da1c705	0.07899288
177	0x3dcb1f1d	0.09918044
178	0x3d936d85	0.071986236
179	0x3cc62b4e	0.024190571
180	0x3d9b129d	0.075719096
181	0x3d474647	0.048651006
182	0xbe0cba87	-0.1374303
183	0x3e237add	0.15964837
184	0xbe3265e5	-0.17421682
185	0xbe897570	-0.2684741
186	0x3d449f2c	0.04800336
187	0x3d1e0bba	0.038585402
188	0x3da6fe05	0.08153919
189	0x3d89c089	0.06726176
190	0xbe69787d	-0.22799869
191	0xbdc9df0d	-0.09856997
192	0x3ded50f3	0.115877055
193	0xbe96a472	-0.29422337
194	0xbec81c4f	-0.39084098
195	0x3baf0e69	0.005342294
196	0x3d50a049	0.05093411
197	0x3e1709d7	0.14749847
198	0xbe415ebb	-0.18883793
199	0xbe315f33	-0.17321472
200	0x3e4f786a	0.20260778
201	0x3e1aa5e7	0.15102349
202	0xbe3de9d1	-0.18546225
203	0xbd7b5cba	-0.061367728
204	0x3dded9f0	0.10881412
205	0x3daca848	0.084305346
206	0xbe1e74ea	-0.15474287
207	0xbe2ce361	-0.16883613
208	0x3e1f3036	0.15545735
209	0x3c865cd5	0.016401688
210	0x3e2dd940	0.16977406
211	0xbdb27f6c	-0.0871571
212	0x3dcb3cd9	0.09923715
213	0xbccda72a	-0.025104124
214	0xbd1c1d64	-0.038113967
215	0x3e435d71	0.19078614
216	0xbc7e4b33	-0.015520859
217	0x3e4d53a1	0.20051433
218	0xbe352dd1	-0.17693259
219	0x3c3e792e	0.011625571
220	0xbda27582	-0.07932569
221	0xbccf90e9	-0.025337653
222	0x3ece3808	0.40277123
223	0x3d95a23c	0.073063344
224	0x3e11f8ec	0.14255112
225	0x3dcf729f	0.10129284
226	0xbe255b9a	-0.16148224
227	0x3cef7bc1	0.029233815
228	0xbda8a789	-0.0823508
229	0xbd023ebf	-0.03179812
230	0x3d6027cb	0.05472545
231	0xbc429f4f	-0.011878802
232	0x3e1507d9	0.14553775
233	0xbe14cf26	-0.14532146
234	0xbdafd344	-0.085852176
235	0xbddd40ea	-0.10803397
236	0xbdacce5e	-0.08437799
237	0xbd65d061	-0.05610693
238	0x3925d937	0.00015816545
239	0xba38805d	-0.00070381706
240	0x3d8ed81c	0.06974813
241	0x3e5adbdf	0.21372937
242	0x3e863d16	0.2621848
243	0xbdd673fe	-0.104713425
244	0x3e360c38	0.17778099
245	0x3c559730	0.013036534
246	0x3d5655cb	0.052327912
247	0x3ef51589	0.47867993
248	0xbe27af5f	-0.16375493
249	0xbc76a2e6	-0.015053486
250	0xbe44fc09	-0.19236769
251	0xbe00fc1c	-0.12596172
252	0xbd519916	-0.051171385
253	0xbe067548	-0.13130677
254	0xbe20b265	-0.15693052
255	0x3da61025	0.08108548

feature_layer.2.bias f4 [128]
0	0xbf340303	-0.70317096
1	0xbf5e3389	-0.86797386
2	0xbeb2a3eb	-0.34890684
3	0xbecde6a8	-0.4021504
4	0xbf547254	-0.8298695
5	0xbf655413	-0.8958141
6	0xbf17c4c9	-0.59284645
7	0xbf69373f	-0.91099924
8	0xbf50a3fd	-0.81500226
9	0xbf46e820	-0.77697945
10	0x3f5a28c6	0.85218465
11	0xbf477925	-0.77919227
12	0x3f2ffabe	0.6874198
13	0xbea97d62	-0.33103472
14	0xbf632b24	-0.887377
15	0xbeabaabe	-0.33528703
16	0x3eeaf642	0.45891005
17	0x3ecd0ee4	0.40050423
18	0xbe99ce44	-0.3004018
19	0x3def4bbf	0.11684369
20	0x3ef69682	0.48161703
21	0xbf41517a	-0.7551495
22	0x3e3e93f7	0.18611132
23	0xbf36058e	-0.71102226
24	0xbf5e3eaa	-0.8681437
25	0xbf4d7edd	-0.80271703
26	0x3f1602b3	0.5859787
27	0x3ea74eef	0.3267741
28	0x3f10653a	0.5640446
29	0xbf5f4c35	-0.8722566
30	0xbf59cd17	-0.8507857
31	0xbf517331	-0.81816393
32	0xbeb3ae02	-0.35093695
33	0xbf002d80	-0.5006943
34	0x3eb34ac6	0.35017985
35	0xbd980194	-0.07422176
36	0x3e52c98f	0.20584701
37	0xbf63a4cd	-0.8892334
38	0xbe145c90	-0.14488435
39	0x3f2c408a	0.6728598
40	0x3eff143f	0.49820134
41	0x3ef54efc	0.47911823
42	0x3e941c02	0.28927618
43	0xbf2b4670	-0.66904354
44	0x3f2a7bdf	0.6659526
45	0x3e7e30cf	0.24823307
46	0x3d1c8131	0.038209144
47	0x3e919392	0.284329
48	0x3f35e200	0.71047974
49	0xbf59a220	-0.8501301
50	0x3f34deac	0.7065227
51	0xbf613072	-0.87964547
52	0xbf66ea13	-0.9020092
53	0x3d83cc3d	0.0643544
54	0x3f2f0717	0.68370193
55	0x3f293658	0.66098547
56	0xbf20ab40	-0.62761307
57	0xbf0fd503	-0.56184405
58	0xbf5fa764	-0.8736479
59	0x3f2b8d7e	0.67012775
60	0xbee20ca5	-0.44150272
61	0xbf3d45f8	-0.7393489
62	0xbdd08311	-0.10181249
63	0xbf57a72d	-0.84239465
64	0xbf546a36	-0.82974565
65	0x3ee3063f	0.44340703
66	0xbde39e0f	-0.11114132
67	0xbef484a7	-0.47757456
68	0xbf642c0b	-0.89129704
69	0xbf585cd7	-0.8451666
70	0xbf3a0272	-0.7265998
71	0xbf4cc3ef	-0.7998647
72	0xbf64c7c9	-0.8936735
73	0x3f128377	0.5723185
74	0xbf3774a1	-0.71662337
75	0x3f0630f6	0.5241846
76	0x3f50e34a	0.81596816
77	0x3f2cec57	0.67548126
78	0x3f3d89c7	0.74038357
79	0xbebda809	-0.37042263
80	0x3e183120	0.1486249
81	0x3f69a70f	0.91270536
82	0xbf041513	-0.51594657
83	0xbebff3d5	-0.37490717
84	0xbf18a9b4	-0.59633946
85	0xbf0fcb26	-0.56169355
86	0x3f0c751b	0.5486619
87	0xbf5ee9d3	-0.8707554
88	0xbf6236bd	-0.88364774
89	0xbf17404d	-0.5908249
90	0x3f402fed	0.7507313
91	0x3f67ac1b	0.9049699
92	0x3f04c357	0.51860565
93	0xbecda8df	-0.401679
94	0x3f433877	0.76258034
95	0x3e4c3d2d	0.19945212
96	0xbf016438	-0.50543547
97	0x3eeb5335	0.4596192
98	0xbf0331ce	-0.5124787
99	0xbe2c1c2c	-0.16807622
100	0x3ee5ffd4	0.44921744
101	0xbf45112d	-0.76979333
102	0x3ea12333	0.31472167
103	0xbf5e0462	-0.8672544
104	0xbf3b4ff3	-0.7316887
105	0xbf640bef	-0.8908071
106	0x3f361402	0.7112428
107	0x3f202282	0.62552655
108	0xbf1df2ed	-0.616988
109	0xbf32e375	-0.6987832
110	0xbf25d528	-0.64778376
111	0x3cd82217	0.026383443
112	0xbf50f06c	-0.81616855
113	0x3f2580db	0.6464974
114	0x3f04c34d	0.51860505
115	0x3f6760b9	0.9038196
116	0x3edc306a	0.43005687
117	0x3f0e6659	0.5562492
118	0x3e0cea9b	0.1376137
119	0x3deccf97	0.11563032
120	0xbf20d979	-0.62831837
121	0x3f0e91a4	0.5569098
122	0xbf4834ce	-0.78205574
123	0xbd840345	-0.06445936
124	0xbef38fbd	-0.475706
125	0x3f63df72	0.89012825
126	0x3eae9cfd	0.34104148
127	0xbf3ad63c	-0.72983146

value_stream.0.weight f4 [128, 128]
0	0x3d75c4a4	0.060001984
1	0x3d965dea	0.073421314
2	0xbd8a379d	-0.06748889
3	0x3e15b4e3	0.14619784
4	0x3e1e847d	0.15480228
5	0x3da80df2	0.08205785
6	0x3cfc7ce8	0.030821279
7	0x3da46ca3	0.08028533
8	0x3dbf1e14	0.09331909
9	0x3d5f3b3a	0.054499842
10	0xbdb2f77f	-0.087386124
11	0x3d63c34e	0.05560618
12	0xbe53ad26	-0.2067152
13	0xbddb842f	-0.107185714
14	0x3da0f095	0.078583874
15	0x3e2f2e90	0.17107606
16	0x3dc522d3	0.09625783
17	0xbe12d11b	-0.1433758
18	0x3da18a47	0.078877024
19	0x3e3c088c	0.18362635
20	0xbe8f2649	-0.27958897
21	0x3d6dd271	0.05806202
22	0xbe37b6c6	-0.17940816
23	0x3d020d02	0.031750686
24	0x3dab0c78	0.083519876
25	0x3d9b760d	0.07590876
26	0x3bf65138	0.0075170062
27	0xbeaae51d	-0.33377925
28	0x3d099968	0.033593565
29	0x3c7da1cd	0.015480471
30	0x3da80639	0.08204312
31	0x3d89f5d2	0.0673634
32	0x3d496ca1	0.049175862
33	0x3e17dcb6	0.14830288
34	0xbe924b21	-0.28572944
35	0x3d803807	0.06260686
36	0xbc1fc98d	-0.009752643
37	0x3d9daf5b	0.07699462
38	0x3def0d57	0.11672466
39	0xbdc4f396	-0.09616773
40	0xbe5e8c4e	-0.2173321
41	0xbdb49358	-0.08817166
42	0xbf050ab7	-0.51969475
43	0x3d08d90f	0.03341013
44	0xbd45fc12	-0.048336096
45	0xbe5c7327	-0.21528302
46	0xbd82900a	-0.063751295
47	0xbdf5fc05	-0.120109595
48	0xbc9b48ee	-0.018955674
49	0x3d8f4300	0.06995201
50	0xbdd046d8	-0.101697624
51	0x3d83f400	0.06443024
52	0x3db97196	0.09054868
53	0x3e190fd0	0.14947438
54	0xbdef8849	-0.11695916
55	0xbd28bdbd	-0.041196574
56	0xbd81f857	-0.06346195
57	0xbd886b18	-0.066610515
58	0x3da788ae	0.081803665
59	0xbe7072dd	-0.23481317
60	0x3dad55eb	0.08463653
61	0x3c4c0177	0.012451521
62	0xbe2c401a	-0.16821328
63	0x3d8b2eb3	0.067960165
64	0x3d87d114	0.06631675
65	0xbdca5d9a	-0.09881134
66	0xbda6e62a	-0.08149369
67	0xbd7924e3	-0.060826194
68	0x3dba32d6	0.090917274
69	0x3d936044	0.071960956
70	0xbd01fc8a	-0.03173498
71	0x3d73dc13	0.05953605
72	0x3d9db79e	0.07701038
73	0x3e0b6dd5	0.13616116
74	0x3d918659	0.07105703
75	0xbe0ee2ad	-0.13953657
76	0xbdc08574	-0.09400454
77	0xbdafdf8f	-0.08587562
78	0xbd8c12e1	-0.06839538
79	0x3e22339f	0.15840004
80	0xbe9133c3	-0.28359804
81	0xbe024821	-0.12722827
82	0x3dde48b8	0.10853714
83	0xbc891092	-0.016731534
84	0x3d021754	0.03176053
85	0x3e876128	0.26441312
86	0xbe8ec1b0	-0.27882147
87	0x3d933474	0.07187739
88	0x3db3c2fd	0.087774254
89	0xbd02d99e	-0.031945817
90	0xbcb32099	-0.02186613
91	0xbdf25b54	-0.11833826
92	0xbe842d50	-0.2581582
93	0x3e53abf7	0.20671068
94	0xbe981969	-0.29706886
95	0x3c0c6c56	0.008570751
96	0x3d38bcc2	0.04510189
97	0xbe3e96e3	-0.18612246
98	0xbd02f151	-0.03196842
99	0x3d84c1c6	0.06482272
100	0xbc84f328	-0.016229227
101	0x3c543c0a	0.012953768
102	0xbd0fb7b2	-0.035087295
103	0x3daf527b	0.08560654
104	0x3d017daf	0.031614
105	0x3da99b4b	0.08281573
106	0xbcc3c9c7	-0.023899926
107	0xbd781f8e	-0.060576968
108	0x3cfe3133	0.03102932
109	0x3b35dc9f	0.0027749909
110	0x3d5775e1	0.052602652
111	0x3d54f2f8	0.051989526
112	0x3d9b71f2	0.07590093
113	0xbde35a30	-0.11101186
114	0xbed6caba	-0.41951543
115	0xbe018f46	-0.1265231
116	0xbdadf6b2	-0.08494319
117	0xbc350d8b	-0.011050592
118	0xbe10cb0c	-0.14139956
119	0xbdf22a60	-0.11824489
120	0xbda13522	-0.078714624
121	0xbd578d31	-0.052624885
122	0x3e2e32a9	0.17011513
123	0x3eb64cf6	0.35605592
124	0x3d940c22	0.07228877
125	0xbdd10cc8	-0.10207516
126	0x3d7cd0c4	0.061722532
127	0x3e44c3e2	0.19215348
128	0x3e1e0944	0.15433222
129	0x3e06e317	0.13172565
130	0x3e634271	0.22193314
131	0x3e2a08db	0.1660494
132	0x3e0e787e	0.13913152
133	0x3e0f4d53	0.1399434
134	0x3d3e3766	0.04643955
135	0x3e0ec5cd	0.13942643
136	0x3e1372d2	0.14399269
137	0x3dc7da3e	0.09758423
138	0xbe1ef036	-0.1552132
139	0x3df80fac	0.12112364
140	0xbe870703	-0.26372537
141	0xbe96e696	-0.29472798
142	0x3e0bf18b	0.1366636
143	0x3e518239	0.20459832
144	0xbdf19bf1	-0.117973216
145	0xbe6b8cb3	-0.23002891
146	0x3e067356	0.13129935
147	0x3e7010e8	0.23443949
148	0xbecfa59a	-0.4055603
149	0x3d5409ba	0.05176709
150	0xbe99a810	-0.30011034
151	0x3e1cfd65	0.15331037
152	0x3df300c4	0.118653804
153	0x3e10aa9d	0.14127584
154	0x3ceec357	0.02914588
155	0xbede7063	-0.4344512
156	0xbdeb2001	-0.11480714
157	0x3d3e422d	0.04644983
158	0x3e0ebf7a	0.1394023
159	0x3e059a6d	0.1304719
160	0xbdaa7ff9	-0.0832519
161	0x3ef6f0af	0.48230502
162	0xbe4b7204	-0.19867712
163	0xbd11aacd	-0.03556328
164	0x3c8ac3bb	0.016939035
165	0x3e0d6686	0.13808641
166	0x3d2497df	0.040183898
167	0xbe7fdda4	-0.24986893
168	0xbdc8c0e9	-0.0980242
169	0xbe011d26	-0.12608775
170	0xbe9ac9c8	-0.30232072
171	0x3dddc79e	0.108290896
172	0xbe371c4e	-0.17881891
173	0xbeb011c8	-0.34388566
174	0xbdac1d82	-0.08404066
175	0xbddf4dad	-0.10903487
176	0xbe624040	-0.22094822
177	0x3e053c09	0.13011183
178	0xbc147661	-0.009061427
179	0x3e103a1f	0.14084671
180	0x3e1668aa	0.14688364
181	0xbe193c3a	-0.14964381
182	0xbe47d942	-0.19516471
183	0xbda5412a	-0.0806907
184	0x3e920abc	0.28523815
185	0x3e141bbe	0.14463708
186	0x3e0c076d	0.13674708
187	0x3cb2e2b3	0.021836614
188	0x3e21e92a	0.15811601
189	0x3d36a9c6	0.044595502
190	0x3c894148	0.016754761
191	0x3e0494b8	0.12947357
192	0x3df73d87	0.12072282
193	0xbe2cdb46	-0.16880521
194	0xbe123aa3	-0.1428018
195	0x3e4b4b19	0.19852866
196	0x3e124872	0.14285448
197	0x3e03c53e	0.1286821
198	0x3e2e47a4	0.17019516
199	0x3e01b9c6	0.12668523
200	0x3e07f889	0.13278402
201	0x3dbc70ca	0.092012
202	0x3dc4f4a9	0.09616978
203	0xbdf79f84	-0.12090972
204	0xbda7664e	-0.0817381
205	0xbd948ab4	-0.07253018
206	0xbe1a93e7	-0.15095483
207	0x3d551bf5	0.052028615
208	0xbec9c583	-0.39408502
209	0xbe3a2bc1	-0.18180753
210	0x3d12cf00	0.03584194
211	0x3e0adca6	0.13560733
212	0x3d9bbc23	0.076042436
213	0x3dd20d20	0.1025641
214	0xbe8eee6f	-0.27916285
215	0x3e04f635	0.12984546
216	0x3e11f4c7	0.14253531
217	0xbcb600b0	-0.022217125
218	0xbe5186a4	-0.20461518
219	0xbe332be9	-0.17497219
220	0xbe95d817	-0.29266426
221	0x3e8686da	0.2627476
222	0xbe3f740d	-0.18696614
223	0xbe98b3ab	-0.29824576
224	0x3d211e75	0.039335687
225	0xbeeddcff	-0.4645767
226	0x3d256c19	0.040386293
227	0x3e02338a	0.12714973
228	0xbc400d31	-0.011721895
229	0x3da90da0	0.08254552
230	0x3e13c1d2	0.14429405
231	0x3e139f06	0.14416131
232	0x3dbf9a3e	0.09355591
233	0x3e057ad8	0.13035142
234	0xbe5231d6	-0.20526823
235	0xbe7e2def	-0.2482221
236	0x3d0922a3	0.033480298
237	0x3d77a872	0.060463376
238	0x3de4e50b	0.11176499
239	0x3d2a96e5	0.04164781
240	0x3e057010	0.1303103
241	0xbe43e8a6	-0.19131717
242	0xbeb4ebc7	-0.35336134
243	0xbe38ab91	-0.18034197
244	0xbd0fc31f	-0.03509819
245	0x3d85055f	0.06495165
246	0xbee3f12e	-0.44519943
247	0xbee1d2b3	-0.44106063
248	0x3db2d93d	0.08732841
249	0x3d92fc1e	0.07176994
250	0x3dd9d3fd	0.10636137
251	0x3ed486ad	0.41509
252	0x3e932aab	0.2874349
253	0xbe5a71c8	-0.21332467
254	0x3d126fc5	0.035751123
255	0x3e12c411	0.14332606

value_stream.0.bias f4 [128]
0	0xbef3023e	-0.47462648
1	0xbf1b62ed	-0.60697824
2	0xbf61afa1	-0.88158613
3	0xbf906bd7	-1.128291
4	0xbf530f53	-0.8244526
5	0xbf8ecff9	-1.1157218
6	0x3e69f3e2	0.2284694
7	0x3f929f50	1.1454868
8	0xbf920fe0	-1.1411095
9	0xbf919326	-1.1373031
10	0xbf92df3a	-1.1474373
11	0xbf8fe760	-1.1242485
12	0xbf8fe2b5	-1.124106
13	0x3f870a62	1.0550044
14	0xbf87b8d5	-1.0603281
15	0xbf927ab0	-1.1443691
16	0xbeba3356	-0.3636729
17	0x3f91cb46	1.1390159
18	0xbf55ad9e	-0.83468044
19	0xbf91128c	-1.1333785
20	0xbf2d7d2d	-0.6776913
21	0xbf4a7a11	-0.7909251
22	0x3f801331	1.0005857
23	0xbf9026e0	-1.1261864
24	0xbf330ced	-0.699416
25	0x3f92b03f	1.1460036
26	0xbf04f8d3	-0.51942176
27	0xbf6db01e	-0.9284686
28	0xbf8f7393	-1.1207145
29	0xbf237884	-0.6385577
30	0xbf917900	-1.1365051
31	0x3f8edcc4	1.1161122
32	0x3f93b22a	1.1538746
33	0x3f8e7ee0	1.1132469
34	0xbf890265	-1.0703856
35	0xbf765b4b	-0.9623305
36	0x3f92532e	1.1431634
37	0xbf896277	-1.0733174
38	0xbf2dcaad	-0.67887384
39	0xbf27789d	-0.65418416
40	0xbf6dee0f	-0.92941374
41	0xbf831b3b	-1.0242685
42	0x3f91a821	1.1379434
43	0x3f331a13	0.6996166
44	0xbf74f507	-0.9568638
45	0xbf8476ed	-1.0348793
46	0xbf60e291	-0.8784571
47	0xbf8e2cce	-1.1107423
48	0xbf81f7a4	-1.0153699
49	0xbf8b6afc	-1.0892024
50	0x3f8fe643	1.1242145
51	0xbf88ff15	-1.0702845
52	0xbf915841	-1.1355058
53	0xbf8fb168	-1.1226015
54	0xbf918ee3	-1.137173
55	0x3edb06c9	0.42778614
56	0xbf8d5b76	-1.1043537
57	0xbf8ff388	-1.1246195
58	0x3f914609	1.1349498
59	0xbf8f0f9e	-1.1176641
60	0x3f93dec4	1.1552358
61	0x3f39eb90	0.72625065
62	0xbf911609	-1.133485
63	0xbf926575	-1.1437212
64	0x3f5eacab	0.8698222
65	0xbf7a0537	-0.9766421
66	0xbf8f108e	-1.1176927
67	0xbf8a1283	-1.0786899
68	0xbf73e726	-0.9527458
69	0xbf780fc4	-0.96899056
70	0x3f925574	1.1432328
71	0xbdd43972	-0.10362519
72	0xbf21b7ce	-0.6317109
73	0xbf95ab57	-1.1692914
74	0xbf1c140d	-0.60968095
75	0xbf93f9e3	-1.1560634
76	0xbdc6dbc0	-0.09709883
77	0x3f933bbb	1.1502603
78	0x3f926581	1.1437227
79	0xbf913c00	-1.1346436
80	0xbf8fbca3	-1.1229442
81	0xbf8ce298	-1.1006651
82	0xbf942782	-1.1574557
83	0xbe8b3092	-0.27185494
84	0xbf8ac002	-1.0839846
85	0xbf9566e3	-1.1672024
86	0x3f93cd5d	1.1547047
87	0xbf8e429f	-1.1114081
88	0xbf7fd602	-0.99935925
89	0x3f8d3ec1	1.1034776
90	0xbf8b47af	-1.0881251
91	0xbf2aec7b	-0.6676709
92	0xbf87fd59	-1.062419
93	0xbf8d6dbe	-1.1049116
94	0xbf2ccaf8	-0.67497206
95	0x3f2a7d27	0.6659722
96	0xbf90fa27	-1.132634
97	0xbf467f73	-0.7753822
98	0xbf92732e	-1.14414
99	0xbe2b803c	-0.16748136
100	0xbedb8c4a	-0.4288047
101	0xbf717a41	-0.9432717
102	0xbf8f44a6	-1.1192825
103	0x3f6e84c2	0.9317132
104	0x3f4f0915	0.80873233
105	0xbf88d6f1	-1.0690595
106	0xbf53c54b	-0.8272292
107	0xbf90427e	-1.1270292
108	0xbf8cb1b1	-1.0991727
109	0xbf92316e	-1.1421335
110	0x3f256d11	0.6461955
111	0x3f8e23ae	1.1104639
112	0x3f3c92ce	0.73661506
113	0xbf8990dc	-1.0747333
114	0xbf929e24	-1.1454511
115	0x3f5e0a08	0.86734056
116	0x3f92984d	1.1452729
117	0xbf87cfa1	-1.0610238
118	0xbf47e30b	-0.78080815
119	0xbf049a02	-0.517975
120	0xbf877bb8	-1.0584631
121	0xbeb1a271	-0.34694245
122	0xbf5eaf5b	-0.8698632
123	0xbf158748	-0.5840955
124	0xbf4c3fcd	-0.7978485
125	0xbef7e431	-0.48416284
126	0xbf8f96d7	-1.1217908
127	0x3f927db3	1.144461

value_stream.2.weight f4 [1, 128]
0	0xbd4fdf21	-0.0507499
1	0xbe0e2265	-0.13880308
2	0xbe362f09	-0.1779138
3	0xbe8278ec	-0.2548288
4	0xbe841423	-0.25796613
5	0xbe852592	-0.26005226
6	0x3ecc8c79	0.39950922
7	0x3e971d33	0.29514465
8	0xbe89661d	-0.2683572
9	0xbe8254ca	-0.25455314
10	0xbe85d93a	-0.26142293
11	0xbe89d3dd	-0.2691945
12	0xbe8286b8	-0.25493407
13	0x3e798030	0.24365306
14	0xbe5c8906	-0.21536645
15	0xbe85934f	-0.2608895
16	0xbeab34dd	-0.3343877
17	0x3e94b057	0.29040787
18	0xbe4c172f	-0.19930719
19	0xbe813daf	-0.25242373
20	0xbe11b5ec	-0.14229554
21	0xbe74335c	-0.23847717
22	0x3ebd3e95	0.3696181
23	0xbe85c966	-0.26130217
24	0xbe906f0c	-0.28209722
25	0x3e974f52	0.29552704
26	0xbe3ab4f5	-0.18233092
27	0xbe5422b0	-0.20716357
28	0xbe81e115	-0.25367036
29	0xbe1dc1af	-0.15405916
30	0xbe862d91	-0.2620664
31	0x3e8c3ed1	0.27391675
32	0x3e99eb64	0.300624
33	0x3e8b9c66	0.2726776
34	0xbe700eac	-0.23443097
35	0xbe7d8e84	-0.24761397
36	0x3e962e9f	0.29332444
37	0xbe5d8a3f	-0.21634768
38	0xbe84a255	-0.259051
39	0xbe64f6f1	-0.22359826
40	0xbe6db876	-0.23214898
41	0xbe5f1b02	-0.21787646
42	0x3e945e16	0.28978032
43	0x3e9b0df9	0.30284098
44	0xbe7b23d9	-0.24525394
45	0xbe43c770	-0.19119048
46	0xbe7155d1	-0.23567893
47	0xbe7e171c	-0.24813503
48	0xbe6cc59c	-0.23122257
49	0xbe6f1d94	-0.23351127
50	0x3e9b6070	0.30347013
51	0xbe5022ac	-0.20325726
52	0xbe8ae83f	-0.27130315
53	0xbe96e0fe	-0.2946853
54	0xbe821a50	-0.254107
55	0x3f78456f	0.9698095
56	0xbe73f770	-0.23824859
57	0xbe7835a6	-0.24239215
58	0x3e936404	0.28787243
59	0xbe82a70e	-0.25518078
60	0x3e9a9e76	0.3019902
61	0x3f6e9137	0.9319033
62	0xbe86152b	-0.26188025
63	0xbe82a68c	-0.2551769
64	0x3e92769f	0.28606126
65	0xbe87a714	-0.26494658
66	0xbe81b575	-0.25333753
67	0xbe6233fa	-0.2209014
68	0xbe54253e	-0.20717332
69	0xbe5a1751	-0.21297957
70	0x3e963453	0.29336795
71	0xbd94a785	-0.07258514
72	0xbe439cc4	-0.1910277
73	0xbe8f8d94	-0.28037703
74	0xbd881208	-0.06644064
75	0xbe865376	-0.2623555
76	0xbdad83f5	-0.084724344
77	0x3e989b5e	0.29806036
78	0x3e967edf	0.2939367
79	0xbe84b45b	-0.2591885
80	0xbe791ae6	-0.24326667
81	0xbe67c566	-0.22633895
82	0xbe8a98ff	-0.27069852
83	0xbe0de254	-0.13855869
84	0xbe7190bf	-0.23590373
85	0xbe8e8051	-0.27832273
86	0x3e9a3a50	0.30122614
87	0xbe699c1f	-0.22813462
88	0xbe737d25	-0.23778208
89	0x3e91693b	0.28400597
90	0xbe6e6a61	-0.23282768
91	0xbe20b788	-0.15695012
92	0xbe83416a	-0.25635844
93	0xbe79dfc0	-0.2440176
94	0xbe66007d	-0.22461124
95	0x3edae1fc	0.42750537
96	0xbe8161df	-0.25269982
97	0xbe6ef0f9	-0.23334111
98	0xbe82fd19	-0.25583723
99	0xbde4f8ec	-0.111802906
100	0xbe2deb6c	-0.16984338
101	0xbe70e57a	-0.23525038
102	0xbe81a3f0	-0.25320387
103	0x3ea06c22	0.313325
104	0x3e994ee9	0.29943016
105	0xbe836fad	-0.2567114
106	0xbea32856	-0.3186671
107	0xbe8cf066	-0.2752716
108	0xbe6dc512	-0.23219708
109	0xbe7fa07c	-0.24963564
110	0x3e39d138	0.18146217
111	0x3e97a7bd	0.29620162
112	0x3f563058	0.83667517
113	0xbe6cee62	-0.23137811
114	0xbe88b35e	-0.26699346
115	0x3ea4c1f7	0.32179233
116	0x3e971836	0.2951066
117	0xbe854ddd	-0.26035967
118	0xbe4d2b6f	-0.200361
119	0xbe0b2c90	-0.13591218
120	0xbe486973	-0.19571476
121	0xbd1d81f1	-0.038454
122	0xbe2497f3	-0.16073589
123	0xbdc26d52	-0.094935074
124	0xbe1c8e83	-0.15288739
125	0xbb555e20	-0.0032557324
126	0xbe7f3a32	-0.24924543
127	0x3e96c674	0.29448283

adv_stream.0.weight f4 [128, 128]
0	0x3dbc0903	0.09181406
1	0x3dea6b56	0.11446254
2	0x3ea8d323	0.32973585
3	0xbe3851cf	-0.17999958
4	0x3e112d16	0.14177355
5	0x3dea13ff	0.11429595
6	0x3e320b2b	0.17387073
7	0x3df0cbc8	0.11757618
8	0x3e124cd5	0.14287122
9	0x3dbc0dd4	0.09182325
10	0xbdd2a2a7	-0.1028493
11	0x3df18297	0.11792486
12	0x3d503de4	0.050840273
13	0x3f4894d5	0.783521
14	0x3de327e4	0.11091593
15	0xbedcb028	-0.43103147
16	0x3eede27c	0.46461856
17	0xbe23d3e3	-0.15998797
18	0xbf0ea518	-0.55720663
19	0x3e9591ac	0.292127
20	0x3f0d398d	0.5516594
21	0x3e6f7d07	0.23387538
22	0x3e9309f1	0.28718522
23	0x3df84010	0.12121594
24	0x3e1f678d	0.15566845
25	0x3e15f32d	0.14643545
26	0x3e12bc2e	0.14329597
27	0x3eee47dd	0.46539202
28	0x3e93fb8b	0.2890285
29	0x3df99e1f	0.12188362
30	0x3dd9236f	0.106024615
31	0x3dd8d972	0.105883494
32	0x3e664948	0.22488892
33	0xbf1f271f	-0.6216907
34	0x3eb0083b	0.3438128
35	0x3df412c5	0.119176425
36	0xbf7f4c76	-0.99726045
37	0x3ded4c9b	0.11586877
38	0xbe07d258	-0.13263834
39	0x3db009a4	0.08595589
40	0xbd0f2f5b	-0.03495727
41	0xbde14b8f	-0.1100074
42	0x3efc336f	0.4925799
43	0x3e628fe0	0.22125196
44	0x3e05b2e9	0.1305653
45	0xbd87c41e	-0.06629203
46	0xbdbc3a0f	-0.09190761
47	0x3ea26498	0.31717372
48	0x3d8c25c6	0.06843142
49	0x3deae216	0.11468904
50	0x3d2dae1c	0.04240237
51	0x3deb02f6	0.11475174
52	0x3de372d3	0.11105885
53	0xbe4dfea9	-0.20116676
54	0x3e3a87ed	0.18215914
55	0x3e1166db	0.14199392
56	0x3de1ff1b	0.11034986
57	0x3da7a845	0.08186392
58	0x3dda2730	0.10652006
59	0x3e68ad24	0.22722298
60	0x3e551a45	0.20810802
61	0x3dbeba69	0.09312899
62	0xbd8a2dda	-0.06747027
63	0x3e153210	0.14569879
64	0x3dc53206	0.09628682
65	0xbcdaa8c1	-0.026691796
66	0x3c39bd40	0.011336625
67	0x3e1c8192	0.15283802
68	0x3e026621	0.12734272
69	0x3e41c978	0.1892451
70	0x3d07392a	0.0330135
71	0x3dd5a5fb	0.10432049
72	0x3de77339	0.11301274
73	0x3e9267e1	0.28594878
74	0x3e52a13a	0.20569316
75	0x3e3170dc	0.17328209
76	0x3cc592ef	0.024117915
77	0x3e12d0b7	0.14337431
78	0x3d45fb9a	0.04833565
79	0xbf2d79ca	-0.6776396
80	0x3e82b71c	0.25530326
81	0xbdea07a9	-0.11427242
82	0x3df57c06	0.11986546
83	0x3de8b586	0.11362748
84	0x3de021c2	0.10943939
85	0x3ec65ed1	0.38744214
86	0x3f2cfd89	0.67574364
87	0x3defa178	0.117007196
88	0x3dec28a3	0.11531188
89	0x3e7adc62	0.24498132
90	0x3e517579	0.20454969
91	0xbde57f90	-0.11205971
92	0x3e0349a1	0.12821056
93	0xbf11c711	-0.56944376
94	0x3dd461e1	0.103702314
95	0x3e913408	0.2836001
96	0xbcdb9906	-0.026806366
97	0x3e8f82c3	0.2802945
98	0x3e88b851	0.26703122
99	0x3dadfc06	0.08495335
100	0x3ecb9031	0.39758447
101	0x3de22b26	0.11043386
102	0x3e73add3	0.23796777
103	0x3dd816d3	0.105512284
104	0x3df25c67	0.118340306
105	0x3dedc1c7	0.11609226
106	0x3a016386	0.00049357896
107	0x3d95277e	0.07282923
108	0x3d19d69e	0.03755819
109	0x3e043542	0.12910941
110	0x3e800547	0.25004026
111	0x3d3bd6cd	0.045859147
112	0x3dea7a70	0.11449134
113	0xbc826ad5	-0.015920082
114	0x3f0e1511	0.55500895
115	0xbdebabc2	-0.115073696
116	0xbd7cc1bc	-0.061708197
117	0xbed51fdc	-0.4162587
118	0x3e468619	0.19387092
119	0x3e68890d	0.2270853
120	0x3e22ff42	0.15917686
121	0xbdb85498	-0.0900051
122	0x3e23096d	0.15921564
123	0xbe8a1414	-0.26968443
124	0x3e4d4e01	0.20049287
125	0xbce92bb8	-0.02846323
126	0x3e9e4e55	0.30919138
127	0x3e6cccd6	0.23125014
128	0x3d577915	0.052605707
129	0xbc01b3a9	-0.0079163695
130	0xbe621b41	-0.22080709
131	0x3e1d5650	0.15364957
132	0xbdc619ef	-0.09672915
133	0xbc89e95f	-0.016834913
134	0xbcf2e111	-0.029648336
135	0xbc72d843	-0.014822069
136	0x3cf17d14	0.029478587
137	0x3d26c6a7	0.040716793
138	0xbcc7b17c	-0.024376623
139	0x3d0c30f0	0.034226358
140	0x3d2cb3cc	0.042163655
141	0x3ea67e7f	0.32518384
142	0xbc6b108b	-0.014347206
143	0xbcb019ff	-0.02149677
144	0x3eb9dd1d	0.3630151
145	0xbd976fb5	-0.07394353
146	0xbcf53871	-0.02993414
147	0xbdbc6bce	-0.092002496
148	0x3f295320	0.66142464
149	0xbe14603b	-0.14489834
150	0x3f1bf01f	0.6091327
151	0xbd07b42c	-0.03313081
152	0xbcdbf196	-0.026848596
153	0xbd5ad972	-0.05343003
154	0xbc12108a	-0.008915076
155	0x3f1b1f3c	0.60594535
156	0x3e1a6c7c	0.15080446
157	0xbd75d439	-0.060016844
158	0xbc4fa1f7	-0.012672893
159	0x3bd36365	0.0064510577
160	0xbe362ed9	-0.17791308
161	0xbcccf4d8	-0.025019094
162	0x3e8ad9f5	0.27119413
163	0x3d58a49b	0.052891355
164	0xbf1d9415	-0.6155408
165	0xbb36fb01	-0.0027920606
166	0x3e313f6d	0.17309351
167	0x3e0bf01c	0.13665813
168	0xbd5e8106	-0.054322265
169	0xbe54c6d8	-0.20778978
170	0x3de2b0e5	0.11068896
171	0x3de1f49c	0.11032984
172	0x3df62610	0.120189786
173	0xbdfd6631	-0.12373007
174	0x3c9c8392	0.019105706
175	0x3f03a741	0.51427084
176	0x3c557bdd	0.01303002
177	0x3c44b22b	0.012005369
178	0x3e0fdfff	0.14050291
179	0xbc60415f	-0.013687461
180	0xbc82f950	-0.015988022
181	0xbe3ad04c	-0.18243521
182	0xbc2f576b	-0.010701994
183	0x3e36a378	0.17835796
184	0xbe1cdb5c	-0.15318054
185	0x3c300fe7	0.010745979
186	0xbc5df251	-0.013546542
187	0xbd2bda8b	-0.041956466
188	0xbdd76f01	-0.10519219
189	0x3c3de814	0.011590976
190	0x3db5c053	0.088745736
191	0x3b74e581	0.003736824
192	0xbbe01935	-0.0068389424
193	0x3d61d6d8	0.05513653
194	0xbe98f092	-0.2987104
195	0x3c848c42	0.016180161
196	0xbd11e0a8	-0.03561464
197	0xbd3e129a	-0.04640446
198	0x3d0990d6	0.033585392
199	0x3a8eed1f	0.0010904408
200	0xbc6a6f2b	-0.014308731
201	0x3eaf0e91	0.341908
202	0xbdb1ab9d	-0.08675311
203	0xbc6d0d73	-0.014468539
204	0x3cd8c99d	0.026463324
205	0x3e07db78	0.13267314
206	0xbd80eab7	-0.06294768
207	0xbf3631a7	-0.71169513
208	0x3ed2ec9e	0.4119615
209	0x3b67d5d2	0.003537525
210	0xbe633d46	-0.22191343
211	0xbe169d21	-0.14708377
212	0x3df3579b	0.11881944
213	0x3d3d10ab	0.046158474
214	0x3f054c9c	0.5207002
215	0x3a9f20ae	0.0012140477
216	0xbc21585c	-0.009847727
217	0xbe057b52	-0.13035324
218	0x3e072054	0.13195926
219	0x38044a78	3.1540607e-05
220	0x3ede06b7	0.43364498
221	0xbee07bd5	-0.43844476
222	0xbd534ff5	-0.051589925
223	0xbe073a0b	-0.13205735
224	0x3de5a12d	0.112123825
225	0x3e012d8c	0.12615031
226	0x3db4869e	0.08814739
227	0xbe23bb77	-0.15989481
228	0xbdb09c14	-0.086235195
229	0x3aedd444	0.0018144925
230	0x3ce81de8	0.028334573
231	0xbc278877	-0.010225407
232	0x3e0487df	0.12942456
233	0xbc128883	-0.00894368
234	0xbdb39ad5	-0.08769766
235	0xbe398ee9	-0.18120922
236	0xbdc9f805	-0.09861759
237	0x3e1dc444	0.154069
238	0x3bfe1a27	0.0077545824
239	0x3d7078db	0.058709007
240	0xbbb3e537	-0.005489971
241	0xbe33272e	-0.17495415
242	0x3f1b5b07	0.6068577
243	0xb9daf850	-0.00041765207
244	0x3e3c6781	0.18398859
245	0xbe7f2259	-0.24915446
246	0xbe0c6f25	-0.13714273
247	0x3ef88da5	0.48545566
248	0xbdccc710	-0.09998906
249	0xbe7739ac	-0.24143094
250	0xbde7cb4b	-0.11318072
251	0xbeaa5fa4	-0.33276093
252	0xbe896e27	-0.26841852
253	0x3d079b5f	0.033107158
254	0x3cfe7df6	0.031065922
255	0xbc1d09cb	-0.009584854

adv_stream.0.bias f4 [128]
0	0x3d28177f	0.041038033
1	0x3ecba14a	0.3977149
2	0x3e50d698	0.20394361
3	0xbe377522	-0.17915776
4	0x3e11785d	0.14206071
5	0x3e8c3885	0.2738687
6	0x3e9abfde	0.30224508
7	0x3e01c6ff	0.12673567
8	0xbdca8643	-0.0988889
9	0xbdd45104	-0.10367015
10	0x3dfb3385	0.12265686
11	0x3efe72c3	0.4969693
12	0x3ed7db55	0.42159525
13	0xbe829b9c	-0.25509346
14	0xbe1f408c	-0.15551966
15	0x3d440eea	0.047865786
16	0x3f191e82	0.59812176
17	0xbdb410e6	-0.087922856
18	0x3ee1544a	0.4400962
19	0xbdc6ae57	-0.097012214
20	0x3e89408e	0.26807064
21	0x3e49e298	0.19715345
22	0xbe131be8	-0.14366114
23	0xbb226aee	-0.0024782973
24	0x3e993813	0.29925594
25	0x3eac9625	0.337083
26	0xbe2d04ba	-0.16896334
27	0x3c44cff2	0.012012469
28	0x3ae2233c	0.0017252932
29	0xbcdbbdc9	-0.026823895
30	0x3eb5f081	0.35535052
31	0x3e1b44f7	0.15163027
32	0x3f06e6c0	0.52695847
33	0xbd24dc90	-0.040249407
34	0x3d71c7ba	0.059028365
35	0xbe000ead	-0.12505598
36	0x3eb75550	0.35807276
37	0x3e75a34d	0.23988076
38	0xbe1f1b3d	-0.15537734
39	0xbd160baf	-0.036632236
40	0xbe9e882a	-0.3096326
41	0x3e91801f	0.2841806
42	0x3e38cc0a	0.18046585
43	0xbe3188ee	-0.17337391
44	0xbe621e52	-0.22081879
45	0xbd4b3da3	-0.04961933
46	0x3e936d2e	0.28794235
47	0xbd3861a0	-0.045014977
48	0x3c3e9ab5	0.011633565
49	0x3daa3388	0.0831061
50	0x3d95d718	0.073164165
51	0x3eba1083	0.36340722
52	0xbe3cc3ab	-0.18434016
53	0xbe47ea04	-0.19522864
54	0x3e86bd37	0.26316234
55	0x3da3e513	0.08002677
56	0x3d849982	0.06474592
57	0x3e941878	0.28924918
58	0xbcf6529e	-0.030068692
59	0x3ebb40af	0.36572787
60	0xbdca9deb	-0.09893402
61	0xbdde21ba	-0.108462766
62	0x3ef04c8b	0.46933398
63	0x3e9f3c15	0.31100526
64	0xbd32ed0a	-0.04368309
65	0x3eba6cad	0.36411038
66	0x3ef083ee	0.46975654
67	0xbc0bfd62	-0.008544298
68	0xbe2740f6	-0.16333374
69	0x3ebcea22	0.3689738
70	0x3e362fa3	0.1779161
71	0x3d6164a7	0.05502763
72	0x3e078b01	0.1323662
73	0xbdbd8dd5	-0.09255568
74	0x3d3eb2a7	0.046557095
75	0x3e710b30	0.23539424
76	0x3e2e4688	0.17019093
77	0x3e06eef2	0.13177088
78	0xbe7912a6	-0.2432352
79	0x3edf3191	0.43592504
80	0xbe701af2	-0.23447779
81	0x3dfc7e6b	0.123288
82	0x3ef150eb	0.47132048
83	0xbe673ca7	-0.22581731
84	0x3de58fde	0.11209081
85	0x3e346d22	0.17619756
86	0x3e7f19c2	0.2491217
87	0x3d9e70d4	0.07736364
88	0x3f029764	0.51012254
89	0x3ea2537a	0.31704313
90	0x3eb4c511	0.353066
91	0x3ec28474	0.3799168
92	0x3ebd7312	0.37001854
93	0x3ead6142	0.33863264
94	0x3e5ebe83	0.21752362
95	0xbdad302e	-0.08456455
96	0x3e33a353	0.17542772
97	0x3c0592fa	0.008152718
98	0xbc0ee42c	-0.008721393
99	0x3eaa5a01	0.33271793
100	0xbda841a5	-0.08215646
101	0x3ebaf46a	0.36514598
102	0xbd80c954	-0.062884
103	0x3db33266	0.08749847
104	0x3e4521c6	0.19251165
105	0xbca06c7b	-0.019582978
106	0x3e420d61	0.18950416
107	0x3ea0c7f4	0.31402552
108	0xbe8b6f9d	-0.27233592
109	0x3ea1ae22	0.31578165
110	0x3e85bfe6	0.2612297
111	0x3e083cfb	0.13304512
112	0xbd963135	-0.07333604
113	0x3d8d7fcc	0.06909141
114	0x3de6e1ad	0.11273513
115	0xbe07056a	-0.13185659
116	0x3d837903	0.064195655
117	0xbdf1cd89	-0.11806781
118	0x3d603d36	0.054745875
119	0xbded3e10	-0.11584103
120	0xbc7f5056	-0.015583118
121	0xbec8f15d	-0.39246646
122	0x3c647cd7	0.01394578
123	0xbe82bf2b	-0.25536475
124	0x3f006449	0.50153023
125	0xbe29704e	-0.16546747
126	0x3dd09c2e	0.10186039
127	0x3e351d4d	0.17686959

adv_stream.2.weight f4 [6, 128]
0	0x3d6cc055	0.05780061
1	0x3e17ed38	0.14836586
2	0xbef6297d	-0.48078528
3	0xbe85e0eb	-0.2614816
4	0x3e118076	0.1420916
5	0xbdf827d5	-0.12116972
6	0xbd598c49	-0.053112302
7	0x3e2cdc3f	0.16880892
8	0x3e1aa2fd	0.15101238
9	0xbdedc321	-0.116094835
10	0x3eb81b36	0.3595826
11	0x3d9cf34c	0.07663593
12	0xbc890097	-0.016723914
13	0xbd9e3dfd	-0.07726667
14	0xbd3a4cbb	-0.045483332
15	0x3dd41552	0.10355629
16	0x3e835cc1	0.25656703
17	0x3ea3e97e	0.32014078
18	0xbf1bce43	-0.60861605
19	0xbdce25f9	-0.100658365
20	0xbccafc5f	-0.024778543
21	0x3e05c66d	0.13063975
22	0x3dbeb760	0.0931232
23	0x3debc2c7	0.1151176
24	0x3dd5009b	0.10400506
25	0x3d16aa19	0.03678331
26	0x3e371732	0.17879942
27	0xbe102706	-0.14077386
28	0x3e556680	0.20839882
29	0xb917cea7	-0.00014477466
30	0x3f1a33aa	0.60235083
31	0xbe1c3847	-0.15255843
32	0x3d8c5534	0.06852189
33	0xbd8f38fe	-0.06993292
34	0xbdef1502	-0.11673929
35	0xbdbb67f7	-0.09150689
36	0x3eef5dd2	0.46751267
37	0xbeebf764	-0.46087182
38	0x3def5f65	0.11688117
39	0xbd2dfe26	-0.042478703
40	0xbde5b78a	-0.11216648
41	0xbf00bc27	-0.502871
42	0xbd11e529	-0.035618935
43	0x3e9d2001	0.3068848
44	0xbe748ea9	-0.23882546
45	0x3dcbf28c	0.099583715
46	0x3d1ec7f7	0.03876492
47	0x3d2a0cc3	0.041516077
48	0xbd596c1f	-0.053081628
49	0xbe97c727	-0.2964413
50	0xba96a9d9	-0.001149471
51	0x3ef96cbc	0.4871577
52	0x3d2dbe00	0.042417526
53	0x3c88641e	0.016649302
54	0xbe840cc8	-0.25791
55	0x3ea04c34	0.31308138
56	0xbe25523d	-0.16144653
57	0xbf096529	-0.53669983
58	0x3f0293af	0.510066
59	0xbdd3570d	-0.10319338
60	0x3d85772d	0.065168716
61	0x3e52c660	0.20583487
62	0xbd369691	-0.044577185
63	0x3dbd96e0	0.09257293
64	0x3f158512	0.58406174
65	0x3eb1dfc4	0.34741032
66	0x3e9ce472	0.3064304
67	0x3d115352	0.03547985
68	0x3ec4ebb5	0.3846108
69	0x3ed9644b	0.4245933
70	0xbdff7c3f	-0.1247487
71	0x3d648d9d	0.055799115
72	0x3daa82d0	0.08325732
73	0x3c5941ff	0.013260364
74	0xbddc7901	-0.10765267
75	0x3ef1f5cb	0.47257838
76	0xbe5c7a37	-0.21530996
77	0x3eebbd58	0.46042895
78	0x3d1203ea	0.035648264
79	0x3d0c06ed	0.034186292
80	0xbe70204e	-0.23449823
81	0xbec9e78a	-0.39434463
82	0x3f0aafef	0.54174703
83	0xbc409c52	-0.01175602
84	0x3ea8d3ed	0.32974187
85	0x3ca695bd	0.020335073
86	0x3dcf161c	0.10111639
87	0x3e7a5b97	0.24449001
88	0x3e13451c	0.14381832
89	0x3dbbddad	0.09173141
90	0x3ef1cd1f	0.47226807
91	0xbda0bfda	-0.07849093
92	0x3e4b105d	0.19830461
93	0x3f04a521	0.51814467
94	0x3e0b040f	0.13575767
95	0xbb590f39	-0.0033120646
96	0x3e32eb3c	0.17472547
97	0xbec2b90e	-0.3803181
98	0x3edc2699	0.42998198
99	0x3c5fb9f7	0.013655177
100	0x3e593861	0.21212913
101	0xbe870f98	-0.26379085
102	0xbdcce26f	-0.10004126
103	0x3ddbc71b	0.10731336
104	0xbe05ad8c	-0.13054484
105	0xbd0021ec	-0.03128235
106	0xbe269e08	-0.16271222
107	0x3d6a112a	0.057145275
108	0x3ca9ce69	0.020728307
109	0x3eeda5e0	0.46415615
110	0x3c2cc0af	0.010543986
111	0x3e9b5bcf	0.30343482
112	0xbd74d714	-0.059775427
113	0xbe6cda41	-0.23130132
114	0x3d68166d	0.056662012
115	0x3e29a392	0.16566303
116	0xbe0749f4	-0.13211805
117	0xbdfa006f	-0.12207114
118	0xbc8cc421	-0.017183365
119	0x3d833229	0.06406052
120	0xbd521007	-0.051284816
121	0x3e32e5e7	0.17470513
122	0xbe152052	-0.1456311
123	0x3dbd3ec3	0.092404865
124	0x3e871e1e	0.26390165
125	0x3ebea9e0	0.3723898
126	0x3e03ec5c	0.12883133
127	0xbcd6c78a	-0.026218195
128	0xbd172411	-0.03689963
129	0x3c9fd8dc	0.019512586
130	0xbdbbd672	-0.091717616
131	0x3e88493e	0.2661838
132	0xbd04e54c	-0.032445237
133	0x3e610cbd	0.21977516
134	0x3d571fa3	0.052520406
135	0xbd014d52	-0.03156788
136	0x3dcc7372	0.09982957
137	0xbd889339	-0.066687055
138	0x3ed10193	0.40821514
139	0x3d874c90	0.066064
140	0xbd1fb450	-0.03899032
141	0xbe7c1d93	-0.24620657
142	0x3db46cb7	0.08809798
143	0xbed006c1	-0.40630153
144	0xbe860b4f	-0.26180503
145	0x3c6de9df	0.014521091
146	0xbdc417cc	-0.095748514
147	0xbe0a879c	-0.13528293
148	0xbe72c888	-0.23709309
149	0xbee0614d	-0.43824235
150	0x3cd9e29a	0.02659731
151	0x3e0deb4c	0.1385929
152	0xbe72d555	-0.23714192
153	0x3d051752	0.032492943
154	0xbe3ac239	-0.18238153
155	0xbd80915c	-0.06277725
156	0x3e8e52cf	0.27797553
157	0x3e201ff8	0.15637195
158	0xbe98faab	-0.29878744
159	0x3d8c6ec8	0.06857067
160	0x3e8cdeae	0.2751364
161	0x3e4d7de2	0.20067552
162	0xbd3098e7	-0.04311457
163	0xbe4c9836	-0.19979939
164	0xbf208706	-0.6270603
165	0xbe0addcc	-0.13561171
166	0xbc2fbbdd	-0.010725942
167	0xba2ee49d	-0.0006671639
168	0xbda0f21b	-0.07858678
169	0xbe29ca1a	-0.16581002
170	0xbd3346fb	-0.043768864
171	0xbdd8c1b4	-0.10583821
172	0x3d26fb1a	0.040766813
173	0x3dce8d28	0.10085517
174	0xbe9dd33b	-0.3082522
175	0x3d7ce4ad	0.06174152
176	0xbd7675e4	-0.060171023
177	0xbda161ca	-0.0787998
178	0x3efc3c3d	0.49264708
179	0xbddddadd	-0.108327605
180	0x3df4429c	0.11926767
181	0x3dd252bb	0.10269686
182	0xbdde596f	-0.10856902
183	0xbe780be9	-0.24223293
184	0xbe1badd5	-0.1520303
185	0xbd89d94d	-0.067309
186	0xbe2649da	-0.1623911
187	0x3d79bc00	0.060970306
188	0xbd5a7a07	-0.05333903
189	0xbd3f3980	-0.046685696
190	0xbe732399	-0.23744048
191	0x3e8279bb	0.25483498
192	0x3ee0e7a9	0.43926743
193	0xbebe0916	-0.37116307
194	0x3e41c660	0.1892333
195	0x3e3dac4e	0.1852276
196	0x3ea2f914	0.31830657
197	0xbf20b939	-0.6278263
198	0x3d3c9913	0.04604442
199	0x3e6132de	0.2199206
200	0xbe194bb6	-0.14970288
201	0x3d7560b7	0.059906688
202	0xbd84aa69	-0.06477816
203	0x3d842ff6	0.0645446
204	0xbdc9f3bc	-0.09860942
205	0x3d065600	0.03279686
206	0x3cd8a7ab	0.026447138
207	0x3db438b3	0.08799877
208	0x3f09086c	0.53528476
209	0xbec17e54	-0.37791693
210	0xbf3869ab	-0.72036237
211	0x3da8496d	0.0821713
212	0xbf084496	-0.53229654
213	0x3e92f7a6	0.28704566
214	0xbc164342	-0.009171309
215	0xbab3f6e0	-0.0013730191
216	0xbef31878	-0.47479606
217	0xbcdac81a	-0.026706744
218	0xbeee3ce2	-0.46530825
219	0xbeb308c5	-0.34967628
220	0x3d31c767	0.043403056
221	0x3e089d65	0.13341291
222	0x3dec4bdc	0.115379065
223	0x3e1cd0b1	0.15313984
224	0xbea415cc	-0.3204788
225	0x3f0a31d7	0.539823
226	0xbd52f5e9	-0.05150405
227	0xbe01e7e9	-0.12686123
228	0x3e1bad13	0.15202741
229	0x3e32758f	0.17427658
230	0xbd5ffda0	-0.054685235
231	0xbe7d91d2	-0.24762657
232	0x3e93f542	0.28898054
233	0xbdd0b3a6	-0.10190515
234	0xbe1aa1af	-0.1510074
235	0x3e978f78	0.29601645
236	0xbb80d848	-0.0039320327
237	0xbeb52e48	-0.35386872
238	0x3eca69d4	0.39533865
239	0x3d00361a	0.031301595
240	0xbcca6979	-0.024708496
241	0xbe1c40cb	-0.15259092
242	0x3e3a8e20	0.18218279
243	0x3dc267f3	0.09492483
244	0xbda5d87b	-0.08097931
245	0x3e12be85	0.1433049
246	0x3e809c7e	0.25119394
247	0x3db61db1	0.08892382
248	0x3e3d4d69	0.18486561
249	0xbddf2ade	-0.10896848
250	0x3de6d1b8	0.112704694
251	0xbd931501	-0.071817406
252	0xbeff2178	-0.49830222
253	0xbd9bfc32	-0.07616462
254	0xbdcecba6	-0.100974366
255	0x3d5c08d1	0.053719345

adv_stream.2.bias f4 [6]
0	0xbefd3ba2	-0.4945956
1	0xbd51acb7	-0.051190104
2	0x3ee94c56	0.45566052
3	0x3ee4e1bb	0.4470347
4	0xbd43862b	-0.047735374
5	0xbf9a071c	-1.203342
