dqn_model_player_1.pth (torch, 840162 bytes, 44 tensors)

feature_layer.0.weight f4 [128, 6]
00000000: 1cb2 73bd 3bb2 043b 13be dfbc 6ee5 e53c
00000010: a0f0 adbe c9e0 06bf 8cb8 293d b179 793d
00000020: a5ee 9b3c a56f 81bd 7d5f 11bf 15bc ccbe
00000030: 17e3 88bc f8bc 713d c40a 8ebd f8e4 37be
00000040: d272 ecbe 0e1b 8bbe ad2d 333d d7ce 96bb
00000050: f56a 0abe a1ea 04bd 7257 12bd 7aa5 b1be
00000060: 5d6b 00ba 5b4e 72be ab90 223c 95b9 003c
00000070: b94a 403e b97f c5bd efcd dabd 44bf b8bd
00000080: 661a 213c b019 31be 0145 00be 4ce6 4abf
00000090: 5661 903c 83d6 573c 6eef 3a3d 790a 8ebd
000000a0: 7279 88be 058c 55bf abc5 0fbd 9619 9e3c
000000b0: 70ce da3c 6c43 ebbd 1d51 0abe 1ef8 44bf
000000c0: d0b3 f53c a7df a8bc 83c3 05be 1808 0bbe
000000d0: 08ae 813d cb8b 70be c534 1fbd ffa4 81bd
000000e0: 7ea7 17bc 223b 2fbe 7de4 54be cf11 debe
000000f0: c673 04be 9280 01bd ae4b 6abd 0d0f eebd
00000100: 2c24 1dbf 398e 5abf b3c1 cb3c 3ce0 e6bc
00000110: c359 1ebd 4b22 8cbd be96 f03b 4c55 43bf
00000120: 4956 67bc a2d3 75ba faa3 0dbb ee57 00bd
00000130: b714 79bc aa6b b8be 9b0f d1bd 90d0 b0bd
00000140: ddfa 913d 9aba e9bc cbcf b6bf 108c 523e
00000150: 8565 c63d 0bbf c1bd 4f13 f2bd c925 debd
00000160: 7cae adbf b7be 703e 49dd 5cbe 2274 8bbd
00000170: 1e4a ccbc 0096 5cbe 58b4 14bf 1509 e4bd
00000180: 3c5d 95bd 54dd 2fbd a016 92bc 06ef 22be
00000190: 7720 8abe 1c20 15bf b630 88bd 035f 753c
000001a0: c938 fcbc c6c4 a4bd ace9 e3be 35f7 fdbe
000001b0: 5469 fc3c 662f 3cbc ca8b dcbd e8d1 aebd
000001c0: 3fd6 0cbd dc78 98bf 4f84 37bd e38f e93c
000001d0: 56e8 3e3c 20d2 3cbd 28cf 06be d2c8 7fbf
000001e0: 0f0f 07bd c7b9 733c 81c9 373d 888d 08be
000001f0: fb35 48bd d2c3 17bf 821e 79be 2eb1 513c
00000200: ec52 bb3c 7951 26bb ce38 edbe 9368 0fbe
00000210: d1e7 273e bd02 e73c 9c7c a4bd aec6 e13c
00000220: 5e18 3fbe f234 83bf 657f 14be d0a0 d4bd
00000230: e8bb 39bc 9799 fe3c 72f9 29be f322 87bf
00000240: 282d 84bd 69cf 033e 3181 843c 338f 903d
00000250: e23d 043e 0abc 21be fd59 81bd 343f 7fbd
00000260: 3404 18be 661a 1f3c 7997 b7be 5a46 c23c
00000270: 782b 043d fb3e c63d 04a0 14be 4b06 4f3e
00000280: a772 9dbc 0894 13bf d2c4 8f3c 8470 a2bd
00000290: fa4f 96bb efdf 01be f1d6 22bd b736 85bf
000002a0: a98b ebbd f3ae c13c 6008 d73c 1fc2 cdbe
000002b0: 2ddc 223e 2ca6 7c3d 7a7d 16bd 2721 003d
000002c0: e245 6a3c 1d23 8cbd 8c91 52be cbc0 06be
000002d0: 5ae7 fe3d 324e e03d a8ee 1cbe 66ec 4cbe
000002e0: 3644 9fbe 0be0 1abf c566 a9bd 501d c03c
000002f0: 41be e0bd 2b39 083c 926e 443d 15f7 aabe
00000300: 7813 92bd 48b0 77bc b9c8 5abd c037 cbbc
00000310: f3db a43d 49b9 edbe 9b34 26be e54c e0bd
00000320: d1cc 373e 8dff 783d 95d9 4c3e 38e8 51be
00000330: 8519 8bbd 1361 29be 4bb8 f2bd 7429 ae3d
00000340: f31d c4bf 4eef 043e 6bfb 01bd 64f2 00be
00000350: 0cdf 283e a195 ef3d 08ba 6abd be3e 12bf
00000360: fdee cbbc b95a a2bc 5f68 083d c7c5 88bd
00000370: 4973 1fbe e05d e5be ba22 0cbe 4501 20ba
00000380: 70a3 45bd 3bfc a1bc b38e b1bd 5412 0fbf
00000390: cec7 65be 3d80 2fbe ddfa b83c 1fab 3dbe
000003a0: b850 733c f603 1e3d 51c3 79bc 4a1c c9bd
000003b0: d037 f73c 5ec4 b5bd c772 edbe e0be 8e3e
000003c0: aafc 3dbe 60b6 c33d f67e 67bd 73d8 0fbd
000003d0: 1b10 23bf 36b8 d1be 9d5a 303e 56ca 07be
000003e0: c9fb 7cbe cff7 3dbe 44f0 b6bd 8b37 afbc
000003f0: 8a66 09bd 5f34 d1bd 77b4 a73d 314b 70bd
-0.05949603 0.0020247835 -0.027312314 0.028063502 -0.33972645 -0.52686745 0.041435763 0.06090707
0.019034693 -0.06320123 -0.5678633 -0.39987245 -0.016709847 0.059018105 -0.06935647 -0.17958438
-0.4618135 -0.2716908 0.04374473 -0.004602294 -0.13517363 -0.032450322 -0.035727926 -0.3469656
-0.0004898811 -0.23662703 0.009922187 0.007856746 0.18778504 -0.09643502 -0.1068381 -0.09020856
0.009832954 -0.17294955 -0.12526323 -0.79257655 0.017624538 0.013173702 0.045638494 -0.06935591
-0.26655155 -0.8341678 -0.03510062 0.01929931 0.026709765 -0.11487469 -0.13507505 -0.76941097
0.029992968 -0.020614458 -0.13062863 -0.13577306 0.06332022 -0.23490827 -0.038868684 -0.06330299
-0.009256242 -0.17112401 -0.20790286 -0.43372962 -0.12934789 -0.031616755 -0.05720108 -0.116239645
-0.6138332 -0.85373265 0.024872636 -0.028183095 -0.038659822 -0.06842478 0.0073421886 -0.7630203
-0.014119693 -0.0009377544 -0.002161263 -0.031333856 -0.015202693 -0.3601964 -0.10208055 -0.0863353
0.071279265 -0.028531361 -1.4282163 0.20561242 0.09687332 -0.09460267 -0.11820089 -0.10847051
-1.3568873 0.23510252 -0.21568789 -0.0680926 -0.024937686 -0.21541595 -0.5808768 -0.11134545
-0.07293174 -0.042935684 -0.017833054 -0.15911493 -0.26977894 -0.5825212 -0.06649916 0.014976266
-0.030788796 -0.08045344 -0.44514215 -0.49602666 0.030811943 -0.01148591 -0.1076885 -0.0853613
-0.03438401 -1.1911883 -0.044803914 0.028510993 0.011652073 -0.04609883 -0.13164961 -0.999158
-0.032973345 0.014875836 0.044869903 -0.1333524 -0.048879605 -0.59283173 -0.24328044 0.012798591
0.022866689 -0.0025378151 -0.463324 -0.14004736 0.16397025 0.028199548 -0.0803158 0.027560558
-0.18661639 -1.0250533 -0.14501722 -0.10382235 -0.011336304 0.031079097 -0.16599062 -1.0557541
-0.06453925 0.1287209 0.016174885 0.07058563 0.12914231 -0.15794387 -0.06315992 -0.062316135
-0.14845353 0.009710884 -0.35857752 0.023715187 0.032268018 0.09679981 -0.14514166 0.20217244
-0.01921971 -0.5764775 0.017549906 -0.07931617 -0.0045871707 -0.1268308 -0.039755765 -1.0407323
-0.115012474 0.023642993 0.02624911 -0.40187165 0.15904303 0.06168191 -0.036740758 0.031281617
0.014298888 -0.06842635 -0.20563334 -0.13159482 0.124464706 0.109524146 -0.15325415 -0.20012054
-0.31106728 -0.6049811 -0.08271555 0.023451477 -0.10973788 0.008314411 0.04795701 -0.33391634
-0.071326196 -0.015117712 -0.05341408 -0.024806857 0.080497645 -0.46430424 -0.16231005 -0.109521665
0.17949225 0.060790587 0.20004876 -0.2049874 -0.06791977 -0.16540937 -0.11851557 0.08504
-1.532164 0.12981912 -0.03173391 -0.12592465 0.16491336 0.11698461 -0.05730632 -0.57126987
-0.024894232 -0.01981865 0.03330266 -0.06678348 -0.15571322 -0.44798183 -0.13685122 -0.0006103705
-0.04825157 -0.019773593 -0.08669796 -0.5588734 -0.224395 -0.17138763 0.022580558 -0.18522309
0.014850788 0.038577996 -0.015244321 -0.09819849 0.03017798 -0.08875345 -0.4637663 0.2788
-0.18553415 0.0955627 -0.056517564 -0.03511853 -0.6369645 -0.40960854 0.17222066 -0.13260779
-0.24705423 -0.18551563 -0.08932546 -0.02138879 -0.033545054 -0.10215067 0.08188718 -0.058665458

feature_layer.0.bias f4 [128]
00000000: 379e afbe e159 45be 045c d5be 60f7 ce3c
00000010: af28 97be dd33 bbbe 8046 59be a60f 8cbe
00000020: 6e79 0bbf dd8f dcbd 3370 9ebe 39c1 9ebe
00000030: d3ce 80be f3fd 45bb 81ed 06be 0bcd e8bd
00000040: e15c 89be 68d0 8fbe 4700 fcbe 7565 5dbe
00000050: 7268 9ebe f550 8cbe a02f a9be 197f 59be
00000060: 0820 54be 6e4f fe3d 680c 1f3d 2a70 b5be
00000070: 2e1c bebe 5728 01be c510 cdbe af24 00be
00000080: 0c08 c1be 4482 753e e58d cd3d b06a 193e
00000090: 4756 b4be f24b 3cbd d2db 79be 95b4 1cbe
000000a0: fe44 20be c23b 02be e5be c0bb fd32 f6be
000000b0: 84f2 8cbe 4d32 afbe e9b7 3bbe d12b 02be
000000c0: 1246 f5bd d277 81be d3b0 85be 71d0 41be
000000d0: ef00 49be 514b 95be 6f1c 98be a98e e2be
000000e0: a5ac 793e a921 5cbe 65b7 f0be 5d35 f6be
000000f0: b572 98be 392d a9be 176e 9abe 1a68 35be
00000100: 981b 1fbe e837 b9be 7c59 66be 6ade 88be
00000110: 6c5f 91be 27ed 71be e658 b9be d6fb 6dbe
00000120: aadb 05be bac5 7abe a186 b3be 68ca 56be
00000130: f3da 11be ad19 c6be fc5f 91be ef0d 5ebe
00000140: bfb8 8cbe a229 c8be 6f0d 7fbe 23b6 78be
00000150: 2684 49be 836c 48be d7cd a6be 7e98 03bf
00000160: acdb 43be d0f4 dabe 07ec 0dbe 6543 c4be
00000170: e687 bebe 2d85 b4be 2533 a0be 033e aabe
00000180: 0710 48be c88d 90be 1157 80bd 6efb 8dbe
00000190: 4df7 83be da2c aebd 9ef8 a2be 38d0 b8be
000001a0: 3e13 72bd 313c 10be 80e4 8fbe 5932 13bf
000001b0: 7c34 04bf 47b5 8d3e dad6 cc3d 51b5 b8bd
000001c0: 1cd5 babe b5bc c0be 5016 9fbe 49a3 bbbd
000001d0: dfe2 9ebe 082a 1e3e 54f0 96be db75 e9be
000001e0: e11f 3fbe 730b 6cbe dc84 48be c34f 84bc
000001f0: ec73 b5be 2e58 683e 3182 c8be c08d 12bd
-0.34300396 -0.19272567 -0.41671765 0.025264442 -0.29523227 -0.36563006 -0.212183 -0.2735569
-0.5448216 -0.10769627 -0.30944976 -0.31006792 -0.25157794 -0.003021118 -0.13176538 -0.11367234
-0.26828673 -0.2808869 -0.49218962 -0.21620734 -0.3093906 -0.27405515 -0.33044147 -0.2123989
-0.20715344 0.12417494 0.03883019 -0.35437137 -0.37130874 -0.12613045 -0.40051857 -0.12513994
-0.37701452 0.23975474 0.1003683 0.14982104 -0.35222074 -0.045970865 -0.24400261 -0.15303262
-0.15651318 -0.12718108 -0.0058821314 -0.48085776 -0.27528775 -0.34218064 -0.18331875 -0.12712027
-0.119762555 -0.25286728 -0.2611147 -0.1892717 -0.19629262 -0.29159024 -0.29709193 -0.44249466
0.24382265 -0.21497215 -0.4701492 -0.48087588 -0.29775015 -0.33042315 -0.30162117 -0.17715493
-0.1553787 -0.36175466 -0.22495073 -0.26732188 -0.28393114 -0.23625623 -0.36200637 -0.23240599
-0.13072076 -0.24489489 -0.3506365 -0.2097565 -0.14243679 -0.38691464 -0.28393543 -0.21685003
-0.274847 -0.39094263 -0.24907468 -0.2428823 -0.19679317 -0.19572644 -0.32578918 -0.5140456
-0.19126767 -0.42764902 -0.13859569 -0.38332668 -0.37213057 -0.35257855 -0.3128902 -0.33250436
-0.19537364 -0.2823317 -0.062666066 -0.27730888 -0.25774613 -0.085046485 -0.31830305 -0.36096358
-0.059100382 -0.14085461 -0.2810402 -0.574987 -0.51642585 0.27677366 0.10001917 -0.09018958
-0.36490715 -0.37643972 -0.3107171 -0.091620035 -0.31032464 0.15445721 -0.2948023 -0.4559773
-0.18664505 -0.23051243 -0.19581932 -0.016151315 -0.35440004 0.22689888 -0.39161828 -0.035779715

feature_layer.2.weight f4 [128, 128]
00000000: e8a6 9ebe 7fe7 c6be 8461 60be 54fc 19bd
00000010: 81fb d63c 547a 063e 42f5 65be d0c2 a4bd
00000020: e6cc a5be 0d33 9ebe 2934 08be c535 5fbe
00000030: 6284 1bbd c5ac 3e3d aa5a a4be a03e e9be
00000040: 29a5 9dbe 8df2 13be 5908 98bd 8275 04be
00000050: 88d9 73bd 7f0c 343e 0b13 b8be eb7e 2abd
00000060: 603d abbd a50e 80be 9e7d e0bd ea7a 50be
00000070: 77e6 c0bd 36eb 64be 5c4f 43bf 5a48 4bbd
00000080: 7e21 80bd 41ba ec3e 7578 c8be 29ba 2c3e
00000090: 053d 01be 690e 32bd cf4c eabd 4cea 01bf
000000a0: ed4b afbe 55fb 08bf 255c 24be 5038 16be
000000b0: f336 b7bc 06b9 10be b1ca 02bf 99e6 bebc
000000c0: e6b7 943e e46f 90be 43bf 263d c020 54be
000000d0: 6a2a 7d3c 535c b7bc 18bb 43be f412 49bb
000000e0: 8c40 6dbe 572c 8fbd fcc5 39be a991 f0bb
000000f0: 5f49 a0bd 148d 3cbd 98cf 77be 554e 47be
00000100: e0f1 8dbe 585c 17be 9aae da3b 7f73 1cbd
00000110: 11a4 24ba 08bb b9bd b251 32be 0fde 5ebe
00000120: 7cef 933e 3caf 57be c2bd bbbd ff45 13be
00000130: cba1 a9be eda0 4fbd aaac 6dbc b822 7bbc
00000140: bacc ddbd 997c 3bbd 8aa2 263d 9ddc 9dbe
00000150: fb17 e5be be9f ef3d 95c1 41be 9a7e 37be
00000160: 1880 4bbf c4ea e93d 232b 89be f408 96be
00000170: 35d6 47be 3a6e 82be bb04 a03e 3baf 74be
00000180: 86f5 8abe 6d59 3dbe 2ddc d9be e2ab 89be
00000190: fc82 b0be c0d5 b4be 8add f1be e81d 7abe
000001a0: 15fb f3be 5940 ddbe 86e0 cabd ec0f b2bc
000001b0: 1d16 afbd 0702 343e dad2 8dbd 1d8a 75be
000001c0: 98b2 34bd 47fd 2dbe 0d39 d9be b85f 6ebe
000001d0: 1404 56be ae46 813e 373a 7dbe de2e b9bd
000001e0: 41b2 d6bd 7e6f 57bd 2715 56be 8b79 c93d
000001f0: 8606 3abe 2930 24bd 5378 1fbe cf55 71be
00000200: 5554 863d fe7a b03d cccc f13b e46f ca3d
00000210: 72a8 98bc 7493 8bbe 86a3 61be 6c07 c7bb
00000220: 3d0a d8bd e740 3dbd e31d 1bbe 1a74 01be
00000230: 916f 09bd 90b8 edbd d66f fb3d d700 47be
00000240: d762 adbd 92d2 e3bd c4f7 62be 90d2 0c39
00000250: 0f1d bd3d fe83 81bc bcc3 babe 72b3 15be
00000260: 5c99 183d 1d7c 0e3e 9f85 c23e 1450 52be
00000270: e2f3 59be b9b6 073c 268e 72be 6d1e 8e3d
00000280: 3910 fdbd 1c31 b0b9 f050 93be b320 2ebe
00000290: d244 1ebe 30f6 3b3d 1ae8 c9be 01b4 9fbc
000002a0: 2a32 f6bd 9e1c 423e a550 cebd 9958 a2bd
000002b0: 7c1c c5bd de47 3abe 8f26 03be dfd7 033e
000002c0: dd82 303c e28e 1d3b b820 9b3d f7be 9f3b
000002d0: d8ce 44be edee 5e3d c70f 113b a005 95be
000002e0: 9a3d 03bf c96e 1ebe 889a 0ebe 60fb 9cbc
000002f0: 1814 16bd cbef 0abf a596 49be c774 11be
00000300: e98a 583d ef95 4dbc b7ed 12be 375e c0bc
00000310: e5fe 4bbe 61eb 06be 4165 80bd 98c9 35bc
00000320: 732b 6c3d 184d 25be fca3 9d3b 8f26 27be
00000330: 11c8 5e3d 89b5 643e 8ae1 acbe e1f9 993d
00000340: 764c 8dbe d19e 45be 1ac7 16bb a9ad 94bc
00000350: 888d 89bd 9fec fc3d eef8 71be ea97 9ebd
00000360: 6954 32be 3562 1bbd 8bb1 03be 17ec 84be
00000370: b96c 19be fa4d 8abe c6ee e8bd 9266 ecbd
00000380: 0afe d3bb 027e ccbc 2c60 2cbe 2a91 8d3c
00000390: a7e0 d9bd be83 8cbe 7093 aebe f15f f5bd
000003a0: c5c4 c43c b70c 14be 70cc 24be 8208 ecbe
000003b0: e66d 74be 4810 063e 4dd4 cf3d 5ac2 6bbe
000003c0: 5473 14bf 2b87 2abe f7a7 76be e268 b9be
000003d0: 71f1 d8bd 9893 383d 820a 45bd 4758 35be
000003e0: 93f4 103d c595 91bc 3eb8 c83c bb26 d7bd
000003f0: bfa9 d3bd ce4a 24bc 25de 50bd 6a4e 33be
-0.30986714 -0.38848493 -0.219122 -0.037594154 0.026242973 0.13132602 -0.2245684 -0.0804497
-0.32382888 -0.30898324 -0.13301148 -0.21797855 -0.037968047 0.046551485 -0.3210042 -0.45555592
-0.3079007 -0.14447995 -0.07423467 -0.1293545 -0.059533626 0.17582892 -0.3595203 -0.041624945
-0.08361316 -0.25011173 -0.109614596 -0.20359388 -0.09418958 -0.22355351 -0.7629297 -0.049629547
-0.06256388 0.4623585 -0.391544 0.1686789 -0.12620933 -0.043470774 -0.11440431 -0.50748134
-0.34237614 -0.535085 -0.16050775 -0.14669919 -0.022365069 -0.14133081 -0.5109053 -0.023303317
0.29046553 -0.28210366 0.040709745 -0.20715618 0.015452007 -0.02238289 -0.1911434 -0.0030681463
-0.23169154 -0.06990879 -0.18141931 -0.007341583 -0.078264944 -0.04603298 -0.24200284 -0.19463475
-0.27723598 -0.1478132 0.006673646 -0.038196083 -0.00062805513 -0.090688765 -0.17413977 -0.21764396
0.2889365 -0.2106294 -0.09167053 -0.1438217 -0.3313125 -0.05069058 -0.014506498 -0.015328102
-0.10830064 -0.045773122 0.040682353 -0.30832377 -0.44744858 0.1170039 -0.18921502 -0.17919388
-0.7949233 0.11421731 -0.26790723 -0.29303706 -0.19515307 -0.2547472 0.3125361 -0.2389497
-0.27140445 -0.18491144 -0.42550793 -0.2688895 -0.34474933 -0.35319328 -0.47239333 -0.24425471
-0.47652498 -0.43213156 -0.09906106 -0.021736108 -0.0854914 0.17578898 -0.06924982 -0.23978467
-0.044115633 -0.16991149 -0.4242634 -0.23278701 -0.20899993 0.25249237 -0.24729238 -0.09042142
-0.10483218 -0.05259656 -0.20906506 0.098376356 -0.18166551 -0.04008499 -0.15573244 -0.2356789
0.06559054 0.08617209 0.00737915 0.09884623 -0.018635008 -0.27260935 -0.22035035 -0.006073883
-0.10548828 -0.046204474 -0.1514812 -0.12641945 -0.033553664 -0.11607468 0.122771904 -0.19433914
-0.08466118 -0.111241475 -0.22164828 0.00013429881 0.09234058 -0.01581001 -0.36477458 -0.14619234
0.03725563 0.13914533 0.3799257 -0.2053836 -0.2128444 0.008283311 -0.23687038 0.06939397
-0.1235661 -0.00033605925 -0.28772688 -0.17004661 -0.1545594 0.04588908 -0.39434892 -0.019495012
-0.12021287 0.18956229 -0.100739755 -0.07927055 -0.096245736 -0.18191478 -0.12807678 0.12875317
0.010773388 0.0024041464 0.075746 0.0048750597 -0.1921953 0.054427076 0.0022134648 -0.29105854
-0.5126587 -0.15471949 -0.13926136 -0.019162834 -0.036640257 -0.54272145 -0.19686373 -0.14204703
0.05286685 -0.012547954 -0.14348494 -0.023482425 -0.19921453 -0.13175727 -0.06269313 -0.011095427
0.057658624 -0.1614269 0.004810808 -0.16323303 0.054390017 0.22334875 -0.33765823 0.07518364
-0.27597398 -0.19298865 -0.0023006857 -0.018149214 -0.06716448 0.123498194 -0.23630115 -0.07743819
-0.17415012 -0.037935454 -0.12860696 -0.25961372 -0.1498288 -0.27012616 -0.113736674 -0.11543001
-0.006469493 -0.024962429 -0.16833562 0.017281134 -0.10638552 -0.2744426 -0.3409686 -0.1198119
0.024019608 -0.14457975 -0.16093612 -0.4610024 -0.23870048 0.13092148 0.10147915 -0.23023358
-0.57988477 -0.16653125 -0.24087511 -0.36212832 -0.10592926 0.04506263 -0.048105724 -0.17709456
0.035389494 -0.017771611 0.024501916 -0.10505434 -0.10335111 -0.0100276 -0.050993104 -0.17510381

feature_layer.2.bias f4 [128]
00000000: 483b d63e ef2c de3e b29e cfbe 3752 153f
00000010: 6bee c8be d327 53bf abee 75be c874 05bf
00000020: bd81 68bf 0e22 4abf 2dcd 57bf 5ad8 8d3c
00000030: 3b28 063f ae30 013f 90df 45bf dc07 0e3f
00000040: 95f1 50bf f8b8 20bf 5a89 d83d 70c1 22bf
00000050: 9325 f7be f922 abbe 59c4 60bf 344f 33bf
00000060: 9693 08bf cb05 2bbf 12c5 11bf 7de7 e3be
00000070: 9097 c63e ed12 29bf 8d59 323f c091 1fbf
00000080: ffc5 5bbf e07b 0a3f 182e 3fbf c472 5dbf
00000090: 7d86 aabe 5aa2 e8bd 335d 37bf 0344 42bf
000000a0: c4b0 4dbf 709e 193f 7dd4 32bf cb86 d6be
000000b0: 3c60 57bf e2bc 943e 571b 3d3d 126a ad3e
000000c0: a710 52bf a262 18bf a7f9 153f 516b bbbe
000000d0: 81e9 42bf 47b3 65bf 0f58 42bf 34e4 11bf
000000e0: a103 53bf a647 3abf b19a 9ebe 664d d1be
000000f0: 2489 0fbf d382 5abf fd41 42bf 1e4a 44bf
00000100: 4fd4 babe db20 3a3f 2f65 2fbf e3e9 25bf
00000110: f401 2bbf 9935 5f3e 2b3a adbe 0b53 b7be
00000120: 1650 b8be 1de0 4cbf 596a 48bf 43cb 45bf
00000130: 543c 52bf e351 95bd 35d1 51bf b925 f43e
00000140: a91e 5cbf 485e 69be 6f24 00bd bd69 46bf
00000150: 68bb efbe b9ba 16bf 9921 023f e6c3 043f
00000160: 6392 47bf e5ec 203f 2c25 3cbf b82c ebbd
00000170: 8ee9 4cbf db2f 4bbf df56 49bf e749 37bf
00000180: ac37 463e e1ea 193f 9961 213f 5920 42be
00000190: 3645 6a3e cb9f e83e b213 803d 59c8 3b3f
000001a0: b924 f2be 22d4 bebe 1fcf 3ebf c59e 503f
000001b0: 2d2b 393f 67a9 d4be 1451 3fbf 0993 0cbf
000001c0: 2e55 f43e b020 293f f124 33bf 656f c7be
000001d0: 4ba6 5ebf 06cc 14bf d760 4dbf 8bbe f53e
000001e0: bf94 06bf 0b08 d93e 81df 2dbd 6376 38be
000001f0: 17ee 063f 33b5 2ebf 33d1 2d3f 0acb 2dbf
0.41842103 0.43393657 -0.40550762 0.58328575 -0.39244398 -0.8248264 -0.24016826 -0.5213132
-0.90822965 -0.78958213 -0.8429745 0.017315079 0.52405137 0.50464904 -0.77294254 0.5548074
-0.81618625 -0.6278224 0.10573073 -0.6357641 -0.48270854 -0.3342512 -0.877996 -0.7004273
-0.533502 -0.66805714 -0.5694133 -0.4451255 0.38787508 -0.66044503 0.69667894 -0.6233177
-0.85848993 0.5409527 -0.7467971 -0.86503243 -0.3330573 -0.11359091 -0.71626586 -0.7588503
-0.8034785 0.6000738 -0.6985548 -0.41899714 -0.84131217 0.29050356 0.04616865 0.33869988
-0.8205666 -0.595255 0.58584064 -0.36605313 -0.7613755 -0.8972668 -0.75915617 -0.56988835
-0.8242741 -0.72765577 -0.30977395 -0.40879363 -0.56068635 -0.8535587 -0.7588194 -0.76675594
-0.36490104 0.72706383 -0.6851377 -0.6481001 -0.66799855 0.2179779 -0.3383344 -0.35805544
-0.359986 -0.8002947 -0.78287274 -0.7726328 -0.82123303 -0.07291009 -0.8195985 0.4768503
-0.85984284 -0.22789872 -0.031284746 -0.77505094 -0.46822667 -0.58878666 0.50832516 0.5186142
-0.77957743 0.6286147 -0.7349422 -0.11483139 -0.80043876 -0.79369897 -0.7864818 -0.7159714
0.19357175 0.6012402 0.6303955 -0.18957652 0.22877964 0.45434412 0.062537566 0.7335258
-0.47293642 -0.3727122 -0.7453479 0.81492263 0.72331506 -0.41535494 -0.7473309 -0.5491186
0.47721237 0.660655 -0.69978243 -0.38952175 -0.8697249 -0.58123815 -0.8022589 0.47996935
-0.5257072 0.4238895 -0.042449478 -0.18013911 0.52707046 -0.6824524 0.6789734 -0.6788794

value_stream.0.weight f4 [128, 128]
00000000: 841d 183e 57e6 593e b2e4 91bd 4120 0e3e
00000010: de97 cebd 3b6d 5bbe 7909 6abd c7f4 c8bd
00000020: 98fd e4be 2871 3abe ff96 ccbe 090f 253d
00000030: 6d0b 403e 4695 bb3d ebdb 2abe 34b3 463e
00000040: c77c 41be 5f05 d7bd 5a2e 3a3d 0daa 34bd
00000050: 2820 3cbc 5616 80bd 38f6 00bf 9f4e 5abe
00000060: 86fe 15be a1b3 0fbe 4bae 2abe 7a6d 7dbc
00000070: a77f f73d 7ac2 ebbd 00a7 623e d2ef 35be
00000080: 8ff0 6bbe 1fcf 453e 9445 74be 1d7e b6be
00000090: cce6 cd3d 0ba6 5bbe a2ff 0fbe df6a 32be
000000a0: 9b95 40be 2019 533e f4e8 36be 372c 71bd
000000b0: 6ac0 8dbe fc77 843e 3627 27be 8a70 85bd
000000c0: a38a 2dbe 7dee aebe dd7e e13d 968e 53bc
000000d0: 6702 29be 526e 8dbe fff3 ecbe 5255 afbd
000000e0: 3ae3 56be 19dd 12be 782d 48be 187d 58bd
000000f0: ccb5 cdbe 5613 76be c947 30be cd5f 1bbe
00000100: 4b36 29be fccf b83e a254 88be a630 1ebe
00000110: fc6a d0be 8970 ae3d c0d6 52be 11a3 91be
00000120: 8e2d 6dbd 2206 38be 13ac 38be 2074 25be
00000130: 3dbc 7fbe 4f66 823e 2bc1 30be c9cf d43d
00000140: 6052 63be 5c77 0abe c802 e9bd fa01 aebe
00000150: fb6f 8ebd 33f3 34be 47a0 2a3e 2453 063e
00000160: c187 69be e5c0 193e 8ab5 23be 000c ea3d
00000170: 9b55 40be 1290 36be eb7f 79be e235 1fbe
00000180: eb36 48bd 0c9d cb3d ac5f 793e 056d debd
00000190: ae86 333d 15e8 143e fbcd 9bbc 3bd5 853e
000001a0: 8dd5 13be bf24 babd 5452 f1be 2266 593e
000001b0: 9cfd 313e 21f7 1dbb e612 16be 1b10 ecbd
000001c0: a21f ab3d f829 253e 8c48 04be 1c0b 12be
000001d0: 5aa4 38be 847e f7bd 21e4 34be 6e3c 0a3e
000001e0: fa7f a5bd 9dd0 bb3d bd24 a03d bcb1 4c3d
000001f0: f6b3 1d3e 7664 f3bd 240c b23e 976f 0fbe
00000200: f74e 1c3e 5794 603e c868 8cbd e7f6 143e
00000210: 624a 8abd da09 5dbe a3f4 56bd 7d9d 60bd
00000220: df5c ebbe 9c90 30be c669 d2be f660 163d
00000230: 2bf5 3f3e 6f07 c73d 911d 30be e327 453e
00000240: 998d 4cbe 8393 dabd 3a38 3b3d e815 53bd
00000250: 74af 11bb 2c5c 87bd 872e 03bf 2610 5abe
00000260: eeb3 13be 2f85 f7bd 6a75 1ebe b9e0 4fbc
00000270: b25d 023e 1bcf fdbd 9dbc 6a3e 467c 81bd
00000280: 893f 6abe 1f45 483e 001c 73be ac88 b1be
00000290: b708 cd3d 0447 63be 5fe9 15be a4bf 34be
000002a0: 27ab 46be 4f28 523e abe4 2fbe 48ac 75bd
000002b0: b360 84be aaf8 8a3e 106d 27be c641 6abd
000002c0: b9e2 32be 82de b4be d6ca e33d 89c1 98bc
000002d0: 5903 22be bb7c 79be 3fad e5be 58d1 87bd
000002e0: d061 5abe b333 1fbe 37bc 2cbe ec3f b4bc
000002f0: 38d0 ccbe 4f38 72be d322 2fbe 4a69 24be
00000300: af09 12be cd14 bc3e 19a9 65be d783 18be
00000310: fc4a c8be e8a8 bc3d bb3b 4fbe 0be9 90be
00000320: 6a9b 58bd 872d 40be d474 41be b7de 2ebe
00000330: 6f44 66be 888f 8b3e 3653 3bbe e637 e53d
00000340: 9b5f 61be 52cb 08be 6056 fcbd 9bb6 96be
00000350: eb5e aabd 7c3b 28be b7fc 313e 3336 0a3e
00000360: 1855 40be 43b4 1f3e 5eb5 1dbe 724d ca3d
00000370: 18b7 45be 5ec1 3fbe d8d5 66be 4217 bbbd
00000380: a4be 43bd 5db3 dc3d e21a 803e a6b9 c5bd
00000390: 79d1 553d f02a 1c3e 6a8b 9dbc fe28 883e
000003a0: 2c8b 14be a554 24bd cce9 f2be facc 5e3e
000003b0: 8470 3a3e 7729 10bc ee13 1fbe 310b e3bd
000003c0: c2b2 b03d 216a 2b3e 2a75 07be 7ca7 fbbd
000003d0: bd3e 3fbe 55e2 99bd 3f6a 3fbe 6eb1 0a3e
000003e0: 174b acbd a2b1 c43d 6602 a33d 3c5a 8e3d
000003f0: 7c06 213e 1c3b aabd 2bcd b33e 9f17 12be
0.1485501 0.21279274 -0.07123698 0.13879491 -0.1008756 -0.21428387 -0.05713794 -0.098123126
-0.44724727 -0.18207228 -0.3995895 0.04029754 0.18754359 0.09159331 -0.16685455 0.19404298
-0.18895255 -0.10499071 0.04545436 -0.044107486 -0.011482276 -0.0625426 -0.503757 -0.21319054
-0.14647874 -0.14033367 -0.1666805 -0.015467996 0.120848946 -0.11511703 0.22134018 -0.17767265
-0.23040985 0.19317292 -0.23854667 -0.35643092 0.10053787 -0.21450059 -0.1406236 -0.1742358
-0.1880707 0.20615053 -0.17862302 -0.058880057 -0.27685863 0.2587279 -0.16323552 -0.06515606
-0.16947417 -0.34166327 0.110105254 -0.012912413 -0.16504823 -0.2762323 -0.46279904 -0.085611954
-0.20985118 -0.14342155 -0.19548595 -0.052853674 -0.40177763 -0.24030814 -0.17214884 -0.15173264
-0.16524617 0.3609618 -0.2662707 -0.15448245 -0.40706623 0.08517558 -0.20589733 -0.28444722
-0.057904772 -0.1797109 -0.18034391 -0.1615758 -0.24974151 0.2546868 -0.17261188 0.103911944
-0.22199392 -0.13522094 -0.113774836 -0.33985883 -0.06954952 -0.17670898 0.16662703 0.13117653
-0.22805692 0.1501499 -0.1598722 0.1142807 -0.18782656 -0.17828396 -0.24365203 -0.15547898
-0.0488805 0.09942064 0.24352902 -0.108606376 0.043829612 0.14541657 -0.019019118 0.26139244
-0.14436932 -0.0908904 -0.47133124 0.21230367 0.173819 -0.00241036 -0.14655647 -0.115265094
0.08355643 0.16129291 -0.129183 -0.1426205 -0.18031445 -0.12084678 -0.1766515 0.13499615
-0.0808105 0.09170649 0.07819507 0.04997419 0.15400681 -0.11884396 0.34774888 -0.14007412
0.15264498 0.21931587 -0.06855923 0.14547311 -0.06752469 -0.2158579 -0.052479398 -0.054837693
-0.45969293 -0.17242664 -0.41096324 0.036713563 0.18745868 0.09718215 -0.17198779 0.19253497
-0.1997589 -0.10672667 0.04570792 -0.051534563 -0.0022229822 -0.06609377 -0.5124287 -0.21295223
-0.14424106 -0.1208595 -0.15474477 -0.012687855 0.12731054 -0.12393018 0.22923513 -0.063225314
-0.22875799 0.19557618 -0.2374115 -0.34674585 0.10011428 -0.22195059 -0.14639805 -0.1765123
-0.19401227 0.20523189 -0.17177074 -0.059978753 -0.25855026 0.2714284 -0.16350198 -0.057191633
-0.174693 -0.3532601 0.11122672 -0.018646972 -0.1582159 -0.24363987 -0.4485874 -0.06631726
-0.21326375 -0.15547065 -0.16868673 -0.022003137 -0.40002608 -0.23654293 -0.17103128 -0.1605579
-0.14261506 0.3673462 -0.22427787 -0.14894043 -0.3911971 0.09211904 -0.20237629 -0.28302798
-0.05288259 -0.18767367 -0.18892223 -0.17077146 -0.22487043 0.27257943 -0.18293461 0.111923024
-0.22009127 -0.1335881 -0.12321162 -0.29436192 -0.083188854 -0.16428941 0.1738156 0.13497238
-0.1878246 0.15596108 -0.15401217 0.09878053 -0.19308126 -0.18726107 -0.22542512 -0.091352955
-0.04778923 0.10776398 0.2502051 -0.0965455 0.05220172 0.15250754 -0.019231517 0.26593775
-0.14506215 -0.040119786 -0.47443998 0.2175788 0.18206984 -0.0087989485 -0.15534946 -0.11086119
0.08627845 0.16739704 -0.13228288 -0.122878045 -0.18676277 -0.075138725 -0.18692873 0.13544247
-0.0841276 0.09604193 0.07959442 0.069508046 0.1572513 -0.083120555 0.35117468 -0.14266823

value_stream.0.bias f4 [128]
00000000: 36db 893f 4fea 8b3f 3990 8b3f 91d1 8b3f
00000010: 4a2f 5bbf ed23 8b3f 91d7 8b3f d794 6fbf
00000020: a0ef 8b3f c5fc 6fbf 721a 7ebf 182b 5abf
00000030: f37c 72bf 1333 883f 7a26 8b3f 1f66 6fbf
00000040: 1d23 8a3f 85fe 68bf 9a98 5ebf ba80 5fbf
00000050: c2d4 8b3f c18a 69bf ecf2 883f be6e 61bf
00000060: b72a 75bf 83c5 8b3f d7c5 8b3f 9ae3 8b3f
00000070: 8185 5abf 3c93 30bf f015 893f 3305 8c3f
00000080: 0825 74bf 16de 843f 7af9 8b3f e3bb 7dbf
00000090: 5531 8b3f ad23 7ebf b212 833f a2c9 76bf
000000a0: e2db 73bf 3188 72bf 73c1 57bf 5be2 27bf
000000b0: 7edf 76bf 612d 37bf 72cd 4ebf f0fe 64bf
000000c0: 896f 8b3f 1c90 883f b829 8b3f 44cf 8b3f
000000d0: 4f28 68bf 8a95 77bf 5007 72bf 2511 5abf
000000e0: f6d0 883f 2a9f 66bf 402f 68bf 4680 8b3f
000000f0: f5ab 883f fd4e 883f 5806 5fbf b5c6 8b3f
00000100: 0438 79bf b8ea 71bf f0d5 8b3f 5dd1 8b3f
00000110: 49cb 8b3f 8bcc 8b3f ac1e 52bf 23c1 73bf
00000120: 1f02 69bf b327 83bf b84a 67bf 53df 8b3f
00000130: 1f5c 70bf ef24 8b3f 4991 8a3f 85e8 8b3f
00000140: 5dad 74bf 1312 6fbf a1fc 6cbf 3240 8b3f
00000150: a553 70bf 60ea 8b3f c9c9 8b3f 22a3 60bf
00000160: fedd 6cbf 74f8 8b3f ebe8 8b3f bb3e 8b3f
00000170: 5869 8b3f 1fb2 69bf c6e1 883f cc9d 56bf
00000180: c3e4 8b3f cab8 5dbf 43d0 8b3f 7549 893f
00000190: 2ecf 883f e569 69bf 2bc7 8b3f df0f 6abf
000001a0: 61d7 76bf 717b 8b3f a3a9 7fbf 362b 3cbf
000001b0: 7c85 71bf 7db3 873f 6b26 8b3f 2ce7 8b3f
000001c0: 0864 6abf 5941 853f 17f1 8a3f d914 8c3f
000001d0: e0e0 883f 1d3e 71bf d670 71bf c223 59bf
000001e0: 2ac7 8b3f 3d80 64bf d425 6bbf 87ec 8b3f
000001f0: 0fcf 8b3f 97a7 5cbf e10b 69bf 85dc 8b3f
1.0770023 1.093088 1.0903388 1.092333 -0.8561903 1.0870339 1.0925161 -0.93586487
1.0932503 -0.9374507 -0.992591 -0.85222006 -0.9472191 1.0640587 1.0871117 -0.935152
1.0791966 -0.91013366 -0.869516 -0.87305796 1.0924304 -0.91227347 1.0699134 -0.88059604
-0.957683 1.0919651 1.0919751 1.0928833 -0.8535996 -0.6897466 1.070982 1.0939087
-0.95369005 1.0380275 1.0935509 -0.9911482 1.087443 -0.99273187 1.024008 -0.9640142
-0.9525739 -0.9473906 -0.84279555 -0.65579766 -0.9643477 -0.7155362 -0.80782235 -0.89451504
1.0893413 1.0668979 1.0872107 1.0922627 -0.90686506 -0.96712554 -0.9454241 -0.8518241
1.068877 -0.90086615 -0.906971 1.0898521 1.0677477 1.0649105 -0.87119055 1.0920016
-0.973511 -0.9449878 1.0924664 1.0923268 1.0921413 1.0921797 -0.8207805 -0.9521658
-0.9101886 -1.024649 -0.90348387 1.0927528 -0.93890566 1.0870646 1.0825588 1.0930334
-0.9557703 -0.93386954 -0.9257298 1.0878966 -0.9387763 1.09309 1.0920955 -0.8774892
-0.92526233 1.0935197 1.0930456 1.0878519 1.0891523 -0.91287416 1.06939 -0.8383453
1.0929188 -0.8661009 1.0922931 1.0725542 1.0688226 -0.9117721 1.0920156 -0.9143047
-0.9642239 1.0897046 -0.9986822 -0.73503435 -0.94344306 1.060165 1.0871099 1.0929923
-0.91558886 1.0410568 1.0854825 1.0943862 1.0693626 -0.942354 -0.943128 -0.8482019
1.0920155 -0.89258176 -0.91854596 1.0931557 1.0922564 -0.8619322 -0.9103375 1.0926672

value_stream.2.weight f4 [1, 128]
00000000: 853d 883e 0cc2 883e 66d1 883e e8ad 883e
00000010: dc37 cabd 57da 883e f4be 883e bd93 0cbe
00000020: dcd4 883e 8b21 1dbe 2263 5bbe 3a6a e5bd
00000030: a619 26be 38b8 8a3e d544 883e c1e2 18be
00000040: 20f4 883e 36b0 1cbe c147 dabd 4258 edbd
00000050: edc8 883e 84b0 0ebe de45 8c3e 41f2 e3bd
00000060: c15d 97bd 209f 883e 327f 883e 2ee5 883e
00000070: 2a6c cbbd 00c3 bebd cb3c 8d3e 9ed8 883e
00000080: 3ab4 32be 03e2 933e 42b5 883e 1bca 58be
00000090: 458e 883e cb21 5fbe 25a4 853e 62ef 37be
000000a0: be5b 11be c6ce 37be 8413 b5bd 197f ffbc
000000b0: 2bcb 29be 95a4 9e3b 11e5 11be 4f0e a8bd
000000c0: 737e 883e b12e 933e 86d4 883e 4ab6 883e
000000d0: 5fe8 0bbe 2e97 36be 8f25 15be 559d bebd
000000e0: ed92 8c3e c8f4 06be 85c3 03be a2c9 883e
000000f0: 8c5b 8a3e 0aca 893e a08c 5cbd 6eab 883e
00000100: e563 43be 287c 1bbe 34ca 883e 28c8 883e
00000110: 87be 883e 6d77 883e 4c46 aabd d2d4 18be
00000120: d47d c8bd 484c 46be 23ed dabd 25dc 883e
00000130: 3ada 19be a1fc 883e 1f04 933e 7ad9 883e
00000140: 71c1 24be 0e87 24be 7108 25be 7b86 883e
00000150: 7d4b 26be daaf 883e f3a6 883e 9198 f6bd
00000160: 18b9 13be 49b4 883e f4bf 883e 1686 883e
00000170: f377 883e 9a13 1bbe 8c49 8a3e a4c5 d4bd
00000180: b6e5 883e 3be7 dbbd a5a5 883e 646b 893e
00000190: 8d56 8b3e 74ae 05be 93a0 883e 20ca 0dbe
000001a0: 7588 31be 0cb8 883e b8ab 5fbe 39e5 3ebd
000001b0: 2ddf 23be 2fa7 863e 7c49 883e 51e3 883e
000001c0: 57be 00be a73a 833e e9ba 883e f5ce 883e
000001d0: ac52 8f3e 4968 17be d4b2 0bbe 368a f6bd
000001e0: 9fac 883e fb64 e2bd 4c40 06be dfce 883e
000001f0: 0fbe 883e 5903 cebd cb78 eebd 67d2 883e
0.26609436 0.26710546 0.26722258 0.2669518 -0.098739356 0.2672908 0.26708186 -0.13728233
0.267249 -0.15344827 -0.21424535 -0.11201902 -0.16220722 0.27093673 0.26615015 -0.1493025
0.26748753 -0.15301594 -0.10658217 -0.115890995 0.26715794 -0.13934523 0.27397054 -0.11130191
-0.07390929 0.26683903 0.26659542 0.2673735 -0.0993274 -0.09314537 0.27585444 0.26727766
-0.17451563 0.2888337 0.2670079 -0.21170847 0.26671043 -0.21790235 0.26101795 -0.17962411
-0.14195153 -0.17949972 -0.08841613 -0.031188535 -0.16581409 0.004841397 -0.14247538 -0.08205854
0.26658973 0.2874656 0.26724643 0.26701576 -0.13662861 -0.17831108 -0.14565109 -0.093073525
0.27455845 -0.13179314 -0.12867554 0.26716334 0.2702297 0.26911956 -0.053845048 0.2669329
-0.19081075 -0.1518408 0.2671677 0.26715207 0.2670786 0.26653615 -0.08314189 -0.14924935
-0.09789625 -0.19365036 -0.106897615 0.26730457 -0.15024653 0.2675524 0.28714082 0.2672842
-0.16089417 -0.16067144 -0.16116501 0.266651 -0.16239734 0.26696664 0.26689872 -0.120408185
-0.14426076 0.26700047 0.2670895 0.266648 0.26654014 -0.15144196 0.27009237 -0.103892595
0.26737756 -0.10737463 0.26688877 0.26839745 0.2721447 -0.1305483 0.26685008 -0.13846636
-0.1733721 0.26702917 -0.21842849 -0.046605323 -0.16003104 0.26299426 0.26618564 0.2673593
-0.12572609 0.25630686 0.267051 0.26720396 0.2799276 -0.14785875 -0.13642436 -0.120380804
0.266942 -0.11054417 -0.13110465 0.2672033 0.26707503 -0.10059232 -0.11644133 0.26723024

adv_stream.0.weight f4 [128, 128]
00000000: e157 b03d 87db 593c aee6 4ebd ccd3 543d
00000010: cd7c 323c 2c03 8abd 2925 a4be 38f2 473d
00000020: d113 97be c2ee f6bd 1fb3 04be f3ce 09be
00000030: 9fe3 973e 5d23 3fbc ca99 83bd debc 04be
00000040: e824 a7bd 1204 42bc 1207 07be 79f9 d6bc
00000050: 0227 313e 2e45 903e cf6a 6f3d 8802 84bc
00000060: 7e45 71bd a74d 293e f35a 073e 8616 1d3e
00000070: db5d 243b 2147 05bd 215e c33c d348 a93d
00000080: d6fd 81bc c49e 063e ec65 ccbd 28e7 513e
00000090: 5a82 6bbe 9903 fabc 39a4 d2bc 1c7d a2bd
000000a0: 67a3 63bd a34a 213b 0640 0c3d 608c 643e
000000b0: 7fe1 c7bd a021 40be c8d5 63be 9a8f afbc
000000c0: 11e0 9bbc 1418 15be d104 d83e 45f8 debe
000000d0: 6668 dabd 6bc0 d1bd b7e9 dd3d 4f91 063e
000000e0: 26d0 a4bd 1954 afba 1175 e0be 6844 21be
000000f0: 4c82 853e ef2b 8ebd 359a b43c 9214 50bc
00000100: a7b6 30bf 00e4 a53e 1792 213d 7be5 8f3d
00000110: bbf5 c7bb 60c2 5f3e 653d a8be c240 8a3c
00000120: b995 23bd 3a51 93bd 1a34 c43b 76dc a8bd
00000130: 21c8 91bd b491 8ebe 85c6 60bd 5d20 32bd
00000140: b332 6fbd b2dd cebe abf4 4dbf de4d a1bd
00000150: 9759 49be f0c8 2bbb 7416 c93d 1c08 87bd
00000160: 8f5c a33e 683d 96bd e10e 59bb f48d c7be
00000170: 70e6 8ebd ad8b 80bc 08e2 c7bd 54c3 15bf
00000180: 7e89 53be a1c6 803b a42a 383e 5bad 3a3c
00000190: e6f4 6cbe d64a 91bd 0813 d2bd de76 15be
000001a0: d248 203e 31e4 d83d f284 dabd c69f b13d
000001b0: 8694 ed3d 1382 273e 41a5 bcbc 61d8 fe3c
000001c0: 1cbd 7f3d f940 d8be 95f1 7ebd 1f37 7bbd
000001d0: 6c42 38be fa27 003e ffd6 b8bd 7d97 2fbf
000001e0: 1fdf d73d 25fb 153e d8ea 0bbf ea10 ad3e
000001f0: f052 6e3e 7469 e03c ef72 213e 19b0 e7bd
00000200: 6a64 5bbd fe23 52be a7de 4b3e 45ae b8bd
00000210: 5ee6 673e 2b5c fdbd 82e7 6bbe e1f3 b13e
00000220: 3f78 ddbe f395 a9bd a1ab 8ebe e368 4a3e
00000230: 4bb5 10be 76aa b73d a5c6 61bd 9c1c 633e
00000240: 2bee b2bd 5330 e73d a338 b8be a2b7 d63c
00000250: caec 13bd c617 b1be 8c20 0abf b915 b0bd
00000260: f5ec 4a3e f01e c1bd 2c4e bbbd a82e d1bd
00000270: 9799 abbc 881c 853c 3eef 253f 6816 49bd
00000280: f0fd e9bd 4a96 0b3e 279d 61be d451 d0be
00000290: f200 3e3e 1401 afbe ac72 31bd abae bebd
000002a0: 261e c7bd 48cf 97bd e8e1 05be a5d4 97bd
000002b0: 686e 51be e251 0c3f bc82 a53e f6de 883d
000002c0: ab81 22be 7b0e a6be b76f 05bd 4e41 ff3d
000002d0: d87d b7bd a02a f5bd ccb8 bdbe ff2c 1abe
000002e0: e37f ddbd 41cf 25bd 42aa 3dbe 9114 c93d
000002f0: 54d7 f9be 81ae 3cbe 18a1 97bc 04ee bebc
00000300: 1867 2bbc 5935 493e 0bbc 78bc 972b 82bd
00000310: b647 7abe cb2c b9bc 256a 90bd de97 c33d
00000320: 6012 81bd bb24 bebd 80f3 07be 32db 90bd
00000330: f7b4 59be c822 ff3d ee95 90bd d03d f53d
00000340: d63d 6cbd 7647 84be 4c73 37be 32a4 c9bd
00000350: eaed dc3d 52e5 66be 49ce 903d 4148 b93d
00000360: 5896 7ebe 2246 713e 91b6 13be 4cde 073d
00000370: 37f8 a4bd 95d9 e7bd f59e c9bd 88cc b3be
00000380: f402 c2bd 8977 e83d 2395 80bc 7e3a 2fbe
00000390: e8fe 653d 3f01 82bd 30b2 1cbe e915 4f3e
000003a0: 7519 313e cb8d c4be aa14 a8be 30e8 1c3e
000003b0: 14c7 273d fdd5 ad3d 0ba9 d4bc d078 ea3c
000003c0: f020 5f3e 0115 8f3c 0ca9 9ebc df5f c5bd
000003d0: b49b a4bd a329 dabe 4366 adbd 8416 223f
000003e0: 266d 75bc ada3 8fbf d02f 94b9 ced7 22bf
000003f0: 29a1 88be 1608 4fbe 8989 af3e b8fd cabd
0.086105116 0.013296968 -0.050512962 0.051959798 0.010894013 -0.06738886 -0.320596 0.048814982
-0.29507306 -0.12057258 -0.12958954 -0.13457851 0.2966585 -0.011666146 -0.06425817 -0.12962672
-0.08161336 -0.011841791 -0.13186291 -0.026242005 0.17300037 0.2817778 0.05845147 -0.016114488
-0.058904164 0.16533528 0.13218288 0.15340623 0.0025080356 -0.032538537 0.023848595 0.08265843
-0.015868109 0.13146502 -0.099803776 0.20498335 -0.22998944 -0.030519294 -0.025713073 -0.07934019
-0.055575754 0.0024611137 0.034240745 0.22319174 -0.09759807 -0.18762827 -0.2224952 -0.02143078
-0.019027742 -0.14559966 0.42191175 -0.4354879 -0.10664444 -0.10241779 0.10835593 0.13141368
-0.08047514 -0.0013376503 -0.43839315 -0.15748751 0.2607597 -0.069419734 0.022046188 -0.012700217
-0.69028705 0.32400513 0.039445963 0.07026192 -0.0061022914 0.21851492 -0.3285934 0.016876582
-0.03993771 -0.07193227 0.0059876563 -0.082451746 -0.0711825 -0.27845538 -0.054876823 -0.043487895
-0.05839796 -0.40403515 -0.8045146 -0.0787618 -0.19663082 -0.0026212297 0.09818736 -0.065933436
0.31906554 -0.07335931 -0.003312044 -0.3897549 -0.06977546 -0.015691603 -0.09759909 -0.5850117
-0.20657918 0.0039299284 0.17985016 0.01139387 -0.23140296 -0.07094352 -0.10257536 -0.14596125
0.15652779 0.10590399 -0.106698886 0.086730525 0.11600594 0.16358213 -0.023028018 0.031109037
0.062436208 -0.4223707 -0.06224211 -0.061331864 -0.17994088 0.1251525 -0.09025382 -0.6859053
0.10540604 0.14646585 -0.5465522 0.33801967 0.23273826 0.027394034 0.157665 -0.11312885
-0.05356256 -0.20521542 0.19909154 -0.09017614 0.22646472 -0.12371095 -0.23037532 0.34756377
-0.43255803 -0.08280554 -0.27865317 0.19766574 -0.14131658 0.0896806 -0.055121083 0.22178882
-0.08736833 0.11288514 -0.3598071 0.02621061 -0.03611449 -0.3458845 -0.5395591 -0.08597893
0.19816954 -0.09429729 -0.091457695 -0.10213977 -0.02094726 0.016248956 0.6481818 -0.049093634
-0.11425388 0.1363155 -0.22032605 -0.4068743 0.18555048 -0.3418051 -0.04332225 -0.09310659
-0.09722547 -0.07412583 -0.13074458 -0.074136056 -0.20452273 0.54812443 0.32326305 0.066831514
-0.15869777 -0.32432923 -0.032577243 0.12463628 -0.0895955 -0.11971021 -0.3705505 -0.15056227
-0.10815408 -0.040480856 -0.1852198 0.09818376 -0.48797095 -0.18425943 -0.018509433 -0.023306854
-0.010461591 0.19649257 -0.015181552 -0.0635597 -0.24441418 -0.022604367 -0.070514955 0.09550451
-0.06302333 -0.092843495 -0.13276482 -0.07073058 -0.21260439 0.12457806 -0.07059847 0.119746804
-0.05767616 -0.2583577 -0.17915076 -0.09845771 0.10787566 -0.22548416 0.07070596 0.090469845
-0.24862039 0.2356191 -0.14425112 0.033170983 -0.08055156 -0.11320797 -0.09844772 -0.35116982
-0.094732195 0.113509245 -0.015696114 -0.17112157 0.0561513 -0.06347894 -0.15302348 0.20223202
0.17294867 -0.3838943 -0.32828265 0.15322948 0.04096134 0.08488081 -0.025959512 0.028622061
0.21789908 0.01746607 -0.019367717 -0.096374266 -0.080375105 -0.4260989 -0.084667705 0.63315606
-0.014979636 -1.1221825 -0.00028264383 -0.6361054 -0.26685455 -0.20217928 0.34284618 -0.09911674

adv_stream.0.bias f4 [128]
00000000: d510 243d fdd7 243f 54c8 bf3e 4d82 84bd
00000010: cbd2 533e 3b77 51be 0871 013f a533 ce3e
00000020: 6e8e 213f 4058 aa3e 3bf6 0f3f a3e2 eb3e
00000030: 61c9 103c 1165 ab3e f67d 63be c2d0 e03d
00000040: 987a d33e ac3e 86bd 7fef 6abe 8003 e93e
00000050: f803 87be f333 e33d effa 1d3f 83ee 013f
00000060: de09 a63e bdc8 373f 5c59 c2be a6ca 073e
00000070: 8655 3d3f 814c 103e 7d66 4d3e 4bed 043f
00000080: 7cfc 8e3e df74 833d a552 163f 8d58 8e3e
00000090: 33ec e73d 121a d53e 74bd b03d 7e36 96bd
000000a0: f50c 47be e979 0d3f 097f 253f bcd3 643e
000000b0: f5d1 363e 35cb 2fbd 7148 bc3e 19dd 8e3e
000000c0: 08b2 df3e eb37 9f3e 9fdd f73d 6815 f43e
000000d0: 31d4 043f e964 d63e 1443 5cbe 5a6a ecbc
000000e0: 4b73 1dbe 4d7d 863e 3a44 303e e659 373d
000000f0: 6545 dc3e 38cc 2f3e 98ca 58be 5369 be3c
00000100: 027d 88be 1e19 333e e0ef b03e 03c9 39be
00000110: dfb9 833d 6a67 663e 97fe 083f 1510 9ebc
00000120: e07f a43e 6ae8 563c f2f4 e43e f7bf 26b9
00000130: 774d 4d3e d30f 833d ac1e 8d3e 3e4c 263f
00000140: d86c c2be 30ce 2f3d 519a 2d3f 3d81 30be
00000150: 0cd9 50be f90a fa3e 0c6c c93d 4588 a83c
00000160: 30df f5bd 5652 0c3f 6724 013e cbf8 e8bc
00000170: 0db3 243f b99c 0c3e 4c4a 243d 374a 21be
00000180: 37fa 993e eab8 efbd ec0d f13c 1821 153d
00000190: ba66 903e 7d98 b3be dde4 653e a10b 24bb
000001a0: c51f d23e aac3 943e 4f4f 6b3e 67ff 103e
000001b0: b811 78bd 7507 173f 5de7 81bd 70e5 dd3e
000001c0: 24b4 023e 8b92 bdbb a6a2 8bbc afb7 193f
000001d0: 14d1 91be 2e8e 813e df5e 05be ea2e 46bd
000001e0: e84f 2f3e ded1 083f a392 c33e 69f5 e43e
000001f0: 3e98 f03e 2183 0c3d 2116 c33d 43ab ce3d
0.040055115 0.6439207 0.37457526 -0.064701654 0.2068588 -0.20455639 0.50563097 0.40273777
0.63107955 0.33270454 0.5623509 0.46071348 0.008837075 0.33475545 -0.22216019 0.109773174
0.4130447 -0.065549225 -0.22942923 0.45510483 -0.26370215 0.11093893 0.6171102 0.50754565
0.32429403 0.7179068 -0.379588 0.13260898 0.73958623 0.14091684 0.20058627 0.5192458
0.27927005 0.06418776 0.58719856 0.27801934 0.11324348 0.41621453 0.08629885 -0.07334612
-0.19438536 0.55264145 0.64646965 0.22346395 0.1785353 -0.042918403 0.36774018 0.2790306
0.43690515 0.3109735 0.12102818 0.47672582 0.5188628 0.41873863 -0.21509963 -0.028859306
-0.15376012 0.26267472 0.17213526 0.04476347 0.43021694 0.17167747 -0.21171033 0.023243582
-0.26657873 0.1749005 0.3455801 -0.18143086 0.064319365 0.22500387 0.53513473 -0.019294778
0.3212881 0.013116935 0.44718128 -0.00015902506 0.20049082 0.063995026 0.27562463 0.64960086
-0.37973666 0.042921245 0.67813593 -0.172368 -0.20395297 0.48836496 0.098350614 0.02057279
-0.1200546 0.54813135 0.12611543 -0.028438946 0.6433571 0.1373166 0.040109918 -0.15750967
0.3007371 -0.117051914 0.029425584 0.036408514 0.28203374 -0.35077277 0.22450586 -0.0025031345
0.41039863 0.2905553 0.22979473 0.14159928 -0.060563773 0.58995754 -0.06342957 0.4333911
0.1276403 -0.0057852915 -0.01704533 0.60045904 -0.28479826 0.25303787 -0.13024472 -0.048384584
0.17120326 0.5344523 0.38197812 0.44718483 0.46991152 0.03430474 0.09525705 0.10091259

adv_stream.2.weight f4 [6, 128]
00000000: 33bb 973e adeb 923e e397 713e 8296 4bbe
00000010: 0e1a 33be 5afa 81bd a8d9 203e 3fef ce3d
00000020: 3d8a bdbd 1bfb 8b3d b884 e13b 8956 e13e
00000030: 25fc 1bbe ce25 fc3e 4f46 8a3e e795 993e
00000040: 2260 053f 289c b13e 50b0 163e beef d3bd
00000050: ee8e 1f3d b74f ba3e e1cf 0ebe 7123 9a3e
00000060: 5e47 7b3e 0895 4abb a7a9 913e 9143 353e
00000070: 95fa 0a3e d57a a33d 4c8f b33c 428b 383e
00000080: 2d30 943e 954c e23e 26f9 8c3e cc0d 07bd
00000090: b7fd dd3d 4efb 31bd fc0a f03e 231b 123d
000000a0: 9860 4d3d 283b 9a3e 79cc 9b3e 07a5 5bbe
000000b0: 3870 05be 161c 9c3d 3374 02be 14e0 30be
000000c0: 4827 693d ec16 033f 5f1a 7abd a63e 263f
000000d0: 0401 793e e93c 643e 5912 5c3e b7b0 75bd
000000e0: 8a2c b23e ec7b e63d 576e 53bd 931d 5ebd
000000f0: 9143 10be bfec c13e bf77 0a3e 2270 983d
00000100: c166 043e 5c26 943e 1d0f cb3e 4020 d63e
00000110: e9c5 923e 1fa4 583e 3a67 693e aff5 f6bd
00000120: 59ae 3d3e 23cc 51be d4b2 653e 8861 d93e
00000130: 7d8d 163e 1600 843c ea49 ac3e 43e1 f63d
00000140: e464 f4bd 7d1d 8b3d 385f 313e 7861 ce3e
00000150: 482c a7bd b8b2 f5bd f7a8 e63e 1383 af3d
00000160: 98a4 b23e afbb 223f 1144 123f 999e 3f3e
00000170: 41fb a03e 4048 3b3e 332a 973e 5857 dd3d
00000180: 67ab 643e 579a 2b3e e148 8ebd 59a7 5b3c
00000190: 31ec ed3e f260 cd3d 6e23 033b 96a8 943e
000001a0: 566d cb3e 872e 6e3d 2e1a 41bd 148e 98be
000001b0: 2730 6c3e 3c3b 953e 7758 df3d 25b4 163f
000001c0: e816 cb3e e17d 0b3c 2cb2 4bbe 7bc1 063e
000001d0: c365 003e 3794 ab3e 1c5c 3dbe ae8e 713e
000001e0: 202b 283c 19cc a73e 9107 603e c308 a5be
000001f0: c7f3 33bd b24d 103e 9d94 13bd d010 ec3e
00000200: 837c e23d 89f5 9c3e 1add c73e 42e5 293e
00000210: bbcb 363e 8e0c 9bbc f50f 8a3d 26be bf3c
00000220: 5e0a ee3d 1503 42be 0e7e d73d efc8 713e
00000230: 625f 6dbc 69b6 c3be fa85 1cbe 553e 92bd
00000240: 18fd 793e daf3 7ebe 1e20 39be 31cd 9e3e
00000250: 0fdc 4c3e 9a02 8abe e7a6 4c3e 295a 093e
00000260: cbc2 c73d a8cc a03e dcc8 6dbe 27d2 4d3e
00000270: c699 733e 229c 463c d4e3 9d3e f1f8 903e
00000280: 98e8 153e 57b0 9fbc a67c 7a3d 41ca a93d
00000290: c75c 583d 34e4 033f c982 4bbe 48c4 0a3e
000002a0: 554e 5abd 3f0c ec3d 35b0 a73d fef4 be3e
000002b0: 7a72 1a3e 12ee c2bd 8e1c 2e3e cacc 97bb
000002c0: 5d51 f73d b0fb b7bc 7a57 cb3d ff0f a8be
000002d0: 366d a63c 5963 4d3e bf20 4abd 24c4 a4bd
000002e0: cb74 4d3e d6da ec3e 7c22 ac3d 915a 7a3e
000002f0: 9065 b03e b1a8 eebd 0b07 b83d 9a98 b63d
00000300: 4587 d53d f457 3fbe aec5 b2bd fe75 f73d
00000310: 6ebe 17be 274a 853c e28c 093e beaa 61bd
00000320: 41d2 803e 448e b03e 364f 1fbe 4b53 1b3e
00000330: e2bc d43e a724 343d 3724 0ebe 209a 703d
00000340: a645 b1bd e74e cbbd 1cf6 bd3d aafb 8ebe
00000350: 0f1c b73e edce 793e c081 22be 5b33 2abe
00000360: c49f 9a3e 4708 91be 03ef 99be 249a 16bd
00000370: c41c e33d 0359 4b3c 066f c2be 17d5 16be
00000380: 9c47 1a3e 79f9 b4bd 71c6 b93e 762c 4dbe
00000390: 731c 4e3d 931d c3bd 508d d03e c3f5 90be
000003a0: 20a1 c3bd 09bf de3e 8a7f bf3d 83ff b2bc
000003b0: 414d f0bd 3279 f13d bd67 763d 36ff afbe
000003c0: 14da b5be 761c 303e a060 d8bc 0803 0a3e
000003d0: 5d92 023e 5a2f 7e3b 3b83 9f3e 84a1 293d
000003e0: 9b94 8f3e b7c8 9b3d bf0b c03e b6e9 cd3e
000003f0: e3f9 123f 969f 2abf 0eeb b53e 6b8f 63be
0.2963501 0.2869543 0.23593096 -0.19881633 -0.17490408 -0.06346579 0.1570803 0.10104226
-0.092548825 0.06835004 0.0068822764 0.44011334 -0.15232904 0.49247593 0.27006766 0.2999718
0.5209981 0.3468945 0.14715695 -0.103484616 0.038954668 0.36388943 -0.13946487 0.30105165
0.24538943 -0.0030911583 0.28449747 0.17701556 0.13572152 0.07982413 0.021918915 0.18021873
0.28943005 0.44199052 0.27533835 -0.032972142 0.10839408 -0.043452553 0.4688338 0.03567041
0.050140947 0.30123258 0.30429438 -0.21449672 -0.1303109 0.076225445 -0.12739639 -0.17272979
0.056922227 0.5120685 -0.061060306 0.64939344 0.24316794 0.2228886 0.21491374 -0.05998298
0.34799606 0.11254105 -0.0516189 -0.054227423 -0.14088275 0.37875935 0.13522242 0.07443263
0.12929823 0.28935516 0.39659968 0.4182148 0.28666618 0.21156357 0.22793284 -0.12058579
0.1852354 -0.20488028 0.22431499 0.42457223 0.14702411 0.016113322 0.33650142 0.12054684
-0.11933306 0.06792734 0.1732148 0.40308738 -0.08162743 -0.119969785 0.45050785 0.08569922
0.348912 0.6356763 0.5713511 0.18712844 0.31441692 0.1828928 0.29524383 0.10807675
0.2233101 0.16758095 -0.06947494 0.013406598 0.46469262 0.100282565 0.0020010131 0.2903487
0.39731854 0.05814984 -0.047144108 -0.29795897 0.23065244 0.29146755 0.10905545 0.5886863
0.39665914 0.008513899 -0.19892186 0.13159744 0.12538819 0.33511516 -0.18492168 0.23589584
0.010264188 0.32772902 0.21877886 -0.32233247 -0.043933656 0.14092138 -0.0360304 0.46106577
0.11058905 0.30656078 0.39035875 0.16591361 0.17851155 -0.018926885 0.06741325 0.0234061
0.11623071 -0.18946488 0.1052209 0.23611806 -0.014488073 -0.38225105 -0.15285483 -0.07140795
0.24412954 -0.2489771 -0.18078658 0.31015924 0.2000582 -0.2695511 0.19985543 0.134133
0.09753951 0.3140614 -0.23221153 0.20099698 0.23789129 0.012122186 0.30837882 0.28314927
0.14639509 -0.019493265 0.06115403 0.0829053 0.052822854 0.51520085 -0.1987411 0.13551438
-0.05329736 0.11525773 0.08187906 0.3729629 0.15082732 -0.095180646 0.1700308 -0.004632567
0.12076066 -0.022458881 0.09928794 -0.32824704 0.020315748 0.2005743 -0.049347635 -0.08045223
0.20064084 0.4626071 0.08405015 0.24448611 0.34452486 -0.11653269 0.08985718 0.08915825
0.10426191 -0.18685895 -0.08729111 0.12083052 -0.14818737 0.01627071 0.13432649 -0.055094473
0.2516041 0.3448354 -0.1555756 0.15168492 0.41550356 0.043980267 -0.13881002 0.058740735
-0.086558625 -0.09927159 0.09275457 -0.2792638 0.35763595 0.24395342 -0.15869808 -0.16621153
0.30200016 -0.28326628 -0.30065164 -0.036768094 0.11089471 0.012411359 -0.3797533 -0.14729725
0.1506638 -0.08836646 0.3628421 -0.20036492 0.0503201 -0.09527125 0.40732813 -0.283125
-0.095522165 0.43505123 0.09350498 -0.021850353 -0.11733485 0.11790694 0.060157526 -0.34374398
-0.35517943 0.17198357 -0.026413262 0.13477719 0.12751146 0.0038785548 0.31154808 0.0414138
0.28043064 0.07606643 0.37508962 0.4021737 0.57412547 -0.6664976 0.35530895 -0.22222678

adv_stream.2.bias f4 [6]
00000000: ef33 1dbe 9c33 f13e 9e92 8dbe 022f b4bd
00000010: 7c2d f63e 3942 99bf
-0.15351842 0.47109687 -0.27650923 -0.087980285 0.48081577 -1.1973335
