dqn_model_player_1.pth (torch, 840162 bytes, 44 tensors)

feature_layer.0.weight f4 [128, 6]
0.037278645 0.018017817 -0.02240587 -0.03706599 -0.12194416 -0.553651 -0.016718036 0.14614454
-0.059337564 -0.023465175 -0.5250967 -0.6463628 0.1075309 0.07745675 -0.1095299 -0.06233806
-0.7828543 -0.3397723 0.0051249196 0.14245735 -0.27706218 0.09346167 0.0028959967 -0.3559848
-0.022580918 0.038192794 0.018307004 -0.1131039 -0.40641266 -0.06518759 -0.034587935 0.01646164
-0.008292118 -0.11407969 -0.08086767 -0.6928299 -0.18282406 0.08406758 -0.049585223 -0.12298859
-0.19848157 -0.14920335 -0.08157469 -0.0052970177 -0.21640208 0.06355547 -0.30057892 -0.47120157
0.06290197 0.074475534 -0.11631641 -0.026171625 -0.0073349066 -0.32618833 -0.03840821 0.18400744
-0.13162321 -0.18355896 -0.032627955 -0.22344488 0.04163193 -0.026993377 -0.05498163 -0.054851584
-0.3515043 -0.64560485 -0.07456053 -0.02293215 0.03538482 -0.21900904 -0.03226458 -0.9532013
-0.030443368 0.046995502 0.05487394 -0.15722479 -0.14816874 -0.6602387 0.096830316 0.043195803
0.1321968 0.008739233 -1.606627 -0.07081256 -0.0297501 -0.033273224 -0.16896911 -0.018528592
-0.8590439 0.48658562 -0.12041331 0.08849099 -0.08130868 0.12475123 -0.4761914 0.31061092
-0.12417026 -0.15219462 0.0026366438 -0.23252532 -0.26623368 -0.5862193 -0.0055439617 -0.0066398773
-0.007426826 -0.100255705 -0.24370815 -0.6188238 -0.022613518 0.12152355 0.023041522 0.030542867
0.15019825 -0.93173146 -0.062110227 0.0837308 0.015716357 -0.1760908 0.00010655577 -0.52220416
0.045405246 -0.05206504 -0.005071286 0.0063385116 -0.32357678 -0.67362064 0.0068620844 -0.0006138368
0.022938477 -0.043167237 -0.47953624 -0.12966381 0.013288635 0.017885704 -0.017033782 -0.03887269
-0.13335146 -0.46791705 -0.016285637 0.045702215 0.0037576244 -0.079660185 -0.24536438 -0.7153556
-0.07330317 0.0115717985 0.03896887 -0.20301454 -0.3237443 -0.4493404 0.009480707 -0.06381443
0.018491171 0.17682521 0.047640827 -0.055311475 0.028398003 0.019847872 -0.030243952 -0.071189046
-0.2504324 -0.94953364 -0.05196053 0.00855625 0.025764812 -0.17457992 -0.4310249 -1.1023676
-0.09635296 -0.20126043 0.06557365 -0.18198222 0.2656049 0.4733288 0.10672784 0.07435301
0.16826649 0.077515595 -0.20694682 -0.1781728 0.057594556 -0.003107032 -0.048781585 -0.03177521
-0.28697956 -0.37178823 0.061583355 0.037950892 -0.066328116 -0.12466025 -0.1229179 -0.3161977
-0.028839286 0.030335415 -0.022859171 -0.19302443 0.081398524 -0.424509 -0.041345738 -0.099997714
0.20006238 0.09234144 -0.2112717 0.057139393 0.12557895 -0.07052351 0.076212354 0.043576684
-1.6733108 0.06803789 0.0023109452 0.0106865 0.017957056 -0.034300473 -0.32757974 -0.5801959
-0.049109016 -0.003940031 0.008617893 -0.22335933 -0.32619378 -0.54935706 -0.092447825 0.034096476
0.16068262 0.1595694 -0.106653556 -0.7104036 -0.2620503 -0.067901105 -0.054498505 -0.03147252
0.30215436 -0.145725 -0.063192904 -0.018347902 -0.15928829 0.22044122 -0.753761 0.435483
-0.08160424 0.029978892 0.04638877 -0.1250635 -0.51526767 0.012314111 -0.10699846 -0.05223087
-0.25161824 0.10237049 -0.30309322 -0.35968772 -0.2969149 -0.061202675 0.08782414 0.0928732
00000000: 7eb1 183d 1a9a 933c 848c b7bc 82d2 17bd
00000010: dcbd f9bd 12bc 0dbf 43f4 88bc eaa6 153e
00000020: f20b 73bd 0a3a c0bc bd6c 06bf 0878 25bf
00000030: 2939 dc3d a5a1 9e3d 3651 e0bd 3256 7fbd
00000040: 2469 48bf a3f6 adbe f1ee a73b 57e0 113e
00000050: 18db 8dbe d568 bf3d c3ca 3d3b a443 b6be
00000060: 9efb b8bc 0c70 1c3d 92f8 953c 04a3 e7bd
00000070: 5215 d0be 1281 85bd 14ac 0dbd 90da 863c
00000080: aadb 07bc 9da2 e9bd f39d a5bd 4d5d 31bf
00000090: 3b36 3bbe a02b ac3d e019 4bbd 71e1 fbbd
000000a0: c13e 4bbe c3c8 18be a210 a7bd 9b92 adbb
000000b0: 8298 5dbe 5f29 823d 7be5 99be 5541 f1be
000000c0: c0d2 803d a186 983d 4c37 eebd e065 d6bc
000000d0: a859 f0bb 2802 a7be ed51 1dbd 726c 3c3e
000000e0: 3cc8 06be e1f6 3bbe e4a4 05bd bcce 64be
000000f0: 3e86 2a3d 3721 ddbc 6b34 61bd 0eac 60bd
00000100: 5ff8 b3be 5c46 25bf 31b3 98bd 34dc bbbc
00000110: acef 103d e843 60be dd27 04bd 0005 74bf
00000120: 5f64 f9bc 5b7e 403d 7fc3 603d 89ff 20be
00000130: 8cb9 17be 6705 29bf f94e c63d 15ee 303d
00000140: 995e 073e 002f 0f3c f4a5 cdbf 2d06 91bd
00000150: 7bb6 f3bc 8149 08bd 3d06 2dbe 46c9 97bc
00000160: 4dea 5bbf c021 f93e 419b f6bd c43a b53d
00000170: 2a85 a6bd 937d ff3d 5ccf f3be 6508 9f3e
00000180: fa4c febd e8d8 1bbe 8bcb 2c3b 1e1b 6ebe
00000190: c84f 88be 7812 16bf 1faa b5bb 5493 d9bb
000001a0: bb5c f3bb dd52 cdbd a18e 79be 3d6b 1ebf
000001b0: fc3f b9bc 57e1 f83d 93c1 bc3c 0935 fa3c
000001c0: 92cd 193e f485 6ebf 4b67 7ebd 0e7b ab3d
000001d0: 97bf 803c 2651 34be b276 df38 2caf 05bf
000001e0: dafa 393d 2742 55bd 082d a6bb 4ab3 cf3b
000001f0: dbab a5be 6772 2cbf 56db e03b e4e9 20ba
00000200: 79e9 bb3c 21d0 30bd c685 f5be 97c6 04be
00000210: 93b8 593c 0a85 923c 6e8a 8bbc f838 1fbd
00000220: 498d 08be d392 efbe 7569 85bc 3f32 3b3d
00000230: 7a42 763b e124 a3bd cd40 7bbe 8b21 37bf
00000240: f91f 96bd a497 3d3c d29d 1f3d 0be3 4fbe
00000250: d0c1 a5be f20f e6be f854 1b3c 24b1 82bd
00000260: cc7a 973c ab11 353e 0723 433d 498e 62bd
00000270: eea2 e83c 0198 a23c 2ac2 f7bc 90cb 91bd
00000280: ad38 80be a314 73bf 91d4 54bd 832f 0c3c
00000290: ba10 d33c 14c5 32be 4caf dcbe 621a 8dbf
000002a0: b354 c5bd 3717 4ebe 7a4b 863d 8c59 3abe
000002b0: 5efd 873e 2758 f23e 2094 da3d 6446 983d
000002c0: 0d4e 2c3e 7fc0 9e3d dee9 53be ee72 36be
000002d0: 45e8 6b3d 599f 4bbb 33cf 47bd b926 02bd
000002e0: fcee 92be 075b bebe d43e 7c3d 6572 1b3d
000002f0: 09d7 87bd e04d ffbd 61bc fbbd aae4 a1be
00000300: 5e40 ecbc fa81 f83c 2843 bbbc 32a8 45be
00000310: 45b4 a63d 3e59 d9be 265a 29bd 9acb ccbd
00000320: 27dd 4c3e 821d bd3d 9c57 58be ff0a 6a3d
00000330: c597 003e a16e 90bd 3915 9c3d 777d 323d
00000340: 0c2f d6bf 7357 8b3d 3a73 173b 6e16 2f3c
00000350: ad1a 933c a77e 0cbd 88b8 a7be b887 14bf
00000360: 8926 49bd 601b 81bb 1032 0d3c 4fb8 64be
00000370: df02 a7be aaa2 0cbf 4955 bdbd bfa8 0b3d
00000380: fc89 243e 2966 233e 2e6d dabd 03dd 35bf
00000390: 752b 86be bc0f 8bbd d339 5fbd 54e9 00bd
000003a0: fab3 9a3e ef38 15be 486b 81bd 574e 96bc
000003b0: 781c 23be 58bb 613e 7bf6 40bf a1f7 de3e
000003c0: 2020 a7bd 4b96 f53c 2702 3e3d a510 00be
000003d0: 95e8 03bf 20c1 493c 0222 dbbd 09f0 55bd
000003e0: 1bd4 80be 9fa7 d13d 092f 9bbe fd28 b8be
000003f0: 3b05 98be a8af 7abd 25dd b33d 4e34 be3d

feature_layer.0.bias f4 [128]
-0.39803636 -0.0898618 -0.31451416 0.19629104 -0.40704292 -0.57455426 -0.2802778 0.025762798
-0.63643914 -0.13722359 -0.30867344 -0.6866577 -0.3535009 0.009059755 0.0013939247 0.29882005
-0.4201653 -0.48949888 -0.23558426 -0.17513348 -0.43281388 -0.30698377 -0.4364583 -0.5429626
-0.47145957 0.48027235 -0.41315985 -0.5459686 -0.24686693 0.19320336 -0.2567975 -0.29397205
-0.5821311 0.46951374 -0.01908027 -0.14713761 -0.5581146 0.29676247 0.06707116 0.038485978
-0.119430356 0.03835326 -0.0032026109 -0.5093677 -0.49149352 -0.22032514 -0.13843441 -0.32665557
-0.40306705 -0.4213619 -0.14039677 -0.40504456 -0.28852928 -0.32778457 -0.46204987 -0.48340446
0.23870745 0.008539548 -0.6728281 -0.43352228 -0.50724787 -0.454881 -0.2742188 0.09693138
0.08061868 -0.56630164 -0.37124562 -0.634085 -0.36842895 -0.13822435 -0.41246322 -0.39807513
0.056497954 0.3471874 -0.29399875 -0.36684763 -0.46598512 -0.50855047 0.16347767 -0.3845066
-0.28240794 -0.5848958 -0.056683052 -0.40404692 -0.124156564 -0.13512789 -0.45775008 -0.30727047
-0.4422846 -0.43021932 -0.22411285 -0.42816228 -0.71070826 -0.3093645 -0.02007797 -0.4791945
-0.20783067 -0.0885673 0.28384465 -0.4512101 -0.16940998 -0.0066246516 -0.47014186 -0.50908273
-0.20722468 -0.5250948 -0.5540724 -0.496943 -0.5024029 0.1241733 -0.0049669286 0.5180115
-0.50566703 -0.6193959 -0.34144366 -0.24883088 -0.4764068 0.37373534 -0.4081266 -0.25201255
-0.48981124 -0.28627807 -0.21419176 -0.40369242 -0.24525754 -0.45061052 -0.5177543 -0.21178903
00000000: 6ccb cbbe 7709 b8bd 0008 a1be 8500 493e
00000010: ee67 d0be fd15 13bf 9280 8fbe 810c d33c
00000020: aded 22bf 5784 0cbe 720a 9ebe cdc8 2fbf
00000030: 12fe b4be 5e6f 143c 5ab4 b63a f1fe 983e
00000040: e81f d7be 999f fabe 003d 71be 3156 33be
00000050: c899 ddbe fa2c 9dbe 7677 dfbe 99ff 0abf
00000060: 2663 f1be 42e6 f53e b089 d3be 99c4 0bbf
00000070: afca 7cbe 1ad7 453e f67a 83be 8183 96be
00000080: 8b06 15bf 1b64 f03e 3a4e 9cbc 3eab 16be
00000090: 99e0 0ebf 40f1 973e 9b5c 893d 79a3 1d3d
000000a0: e797 f4bd 4f18 1d3d e5e2 51bb ec65 02bf
000000b0: 0aa5 fbbe ea9c 61be c0c1 0dbe 663f a7be
000000c0: ce5e cebe bfbc d7be 2cc4 0fbe 0062 cfbe
000000d0: 1cba 93be 61d3 a7be cd91 ecbe ca80 f7be
000000e0: ba6f 743e 76e9 0b3c 763e 2cbf a2f6 ddbe
000000f0: ffda 01bf 2ae6 e8be 6866 8cbe f683 c63d
00000100: 681b a53d 25f9 10bf e813 bebe 6553 22bf
00000110: b8a2 bcbe af8a 0dbe 612e d3be 81d0 cbbe
00000120: 666a 673d 8cc2 b13e 0187 96be 74d3 bbbe
00000130: 9a95 eebe 5d30 02bf b166 273e 0dde c4be
00000140: c697 90be bbbb 15bf 7d2c 68bd 3ddf cebe
00000150: cc45 febd f75e 0abe 385e eabe 8e52 9dbe
00000160: 2173 e2be b545 dcbe d77d 65be 1638 dbbe
00000170: faf0 35bf 0665 9ebe 8e7a a4bc fb58 f5be
00000180: 90d1 54be c662 b5bd 1654 913e 0305 e7be
00000190: cf79 2dbe 9b13 d9bb 6fb6 f0be 3f53 02bf
000001a0: b532 54be 9d6c 06bf b0d7 0dbf 506f febe
000001b0: 7a9d 00bf 924e fe3d 9ec1 a2bb 679c 043f
000001c0: 6573 01bf bb90 1ebf b4d1 aebe 86cd 7ebe
000001d0: 98eb f3be 3d5a bf3e f8f5 d0be ca07 81be
000001e0: 8ac8 fabe 0a93 92be 1655 5bbe c6b0 cebe
000001f0: cb24 7bbe 6cb6 e6be 8c8b 04bf 39df 58be

feature_layer.2.weight f4 [128, 128]
0.06075845 0.06830155 0.11971438 0.16947906 -0.103727385 -0.04257627 -0.21746936 0.10938247
-0.076534875 0.12254425 0.13894631 -0.07822617 -0.0046401117 0.18152733 0.010303081 0.12251687
-0.17191938 -0.041768312 0.08374313 -0.13606997 0.13108234 0.07466491 0.07711361 -0.057629213
-0.19812821 0.041051205 0.098872714 -0.17072707 -0.092240565 0.19387266 0.083369605 0.12644029
-0.026766514 -0.0842874 -0.023356419 0.112274505 -0.19015437 0.15695636 0.15719172 0.051320568
-0.08220972 0.0021068712 -0.16015992 -0.029832754 -0.030069686 0.014690788 -0.28693834 -0.024571236
-0.00908863 0.046049368 -0.039731618 0.090859905 0.04875631 0.05834402 0.025221627 -0.069166295
-0.041962624 0.076896645 -0.17778966 0.051771235 0.09896091 -0.035905898 0.052815422 -0.08289999
-0.077258795 -0.017268226 0.008277127 -0.03391398 0.14813766 0.17399861 0.14341511 0.083680905
0.17975253 0.123508625 -0.18261962 0.11551159 -0.014717457 -0.059790373 0.11803791 0.0138065955
0.05157996 -0.113610856 0.09629266 -0.14995001 -0.3554738 0.027162813 -0.08761025 -0.003088705
-0.008350404 -0.103847414 0.13474196 -0.17757918 -0.10276156 0.034754172 -0.16470045 -0.053783584
0.003108252 0.10816458 0.082240075 0.06307912 0.021798462 0.05647158 -0.078169465 -0.056248125
-0.06733149 -0.13870692 0.011559884 -0.025348471 -0.19867481 0.07126691 -0.1765368 0.09583891
0.12912299 -0.050365046 -0.08695877 -0.099000946 -0.06481806 0.17613377 0.12303874 0.12434028
0.107823595 0.048528288 0.07810773 0.067853704 -0.14137778 -0.004805311 0.01573914 -0.019762166
0.0015011223 0.057977475 0.12768815 0.18040328 0.03270768 -0.12526505 -0.07763361 0.19686894
0.14240862 0.12056763 0.05329774 -0.2277134 -0.018800238 0.17445199 -0.00456843 0.07798596
-0.073044345 -0.06009993 -0.07086538 0.091610156 0.0699774 0.08339301 -0.1306308 -0.11789286
-0.09325883 0.07812113 0.0051785293 -0.014467265 -0.09625596 0.09157627 -0.032057066 -0.03266728
-0.2290424 0.055801164 0.056082863 -0.025821947 0.02255545 0.06717147 -0.010792951 0.0684228
-0.035215463 0.05208045 -0.06751342 -0.06633207 -0.039662383 0.04581386 -0.16872378 0.022554489
-0.17038508 -0.073536426 -0.084728144 0.008377241 -0.08343311 -0.053172167 -0.05342185 -0.03084368
0.116293415 0.22936067 -0.2528184 -0.11744408 -0.14600682 -0.25856668 0.024722101 -0.021045456
-0.09764616 -0.07063867 -0.11715606 -0.13967638 0.0071061733 0.12394053 0.103146575 -0.004039084
0.014704785 0.10181039 -0.300362 -0.085964166 0.04825083 -0.1442147 0.05100488 -0.03670187
0.012334795 -0.20830952 -0.024934746 -0.36187652 -0.31270346 -0.12720975 -0.01316903 -0.06924706
-0.029645503 -0.14791553 -0.08801102 -0.1703355 -0.18788387 -0.07672519 -0.022176618 -0.10882086
-0.08783266 -0.017412117 0.09515147 -0.03290811 -0.08760924 -0.044828307 -0.02191226 -0.0045928652
0.14033057 -0.13694477 -0.13245872 -0.12742195 -0.26659462 -0.1671943 0.012571111 0.24366656
-0.082498305 -0.117785774 0.039801907 -0.1777094 -0.113701776 0.20745654 -0.08253921 -0.043942083
-0.08921505 -0.11069506 0.013902749 -0.17609191 -0.21142296 -0.06861365 -0.05948611 -0.23632935
00000000: dadd 783d afe1 8b3d d02c f53d eb8b 2d3e
00000010: 066f d4bd 7464 2ebd 4ab0 5ebe eb03 e03d
00000020: 51be 9cbd 7bf8 fa3d f147 0e3e 0b35 a0bd
00000030: 140c 98bb 4de2 393e 41ce 283c 20ea fa3d
00000040: a20b 30be 4015 2bbd 8581 ab3d ed55 0bbe
00000050: 733a 063e ebe9 983d beed 9d3d 9c0c 6cbd
00000060: 1fe2 4abe 4f25 283d c77d ca3d 14d3 2ebe
00000070: 9fe8 bcbd 8e86 463e afbd aa3d 9079 013e
00000080: 7345 dbbc df9e acbd f655 bfbc 2df0 e53d
00000090: d4b7 42be 2bb9 203e def6 203e 8435 523d
000000a0: 925d a8bd 6f13 0a3b f600 24be d263 f4bc
000000b0: b454 f6bc a2b1 703c 95e9 92be 9e49 c9bc
000000c0: 7ae8 14bc 439e 3c3d 9fbd 22bd c214 ba3d
000000d0: b2b4 473d 24fa 6e3d 969d ce3c 0fa7 8dbd
000000e0: 00e1 2bbd fd7b 9d3d 7e0e 36be 130e 543d
000000f0: 05ac ca3d 1012 13bd fc54 583d 78c7 a9bd
00000100: dc39 9ebd 1876 8dbc c99c 073c 63e9 0abd
00000110: 66b1 173e b12c 323e 69db 123e e560 ab3d
00000120: 0c11 383e 17f2 fc3d a300 3bbe 5791 ec3d
00000130: 7d21 71bc c0e6 74bd dcbd f13d 0f35 623c
00000140: 8245 533d cfac e8bd 1635 c53d 7f8c 19be
00000150: a900 b6be 8c84 de3c 016d b3bd df6b 4abb
00000160: 22d0 08bc f4ad d4bd ccf9 093e 51d7 35be
00000170: a774 d2bd 645a 0e3d 3ca7 28be 2d4c 5cbd
00000180: d1b3 4b3b 6485 dd3d 7c6d a83d a02f 813d
00000190: b092 b23c be4e 673d 5017 a0bd 6f64 66bd
000001a0: 18e5 89bd 3009 0ebe ab65 3d3c 99a7 cfbc
000001b0: 6971 4bbe 63f4 913d 10c6 34be 3147 c43d
000001c0: d138 043e 944b 4ebd 7117 b2bd 02c1 cabd
000001d0: 55bf 84bd 695c 343e bcfb fb3d 1ea6 fe3d
000001e0: 9ed2 dc3d 99c5 463d f2f6 9f3d e2f6 8a3d
000001f0: 56c5 10be df75 9dbb 5eef 803c 44e4 a1bc
00000200: 4ec1 c43a ca79 6d3d afc0 023e a3bb 383e
00000210: 7df8 053d 7b45 00be 5ffe 9ebd 0398 493e
00000220: 91d3 113e 29ec f63d bb4e 5a3d b42d 69be
00000230: f502 9abc 8ba3 323e c5b2 95bb 1ab7 9f3d
00000240: 4698 95bd 582b 76bd de21 91bd 1b9e bb3d
00000250: 5050 8f3d f4c9 aa3d 15c4 05be d071 f1bd
00000260: 7cfe bebd f9fd 9f3d a7b0 a93b 1c08 6dbc
00000270: d821 c5bd 578c bb3d 454e 03bd 20ce 05bd
00000280: 178a 6abe c38f 643d 25b7 653d 8c88 d3bc
00000290: 35c6 b83c 3291 893d ebd4 30bc 4121 8c3d
000002a0: 173e 10bd 4f52 553d 7a44 8abd 1cd9 87bd
000002b0: 0675 22bd 50a7 3b3d edc5 2cbe 31c4 b83c
000002c0: 6d79 2ebe 449a 96bd f385 adbd b240 093c
000002d0: fade aabd 0fcb 59bd dfd0 5abd e3ab fcbc
000002e0: 3e2b ee3d 86dd 6a3e 6a71 81be 8686 f0bd
000002f0: d082 15be da62 84be 0186 ca3c 8567 acbc
00000300: b6fa c7bd 02ab 90bd 84ef efbd 5307 0fbe
00000310: e7da e83b 88d4 fd3d 833e d33d 4b5a 84bb
00000320: 57ec 703c f781 d03d 0cc9 99be fb0d b0bd
00000330: aaa2 453d 05ad 13be 7eea 503d b354 16bd
00000340: e117 4a3c 174f 55be f443 ccbc e147 b9be
00000350: ab1a a0be 4643 02be eac2 57bc 67d1 8dbd
00000360: 20db f2bc 2b77 17be 1f3f b4bd 6e6c 2ebe
00000370: a164 40be 1922 9dbd bdab b5bc 79dd debd
00000380: 9ce1 b3bd dba3 8ebc c6de c23d a8ca 06bd
00000390: 796c b3bd e39d 37bd 5781 b3bc bf7f 96bb
000003a0: d1b2 0f3e 403b 0cbe 42a3 07be e67a 02be
000003b0: 177f 88be fc34 2bbe 10f7 4d3c ba83 793e
000003c0: dff4 a8bd ab39 f1bd 5307 233d 74f9 35be
000003d0: 7adc e8bd 7d6f 543e 510a a9bd 9dfc 33bd
000003e0: 61b6 b6bd 17b4 e2bd 5bc8 633c 7051 34be
000003f0: 437f 58be 5085 8cbd b5a7 73bd 5200 72be

feature_layer.2.bias f4 [128]
0.75558007 0.791013 -0.79643273 0.890172 -0.60568327 -0.84762347 -0.115672745 -0.8251214
-0.5147845 -0.8016744 -0.52891546 0.04419459 0.82929355 0.7428193 -0.8193566 0.47450766
-0.849181 -0.8187963 0.8422385 -0.80931276 -0.74672943 3.6224174e-05 -0.3670796 -0.45250094
-0.7111769 -0.6585355 -0.8270605 -0.80668944 0.55457336 -0.8266616 0.798897 -0.7986091
-0.84442294 0.7005143 -0.5569569 -0.5536997 -0.74609154 0.2886581 -0.8079321 -0.78761363
-0.825028 0.8354523 -0.44152904 -0.84441596 -0.4913275 0.34679297 0.5740873 0.7066085
-0.8006643 -0.39739057 0.53179973 0.41637442 -0.76794773 -0.9136555 -0.2740983 -0.8228487
-0.8379154 -0.85243326 -0.48438245 -0.731126 -0.10470821 -0.83667743 -0.8391303 -0.81331915
-0.5970587 0.835611 -0.83257097 -0.7951203 -0.23019813 0.7007224 -0.4915934 -0.43395767
-0.46388027 -0.840249 -0.83819133 -0.8181612 -0.58926386 -0.81041276 -0.8330057 0.28055325
-0.81946117 -0.77369404 0.33328125 -0.7050717 -0.76303303 -0.29258004 0.9074876 0.8312808
-0.56482637 0.8530846 -0.8079675 -0.7857933 -0.7997682 -0.8414452 -0.7274566 -0.48822454
0.7459434 0.82587314 0.69324094 0.72746676 0.5248196 0.8272106 0.80993956 0.66046596
-0.8198578 -0.5518744 -0.38098133 0.91075015 0.78353566 -0.6049681 -0.78667724 -0.54206777
0.6955595 0.46353334 -0.81022835 -0.49829593 -0.85124135 -0.54443103 -0.8260927 0.50245994
-0.7915052 0.65292555 0.43025753 0.36932996 0.73788375 -0.82527244 0.92130363 -0.6734548
00000000: b26d 413f d47f 4a3f 04e3 4bbf 50e2 633f
00000010: 0f0e 1bbf dafd 58bf d5e5 ecbd 283b 53bf
00000020: ebc8 03bf 893a 4dbf 0167 07bf 6305 353d
00000030: 954c 543f 6829 3e3f 5bc1 51bf abf2 f23e
00000040: ed63 59bf a29c 51bf f19c 573f 1f2f 4fbf
00000050: a929 3fbf 69ef 1738 dbf1 bbbe 34ae e7be
00000060: b00f 36bf c895 28bf 3dba 53bf 3383 4ebf
00000070: 85f8 0d3f 18a0 53bf 8484 4c3f a571 4cbf
00000080: 1a2c 58bf e854 333f ba94 0ebf 43bf 0dbf
00000090: dbff 3ebf ffca 933e a3d4 4ebf 0ca1 49bf
000000a0: 0935 53bf 34e0 553f 1810 e2be a52b 58bf
000000b0: 478f fbbe d98e b13e 63f7 123f 4be4 343f
000000c0: 56f8 4cbf c776 cbbe 0724 083f 072f d53e
000000d0: 3998 44bf 54e5 69bf 9d56 8cbe 36a6 52bf
000000e0: a081 56bf 1139 5abf fa00 f8be 132b 3bbf
000000f0: 4271 d6bd 7e30 56bf 3ed1 56bf af35 50bf
00000100: d7d8 18bf 9aea 553f 5f23 55bf 018d 4bbf
00000110: 0fb9 6bbe 8b62 333f 21b2 fbbe b32f debe
00000120: b781 edbe 8f1a 57bf b593 56bf 0373 51bf
00000130: ffd9 16bf 3677 4fbf dd3f 55bf ada4 8f3e
00000140: 35c8 51bf d010 46bf d7a3 aa3e 947f 34bf
00000150: 2256 43bf 0dcd 95be 1b51 683f d2ce 543f
00000160: 7698 10bf c163 5a3f f5d6 4ebf c029 49bf
00000170: 9cbd 4cbf f468 57bf 993a 3abf 91f8 f9be
00000180: 26f6 3e3f 6c6c 533f 3d78 313f 433b 3a3f
00000190: 945a 063f 13c4 533f 3358 4f3f 4c14 293f
000001a0: 33e2 51bf a447 0dbf fc0f c3be ec26 693f
000001b0: cb95 483f 30df 1abf ae63 49bf f4c4 0abf
000001c0: 3010 323f 3e54 ed3e 206b 4fbf a520 ffbe
000001d0: f4ea 59bf d55f 0bbf d07a 53bf 37a1 003f
000001e0: 16a0 4abf 2126 273f b74a dc3e d118 bd3e
000001f0: f3e5 3c3f 0e45 53bf 8eda 6b3f 8967 2cbf

value_stream.0.weight f4 [128, 128]
0.1794271 0.20498562 -0.20303965 0.2816599 -0.27238578 -0.3260846 -0.37941733 -0.21944693
-0.87708 -0.28532615 -0.85084003 0.13177219 0.42 0.25062147 -0.27855486 0.44665906
-0.29637748 -0.23787788 0.29096714 -0.26703674 -0.28920218 0.05185028 -0.6246541 -0.39929843
-0.17976674 -0.29328316 -0.24819097 -0.23836347 0.2648018 -0.27856374 0.2943457 -0.3921414
-0.34427065 0.40396896 -0.41237542 -0.7275093 -0.26269892 0.15170275 -0.24178383 -0.2852512
-0.2891735 0.38406748 -0.2681877 -0.28666845 -0.24921294 0.4187515 0.20096879 0.18224762
-0.27999327 -0.30600464 0.21600357 0.29156113 -0.31902257 -0.45839664 -0.7975842 -0.2635125
-0.3227437 -0.29862782 -0.20043126 -0.30627388 -0.5605883 -0.3925281 -0.3229925 -0.21124737
-0.1902279 0.5644089 -0.22480278 -0.26206893 -0.81699383 0.16796038 -0.29263565 -0.05630824
-0.19374965 -0.2894006 -0.3135146 -0.2652715 -0.46380845 -0.26912275 -0.284571 0.18730803
-0.34317362 -0.24055077 0.4569369 -0.33021465 -0.17677626 -0.43322986 0.48075032 0.23099586
-0.4581733 0.31025484 -0.3543369 -0.24666344 -0.27958867 -0.29328296 -0.42053092 -0.13909662
0.24682838 0.19001345 0.25948656 0.20171642 0.2002185 0.2617129 0.2621767 0.52372664
-0.22019167 -0.37166023 -0.9668634 0.40059218 0.23361431 -0.14832078 -0.2495967 -0.29362747
0.32593763 0.3693887 -0.24969114 -0.27541745 -0.29913625 -0.31470665 -0.27820873 0.29450807
-0.250309 0.15445958 0.1617417 0.06544868 0.2081775 -0.30872577 0.53608584 -0.2771599
0.19423094 0.22465724 -0.22060199 0.30008754 -0.21711572 -0.32585898 -0.3655109 -0.23753278
-0.9075308 -0.28320187 -0.8685517 0.11365548 0.42216644 0.26146454 -0.29724747 0.44485152
-0.318839 -0.25635242 0.29977712 -0.2899524 -0.26728696 0.03826785 -0.6462647 -0.3853443
-0.17169632 -0.2535467 -0.26527157 -0.2567474 0.2713002 -0.3005038 0.32190531 -0.27349904
-0.34053102 0.40995222 -0.39949575 -0.6935624 -0.2703329 0.13126354 -0.26561728 -0.28525296
-0.306019 0.379735 -0.24932007 -0.30897275 -0.24588081 0.46136227 0.20310712 0.19828568
-0.29355332 -0.33103678 0.2149345 0.30817586 -0.2968455 -0.3692821 -0.7516941 -0.2964975
-0.3279154 -0.32000008 -0.16521755 -0.2698499 -0.5493772 -0.3823345 -0.30469862 -0.23623967
-0.21823736 0.58072525 -0.24114501 -0.24981394 -0.75993055 0.17268822 -0.2800143 -0.048288733
-0.1991742 -0.3097954 -0.33603916 -0.2879348 -0.42389977 -0.28946534 -0.30628046 0.19751601
-0.33570585 -0.23842803 0.44735426 -0.31934303 -0.19366187 -0.3947256 0.50036854 0.24097359
-0.40470156 0.32431185 -0.375656 -0.26751196 -0.29307225 -0.31475976 -0.36176157 -0.15153442
0.2604363 0.21268772 0.27438027 0.21905872 0.2239189 0.28015226 0.27038234 0.53293747
-0.23685277 -0.31077802 -0.96534234 0.41304553 0.25321937 -0.15083647 -0.259608 -0.26379803
0.33343428 0.3776852 -0.26574633 -0.23503028 -0.31814736 -0.25272667 -0.29998443 0.29839048
-0.27168092 0.16854072 0.16917779 0.0752196 0.21481414 -0.29124588 0.5474366 -0.2738539
00000000: bdbb 373e c0e7 513e a0e9 4fbe ba35 903e
00000010: 2676 8bbe 90f4 a6be fd42 c2be b2b6 60be
00000020: 5188 60bf 4516 92be a7d0 59bf 4aef 063e
00000030: 3d0a d73e 7551 803e be9e 8ebe 7fb0 e43e
00000040: cabe 97be 4296 73be a5f9 943e 0ab9 88be
00000050: 4f12 94be f660 543d 55e9 1fbf d870 ccbe
00000060: c614 38be 3629 96be c625 7ebe 8e15 74be
00000070: 1a94 873e e89f 8ebe 7bb4 963e c2c6 c8be
00000080: 3e44 b0be 05d5 ce3e df22 d3be 0d3e 3abf
00000090: 7980 86be f757 1b3e 2e96 77be 720c 92be
000000a0: 8d0e 94be 7ea4 c43e e64f 89be 35c6 92be
000000b0: ad31 7fbe 9966 d63e c3ca 4d3e 1f9f 3a3e
000000c0: 475b 8fbe a4ac 9cbe 0a30 5d3e 8047 953e
000000d0: ed56 a3be f7b2 eabe 7a2e 4cbf 1ceb 86be
000000e0: aa3e a5be bfe5 98be da3d 4dbe eecf 9cbe
000000f0: b782 0fbf 71f9 c8be 465f a5be 3b51 58be
00000100: 1acb 42be 1a7d 103f b332 66be e62d 86be
00000110: 8226 51bf cefd 2b3e 57d4 95be 78a3 66bd
00000120: 4f66 46be 512c 94be fc84 a0be abd1 87be
00000130: 4d78 edbe 75ca 89be 4ab3 91be adcd 3f3e
00000140: 74b4 afbe f152 76be a2f3 e93e e511 a9be
00000150: d604 35be 4ed0 ddbe e824 f63e 2e8a 6c3e
00000160: b195 eabe b9d9 9e3e a56b b5be 5795 7cbe
00000170: 3f26 8fbe 2f29 96be d44f d7be 586f 0ebe
00000180: 94c0 7c3e e392 423e 6cdb 843e c08e 4e3e
00000190: 1406 4d3e 3cff 853e 063c 863e f312 063f
000001a0: ed79 61be 404a bebe 5c84 77bf 6b1a cd3e
000001b0: 9738 6f3e 67e1 17be 4796 7fbe 5756 96be
000001c0: 4ce1 a63e 8420 bd3e 09af 7fbe 8403 8dbe
000001d0: 6328 99be 3b21 a1be 6071 8ebe c3c9 963e
000001e0: 8028 80be a72a 1e3e 9e9f 253e f509 863d
000001f0: 7c2c 553e 4e11 9ebe ec3c 093f e7e7 8dbe
00000200: 7ae4 463e 8c0c 663e 7de5 61be 13a5 993e
00000210: 9553 5ebe fdd6 a6be 3f24 bbbe cb3b 73be
00000220: f053 68bf d6ff 90be 6759 5ebf 34c4 e83d
00000230: 3326 d83e aede 853e d230 98be 94c3 e33e
00000240: de3e a3be a040 83be 637c 993e a474 94be
00000250: d6d9 88be c0be 1c3d 9a71 25bf d94b c5be
00000260: 29d1 2fbe e0d0 81be add1 87be 6574 83be
00000270: dce7 8a3e a2db 99be c6d0 a43e 1108 8cbe
00000280: 155a aebe 42e5 d13e b58a ccbe 4e8d 31bf
00000290: 1369 8abe f369 063e fdfe 87be ad0c 92be
000002a0: 86ae 9cbe a06c c23e c34d 7fbe ad31 9ebe
000002b0: 2ec8 7bbe ad37 ec3e 50fb 4f3e 670b 4b3e
000002c0: 9f4c 96be a77d a9be ca17 5c3e 3ac9 9d3e
000002d0: 22fc 97be 8b12 bdbe 066f 40bf 85ce 97be
000002e0: 87e4 a7be 0dd7 a3be ca2e 29be c429 8abe
000002f0: fca3 0cbf 59c1 c3be 7501 9cbe d0e8 71be
00000300: 9d79 5fbe 69aa 143f b8ee 76be 3acf 7fbe
00000310: cf8a 42bf 2ed5 303e 095e 8fbe 68ca 45bd
00000320: 52f4 4bbe 819d 9ebe 530d acbe 316c 93be
00000330: 6409 d9be cd34 94be cbd0 9cbe a341 4a3e
00000340: a3e1 abbe 7a26 74be 9e0b e53e ee80 a3be
00000350: 4c4f 46be 7919 cabe 2718 003f c8c1 763e
00000360: 0b35 cfbe 340c a63e fc55 c0be 54f7 88be
00000370: 910d 96be 3128 a1be d038 b9be d72b 1bbe
00000380: e857 853e cfca 593e 927b 8c3e ee50 603e
00000390: ff4a 653e 1e70 8f3e 8e6f 8a3e 976e 083f
000003a0: 8889 72be 4c1e 9fbe ad20 77bf b47a d33e
000003b0: f8a5 813e e074 1abe 57eb 84be 8910 87be
000003c0: e6b7 aa3e f45f c13e e70f 88be c7ab 70be
000003d0: 36e4 a2be 6465 81be 8f97 99be a3c6 983e
000003e0: c319 8bbe f095 2c3e f13c 2d3e bc0c 9a3d
000003f0: 3df8 5b3e 2e1e 95be ce24 0c3f 9436 8cbe

value_stream.0.bias f4 [128]
1.1062087 1.1326749 1.1295114 1.1310278 -1.023919 1.1244733 1.1323645 -1.0209899
1.1331 -0.9612533 -0.9726039 -1.0167422 -1.0130022 1.0716568 1.1287712 -1.0280803
1.099423 -0.9250188 -1.0047784 -1.0209668 1.1319786 -0.94582164 1.0894493 -1.0088243
-1.0205731 1.1310096 1.1309267 1.1329942 -1.018026 -0.70016956 1.0895193 1.1331735
-0.98286813 1.0101874 1.1326458 -1.0164775 1.1281354 -1.00309 0.9981756 -1.0204294
-1.0189942 -0.88396955 -1.0281171 -0.71643925 -1.0156792 -0.99774724 -0.23101173 -1.0210925
1.1283989 1.0615233 1.1250304 1.1321019 -1.0228907 -1.0170633 -1.0233397 -0.99845695
1.0869399 -0.9700453 -1.0220016 1.1291451 1.0910485 1.0761224 -0.96986836 1.131604
-1.0173672 -0.9686993 1.131912 1.1318077 1.1314721 1.1306584 -0.6931164 -1.0266154
-0.9774898 -0.9819473 -1.0054889 1.1326166 -1.029541 1.1237718 1.0885459 1.13321
-1.0171193 -1.0297769 -1.0067352 1.119873 -1.0180563 1.1310449 1.1312356 -0.9947426
-1.0231843 1.132572 1.1324952 1.1292752 1.1279973 -1.0287067 1.0869167 -0.9886526
1.1329945 -0.99363613 1.131426 1.0911882 1.0886189 -1.0110248 1.1310542 -1.018952
-1.0210373 1.1294298 -1.0083313 -0.82897615 -1.0292321 1.0669864 1.1287477 1.1326112
-1.0218399 1.0203809 1.1194344 1.132682 1.0856689 -1.007163 -1.0222498 -0.9888394
1.1316178 -1.0116041 -1.0293891 1.1328735 1.1317004 -1.0189756 -1.0045041 1.1322874
00000000: 3f98 8d3f 7efb 903f d493 903f 85c5 903f
00000010: c70f 83bf beee 8f3f 52f1 903f ccaf 82bf
00000020: 6c09 913f b214 76bf 92fc 78bf 9c24 82bf
00000030: 0eaa 81bf 0d2c 893f 937b 903f 2398 83bf
00000040: e5b9 8c3f 08ce 6cbf 949c 80bf 0aaf 82bf
00000050: ade4 903f 5e21 72bf 1373 8b3f 2821 81bf
00000060: 24a2 82bf ecc4 903f 35c2 903f f405 913f
00000070: ad4e 82bf 503e 33bf 5e75 8b3f d40b 913f
00000080: 3f9d 7bbf d24d 813f 8afa 903f ef1b 82bf
00000090: be66 903f 4165 80bf 7088 7f3f 6e9d 82bf
000000a0: 676e 82bf d44b 62bf 5799 83bf 9068 37bf
000000b0: c701 82bf 5d6c 7fbf 578e 6cbe 29b3 82bf
000000c0: 606f 903f ffdf 873f ff00 903f b7e8 903f
000000d0: 15ee 82bf 212f 82bf ccfc 82bf e09a 7fbf
000000e0: d920 8b3f e454 78bf f3d0 82bf d487 903f
000000f0: 7aa7 8b3f 61be 893f 4b49 78bf 66d8 903f
00000100: 1739 82bf adfc 77bf 7ee2 903f 13df 903f
00000110: 14d4 903f 6ab9 903f 1470 31bf 2268 83bf
00000120: c63c 7abf e660 7bbf dcb3 80bf 95f9 903f
00000130: 00c8 83bf c1d7 8f3f 7955 8b3f 060d 913f
00000140: f730 82bf bbcf 83bf b3dc 80bf 0058 8f3f
00000150: ab4f 82bf 14c6 903f 54cc 903f 73a7 7ebf
00000160: b4f7 82bf 1ff8 903f 9af5 903f 178c 903f
00000170: 3762 903f a9ac 83bf 1620 8b3f 5618 7dbf
00000180: f705 913f f05e 7ebf 91d2 903f 0eac 8b3f
00000190: dd57 8b3f 4369 81bf 62c6 903f 056d 82bf
000001a0: 5ab1 82bf 2891 903f 0011 81bf c837 54bf
000001b0: e1bd 83bf 0393 883f ce7a 903f 67f9 903f
000001c0: a6cb 82bf d79b 823f a049 8f3f b9fb 903f
000001d0: 33f7 8a3f b8ea 80bf 15d9 82bf 9424 7dbf
000001e0: dad8 903f 3e7c 81bf 06c3 83bf 0002 913f
000001f0: 8fdb 903f cb6d 82bf 9793 80bf cbee 903f

value_stream.2.weight f4 [1, 128]
0.41543782 0.4106505 0.4121901 0.41046652 -0.28748602 0.4126723 0.41063532 -0.2854703
0.4109022 -0.26400757 -0.26717916 -0.2931021 -0.2838721 0.42381072 0.4115859 -0.2890287
0.41895032 -0.2615957 -0.28461096 -0.2933779 0.41059083 -0.2650508 0.43228397 -0.2892926
-0.28578538 0.4104077 0.41118446 0.4110748 -0.29278985 -0.23017368 0.43517584 0.4111137
-0.2729931 0.50258857 0.41061044 -0.28345826 0.41248855 -0.27837777 0.427365 -0.286023
-0.2929053 -0.29184797 -0.29518205 -0.27565128 -0.28340667 -0.2781739 -0.30686757 -0.29494828
0.4109999 0.46103913 0.41263703 0.41055727 -0.2857654 -0.28452173 -0.28683752 -0.2837363
0.43133357 -0.26939446 -0.28769398 0.41218445 0.43149862 0.42417216 -0.26456085 0.41054463
-0.28491175 -0.27794737 0.4107206 0.4107483 0.41061684 0.41029972 -0.26497692 -0.28819004
-0.27655733 -0.28766572 -0.2871595 0.41094378 -0.28918406 0.41320375 0.46617734 0.41105276
-0.28386298 -0.28998506 -0.2881091 0.41232824 -0.28410795 0.41051546 0.4104951 -0.27473274
-0.28596708 0.4106132 0.4105755 0.4123818 0.41085964 -0.28977078 0.4266702 -0.27893662
0.41104758 -0.2773892 0.41045296 0.42896748 0.43169385 -0.28712437 0.41044542 -0.28733188
-0.2855737 0.4118883 -0.27840918 -0.2547029 -0.28982103 0.41280678 0.41168517 0.41131103
-0.28677523 0.39822653 0.41281915 0.41072527 0.44177368 -0.28452682 -0.28834885 -0.27245995
0.4105427 -0.28502622 -0.2897905 0.41083923 0.41058543 -0.28453448 -0.27905428 0.4106149
00000000: 44b4 d43e c840 d23e 950a d33e ab28 d23e
00000010: 5e31 93be c949 d33e cb3e d23e 2a29 92be
00000020: c661 d23e 002c 87be b5cb 88be 7a11 96be
00000030: af57 91be b8fd d83e 63bb d23e 92fb 93be
00000040: a880 d63e dfef 85be 87b8 91be a135 96be
00000050: f638 d23e bdb4 87be 5354 dd3e 291e 94be
00000060: 7652 92be f520 d23e c586 d23e 6578 d23e
00000070: 8de8 95be a6b2 6bbe 5ecf de3e 7f7d d23e
00000080: c0c5 8bbe a5a9 003f 883b d23e 7121 91be
00000090: b331 d33e 8887 8ebe 96cf da3e 9b71 92be
000000a0: aff7 95be 196d 95be 1a22 97be 2a22 8dbe
000000b0: ae1a 91be cf6c 8ebe bf1d 9dbe 7603 97be
000000c0: 946e d23e 520d ec3e 2945 d33e 9034 d23e
000000d0: d84f 92be d5ac 91be 5edc 92be e245 91be
000000e0: c1d7 dc3e 12ee 89be a04c 93be d709 d33e
000000f0: 63ed dc3e 182d d93e 8574 87be e832 d23e
00000100: f4df 91be 1e4f 8ebe f849 d23e 9a4d d23e
00000110: 5f3c d23e ce12 d23e 0eab 87be a58d 93be
00000120: ec98 8dbe ec48 93be 9206 93be 3967 d23e
00000130: ef0f 94be 718f d33e ccae ee3e 8275 d23e
00000140: 7d56 91be ec78 94be 0983 93be b01c d33e
00000150: 9976 91be 152f d23e 6a2c d23e c5a9 8cbe
00000160: 476a 92be e53b d23e f436 d23e b523 d33e
00000170: 325c d23e d65c 94be 8474 da3e c8d0 8ebe
00000180: d474 d23e f505 8ebe e426 d23e a0a1 db3e
00000190: fa06 dd3e f701 93be e725 d23e 2a1d 93be
000001a0: b736 92be 06e3 d23e a68b 8ebe 6b68 82be
000001b0: 6c63 94be 695b d33e 66c8 d23e 5c97 d23e
000001c0: 34d4 92be 59e4 cb3e 085d d33e 954a d23e
000001d0: 2930 e23e 80ad 91be 76a2 93be df7f 8bbe
000001e0: a732 d23e f5ee 91be 6c5f 94be 8559 d23e
000001f0: 4138 d23e 81ae 91be 34e0 8ebe 1e3c d23e

adv_stream.0.weight f4 [128, 128]
0.04143026 0.11521293 -0.08304604 0.1099602 -0.079799704 -0.114492714 -0.15846717 -0.1024814
-0.4075379 -0.20470937 -0.39912698 -0.14860877 0.13876486 0.25453788 -0.12906544 0.07532782
-0.13316429 -0.105953425 0.13317096 -0.124881625 -0.097111635 0.7890649 0.27780643 0.035447005
-0.1423173 0.068771295 -0.12419483 -0.11174859 0.11140284 -0.12162223 -0.11635966 -0.017919235
-0.05009519 -0.27115437 -0.10901139 0.5216462 -0.12054963 -0.11701629 -0.0716344 -0.17858961
-0.07317505 0.040385697 -0.059712082 -0.14152308 -0.2190178 -0.28467864 0.2774997 0.17199627
-0.048258305 -0.03516182 0.52860653 -0.5398289 -0.23121047 -0.07925737 -0.018436583 -0.1605706
-0.12757207 -0.1463915 0.036647964 -0.098014966 -0.11239813 -0.07807455 0.0067835553 -0.112824194
-0.16894935 0.049418513 -0.10242165 -0.14611004 0.041460704 0.11031394 -0.27468622 0.56098914
-0.010754483 -0.14141205 -0.08160583 -0.119355455 0.20281701 -0.1335643 -0.13223179 0.46417663
-0.064393826 -0.28488442 -0.8285513 0.02213778 -0.08968867 0.20418748 -0.033034015 0.23245758
-0.28301063 0.098025024 -0.018993462 -0.12010821 -0.08562099 -0.1357988 -0.20304878 -0.4403167
0.06897797 0.2564535 -0.15323028 0.12483288 -0.013807201 0.016859032 0.04076179 -0.66656566
-0.1066475 0.1942342 -0.12692139 -0.06290041 0.21140599 0.020708056 -0.20314805 -0.13087071
-0.110716194 -0.7236634 -0.114563905 -0.011326734 -0.12520623 -0.005107372 -0.12457469 -0.30935794
-0.12275087 0.19353174 0.06885185 0.30957818 0.18087912 -0.17606016 -0.03730435 -0.20357963
0.072905004 0.050403953 -0.028183516 0.09664829 0.050196 -0.08422775 -0.656772 -0.052105404
-0.7958002 -0.066614285 -0.5333785 0.22000326 0.08721244 0.06890507 -0.05641007 0.36705866
-0.06481285 -0.055989742 0.15308054 -0.06026246 -0.1474686 -0.13033104 -0.6968793 -0.08874702
-0.067130856 -0.07172401 -0.068057545 -0.049487855 0.06748433 -0.07282708 0.02791735 0.029166149
-0.06928596 0.1786645 -0.5220165 -0.78488207 -0.04043333 0.06586348 -0.060366955 -0.06631604
-0.0856718 0.08724061 -0.054500673 -0.095729135 -0.20165446 0.5553876 0.12212962 0.06854176
-0.19097623 -0.2541426 0.22293422 0.12510198 -0.0974182 -0.06811215 -0.5955843 -0.05637847
-0.07078205 -0.09168766 -0.406113 0.097691506 -0.5228995 -0.31274745 0.05527705 -0.049400125
0.23249897 0.47657123 -0.055050805 -0.04586638 -0.5947254 -0.07662806 -0.17178778 -0.15699063
-0.30011365 -0.08570182 -0.094774604 -0.071124546 -0.21049438 -0.071042135 -0.08315778 -0.01696185
-0.012295818 -0.0932961 0.26469028 -0.32572016 -0.015180514 -0.68222946 0.23679066 0.0001528581
-0.38328892 0.13286704 -0.07015495 -0.05695535 -0.072515585 -0.08860929 -0.06896085 -0.058760364
0.035985492 0.014815478 -0.004963018 0.010235628 0.03737721 0.013022112 0.013694442 0.3769662
-0.042824637 -0.56981575 -0.7340244 0.17598847 0.07059446 0.04077814 -0.09624084 0.08733638
0.1328954 0.18099494 -0.06024782 -0.35967436 -0.090050586 -0.32867718 -0.073466904 0.24435802
-0.05780264 0.07893448 -0.0082358485 -0.40732333 0.006209401 -0.03627566 0.33227408 -0.092738144
00000000: c7b2 293d c2f4 eb3d 0b14 aabd d032 e13d
00000010: 076e a3bd 287b eabd 3845 22be c5e1 d1bd
00000020: cfa8 d0be 559f 51be 5f5a ccbe e62c 18be
00000030: 6018 0e3e ca52 823e bb29 04be 7945 9a3d
00000040: 385c 08be 1cfe d8bd f85d 083e f0c1 ffbd
00000050: 77e2 c6bd 2800 4a3f a53c 8e3e e130 113d
00000060: a0bb 11be f7d7 8c3d dc59 febd 72dc e4bd
00000070: 2c27 e43d 1315 f9bd f94d eebd 5ccb 92bc
00000080: 9d30 4dbd bfd4 8abe 5d41 dfbd 9b8a 053f
00000090: b9e2 f6bd 3da6 efbd 0eb5 92bd 32e0 36be
000000a0: cddc 95bd 796b 253d a894 74bd 6deb 10be
000000b0: 3446 60be 66c1 91be 7114 8e3e ca1f 303e
000000c0: 80aa 45bd d705 10bd c252 073f 3a32 0abf
000000d0: 70c2 6cbe b051 a2bd 5108 97bc 9f6c 24be
000000e0: 41a2 02be a7e7 15be 2d1c 163d 12bc c8bd
000000f0: fe30 e6bd 8de5 9fbd 9648 de3b 5f10 e7bd
00000100: 0f01 2dbe 116b 4a3d 71c2 d1bd df9d 15be
00000110: b3d2 293d 46ec e13d aca3 8cbe fc9c 0f3f
00000120: 9233 30bc 52ce 10be f520 a7bd a270 f4bd
00000130: 43af 4f3e 14c5 08be c567 07be 8fa8 ed3e
00000140: e9e0 83bd 5fdc 91be f01b 54bf 4a5a b53c
00000150: b2ae b7bd 8616 513e ad4e 07bd 5c09 6e3e
00000160: c5e6 90be 58c1 c83d 2d98 9bbc 4bfb f5bd
00000170: 0f5a afbd d70e 0bbe 05ec 4fbe 3171 e1be
00000180: 5244 8d3d e04d 833e 66e8 1cbe 62a8 ff3d
00000190: 9937 62bc f41b 8a3c d6f5 263d 0ca4 2abf
000001a0: 016a dabd 55e5 463e aef7 01be eed1 80bd
000001b0: d07a 583e f1a3 a93c 0b06 50be f902 06be
000001c0: 2cbf e2bd 0142 39bf 7ba0 eabd c493 39bc
000001d0: 1036 00be be5b a7bb 0421 ffbd 2a64 9ebe
000001e0: cf64 fbbd 2f2d 463e 3302 8d3d 0881 9e3e
000001f0: 6038 393e 1d49 34be 72cc 18bd 2e77 50be
00000200: 384f 953d 6074 4e3d 1ee1 e6bc 8aef c53d
00000210: 529a 4d3d 997f acbd 3622 28bf 7a6c 55bd
00000220: 90b9 4bbf 126d 88bd 7e8b 08bf 8948 613e
00000230: 709c b23d 1a1e 8d3d 3f0e 67bd 1def bb3e
00000240: 99bc 84bd 8055 65bd 25c1 1c3e c5d5 76bd
00000250: 0202 17be 8075 05be af66 32bf ffc0 b5bd
00000260: e77b 89bd 0ae4 92bd c161 8bbd c7b3 4abd
00000270: 3935 8a3d 5d26 95bd edb2 e43c d9ed ee3c
00000280: cce5 8dbd d4f3 363e e0a2 05bf 08ee 48bf
00000290: 6b9d 25bd 6fe3 863d 5743 77bd b4d0 87bd
000002a0: b274 afbd 34ab b23d 193c 5fbd a30d c4bd
000002b0: 827e 4ebe e22d 0e3f 181f fa3d 9f5f 8c3d
000002c0: 468f 43be fb1e 82be de48 643e bc1a 003e
000002d0: 3183 c7bd 627e 8bbd 3678 18bf 1ced 66bd
000002e0: 2ef6 90bd bdc6 bbbd 0bee cfbe 7c12 c83d
000002f0: bedc 05bf 6f20 a0be 306a 623d c957 4abd
00000300: 3614 6e3e 2501 f43e f47c 61bd 63de 3bbd
00000310: ec3f 18bf 2cef 9cbd 23e9 2fbe 27c2 20be
00000320: 7fa8 99be 7084 afbd 3019 c2bd bfa9 91bd
00000330: d78b 57be 8a7e 91bd a04e aabd 94f3 8abc
00000340: 6674 49bc 0712 bfbd 7c85 873e cbc4 a6be
00000350: b1b7 78bc 97a6 2ebf 4079 723e 8948 2039
00000360: 723e c4be 4c0e 083e 66ad 8fbd 034a 69bd
00000370: 0d83 94bd ca78 b5bd 593b 8dbd b5ae 70bd
00000380: 8665 133d 9ebc 723c d0a0 a2bb 56b3 273c
00000390: d818 193d b25a 553c a75e 603c b701 c13e
000003a0: e368 2fbd 72df 11bf 06e9 3bbf 5236 343e
000003b0: d493 903d fb06 273d eb19 c5bd 6add b23d
000003c0: bb15 083e bd56 393e 6bc6 76bd 3d27 b8be
000003d0: 716c b8bd 6048 a8be d175 96bd fd38 7a3e
000003e0: 76c2 6cbd 67a8 a13d a7ef 06bc af8c d0be
000003f0: 3b78 cb3b c995 14bd d41f aa3e 7fed bdbd

adv_stream.0.bias f4 [128]
0.11102432 0.67454517 0.49014276 0.2667369 0.3584921 -0.20504841 0.73603475 0.38417616
0.37907538 0.15000734 0.5400413 0.5699683 0.014984331 0.23731436 -0.18776402 -0.13797203
0.337196 -0.036523044 0.20440978 0.2926795 -0.031796586 -0.3487542 0.49499643 0.59351766
-0.08939128 0.55184144 -0.18575792 0.46752098 0.7252661 0.4184119 0.32844254 0.5862127
0.34339276 -0.012929027 0.6198371 0.18581055 -0.09295172 0.028169652 -0.21446478 0.11684669
-0.29158098 0.67539483 0.5488165 0.05314257 0.20487033 0.24205779 0.29020673 0.44295278
0.40345365 0.63793486 -0.42605016 0.38526157 0.41564843 0.51345086 0.13826777 0.036919642
0.1044867 0.45259053 0.006231239 -0.50234765 0.1441544 0.40602073 -0.17736715 0.14945862
0.16824917 0.106686406 0.07215707 0.05280585 0.10611889 0.38490933 0.36933792 -0.3271202
0.25044662 0.13975689 0.5992125 -0.022872645 0.2234348 -0.22380853 0.09901834 0.41400436
-0.17069949 0.103823006 0.6729925 -0.21323106 -0.20351258 0.48491034 0.11884086 0.07126307
-0.13306773 0.40078562 -0.112542234 0.2647146 0.48095435 -0.062057037 -0.19428544 -0.3295341
0.49416646 0.2400617 -0.13242131 0.035125744 0.39379784 -0.36775234 0.191305 0.103053465
0.29100734 -0.04531452 0.29852778 -0.0741756 0.15597159 0.49393442 0.08089259 0.13220735
-0.21908902 -0.29539183 0.24897595 0.71931696 0.03340396 0.32001278 -0.028236127 -0.14976726
0.406288 0.6806193 0.37357828 0.43853122 0.5404879 0.2768606 0.050764397 -0.11265155
00000000: b860 e33d feae 2c3f fef3 fa3e bd91 883e
00000010: 478c b73e 36f8 51be c66c 3c3f bdb2 c43e
00000020: 2b16 c23e 869b 193e 2640 0a3f 71e9 113f
00000030: d780 753c 8902 733e 3645 40be 8a48 0dbe
00000040: f4a4 ac3e 3099 15bd cc50 513e 16da 953e
00000050: 233d 02bd e98f b2be 2c70 fd3e c6f0 173f
00000060: c712 b7bd 7b45 0d3f 5337 3ebe e95e ef3e
00000070: 0aab 393f 163a d63e 9f29 a83e 0912 163f
00000080: 2dd1 af3e 45d4 53bc a5ad 1e3f 1f45 3e3e
00000090: 795d bebd 0bc4 e63c a89c 5bbe 514d ef3d
000000a0: 1a4a 95be ade6 2c3f 3d7f 0c3f 06ac 593d
000000b0: 87c9 513e ffdd 773e fa95 943e b5ca e23e
000000c0: 7a91 ce3e b34f 233f 3f23 dabe 0141 c53e
000000d0: dfcf d43e 8471 033f 1196 0d3e 0d39 173d
000000e0: 1ffd d53d f2b9 e73e 6c2f cc3b db99 00bf
000000f0: 369d 133e f3e1 cf3e bc9f 35be ae0b 193e
00000100: 8349 2c3e 677e da3d 16c7 933d f24a 583d
00000110: dc54 d93d d612 c53e dc19 bd3e 4d7c a7be
00000120: 8a3a 803e 6e1c 0f3e fe65 193f 6a5f bbbc
00000130: 18cc 643e 102e 65be 21ca ca3d 61f8 d33e
00000140: d9cb 2ebe 28a1 d43d 3d49 2c3f 3e59 5abe
00000150: 9a65 50be 2b46 f83e d662 f33d 5ff2 913d
00000160: e842 08be c633 cd3e 8b7c e6bd ac88 873e
00000170: a63f f63e 852f 7ebd c3f2 46be b2b8 a8be
00000180: 6303 fd3e bcd2 753e 7499 07be 03e0 0f3d
00000190: df9f c93e 094a bcbe 75e5 433e b20d d33d
000001a0: eafe 943e b89b 39bd a2d8 983e 61e9 97bd
000001b0: 04b7 1f3e f9e4 fc3e 04ab a53d 5d61 073e
000001c0: df58 60be 993d 97be 8df3 7e3e 2825 383f
000001d0: 97d2 083d b7d8 a33e 734f e7bc 975c 19be
000001e0: fb04 d03e 113d 2e3f a745 bf3e 2a87 e03e
000001f0: 6a5d 0a3f acc0 8d3e 54ee 4f3d dbb5 e6bd

adv_stream.2.weight f4 [6, 128]
-0.009317167 0.23368356 0.38918194 -0.061241146 -0.21243301 0.012309237 0.059233576 -0.102467254
0.21112901 -0.21891233 0.042796228 0.1274299 -0.257761 0.58235276 -0.2560746 -0.14547713
0.29443145 0.06968619 0.2081322 -0.57796264 0.14708152 0.055887792 -0.08983199 0.14571919
0.033674568 0.02732574 -0.28356555 0.18220235 0.11546202 0.13982767 -0.04298472 0.17111532
-0.0006786109 0.25536698 0.19657972 -0.48556697 0.2352711 -0.17716335 0.23913115 -0.20153166
0.24090134 0.19823204 0.1777521 -0.28086126 -0.30961704 0.20603907 0.10558129 -0.158683
-0.028458638 0.1568689 0.013058352 0.57943517 -0.037991352 -0.07255421 0.6249278 -0.18863212
-0.09959254 0.029193662 -0.22281565 -0.10848937 0.22765112 0.31597632 -0.118730955 0.16226023
-0.24373221 0.41705152 0.29895124 0.15228413 0.00048636514 0.2704908 0.13066722 0.08560901
0.5694139 -0.50855875 0.086816885 -0.17780952 0.3724336 0.2450316 0.5766337 0.09914791
0.48726308 -0.17126282 -0.046692535 0.18062738 0.46938604 -0.103072874 0.29704162 0.26980674
0.07980079 0.58971584 0.6350618 0.17517348 0.19776113 0.29477504 -0.18019855 -0.24880652
0.027795523 -0.30397534 0.09257127 0.287691 0.2255796 0.50367755 0.25693655 -0.2188464
0.41098315 0.17018543 0.077058844 -0.078808784 0.5545256 0.3024691 -0.022706155 0.4397452
0.25949878 -0.28917244 -0.1695446 0.1044896 0.10290612 0.051742867 -0.119726226 0.24779731
-0.056498837 0.16705124 0.08435863 0.15124758 0.15758467 -0.14747548 -0.35492095 -0.0011425776
0.31373075 0.21697326 0.19625491 0.7028482 0.42863753 0.18241587 0.27363408 -0.10351466
0.32906657 0.38817796 0.339025 0.37232453 0.25835392 -0.2349 -0.2043483 -0.073472105
0.27330673 -0.3257925 0.22807984 0.7925919 -0.08219961 -0.08605526 0.38646302 0.17171818
0.0010164895 0.35405675 -0.093502834 0.87418556 0.23983642 -0.37655896 0.108798884 0.13041694
0.26266447 0.2359108 0.16189219 -0.19776379 -0.029825225 0.4340599 -0.21472257 0.5558424
-0.03236854 0.2377664 0.13800645 0.19784869 0.29800063 0.15471008 0.034379154 0.11165736
0.44940627 0.47106567 -0.031238176 -0.32853833 0.11282672 0.4316785 -0.4794398 0.25173044
0.3525458 0.35404778 0.055016723 -0.011337774 0.43537134 0.39604178 -0.14326389 7.512694e-05
0.14503343 -0.44857264 -0.0010646014 0.33170262 0.1540906 0.15346542 0.23322274 0.04606741
0.26767892 0.12544906 0.34191638 -0.10025579 0.50350064 0.041423954 -0.34629872 0.30296355
-0.11855919 0.2720674 0.43879804 -0.22377859 -0.15656587 0.14976145 -0.5819794 -0.15401201
0.089924514 -0.4546942 -0.47408545 0.5051461 0.2558631 -0.18163028 -0.21561092 -0.014609825
0.2230024 -0.122064844 -0.21764164 0.38218752 0.10313297 -0.34591556 0.12130148 0.22129263
-0.17603704 -0.0854927 0.1226152 -0.18086433 -0.18416047 0.14544074 0.17870715 -0.13034351
-0.42506725 -0.034700934 0.35241595 0.22000325 0.44116884 0.08689361 -0.18644685 0.17594942
0.48091093 0.21054055 0.62257487 0.39696962 0.56668454 -0.23224822 0.37651172 0.058469493
00000000: 08a7 18bc be4a 6f3e db42 c73e ffd7 7abd
00000010: 0a88 59be afac 493c e89e 723d 5ada d1bd
00000020: 3432 583e 8e2a 60be 194b 2f3d fc7c 023e
00000030: 40f9 83be 1215 153f 361c 83be f5f7 14be
00000040: b8bf 963e a2b7 8e3d 9c20 553e 5cf5 13bf
00000050: 8a9c 163e 99ea 643d d6f9 b7bd 6937 153e
00000060: 58ee 093d 3bda df3c 812f 91be 4193 3a3e
00000070: 5a77 ec3d fc2e 0f3e bf10 30bd db38 2f3e
00000080: cee4 31ba 76bf 823e 324c 493e 3c9c f8be
00000090: e8ea 703e 4f6a 35be ccde 743e 515e 4ebe
000000a0: d7ae 763e 57fd 4a3e a604 363e 0ccd 8fbe
000000b0: 2086 9ebe e8fb 523e 013b d83d cc7d 22be
000000c0: 1722 e9bc 3ea2 203e b3f2 553c dd55 143f
000000d0: d29c 1bbd 4d97 94bd 45fb 1f3f c728 41be
000000e0: 2cf7 cbbd 8c27 ef3c c929 64be ad2f debd
000000f0: 601d 693e a6c7 a13e 3729 f3bd 8c27 263e
00000100: f094 79be c787 d53e 2310 993e 5ff0 1b3e
00000110: d3fe fe39 c57d 8a3e a1cd 053e c753 af3d
00000120: 1cc5 113f e830 02bf 0dcd b13d b313 36be
00000130: 9eaf be3e 90e9 7a3e 449e 133f 0f0e cb3d
00000140: 8c7a f93e 855f 2fbe ac40 3fbd 62f6 383e
00000150: 5e53 f03e df17 d3bd d715 983e 1c24 8a3e
00000160: 996e a33d 9ef7 163f 6993 223f ad60 333e
00000170: e581 4a3e c1ec 963e f885 38be 23c7 7ebe
00000180: 70b3 e33c a8a2 9bbe 0296 bd3d 3c4c 933e
00000190: 57fe 663e 03f1 003f 308d 833e 4519 60be
000001a0: 626c d23e 1745 2e3e 07d1 9d3d 8066 a1bd
000001b0: 64f5 0d3f 3bdd 9a3e 4202 babc 4826 e13e
000001c0: 06dd 843e 690e 94be 1a9d 2dbe a5fe d53d
000001d0: 72c0 d23d 54f0 533d 0633 f5bd 94be 7d3e
000001e0: 536b 67bd 7b0f 2b3e 38c4 ac3d a5e0 1a3e
000001f0: e05d 213e d003 17be 33b8 b5be 8bc2 95ba
00000200: 51a1 a03e 3d2e 5e3e 0cf7 483e dced 333f
00000210: 6176 db3e 3acb 3a3e c419 8c3e 7eff d3bd
00000220: 6a7b a83e 43bf c63e af94 ad3e 52a1 be3e
00000230: f746 843e a089 70be ae40 51be 8b78 96bd
00000240: dcee 8b3e 46ce a6be c38d 693e 4ee7 4a3f
00000250: 4558 a8bd bd3d b0bd 7bde c53e e4d6 2f3e
00000260: ba3b 853a ed46 b53e 6a7e bfbd a0ca 5f3f
00000270: ae97 753e 56cc c0be f3d1 de3d 058c 053e
00000280: f57b 863e 9a92 713e 11c7 253e 9782 4abe
00000290: 0854 f4bc 193d de3e 3ce0 5bbe b04b 0e3f
000002a0: e094 04bd 0979 733e 9051 0d3e d998 4a3e
000002b0: 8a93 983e 526c 1e3e 28d1 0c3d 9dac e43d
000002c0: 9418 e63e 852f f13e 34e7 ffbc 2d36 a8be
000002d0: b211 e73d f704 dd3e 2279 f5be d0e2 803e
000002e0: e280 b43e c045 b53e 3759 613d 12c2 39bc
000002f0: fee8 de3e fdc5 ca3e c5b3 12be 788d 9d38
00000300: a583 143e 50ab e5be 188a 8bba edd4 a93e
00000310: edc9 1d3e 0a26 1d3e f1d1 6e3e 2eb1 3c3d
00000320: 360d 893e b875 003e aa0f af3e e852 cdbd
00000330: 6be5 003f 2aac 293d 114e b1be 0a1e 9b3e
00000340: 29cf f2bd 6b4c 8b3e 23aa e03e 3726 65be
00000350: ce52 20be 115b 193e 9afc 14bf 53b5 1dbe
00000360: 582a b83d aecd e8be 54bb f2be 4151 013f
00000370: 7d00 833e 4afd 39be 1cc9 5cbe 0c5e 6fbc
00000380: be5a 643e 22fd f9bd 73dd 5ebe 15ae c33e
00000390: 6137 d33d d81b b1be e96c f83d 899a 623e
000003a0: 0e43 34be cc16 afbd ae1d fb3d 8034 39be
000003b0: 9094 3cbe 6bee 143e 02ff 363e c578 05be
000003c0: 6aa2 d9be 9122 0ebd dd6f b43e 8848 613e
000003d0: e2e0 e13e 47f5 b13d eceb 3ebe 162c 343e
000003e0: f539 f63e f197 573e 1161 1f3f 9a3f cb3e
000003f0: 3d12 113f 7ad2 6dbe 25c6 c03e b57d 6f3d

adv_stream.2.bias f4 [6]
-0.27375385 0.6527514 -0.19285545 -0.13095362 0.38390884 -1.2117314
00000000: 7729 8cbe b71a 273f e67b 45be b518 06be
00000010: b38f c43e 041a 9bbf
