modelA2C_player_0.pth (torch, 199758 bytes, 33 tensors)

model.0.weight f4 [64, 6]
0.3813295 0.3838576 0.15757716 0.17425163 0.2725729 0.19043599 -0.118375696 0.2574749
0.17786784 -0.15060146 -0.089906506 0.16997416 0.1398057 -0.23475279 0.21790951 -0.056873582
0.34544346 -0.26368394 -0.061678775 0.21477062 0.30213588 -0.2677366 -0.25001895 0.38481864
-0.22908542 0.2791168 -0.26196247 -0.100939214 -0.30879852 0.15239598 0.34732947 -0.24306394
0.13698289 0.21169546 0.22309636 0.08153247 -0.3956907 -0.06690694 -0.36481267 0.038051587
0.38410386 0.18276884 0.36179885 0.32472774 -0.22265396 -0.14031805 -0.26422903 0.11552776
-0.2312338 0.029278003 0.034676906 0.37338218 -0.056608547 -0.32245845 0.08431229 -0.24750374
-0.3385594 0.23180178 0.09391826 0.0049873115 0.09871286 0.29567778 0.25657898 0.1627177
-0.24515241 0.059756488 0.21130139 0.38990584 -0.12553294 0.07401627 0.339013 0.09092396
-0.19340116 0.29110333 0.25028354 0.25253022 0.23613563 0.29130468 0.090768434 0.27637357
-0.10439489 -0.23734309 -0.30721483 -0.38575938 -0.3880093 0.0516219 -0.3500863 0.16628945
-0.38738942 0.28607765 -0.079173885 -0.19247615 -0.13245706 -0.35057342 0.22300686 0.33063623
-0.27651095 0.23738213 -0.043355994 0.22812171 -0.22754303 -0.28662434 0.15218087 -0.21907942
0.368592 0.030961579 -0.3274926 -0.04809543 0.2383359 0.14568034 -0.35760638 -0.17267987
0.20773044 0.26193392 0.18525112 -0.2642724 0.4054809 0.36457404 -0.36550087 0.21423632
0.34595507 0.3365339 -0.34507075 0.3478259 0.006108119 -0.20514347 0.35877806 0.17073162
-0.07787875 -0.016248323 0.31376883 0.12673886 0.29113972 -0.19189595 0.06848604 -0.045825966
0.35790506 -0.29732704 0.24200663 0.35730758 -0.011939256 0.023942495 0.18181732 0.01968899
-0.118061505 -0.17578101 -0.28830943 -0.22649953 0.09993785 0.2560327 0.2152765 0.14407037
-0.30325505 0.121843286 0.06222606 -0.3859734 -0.33205754 -0.11508917 0.25092638 -0.21566458
-0.1708125 -0.15525863 -0.035560925 0.2922793 0.019861596 -0.009941566 0.38739398 -0.07925374
-0.3587668 0.29236925 0.04063513 0.08937994 0.093651 -0.038337126 -0.29476506 0.23080234
-0.17250492 0.07751607 0.10550885 -0.3861047 0.19312167 0.37639374 0.36348343 0.33743095
-0.31063658 0.27258056 0.32011804 -0.12134404 0.22374046 0.17276269 -0.23708867 0.1351223
-0.3933519 0.2480719 -0.30788648 0.042132206 -0.36116433 -0.23704678 -0.3068854 -0.27848256
0.073588274 0.242602 -0.10990125 0.39909545 0.074309275 0.18221673 -0.03449775 0.3058508
0.2839975 0.38544112 0.03595891 0.10932316 -0.39671376 0.3253931 -0.0026345048 0.07533674
0.19918087 0.36043724 -0.26583862 -0.03256713 -0.22440442 -0.22776014 -0.010313747 -0.061397325
-0.2643063 -0.06270574 0.24596846 0.09786266 0.18979336 0.032061167 0.33914053 0.07831054
0.008195392 -0.14972796 0.14483947 0.012823254 -0.007942945 0.34162247 -0.28492036 -0.16900152
-0.35492617 0.12675487 -0.057409965 0.19662939 0.06348909 0.012608804 0.3749584 0.3933707
-0.40673894 -0.27724704 0.23052971 -0.23934695 0.080864616 -0.16953711 0.0051828832 -0.3369944
00000000: 9f3d c33e fc88 c43e e85b 213e 056f 323e
00000010: ad8e 8b3e a701 433e f56e f2bd c0d3 833e
00000020: fd22 363e 4537 1abe e720 b8bd b50d 2e3e
00000030: 3a29 0f3e 0963 70be ac23 5f3e 46f4 68bd
00000040: f7dd b03e 9501 87be e2a2 7cbd d4ec 5b3e
00000050: 8eb1 9a3e c614 89be 7c02 80be f306 c53e
00000060: 5e95 6abe 66e8 8e3e f21f 86be 38b9 cebd
00000070: d71a 9ebe b10d 1c3e 2bd5 b13e c1e5 78be
00000080: 3e45 0c3e b2c6 583e 5f73 643e 7ffa a63d
00000090: f997 cabe 8106 89bd bac8 babe fbdb 1b3d
000000a0: 43a9 c43e c127 3b3e b33d b93e b742 a63e
000000b0: 66ff 63be 89af 0fbe 0749 87be d199 ec3d
000000c0: 8ec8 6cbe 6cd8 ef3c 5f09 0e3d f32b bf3e
000000d0: 5dde 67bd 4619 a5be ecab ac3d 9f71 7dbe
000000e0: a857 adbe 725d 6d3e 3758 c03d 9a6c a33b
000000f0: f829 ca3d 1463 973e 525e 833e 789f 263e
00000100: 3c09 7bbe 38c3 743d 645f 583e bda1 c73e
00000110: b58b 00be d895 973d 1d93 ad3e 5736 ba3d
00000120: f40a 46be 7f0b 953e 2a25 803e a44b 813e
00000130: 8acd 713e e325 953e cde4 b93d d680 8d3e
00000140: fdcc d5bd 110a 73be 434b 9dbe 4182 c5be
00000150: 28a9 c6be 7c71 533d 833e b3be c847 2a3e
00000160: e857 c6be c578 923e eb25 a2bd 7818 45be
00000170: d3a2 07be 5c7e b3be e95b 643e 2749 a93e
00000180: d892 8dbe 4d14 733e 0e96 31bd bd98 693e
00000190: 0a01 69be 6dc0 92be 4dd5 1b3e 5b56 60be
000001a0: 17b8 bc3e 23a3 fd3c 1cad a7be b7ff 44bd
000001b0: 530e 743e 3a2d 153e 2f18 b7be fed2 30be
000001c0: 4ab7 543e 341c 863e 78b2 3d3e b64e 87be
000001d0: 319b cf3e 73a9 ba3e ee22 bbbe c460 5b3e
000001e0: 0621 b13e 2c4e ac3e 1dad b0be 3d16 b23e
000001f0: 9e26 c83b 2111 52be c2b1 b73e 45d4 2e3e
00000200: e57e 9fbd 341b 85bc 4fa6 a03e d5c7 013e
00000210: 4410 953e 5f80 44be 6942 8c3d 02b4 3bbd
00000220: 553f b73e 403b 98be 96d0 773e 05f1 b63e
00000230: df9c 43bc 0d23 c43c 522e 3a3e ce4a a13c
00000240: 3bca f1bd f0ff 33be 4b9d 93be 7eef 67be
00000250: 37ac cc3d b816 833e 7171 5c3e 2f87 133e
00000260: 3f44 9bbe f988 f93d c1e0 7e3d 4e9e c5be
00000270: 7203 aabe dfb3 ebbd 6c79 803e 2dd7 5cbe
00000280: 79e9 2ebe 1efc 1ebe 55a8 11bd a2a5 953e
00000290: c9b4 a23c f3e1 22bc 8158 c63e c94f a2bd
000002a0: 48b0 b7be 6cb1 953e 0671 263d d40c b73d
000002b0: 18cc bf3d 6407 1dbd 72eb 96be 7357 6c3e
000002c0: 21a5 30be bfc0 9e3d 0615 d83d 84af c5be
000002d0: b0c1 453e aeb6 c03e 801a ba3e c0c3 ac3e
000002e0: c20b 9fbe ae8f 8b3e 83e6 a33e 3983 f8bd
000002f0: 381c 653e b4e8 303e 5fc7 72be 805d 0a3e
00000300: 6c65 c9be 8f06 7e3e 4ca3 9dbe d292 2c3d
00000310: 88ea b8be 64bc 72be 1520 9dbe 4495 8ebe
00000320: 73b5 963d a96c 783e e813 e1bd 3d56 cc3e
00000330: 762f 983d 0697 3a3e 834d 0dbd 7a98 9c3e
00000340: 1f68 913e 8a58 c53e a649 133d d2e4 df3d
00000350: 111e cbbe ed99 a63e a8a7 2cbb 264a 9a3d
00000360: 12f6 4b3e 3b8b b83e 001c 88be 1c65 05bd
00000370: 46ca 65be f439 69be fefa 28bc c37b 7bbd
00000380: 2853 87be de6b 80bd 28df 7b3e 386c c83d
00000390: 3159 423e 9252 033d d4a3 ad3e 4761 a03d
000003a0: f745 063c 4952 19be cc50 143e a018 523c
000003b0: 2023 02bc 24e9 ae3e 15e1 91be bc0e 2dbe
000003c0: e2b8 b5be 07cc 013e b626 6bbd 3759 493e
000003d0: 9106 823d 2895 4e3c 8cfa bf3e e267 c93e
000003e0: 1640 d0be 53f3 8dbe fb0f 6c3e 5e17 75be
000003f0: 599c a53d 239b 2dbe 2dd5 a93b 888a acbe

model.0.bias f4 [64]
-0.26684794 0.22137123 -0.1083164 0.16821045 0.14495498 0.17483284 0.3182412 -0.29898494
0.24120398 -0.15000312 -0.01189971 -0.106793046 0.13153705 -0.2961166 -0.07521864 0.29259884
-0.035269815 0.21754244 0.26399282 0.3360269 0.12868594 -0.023393238 0.37909716 0.3670887
0.13935441 -0.08860392 -0.2961008 -0.38742602 0.28130695 0.2548036 -0.065659314 -0.14653432
0.00088548963 -0.19015461 -0.13925017 -0.36113378 0.04808314 -0.08099378 0.16718122 0.049521
-0.044167552 0.18069376 -0.022919402 -0.3139765 -0.13489208 -0.12378411 0.33234966 0.08079647
0.089863956 0.007068041 -0.21425392 -0.04304143 0.38877615 0.35323828 -0.24390356 0.3669564
0.1452087 0.05297882 -0.3722531 -0.2275922 -0.015960757 0.2398569 -0.12920967 0.17543362
00000000: 4ba0 88be 24af 623e fdd4 ddbd 5c3f 2c3e
00000010: 146f 143e 6107 333e 83f0 a23e 8e14 99be
00000020: 2dfe 763e 6b9a 19be 00f7 42bc 50b6 dabd
00000030: a6b1 063e 989c 97be 3b0c 9abd 84cf 953e
00000040: 1577 10bd 72c3 5e3e 112a 873e b80b ac3e
00000050: 3fc6 033e 2da3 bfbc 0619 c23e 0df3 bb3e
00000060: ecb2 0e3e f975 b5bd 869a 97be b45c c6be
00000070: 7707 903e 9e75 823e 6478 86bd 180d 16be
00000080: 3420 683a e4b7 42be 9997 0ebe 87e6 b8be
00000090: d4f2 443d 11e0 a5bd 8e31 2b3e 88d6 4a3d
000000a0: 09e9 34bd c907 393e 78c1 bbbc 87c1 a0be
000000b0: 2621 0abe 8682 fdbd bc29 aa3e 9f78 a53d
000000c0: 980a b83d 069b e73b 6165 5bbe 364c 30bd
000000d0: ab0d c73e a6db b43e dbc1 79be b6e1 bb3e
000000e0: 97b1 143e 5200 593d f597 bebe ee0d 69be
000000f0: 22c0 82bc 0c9d 753e 8a4f 04be dfa4 333e

model.2.weight f4 [64, 64]
0.11906396 -0.06286152 -0.022556752 -0.05356766 0.12522747 -0.049374923 0.08185803 -0.11588313
-0.0370795 0.0099938 0.09264894 -0.11362908 -0.0349517 0.12628916 0.028334111 -0.051000647
0.117506735 -0.025994942 0.045213565 -0.018057287 -0.051238976 0.0887271 -0.11128387 -0.11053224
-0.058494516 0.070705034 -0.07253039 0.028132534 0.12630425 -0.08459684 0.042338714 -0.07969771
-0.009150048 -0.12320623 -0.11765004 -0.007543891 -0.0065137288 0.054947715 0.07412733 -0.001026988
0.120361835 -0.04456636 -0.07777925 -0.11757681 -0.06624699 -0.10838925 0.06047798 0.063407324
-0.038005274 -0.080942184 -0.06186639 -0.11626165 -0.039894797 0.035258964 0.12564099 -0.0520656
0.12348908 -0.023164956 0.034588993 -0.10830878 -0.11760979 0.04314424 0.009463385 -0.06264117
0.08290242 0.071987584 0.10551679 -0.0216164 0.020656988 0.019510314 -0.06636822 0.03568779
0.09974161 -0.067205355 0.04541275 0.03818117 -0.047615305 -0.042668283 0.046339914 -0.08677319
0.09970078 0.003141567 -0.063628584 -0.037840083 -0.10556944 0.1075163 0.055256978 -0.07210432
-0.07129349 -0.053141728 -0.075533345 0.06786011 -0.119822145 -0.05238846 -0.012504652 0.05362913
0.000320971 -0.045727715 -0.063102424 -0.080933765 -0.0977086 0.06472483 -0.023371965 -0.10399051
0.05287698 0.060180023 -0.039357737 0.0757609 0.08394666 -0.10824306 -0.097060025 0.036222115
-0.11297375 0.051968172 -0.035993025 -0.050061226 -0.075122386 0.08292687 -0.063955665 -0.052491844
-0.03452854 0.10316698 -0.025461376 -0.081168056 -0.11253944 0.036836565 -0.12403439 0.11932741
-0.038397275 -0.034642298 -0.107057445 -0.06434225 0.08359768 -0.12520649 -0.03363311 -0.12044125
-0.011233586 0.09345925 0.12494409 -0.02757285 -0.043647565 -0.037609715 0.043452505 0.12316701
0.07183681 0.11151147 -0.10978374 -0.051802173 0.09801029 0.051197015 -0.11888996 -0.061559603
-0.120073706 -0.06146219 -0.029548313 0.015789151 0.06076666 0.08391719 0.0002297908 0.053772174
0.007269493 0.11185464 0.07230699 -0.10148906 0.0054357396 -0.0052825697 0.033438984 0.043687552
0.025211137 -0.005915154 0.113640055 -0.08422599 0.12454178 0.094733566 -0.028872881 -0.09781775
0.021698069 -0.10716526 -0.033069942 -0.10643702 0.06834007 0.0047416245 -0.06111427 0.08130486
-0.08839697 0.0643022 -0.023154631 0.0420051 0.020695325 -0.06535825 0.10391263 0.09202868
-0.08092244 0.037762076 0.0665385 -0.07750216 -0.0804652 -0.01677911 0.043245748 -0.040943682
0.016587973 -0.046525612 0.06768268 -0.08266035 -0.014341012 -0.12018412 -0.029378772 -0.047756135
0.06737104 0.10959403 -0.028072327 0.11820468 0.0069538206 0.026865706 -0.11744419 0.08388148
-0.04719515 -0.08541176 -0.09322137 0.085510105 0.019981071 -0.05354534 -0.07029648 -0.07881245
-0.03394358 0.049279228 -0.0013657659 -0.005677536 -0.07184914 0.1213644 -0.06603193 0.0691019
-0.041870803 0.023272216 -0.012364283 -0.01645866 0.08240424 0.033054292 0.10204677 -0.10644132
-0.08753906 -0.03839831 -0.08141643 -0.11265096 -0.09393273 -0.061931744 -0.04671909 -0.070039615
-0.013987243 -0.045419797 0.10110803 0.07829687 0.12435958 -0.00052429736 0.0663932 0.016468689
00000000: ced7 f33d 8abd 80bd f0c8 b8bc c369 5bbd
00000010: a13b 003e 5c3d 4abd 2fa5 a73d 2254 edbd
00000020: ace0 17bd 09bd 233c babe bd3d 5db6 e8bd
00000030: 8429 0fbd f251 013e f01c e83c 0ee6 50bd
00000040: 5fa7 f03d 58f3 d4bc dc31 393d e0ec 93bc
00000050: f6df 51bd 8eb6 b53d cce8 e3bd ba5e e2bd
00000060: f297 6fbd cdcd 903d d08a 94bd 3376 e63c
00000070: e755 013e 1c41 adbd 5c6b 2d3d 8e38 a3bd
00000080: 15ea 15bc 8c53 fcbd 81f2 f0bd bf32 f7bb
00000090: 1e71 d5bb db10 613d 12d0 973d 009c 86ba
000000a0: 4480 f63d 378b 36bd ba4a 9fbd 1ccc f0bd
000000b0: 80ac 87bd 2ffb ddbd c2b7 773d b3db 813d
000000c0: 6bab 1bbd 04c5 a5bd 9d67 7dbd 971a eebd
000000d0: ba68 23bd b46b 103d 08a8 003e bd42 55bd
000000e0: d8e7 fc3d 6fc4 bdbc 30ad 0d3d fed0 ddbd
000000f0: 67dd f0bd 04b8 303d 500c 1b3c 044a 80bd
00000100: bec8 a93d 3a6e 933d 3019 d83d e014 b1bc
00000110: d838 a93c 18d4 9f3c 10ec 87bd 5c2d 123d
00000120: 5445 cc3d f6a2 89bd b802 3a3d dc63 1c3d
00000130: 4408 43bd f0c4 2ebd ecce 3d3d 24b6 b1bd
00000140: ec2f cc3d c0e2 4d3b b44f 82bd 34fe 1abd
00000150: ca34 d8bd 8231 dc3d 2455 623d 6eab 93bd
00000160: 5202 92bd 24ab 59bd 3ab1 9abd 3efa 8a3d
00000170: 5065 f5bd 4895 56bd 50e0 4cbc 38aa 5b3d
00000180: 0048 a839 fc4c 3bbd d83b 81bd 9ac0 a5bd
00000190: 721b c8bd 748e 843d 9076 bfbc faf8 d4bd
000001a0: 8895 583d 547f 763d 9435 21bd 8828 9b3d
000001b0: 3aec ab3d 8aae ddbd 68c7 c6bd a45d 143d
000001c0: c85e e7bd 94dc 543d 6c6d 13bd 000d 4dbd
000001d0: c4d9 99bd 90d5 a93d 30fb 82bd b001 57bd
000001e0: cc6d 0dbd 3649 d33d 6094 d0bc 703b a6bd
000001f0: 147b e6bd f0e1 163d be05 febd ee61 f43d
00000200: 7646 1dbd 15e5 0dbd ef40 dbbd dfc5 83bd
00000210: 4335 ab3d 2136 00be dfc2 09bd e7a9 f6bd
00000220: 130d 38bc 9067 bf3d b0e2 ff3d 75e0 e1bc
00000230: cac7 32bd a50c 1abd 41fb 313d fc3e fc3d
00000240: 2d1f 933d 2060 e43d 4cd6 e0bd 842e 54bd
00000250: 9eb9 c83d f6b3 513d 947c f3bd ec25 7cbd
00000260: 34e9 f5bd c7bf 7bbd 4e0f f2bc 4058 813c
00000270: 76e6 783d c7dc ab3d 00f4 7039 3640 5c3d
00000280: ed34 ee3b 0c14 e53d b015 943d 7fd9 cfbd
00000290: 4a1e b23b 6819 adbb 51f7 083d b8f1 323d
000002a0: 9687 ce3c e8d3 c1bb 1ebc e83d ad7e acbd
000002b0: c30f ff3d ac03 c23d d286 ecbc ac54 c8bd
000002c0: 26c0 b13c 7679 dbbd 5974 07bd a7fb d9bd
000002d0: e1f5 8b3d a15f 9b3b f552 7abd 2a83 a63d
000002e0: 7809 b5bd dfb0 833d c8ae bdbc 8a0d 2c3d
000002f0: 3e89 a93c 8cda 85bd 25d0 d43d 8879 bc3d
00000300: aaba a5bd 68ac 1a3d 5645 883d 74b9 9ebd
00000310: f0ca a4bd 5874 89bc 7422 313d 90b4 27bd
00000320: 80e3 873c a491 3ebd 389d 8a3d d449 a9bd
00000330: 90f6 6abc 1823 f6bd c0ab f0bc f09b 43bd
00000340: d4f9 893d d672 e03d f0f7 e5bc 4c15 f23d
00000350: e0dc e33b 7815 dc3c 9486 f0bd 0eca ab3d
00000360: b44f 41bd 5cec aebd d8ea bebd ec1f af3d
00000370: 58af a33c 5c52 5bbd 9af7 8fbd 6c68 a1bd
00000380: 6c08 0bbd 04d9 493d 8003 b3ba a00a babb
00000390: a425 93bd e68d f83d c03b 87bd 4c85 8d3d
000003a0: b880 2bbd 60a5 be3c 9093 4abc 50d4 86bc
000003b0: 8ec3 a83d f063 073d e6fd d03d e8fd d9bd
000003c0: ae47 b3bd 8c47 1dbd a8bd a6bd 8cb5 e6bd
000003d0: ce5f c0bd 24ac 7dbd 845c 3fbd ee70 8fbd
000003e0: c02a 65bc 1c0a 3abd ba11 cf3d 1c5a a03d
000003f0: 3cb0 fe3d 0071 09ba 28f9 873d 58e9 863c

model.2.bias f4 [64]
0.059324183 0.048091397 0.042623494 0.061135083 0.09353288 -0.082970604 -0.07200658 -0.1248225
-0.01740136 -0.053132474 -0.01801882 -0.052603267 0.074009575 -0.088558994 -0.12067478 0.033872023
0.025296822 -0.02504987 0.039304517 0.11696847 -0.07124962 -0.09541709 0.06759261 -0.10272688
0.0867956 -0.07021581 -0.009809852 -0.116365075 -0.102775 -0.03623083 -0.06745629 0.06985481
0.013516751 -0.10842991 -0.048435654 -0.024193084 -0.09812439 -0.106678426 0.054046243 -0.116572805
0.11668316 0.121018074 -0.12452456 0.045953035 -0.011493232 -0.08633543 0.11738903 -0.08128044
-0.01646411 -0.07953866 -0.11667389 -0.064017676 -0.0051814425 0.013709911 -0.03392019 -0.034769207
0.040748224 0.09162947 -0.00698221 0.03685628 0.0040582474 -0.09924839 0.0266532 -0.009503785
00000000: eafd 723d 7cfb 443d f995 2e3d c868 7a3d
00000010: 2b8e bf3d 7eec a9bd 3078 93bd f0a2 ffbd
00000020: 4c8d 8ebc 70a1 59bd 349c 93bc 8676 57bd
00000030: 5592 973d 6b5e b5bd 5724 f7bd 64bd 0a3d
00000040: 483b cf3c 6335 cdbc c6fd 203d 2a8d ef3d
00000050: 52eb 91bd 096a c3bd ff6d 8a3d 7862 d2bd
00000060: e4c1 b13d 4ecd 8fbd 80b9 20bc d050 eebd
00000070: b37b d2bd c766 14bd 8626 8abd 0a10 8f3d
00000080: 5d75 5d3c 8010 debd 7764 46bd 9330 c6bc
00000090: 71f5 c8bd 387a dabd 985f 5d3d b9bd eebd
000000a0: 95f7 ee3d 53d8 f73d bc06 ffbd 4039 3c3d
000000b0: 1c4e 3cbc a1d0 b0bd a969 f03d 5c76 a6bd
000000c0: bedf 86bc 2ae5 a2bd b8f2 eebd b31b 83bd
000000d0: 17c9 a9bb 899f 603c e6ef 0abd 286a 0ebd
000000e0: 9ce7 263d 3ba8 bb3d 06cb e4bb 9cf6 163d
000000f0: 0cfb 843b bd42 cbbd d057 da3c c3b5 1bbc

model.4.weight f4 [6, 64]
0.103417814 0.10590188 -0.111755475 0.020078853 -0.051302277 -0.11520673 0.01848829 0.10254949
-0.08422503 -0.021238476 0.11606479 -0.048755396 -0.029992621 -0.008161503 -0.116716444 0.0699889
0.062380906 -0.1137631 -0.0824005 -0.08860876 -0.10620353 0.095607236 -0.105879955 0.054503646
-0.07413076 -0.0738507 0.008450425 -0.08686972 -0.090625905 -0.007828188 0.0007510036 -0.0044149836
0.028542295 0.12101819 0.11475064 -0.0005736782 -0.10058937 0.09958784 -0.02597633 0.056516513
-0.066501275 0.083993785 0.009173452 -0.07143023 -0.036611784 0.0969 0.013254072 0.09562324
-0.11946714 0.12203309 0.105803795 -0.083393075 0.0646022 -0.0074951565 -0.0035747592 -0.0703686
0.01899229 -0.06059688 0.02212614 -0.083735004 0.117288835 0.00628381 0.117280506 0.0645738
0.079440266 0.09194724 0.11487117 0.004437566 -0.1057393 -0.010167062 -0.04334585 -0.05295436
0.11417845 -0.09190959 -0.09397002 -0.09023297 -0.083013736 0.05782334 0.10138904 0.052538108
-0.06346493 -0.118586786 -0.103455454 -0.04520981 0.036096424 -0.046519544 -0.07587095 -0.12314562
0.10414681 0.11601316 -0.04841771 0.053365126 -0.09563321 0.08274967 -0.04049237 0.11107168
0.12598899 0.11785825 0.058626708 0.008832692 0.12241236 0.04052009 -0.025195152 -0.10814364
-0.08601368 -0.11248658 0.119592346 0.09120923 -0.053450003 -0.0769131 -0.10606715 -0.010172598
0.09420991 -0.09772639 -0.096540175 0.008369349 0.00955259 0.065900296 0.071925625 -0.051921383
0.06766151 -0.08205505 -0.10790302 -0.018674389 0.0052395673 -0.08936096 -0.00012220675 0.009025168
-0.049775973 -0.12151599 -0.10319126 0.011749908 -0.0995393 0.06980905 0.08425235 -0.05162686
0.110307135 0.098382264 0.012974811 0.036356583 0.08133404 -0.06538895 0.09395852 0.046408307
0.11681414 0.09065318 -0.04779666 0.039966524 0.052362457 -0.022723615 0.04651506 -0.023055684
-0.030788988 0.058035545 -0.119521454 -0.022915438 0.12026466 -0.063636124 -0.07919723 0.109890945
-0.014167493 -0.084943086 0.034287285 -0.031773914 0.093316846 0.07217817 0.016078025 0.071032956
0.06398495 0.038409714 -0.07744522 -0.054700565 0.119846836 -0.094903514 -0.07224264 -0.017769322
0.07665864 -0.010719813 -0.020412972 -0.104601964 0.039242886 -0.019933268 0.077331 0.09795278
0.09990384 0.09952302 -0.040302824 -0.043225244 0.010673783 -0.09084126 0.02086723 -0.03954752
-0.0124580115 -0.034353077 0.11868767 0.116198555 -0.040286683 0.060916632 0.042004112 -0.085317224
-0.026693808 -0.048040092 -0.035454415 -0.10623392 0.03759057 -0.038761463 -0.07666366 -0.0838575
-0.0684814 -0.0037948235 -0.057847302 0.030107945 0.048142232 0.087325364 0.09467944 0.020516656
-0.047301188 0.07684205 0.11901095 0.09217809 -0.042662505 -0.10332779 -0.1011899 -0.011290114
0.08055545 0.0017230206 0.06428478 0.02252117 0.074285366 -0.12567447 0.07287145 -0.091434956
0.051068228 0.004286566 0.053587757 0.07580246 0.017843073 -0.058339015 0.07063129 0.10619299
0.007755044 -0.08152901 -0.026378684 0.0768202 0.041486543 -0.09598301 -0.023299877 0.088135764
-0.08061032 0.09230629 -0.09993992 0.12398958 0.09697719 -0.059892766 0.07527279 0.087502256
00000000: b8cc d33d 16e3 d83d 0ee0 e4bd 687c a43c
00000010: 5622 52bd 82f1 ebbd c174 973c 7805 d23d
00000020: 2c7e acbd 50fc adbc 60b3 ed3d bdb3 47bd
00000030: 16b3 f5bc d3b7 05bc 0809 efbd 5756 8f3d
00000040: 1f83 7f3d a1fc e8bd 98c1 a8bd 8278 b5bd
00000050: 3d81 d9bd bacd c33d 97d7 d8bd 373f 5f3d
00000060: ded1 97bd 093f 97bd a773 0a3c c0e8 b1bd
00000070: 139a b9bd cd41 00bc 00df 443a 91ab 90bb
00000080: 88d1 e93c 63d8 f73d 6202 eb3d e462 16ba
00000090: cd01 cebd b6f4 cb3d 50cc d4bc dc7d 673d
000000a0: d231 88bd ef04 ac3d 3f4c 163c 034a 92bd
000000b0: 3df6 15bd 8273 c63d 9b27 593c 1ed6 c33d
000000c0: 30ab f4bd 7cec f93d a9af d83d fdc9 aabd
000000d0: 294e 843d ee99 f5bb 8246 6abb 6a1d 90bd
000000e0: b895 9b3c 6f34 78bd e141 b53c 427d abbd
000000f0: 2135 f03d 6be8 cd3b c330 f03d 453f 843d
00000100: 94b1 a23d d64e bc3d 9341 eb3d 0069 913b
00000110: d98d d8bd c093 26bc 6b8b 31bd ace6 58bd
00000120: 64d6 e93d 183b bcbd 5b73 c0bd 10cc b8bd
00000130: 1b03 aabd 2bd8 6c3d 0fa5 cf3d 3332 573d
00000140: e7f9 81bd a1dd f2bd 74e0 d3bd ec2d 39bd
00000150: d8d9 133d 478b 3ebd 3b62 9bbd c533 fcbd
00000160: ec4a d53d 4f98 ed3d a651 46bd 6495 5a3d
00000170: 58db c3bd a978 a93d 54db 25bd 8d79 e33d
00000180: 4203 013e ab5f f13d 8f22 703d ffb6 103c
00000190: 55b3 fa3d 65f8 253d 1066 cebc 6a7a ddbd
000001a0: f127 b0bd 5d5f e6bd d5ec f43d e8cb ba3d
000001b0: 64ee 5abd 9e84 9dbd bc39 d9bd f8aa 26bc
000001c0: 20f1 c03d c624 c8bd dbb6 c5bd 981f 093c
000001d0: 7782 1c3c bcf6 863d be4d 933d 84ab 54bd
000001e0: 1e92 8a3d 7a0c a8bd 42fc dcbd 08fb 98bc
000001f0: adb0 ab3b e102 b7bd a024 00b9 4cde 133c
00000200: e4e1 4bbd 60dd f8bd f055 d3bd b082 403c
00000210: 43db cbbd 0cf8 8e3d 7f8c ac3d b076 53bd
00000220: b5e8 e13d a47c c93d 4d94 543c a4ea 143d
00000230: 7692 a63d a4ea 85bd 536d c03d a316 3e3d
00000240: 403c ef3d 60a8 b93d 6ec6 43bd f0b3 233d
00000250: 047a 563d e026 babc 9386 3e3d 46df bcbc
00000260: 3039 fcbc aeb6 6d3d aac7 f4bd 28b9 bbbc
00000270: 514d f63d a853 82bd 2832 a2bd 810e e13d
00000280: c61e 68bc a4f6 adbd d370 0c3d 5d25 02bd
00000290: e71c bf3d 26d2 933d 10b6 833c ba79 913d
000002a0: 8b0a 833d 8153 1d3d 999b 9ebd b30d 60bd
000002b0: 4272 f53d c65c c2bd f3f3 93bd f890 91bc
000002c0: 34ff 9c3d 28a2 2fbc 1b39 a7bc 8e39 d6bd
000002d0: 26bd 203d 184b a3bc b75f 9e3d 789b c83d
000002e0: 629a cc3d bad2 cb3d 9314 25bd f40c 31bd
000002f0: 17e1 2e3c fc0a babd c1f1 aa3c 95fc 21bd
00000300: b01c 4cbc d0b5 0cbd 8512 f33d 82f9 ed3d
00000310: a603 25bd b883 793d 810c 2c3d ccba aebd
00000320: f9ac dabc b0c5 44bd a638 11bd 2b91 d9bd
00000330: 92f8 193d 57c4 1ebd d601 9dbd 7bbd abbd
00000340: fa3f 8cbd 93b2 78bb 4bf1 6cbd f0a4 f63c
00000350: ca30 453d a4d7 b23d 4be7 c13d 8c12 a83c
00000360: e4be 41bd 5d5f 9d3d 03bc f33d dec7 bc3d
00000370: e1be 2ebd 859d d3bd a63c cfbd 2cfa 38bc
00000380: 41fa a43d fad6 e13a bda7 833d 517e b83c
00000390: ed22 983d cfb0 00be a03d 953d 4042 bbbd
000003a0: eb2c 513d 5276 8c3b d67e 5b3d 523e 9b3d
000003b0: a32b 923c e4f4 6ebd 23a7 903d b67b d93d
000003c0: 061e fe3b aef8 a6bd 1c18 d8bc e953 9d3d
000003d0: cbed 293d be92 c4bd 62df bebc 8680 b43d
000003e0: 0617 a5bd 150b bd3d 4dad ccbd 40ee fd3d
000003f0: fa9b c63d 1e52 75bd 9f28 9a3d 6234 b33d

model.4.bias f4 [6]
-0.047637735 -0.0063265404 -0.08460437 0.051168595 0.013913048 -0.009490668
00000000: c91f 43bd de4e cfbb 0e45 adbd 2996 513d
00000010: 8ef3 633c bf7e 1bbc

model.0.weight f4 [64, 96]
-0.05326441 0.04856374 -0.09675753 0.03616621 0.037085865 0.032191917 0.064572066 0.040530726
0.0051182564 0.07383335 0.05917539 -0.082516044 -0.0024738116 0.04285541 -0.09557749 0.04928027
0.027715428 0.07107584 0.09293676 0.014958691 0.09418068 0.038230315 -0.07294216 0.061497167
-0.041928377 -0.086792454 -0.02350645 -0.06475729 -0.08081539 -0.017291343 0.013100956 -0.017490555
-0.10350947 -0.018337222 0.073778465 -0.033007942 -0.039728727 0.024504282 -0.035250273 -0.07593335
-0.09521002 0.07866156 0.047748633 0.06736962 -0.046550762 0.06863719 0.008311834 -0.04073947
0.033631187 -0.052352734 0.013473201 -0.07319016 -0.08236869 -0.07798459 -0.09672573 0.09696711
0.053750552 -0.024837455 -0.081007786 0.040039387 0.04429562 -0.026992816 -0.008168213 0.062413454
0.018113557 0.0026348876 0.0046628504 -0.059873223 -0.028210385 -0.0683715 0.01361752 0.020303516
-0.023189494 0.006655469 0.0751822 -0.04900756 -0.00962377 0.07964483 0.030325443 -0.024752703
-0.09762441 -0.038387544 -0.0028545985 -0.08181952 -0.014025844 -0.011080374 0.022068704 0.09992206
-0.05724193 0.01638572 -0.05950053 0.0016045433 0.090655856 -0.08423339 0.08509021 0.08685125
-0.010347839 0.05057859 -0.06907599 -0.0873437 0.0662781 0.096988395 0.002602851 -0.06860866
0.07180064 -0.03435668 0.037899006 -0.096581355 -0.046623774 -0.07496039 -0.089642294 -0.056351952
-0.05378764 0.0597409 0.08415348 0.09242325 0.025831006 0.043946944 -0.0947824 -0.0878464
-0.038636815 0.07728482 -0.084335715 -0.0026131014 0.06824412 -0.0757822 0.03125155 0.021771992
-0.038193647 0.05243633 -0.066059254 0.067062 -0.014787784 0.024314452 -0.08238291 0.023461886
0.07424134 -0.04864269 -0.08168642 0.068132974 -0.024022605 -0.07078014 -0.030607274 0.08118992
-0.08135297 -0.024604492 0.09711479 0.033369303 -0.09589173 0.09254543 0.09176741 -0.024240946
-0.01875539 0.056567743 0.09712252 -0.0032861428 0.091489494 0.094435595 -0.0427108 -0.018176349
0.10164195 0.021925034 -0.028610004 0.07186356 -0.0024834173 0.07556678 -0.08324556 -0.019224426
0.06468618 -0.003382952 0.07802999 0.023983775 0.02061622 -0.04592524 0.049682233 0.07795109
-0.07912301 0.0039397767 0.038255334 0.083734885 -0.08851228 0.074315876 -0.05859712 -0.04025197
-0.013471881 -0.0028050232 -0.027266117 0.002915643 -0.042887233 -0.08325643 0.02046853 0.07637231
-0.0051174522 -0.031919334 0.04677313 0.032985706 0.09457453 0.025833085 -0.08159145 0.07925719
-0.0475859 -0.049172502 0.06353889 0.033049047 -0.056066416 -0.08074242 0.05469112 0.02205323
0.09402876 -0.05820402 -0.009004373 -0.005688766 0.05346672 -0.07742379 -0.053522065 -0.09267203
-0.02508821 0.10353686 -0.027544979 -0.09736163 0.024983076 -0.020667806 -0.035195634 -0.08877266
-0.05827107 0.08711796 -0.05231916 0.016951717 -0.050987247 -0.0534216 0.058102727 -0.090477556
0.09068254 -0.050487638 0.05903679 -0.05763448 0.0073911087 0.10108481 -0.054352477 -0.080111705
-0.071886614 -0.08623807 -0.012346388 -0.06545431 0.09512651 0.0035939803 -0.05655961 0.08296986
0.06336196 0.08828534 0.085054174 0.06185968 0.09055614 0.05025466 0.06765181 0.05053839
00000000: c82b 5abd c6ea 463d d028 c6bd 0523 143d
00000010: 59e7 173d acdb 033d 5c3e 843d 8c03 263d
00000020: 0cb7 a73b f035 973d e561 723d 2cfe a8bd
00000030: ac1f 22bb 2889 2f3d 22be c3bd 1cda 493d
00000040: 770b e33c 3690 913d a155 be3d 4c15 753c
00000050: cde1 c03d 6497 1c3d b362 95bd 74e4 7b3d
00000060: 17bd 2bbd 3ec0 b1bd 9990 c0bc 789f 84bd
00000070: 8a82 a5bd 93a6 8dbc 64a5 563c 5a48 8fbc
00000080: c6fc d3bd f137 96bc 2a19 973d 5633 07bd
00000090: 97ba 22bd 34bd c83c 9762 10bd f282 9bbd
000000a0: 79fd c2bd 5019 a13d 1294 433d 15f9 893d
000000b0: 03ac 3ebd a891 8c3d 5c2e 083c 6ede 26bd
000000c0: dbc0 093d d26f 56bd b3be 5c3c b9e4 95bd
000000d0: eab0 a8bd 62b6 9fbd 2418 c6bd b196 c63d
000000e0: 8a29 5c3d eb77 cbbc 69e7 a5bd 5700 243d
000000f0: 536f 353d 0a20 ddbc f8d3 05bc 40a5 7f3d
00000100: e262 943c 14ae 2c3b d3ca 983b a03d 75bd
00000110: 7719 e7bc 5b06 8cbd 051c 5f3c 8f53 a63c
00000120: e5f7 bdbc 1f16 da3b 20f9 993d 27bc 48bd
00000130: 04ad 1dbc d41c a33d 106d f83c 2ec6 cabc
00000140: 4fef c7bd 423c 1dbd 3714 3bbb fe90 a7bd
00000150: a7cc 65bc 758a 35bc 6dc9 b43c f0a3 cc3d
00000160: 8476 6abd 583b 863c d4b6 73bd 8a4f d23a
00000170: c7a9 b93d 8e82 acbd c743 ae3d 11df b13d
00000180: fc89 29bc 7f2b 4f3d b677 8dbd 41e1 b2bd
00000190: d0bc 873d daa1 c63d 9894 2a3b b282 8cbd
000001a0: 370c 933d 97b9 0cbd fd3b 1b3d 72cc c5bd
000001b0: 92f8 3ebd d584 99bd 6196 b7bd 4ed1 66bd
000001c0: 6e50 5cbd e0b2 743d a958 ac3d 6748 bd3d
000001d0: 8c9b d33c b601 343d 461d c2bd d0e8 b3bd
000001e0: a341 1ebd 8147 9e3d 34b8 acbd 9140 2bbb
000001f0: 93c3 8b3d b333 9bbd a001 003d 2d5b b23c
00000200: f170 1cbd 7ac7 563d 134a 87bd cd57 893d
00000210: 7648 72bc 1a2f c73c 5fb8 a8bd 2433 c03c
00000220: d80b 983d 8f3d 47bd 364b a7bd 4d89 8b3d
00000230: 0ecb c4bc 2ef5 90bd 1bbc fabc e746 a63d
00000240: 639c a6bd 5c8f c9bc 1ee4 c63d 40ae 083d
00000250: e262 c4bd 7588 bd3d 8df0 bb3d f394 c6bc
00000260: e7a4 99bc 94b3 673d 2ce8 c63d 545c 57bb
00000270: d85e bb3d 7367 c13d 85f1 2ebd 91e6 94bc
00000280: a829 d03d 219c b33c 875f eabc 342d 933d
00000290: d4c0 22bb c2c2 9a3d a67c aabd 8b7c 9dbc
000002a0: 307a 843d 84b4 5dbb 30ce 9f3d 9f79 c43c
000002b0: 59e3 a83c 1b1c 3cbd 997f 4b3d d2a4 9f3d
000002c0: 3f0b a2bd 3e19 813b a0b1 1c3d 327d ab3d
000002d0: ed45 b5bd ec32 983d 8903 70bd 40df 24bd
000002e0: 2ab9 5cbc 7bd4 37bb 315d dfbc 5f14 3f3b
000002f0: 86aa 2fbd 5982 aabd 9ead a73c 1669 9c3d
00000300: 4db0 a7bb d9bd 02bd 2e95 3f3d 051c 073d
00000310: 4bb0 c13d e89f d33c 6b19 a7bd 9851 a23d
00000320: 6fe9 42bd 1b69 49bd ad20 823d 705e 073d
00000330: e6a5 65bd 485c a5bd cc03 603d faa8 b43c
00000340: 2792 c03d 5767 6ebd 1487 13bc d468 babb
00000350: ebff 5a3d 5d90 9ebd f439 5bbd d5ca bdbd
00000360: ca85 cdbc 220b d43d 02a6 e1bc 8965 c7bd
00000370: 4fa9 cc3c 884f a9bc 4c29 10bd 71ce b5bd
00000380: a5ad 6ebd e76a b23d 9e4c 56bd 54de 8a3c
00000390: 01d8 50bd 9cd0 5abd 20fd 6d3d 4c4c b9bd
000003a0: c4b7 b93d 20cc 4ebd 90d0 713d 2212 6cbd
000003b0: 1d31 f23b 8e05 cf3d b4a0 5ebd 9b11 a4bd
000003c0: 4a39 93bd 969d b0bd 8148 4abc e90c 86bd
000003d0: b0d1 c23d fc88 6b3b 0dab 67bd 1aec a93d
000003e0: eac3 813d f2ce b43d e230 ae3d 9360 7d3d
000003f0: 7f75 b93d d5d7 4d3d 088d 8a3d 5801 4f3d

model.0.bias f4 [64]
0.016793925 -0.060759608 -0.081117906 -0.08580013 0.051028825 0.07851863 -0.07432712 -0.081061505
0.09825903 -0.10051471 -0.08200029 -0.10255501 0.04241823 0.0063145114 0.0075186607 0.022207698
-0.018679807 -0.0010528272 -0.040338602 0.092651725 -0.07183644 -0.0757572 0.08171477 0.08647174
-0.047661826 0.07097939 0.022746706 -0.0023748195 -0.035151627 -0.07628897 -0.0018168988 0.019202676
0.08661732 0.082131945 0.07465642 -0.045005713 -0.032273196 0.026124012 -0.0040514753 -0.06248688
0.020610591 -0.056461796 0.066412665 -0.028558664 -0.05841385 -0.050278716 0.02988197 0.100834005
-0.08557968 -0.013651704 -0.0057412703 -0.032416333 -0.05365642 0.015700229 -0.044408552 0.019611923
-0.06673923 0.074662395 0.090030625 -0.02222431 -0.0834592 0.054965556 0.060411207 0.05420567
00000000: 6a93 893c 11df 78bd 2521 a6bd fbb7 afbd
00000010: 9a03 513d 60ce a03d d138 98bd 9303 a6bd
00000020: 083c c93d a8da cdbd c5ef a7bd 5c08 d2bd
00000030: bdbe 2d3d f6e9 ce3b 195f f63b ebec b53c
00000040: 6506 99bc 05ff 89ba 173a 25bd 30c0 bd3d
00000050: fc1e 93bd 9726 9bbd 135a a73d 1818 b13d
00000060: 0c39 43bd a45d 913d 4d57 ba3c dca2 1bbb
00000070: 27fb 0fbd 643d 9cbd 0225 eeba ee4e 9d3c
00000080: 6c64 b13d cb34 a83d 77e5 983d e957 38bd
00000090: e630 04bd 0602 d63c 3dc2 84bb 3ef2 7fbd
000000a0: 8bd7 a83c 7c44 67bd 5d03 883d dcf3 e9bc
000000b0: 5c43 6fbd 0ef1 4dbd 08cb f43c 0f82 ce3d
000000c0: 6644 afbd 66ab 5fbc 4421 bcbb fdc6 04bd
000000d0: d6c6 5bbd c49d 803c bee5 35bd 2fa9 a03c
000000e0: 94ae 88bd 99e8 983d fa61 b83d c20f b6bc
000000f0: a8ec aabd 9023 613d be71 773d c406 5e3d

model.2.weight f4 [64, 64]
0.030717805 0.049225897 -0.05345501 -0.10656592 -0.03757824 0.047182634 0.10941453 -0.059780985
-0.051024362 -0.11835757 0.027349785 -0.045213714 -0.014148176 0.05416943 0.044773713 0.09613867
-0.07735711 -0.079152316 0.022709206 -0.0715785 0.08264166 -0.08357 -0.010040462 0.0010705143
0.046881914 -0.11508602 -0.08083953 0.080793664 -0.059375033 0.053887293 0.038947567 0.034245655
0.10584198 -0.088964015 -0.05077307 -0.07066859 -0.07757887 0.017198637 -0.09416312 -0.11677766
-0.091042906 -0.08305578 0.010451227 -0.010128304 0.0057604015 -0.09726629 -0.06830789 -0.028703481
-0.103534386 0.10060614 0.122721046 -0.07359053 0.02849923 0.095235735 0.0017328113 0.121478245
0.0697774 -0.06825179 0.08614026 -0.04527192 -0.06313214 0.10872869 -0.063068524 0.11391765
0.1213554 0.07478538 0.038776387 0.020560592 -0.041845158 0.121204674 0.09691159 -0.089375205
0.047086254 0.024486069 0.051845863 -0.01574787 0.10529643 -0.0002564747 0.11361397 -0.00024378637
0.020361356 -0.103097364 -0.08649365 0.122946106 0.030045321 -0.085897125 0.027988851 -0.029105052
-0.055216137 0.0068602124 -0.02879148 0.01579485 0.065042615 -0.016997466 0.10782317 -0.0425849
-0.01991284 0.09938646 0.0027954038 0.09233935 -0.09355958 -0.06351273 0.018878717 0.094070524
0.059233822 0.022775905 0.11338885 -0.09513676 -0.092889376 -0.08880567 0.016754491 -0.041194778
0.07652819 0.07295616 0.09480958 0.09531436 -0.11483483 0.044800304 -0.10888095 -0.07769244
0.06904779 0.10576683 0.057358734 0.026625725 0.08759556 0.10586053 -0.024314225 0.1013866
-0.09437912 0.021266157 -0.024293076 0.074226946 0.08104705 -0.019771816 0.014314251 0.041030522
-0.06996573 -0.012566833 -0.032939285 0.09862768 0.082618184 0.039915968 -0.07959528 0.00479236
0.027409794 -0.10122533 -0.08698099 0.09355209 -0.07648977 0.09743744 -0.09039897 -0.029640965
0.101797104 0.020321364 0.10350376 -0.103080496 -0.021713903 0.036175124 -0.034692205 0.07726394
-0.10385674 -0.04246805 -0.025265485 0.0014775693 -0.009048759 0.038680375 -0.01797297 0.034597177
0.07563323 -0.09738366 0.025302589 -0.02877377 0.11575476 -0.0031450917 0.08361712 0.046459768
0.07264873 0.03490104 -0.09803266 0.0831091 -0.02969954 0.021897309 -0.04469748 -0.01663319
0.065932326 0.11093079 -0.0046462584 -0.10849775 -0.09058562 -0.078888774 0.005032154 0.0004126964
-0.10503337 0.090239055 -0.030750504 -0.09548172 0.040834684 0.05033618 0.108246535 0.011504556
0.11526471 0.066122234 -0.09631959 -0.07218362 -0.051296428 0.05969298 0.07638443 0.043366723
-0.05126795 -0.017994946 0.080341384 0.09747983 0.1007901 0.021170676 0.0038984793 0.025170136
0.010353578 -0.082882084 0.014739476 0.01872202 -0.056212682 -0.09002116 -0.096227445 -0.042513534
-0.03918344 -0.12274307 0.05096482 -0.1062372 -0.10565277 -0.022722382 0.07788597 0.09775795
-0.102413215 -0.01958868 -0.072828345 0.11125477 -0.06641432 -0.027388427 -0.113281555 0.00052816665
-0.060661588 -0.068653375 -0.06720977 -0.0009593616 -0.05559527 0.092659675 0.0022730099 -0.10408425
0.0192809 0.0555875 0.02945713 0.10765739 0.078231335 0.08245377 0.095284134 0.063915
00000000: e8a3 fb3c 18a1 493d a4f3 5abd 3c3f dabd
00000010: a4eb 19bd 9442 413d ba14 e03d e8dc 74bd
00000020: ecfe 50bd 7465 f2bd a80c e03c 0432 39bd
00000030: c0cd 67bc c4e0 5d3d a464 373d 5ae4 c43d
00000040: 686d 9ebd 9c1a a2bd a808 ba3c c097 92bd
00000050: 0840 a93d c026 abbd c080 24bc 8050 8c3a
00000060: 4007 403d 38b2 ebbd 328f a5bd 2677 a53d
00000070: 3c33 73bd ecb8 5c3d 7c87 1f3d 2c45 0c3d
00000080: aec3 d83d c432 b6bd 6cf7 4fbd b2ba 90bd
00000090: ace1 9ebd 28e4 8c3c 98d8 c0bd 2029 efbd
000000a0: b474 babd 2619 aabd a03b 2b3c 30f1 25bc
000000b0: c0c1 bc3b 8c33 c7bd 02e5 8bbd 9023 ebbc
000000c0: d609 d4bd 980a ce3d 2c55 fb3d a2b6 96bd
000000d0: 3877 e93c f40a c33d 801f e33a 96c9 f83d
000000e0: 74e7 8e3d 98c7 8bbd 4e6a b03d 0c6f 39bd
000000f0: 6c4b 81bd 26ad de3d 122a 81bd a84d e93d
00000100: 2e89 f83d 1429 993d fdd3 1e3d b06e a83c
00000110: d465 2bbd 283a f83d 9579 c63d 590a b7bd
00000120: 84dd 403d 0297 c83c 545c 543d ad01 81bc
00000130: a8a5 d73d 7477 86b9 71ae e83d e8a0 7fb9
00000140: dccc a63c b624 d3bd 9523 b1bd 2bcb fb3d
00000150: 9b21 f63c d5ea afbd e048 e53c b86d eebc
00000160: 512a 62bd a2cb e03b 1cdc ebbc 3464 813c
00000170: 1035 853d 453e 8bbc 65d2 dc3d 816d 2ebd
00000180: 4120 a3bc 218b cb3d 1833 373b 6a1c bd3d
00000190: 2a9c bfbd f612 82bd 8aa7 9a3c 0ca8 c03d
000001a0: 2a9f 723d 8994 ba3c 6a38 e83d 10d7 c2bd
000001b0: c93c bebd bfdf b5bd b740 893c dbbb 28bd
000001c0: d0ba 9c3d 0a6a 953d 862b c23d 2d34 c33d
000001d0: 862e ebbd 8680 373d fafc debd 371d 9fbd
000001e0: ed68 8d3d 489c d83d fef0 6a3d 311e da3c
000001f0: 4d65 b33d 68cd d83d a02e c7bc c7a3 cf3d
00000200: d749 c1bd 5d36 ae3c 4602 c7bc 4c04 983d
00000210: fffb a53d 81f8 a1bc 5286 6a3c 9f0f 283d
00000220: 314a 8fbd 1ee5 4dbc 58eb 06bd 4ffd c93d
00000230: b933 a93d ed7e 233d da02 a3bd 3b09 9d3b
00000240: 818a e03c 3a4f cfbd 1723 b2bd 3d98 bf3d
00000250: aba6 9cbd 488d c73d 1823 b9bd 9cd1 f2bc
00000260: 007b d03d fd78 a63c c8f9 d33d de1b d3bd
00000270: 5be1 b1bc 5e2c 143d 6a19 0ebd 8e3c 9e3d
00000280: d8b2 d4bd faf2 2dbd 90f9 cebc 00ab c13a
00000290: 3f41 14bc 506f 1e3d 0d3c 93bc c5b5 0d3d
000002a0: 98e5 9a3d 1671 c7bd 6047 cf3c f8b6 ebbc
000002b0: d510 ed3d e21d 4ebb 743f ab3d 994c 3e3d
000002c0: dbc8 943d 65f4 0e3d 59c5 c8bd 1b35 aa3d
000002d0: 734c f3bc fc61 b33c b414 37bd 5442 88bc
000002e0: 8707 873d af2f e33d a43f 98bb 1134 debd
000002f0: f484 b9bd 7090 a1bd c4e4 a43b 2c5f d839
00000300: bc1b d7bd 41cf b83d 7be8 fbbc ec8b c3bd
00000310: 4542 273d 4f2d 4e3d 5cb0 dd3d 9b7d 3c3c
00000320: e70f ec3d 186b 873d 3543 c5bd 01d5 93bd
00000330: 341c 52bd a080 743d 716f 9c3d 4ea1 313d
00000340: 58fe 51bd 236a 93bc 068a a43d 81a3 c73d
00000350: 0a6b ce3d 206e ad3c a17d 7f3b 9a31 ce3c
00000360: 0ea2 293c 15be a9bd d87d 713c ec5e 993c
00000370: 453f 66bd 045d b8bd e512 c5bd ac22 2ebd
00000380: d17e 20bd b860 fbbd 7dc0 503d e492 d9bd
00000390: 7b60 d8bd 4a24 babc ae82 9f3d 5235 c83d
000003a0: 05be d1bd 7078 a0bc 0727 95bd 8ad9 e33d
000003b0: 3b04 88bd b25d e0bc 2900 e8bd aa74 0a3a
000003c0: 4978 78bd 249a 8cbd 47a5 89bd ab7d 7bba
000003d0: deb7 63bd 5bc4 bd3d c7f6 143b 202a d5bd
000003e0: faf2 9d3c b8af 633d 1450 f13c 7a7b dc3d
000003f0: c037 a03d 86dd a83d 5424 c33d dee5 823d

model.2.bias f4 [64]
-0.0882929 0.025331862 -0.04308485 -0.00853865 0.04690948 0.017721508 0.045071315 0.09407553
0.018313803 -0.07959959 0.0626539 -0.115163766 -0.068203546 0.10835206 -0.03993508 0.027336635
0.01873301 0.10003471 -0.046227638 0.11042845 0.059109796 0.061106905 0.12512301 -0.088970974
0.01262914 -0.041794404 0.10404 -0.09345449 -0.09736687 0.01254421 -0.010207968 0.026199551
-0.026734928 -0.07009604 0.011838155 0.009805048 0.0031374642 -0.092200086 0.10755874 0.033729617
-0.025634075 0.040829543 0.0009400947 0.11178635 -0.0023537844 -0.08524586 -0.024209201 0.030467488
0.093325526 0.09754448 0.11257515 0.08495923 -0.020136341 0.027974814 0.06701197 -0.07246316
0.110873334 -0.0066218264 0.006793219 -0.07245745 -0.10680029 0.114804655 0.0099374205 -0.07514204
00000000: e8d2 b4bd c484 cf3c bd79 30bd b2e5 0bbc
00000010: 2824 403d b22c 913c b39c 383d acaa c03d
00000020: d406 963c 1c05 a3bd b050 803d fbda ebbd
00000030: 4dae 8bbd afe7 dd3d f792 23bd 14f1 df3c
00000040: f875 993c ffde cc3d 3159 3dbd 5028 e23d
00000050: 1d1d 723d 3c4b 7a3d 3f20 003e 6a36 b6bd
00000060: 74ea 4e3c 9c30 2bbd ec12 d53d 1165 bfbd
00000070: 4868 c7bd 3b86 4d3c 523f 27bc 71a0 d63c
00000080: 3503 dbbc 838e 8fbd d2f4 413c 5aa5 203c
00000090: ea9d 4d3b 66d3 bcbd c247 dc3d 1128 0a3d
000000a0: 8dfe d1bc e13c 273d b070 763a 3ef0 e43d
000000b0: f341 1abb 6295 aebd 6052 c6bc f496 f93c
000000c0: 7421 bf3d 66c5 c73d cd8d e63d 1bff ad3d
000000d0: f8f4 a4bc 702b e53c 923d 893d 9167 94bd
000000e0: 8f11 e33d e8fb d8bb a799 de3b 9264 94bd
000000f0: 1cba dabd b41e eb3d 90d0 223c 12e4 99bd

model.4.weight f4 [1, 64]
0.0220384 0.009203743 0.081518434 0.01786851 -0.04283998 -0.082503684 0.03817862 0.08137885
-0.12159315 -0.083374865 -0.10397401 0.050528035 0.108857065 -0.01135779 -0.00090334914 0.019101968
-0.10545328 0.083005786 0.09428994 0.06400023 0.08490755 -0.06348701 0.013920683 -0.04307209
0.03958914 0.012033355 -0.05302225 -0.06634991 -0.034613505 0.11361464 -0.057297092 0.063549705
0.06879054 -0.09504318 -0.013732776 0.070769034 0.008999361 0.11605722 -0.09140393 -0.115118966
-0.06932261 -0.08507579 0.10113667 -0.10195959 0.01876387 0.028544154 0.03783983 -0.091360494
0.12311383 0.049767267 0.06589143 0.042942263 0.10390091 -0.10787981 0.03200731 -0.04366111
-0.075255565 0.056865837 0.11869865 -0.005348233 0.0277811 0.080346696 0.06447385 0.085601814
00000000: e089 b43c 4ccb 163c 23f3 a63d fb60 923c
00000010: fa78 2fbd b1f7 a8bd 2f61 1c3d f4a9 a63d
00000020: d405 f9bd 71c0 aabd 53f0 d4bd 7cf6 4e3d
00000030: 74f0 de3d 0616 3abc bcce 6cba bb7b 9c3c
00000040: e4f7 d7bd f0fe a93d 161b c13d 8d12 833d
00000050: 02e4 ad3d 7a05 82bd 9413 643c 5c6c 30bd
00000060: 3928 223d 8d27 453c dc2d 59bd 76e2 87bd
00000070: e4c6 0dbd cbae e83d 5bb0 6abd 5926 823d
00000080: 0ee2 8c3d 00a6 c2bd 70ff 60bc 5bef 903d
00000090: 0e72 133c 68af ed3d fc31 bbbd 7ec3 ebbd
000000a0: 03f9 8dbd 373c aebd be20 cf3d 31d0 d0bd
000000b0: b0b6 993c 6ed5 e93c f0fd 1a3d 361b bbbd
000000c0: 1b23 fc3d c3d8 4b3d 16f2 863d 3ae4 2f3d
000000d0: 00ca d43d 17f0 dcbd 191a 033d fed5 32bd
000000e0: 971f 9abd 27ec 683d 4718 f33d 3b40 afbb
000000f0: 3095 e33c cf8c a43d de0a 843d 0150 af3d

exp_avg f4 [64, 96]
4.838917 1.5392506 4.6507463 1.2805235 -0.5318383 0.0 4.0429296 1.7501882
4.266623 1.2803062 -0.28561544 -0.026673047 4.1898932 -1.0902613 4.354583 1.2803062
-0.2926398 -0.053346094 3.7325687 0.5402741 4.3611293 1.3035295 -0.7915762 -0.081470594
4.6423955 1.935288 4.6104665 1.3035295 -0.3547772 -0.108627476 5.0391417 2.0054286
4.7523303 1.3035295 -0.5080601 -0.13578428 4.262483 -0.2744448 4.4513264 1.3158919
-0.39728853 -0.16448648 4.5302415 0.71864825 4.7646146 1.3871027 -0.6947163 -0.20228583
5.3352485 1.7334691 5.23333 1.4502491 -0.8046074 -0.24170816 5.322648 1.4704725
5.2381787 1.4871472 -0.39478186 -0.27884004 5.5292687 2.3803964 5.375404 1.5013051
-0.5247818 -0.3127718 5.478653 3.9025507 5.471786 1.5168275 -0.46247667 -0.34760648
5.7782526 3.4615216 5.5830283 1.5345993 -0.41660148 -0.38364983 5.7867794 3.509472
5.678485 1.6013111 -0.5543194 -0.43368843 6.1861987 4.114457 5.9214063 1.6259378
-0.64004326 -0.47423184 5.9660435 4.225415 5.8274956 1.6380275 -0.74685335 -0.5118837
2.5963087 0.9900873 2.7199569 0.72322464 -0.23280863 0.0 2.702193 1.003065
3.0071528 0.7203286 -0.26490152 -0.018121846 3.4049222 1.3220447 3.3684955 1.0042007
-0.29735276 -0.039103128 3.0119956 1.3929124 3.3190591 0.99571866 -0.38391063 -0.061986927
3.172314 1.6839755 3.1813369 0.9153306 -0.27559656 -0.07627753 3.3076613 1.9153277
3.1215303 0.8547321 -0.24931855 -0.08903462 2.9176464 0.63826674 2.9729784 0.8512057
-0.24801402 -0.10640071 3.1848736 1.4294708 3.2071168 0.9039107 -0.4367913 -0.13182026
3.128393 1.4276832 3.0927646 0.86646825 -0.3655036 -0.14441136 3.2522347 1.5173846
3.1205344 0.8762476 -0.2292583 -0.16429636 2.842465 1.3835611 2.8059173 0.7867894
-0.27520877 -0.1639145 2.7146072 2.2013435 2.7372022 0.77752215 -0.2708559 -0.17818218
2.8196871 1.9108733 2.768532 0.77752215 -0.29061148 -0.19438054 2.8266058 1.6265544
2.793845 0.77752215 -0.28597403 -0.21057889 2.8466597 1.7245302 2.792421 0.77752215
-0.24037416 -0.22677729 2.8816993 2.1388772 2.8067515 0.77752215 -0.34265113 -0.2429757
-11.230218 -7.441129 -10.81928 -3.1916711 0.95521694 0.0 -10.490391 -6.4805617
-10.151753 -3.8321981 1.0135006 0.06457251 -11.143609 -6.4701276 -10.29466 -2.4500492
1.1077623 0.1241076 -10.035225 -6.842961 -9.870779 -3.1187775 1.1418692 0.18119419
-9.791483 -5.7849936 -8.297984 -3.080276 1.018075 0.22487131 -9.8451185 -7.0863776
-8.211249 -2.9535248 0.6575558 0.2654424 -8.753656 -3.6302469 -7.8460765 -2.5390759
0.62425566 0.30639535 -8.688878 -5.511745 -8.4198 -2.4504266 1.0886074 0.35238683
-8.909927 -4.579857 -8.608927 -2.4676692 1.0814668 0.40253246 -8.766838 -4.417441
-8.075495 -2.2220106 0.7680399 0.43744758 -8.08127 -4.8979645 -7.8256993 -2.2292724
00000000: 68d8 9a40 2a06 c53f ead2 9440 32e8 a33f
00000010: 8e26 08bf 0000 0000 ae5f 8140 2b06 e03f
00000020: 2d88 8840 13e1 a33f 303c 92be 6f81 dabc
00000030: 9b13 8640 af8d 8bbf be58 8b40 13e1 a33f
00000040: e2d4 95be 6f81 5abd 68e2 6e40 674f 0a3f
00000050: 5f8e 8b40 0eda a63f bda4 4abf 0eda a6bd
00000060: 818e 9440 84b7 f73f f188 9340 0eda a63f
00000070: 5ba5 b5be 1578 debd a640 a140 f158 0040
00000080: 1713 9840 0eda a63f 3a10 02bf 090b 0bbe
00000090: 4366 8840 0784 8cbe 4471 8e40 256f a83f
000000a0: 6769 cbbe 256f 28be bdf7 9040 55f9 373f
000000b0: b977 9840 958c b13f edd8 31bf 0424 4fbe
000000c0: 5bba aa40 51e2 dd3f 7077 a740 c3a1 b93f
000000d0: c0fa 4dbf 5882 77be 2253 aa40 7138 bc3f
000000e0: 299f a740 d75a be3f d920 cabe 1fc4 8ebe
000000f0: c5ef b040 6a58 1840 4f03 ac40 c42a c03f
00000100: 1a58 06bf a023 a0be 2051 af40 64c3 7940
00000110: df18 af40 6727 c23f bec9 ecbe 7af9 b1be
00000120: 72e7 b840 9289 5d40 2ba8 b240 c06d c43f
00000130: ca4c d5be c06d c4be 4c2d b940 309b 6040
00000140: 26b6 b540 c3f7 cc3f e0e7 0dbf 690c debe
00000150: 57f5 c540 a2a9 8340 297c bd40 bb1e d03f
00000160: e0d9 23bf 84ce f2be d4e9 be40 9a36 8740
00000170: d87a ba40 e3aa d13f c831 3fbf cf0a 03bf
00000180: ec29 2640 5c76 7d3f c613 2e40 4025 393f
00000190: 6365 6ebe 0000 0000 bbf0 2c40 6f64 803f
000001a0: 3175 4040 7567 383f 2ca1 87be 4474 94bc
000001b0: 3fea 5940 c338 a93f 6e95 5740 a689 803f
000001c0: 9f3e 98be 9a2a 20bd 89c4 4040 f44a b23f
000001d0: 776b 5440 6be7 7e3f ef8f c4be 01e6 7dbd
000001e0: 3107 4b40 828c d73f 069b 4b40 1b53 6a3f
000001f0: fe1a 8dbe 6537 9cbd b9b0 5340 7529 f53f
00000200: 27c7 4740 b9cf 5a3f 5d4d 7fbe c857 b6bd
00000210: b8ba 3a40 7365 233f 4745 3e40 9ee8 593f
00000220: 63f7 7dbe 9ee8 d9bd f8d4 4b40 e6f8 b63f
00000230: 6741 4d40 b166 673f 1ca3 dfbe e4fb 06be
00000240: 9737 4840 53be b63f dbef 4540 ddd0 5d3f
00000250: 4a23 bbbe 92e0 13be 9d24 5040 a939 c23f
00000260: d6b6 4740 c351 603f b0c2 6abe 4e3d 28be
00000270: f2ea 3540 8818 b13f 2694 3340 086b 493f
00000280: 2ae8 8cbe 34d9 27be 20bc 2d40 d0e2 0c40
00000290: 522e 2f40 b10b 473f a0ad 8abe 6475 36be
000002a0: c175 3440 7f97 f43f a12f 3140 b10b 473f
000002b0: 07cb 94be b10b 47be 1ce7 3440 ef32 d03f
000002c0: 5bce 3240 b10b 473f 306b 92be fea1 57be
000002d0: ac2f 3640 68bd dc3f 07b7 3240 b10b 473f
000002e0: a524 76be 4e38 68be c36d 3840 5de3 0840
000002f0: d1a1 3340 b10b 473f f86f afbe 9fce 78be
00000300: f9ae 33c1 bb1d eec0 c51b 2dc1 5744 4cc0
00000310: 1989 743f 0000 0000 a4d8 27c1 c360 cfc0
00000320: 956d 22c1 bc42 75c0 63ba 813f 983e 843d
00000330: 394c 32c1 490b cfc0 edb6 24c1 9bcd 1cc0
00000340: 28cb 8d3f 202c fe3d 4890 20c1 89f9 dac0
00000350: b6ee 1dc1 0d9a 47c0 c528 923f f88a 393e
00000360: eaa9 1cc1 ab1e b9c0 8bc4 04c1 3e23 45c0
00000370: 4850 823f aa44 663e 9b85 1dc1 9bc3 e2c0
00000380: 4761 03c1 8d06 3dc0 9455 283f 11e8 873e
00000390: fa0e 0cc1 f755 68c0 0f13 fbc0 3880 22c0
000003a0: 38cf 1f3f dadf 9c3e a505 0bc1 3760 b0c0
000003b0: 80b7 06c1 cad3 1cc0 7d57 8b3f 0c6c b43e
000003c0: 108f 0ec1 308e 92c0 2abe 09c1 4bee 1dc0
000003d0: 816d 8a3f bc18 ce3e f844 0cc1 ad5b 8dc0
000003e0: 3a35 01c1 6c35 0ec0 439e 443f 21f9 df3e
000003f0: e24c 01c1 20bc 9cc0 216c fac0 66ac 0ec0
