modelPPO_player_0.pth (torch, 27102 bytes, 21 tensors)

shared.0.weight f4 [32, 5]
00000000: c808 093f 007b 79be af1c cd3e b13f dc3d
00000010: 33a7 8bbe ee7d 013d 67ae 203e 525e 7b3e
00000020: 330d 5b3e 9f7c d23e e398 3e3e 476d 92be
00000030: aa09 e33d 0c6a ebbc 3363 0dbf 9443 893c
00000040: 202f 203e 6b97 b13e 1640 173e 8213 363b
00000050: 34dc 803d 6af9 333d b160 d03d cc9b 0b3e
00000060: e0f0 f3bc a470 f3be 7426 00bf 174b 5e3e
00000070: d9a0 493d f6ac d23d c57b b53e 30f8 bdbd
00000080: 8859 3abe 8a48 ae3e 2c9e 0fbf 993b 24be
00000090: 2bb0 413e 56bc adbe 66ce a03c 949c 81be
000000a0: 3b51 543e abb8 52be 103d c43d c4c0 843e
000000b0: 51e3 383e 3497 fd3e e32f b0be e601 05bf
000000c0: b0a7 e13e 19cf 05be f12f 1e3f a2cf 5d3e
000000d0: 0a8f 063e 85fe 71be fec3 cb3d 834a c73d
000000e0: 53d5 9ebe f4e8 37be 6003 b73d 205a 953e
000000f0: ab33 e53e 5000 0c3f 50e0 90be f38e 1e3d
00000100: 244c 713e 7b0f 073f 936c c83e 42e3 3bbe
00000110: 33ab 0abe e284 b13d 3c04 88be 0c78 aabe
00000120: e19d b53e 6ac4 7e3e 7e02 d53e 3921 ffbc
00000130: ac63 893e 58bc 95be 5606 a7be 2197 91be
00000140: 5c5e fdbe 2b09 a5bd f754 d9bd 1445 b2be
00000150: 73f5 b33e ba8c 053f 0f56 0a3d 87c9 d6bd
00000160: e5f8 a93d 689f 1a3e a303 213e a32e 193d
00000170: 4feb babb 2068 7fbc bd27 f63e 7b17 9c3e
00000180: d284 7dbe 9187 37be 0aad 8abd f498 ee3e
00000190: 5c8c 843e b974 2abe bb0d 5f3e e5ba 0cbe
000001a0: b2b2 0cbf 7ec9 50be 7bb3 f6be abce 92be
000001b0: b9c3 22be 7524 ff3e baae 83be 0c5d a4be
000001c0: 4a81 c4be 2b8d 24be 5713 283e be55 653e
000001d0: 977f 263e 678a 5c3d b23d 583c 7c6e f33d
000001e0: 9947 3bbe d70b 10bd afa6 f23e 4881 67be
000001f0: 06aa f03d e29e d53e 1482 ad3d 0b36 0b3e
00000200: 6a75 7abe 15c2 f9bc 274d 823e 4e44 373e
00000210: 872a aebc 6c6b 24be 3d60 f0be ac9b 8b3e
00000220: 5f3c 813e ad45 acbe ad81 853d 161f 7bbe
00000230: a967 97be 2776 e5bd cb7f dabc 5363 d6be
00000240: bd97 0d3f 0ac1 f3be b4dd 04bf 69c9 683d
00000250: f8c8 613c ea8c 9bbd e4e1 4cbe 61c0 653e
00000260: dba9 09be 7cdc 28bd 1af8 0c3f 64cf 69be
00000270: 52cf 21be cd55 b3bc bb6d ca3e 67e2 c0be
0.53529024 -0.24363327 0.40060946 0.10754336 -0.27276 0.031614237 0.15691529 0.24547699
0.21391754 0.41110703 0.18613009 -0.28598997 0.11085828 -0.02873709 -0.5522949 0.016755857
0.15642977 0.34685835 0.1477054 0.0027782624 0.062920004 0.04393903 0.101746924 0.1363365
-0.029777944 -0.47546875 -0.50058675 0.21708332 0.049225662 0.10286896 0.3544599 -0.09275854
-0.18198216 0.34039718 -0.56100726 -0.1603836 0.18914859 -0.3393275 0.019629668 -0.25314772
0.20734112 -0.20578258 0.09581959 0.25928319 0.18055464 0.4952942 -0.34411535 -0.5195602
0.44073248 -0.13067283 0.617919 0.21661237 0.13140503 -0.23632248 0.09949492 0.09731009
-0.31022128 -0.17959958 0.089361906 0.29170322 0.44765982 0.54687977 -0.28296137 0.038710546
0.23564202 0.52757996 0.39145336 -0.1834841 -0.1354187 0.086679235 -0.2656573 -0.33294713
0.35472015 0.24879614 0.41603464 -0.031143771 0.26833856 -0.29245257 -0.3262202 -0.28435615
-0.49486053 -0.08058389 -0.10611909 -0.34818327 0.351482 0.52167857 0.033773478 -0.10487657
0.08299426 0.15099871 0.15724044 0.037397992 -0.0057043205 -0.01558879 0.48077193 0.30486664
-0.24757698 -0.17922808 -0.06771286 0.4660107 0.25888336 -0.16646089 0.21782582 -0.1374317
-0.5496017 -0.20389363 -0.48183808 -0.286733 -0.15894975 0.49832502 -0.25719243 -0.3210224
-0.3837989 -0.16069476 0.16413628 0.2239599 0.16259609 0.05384293 0.013198303 0.118863076
-0.18289031 -0.03516754 0.47392794 -0.2260791 0.117511794 0.4172278 0.08472076 0.13594835
-0.24458852 -0.030488053 0.25449488 0.1789715 -0.021260513 -0.16056603 -0.46948424 0.27267206
0.25241372 -0.33646908 0.06518874 -0.24523577 -0.29571274 -0.112041764 -0.026672265 -0.41872653
0.5530966 -0.47608215 -0.5190079 0.056832705 0.013780825 -0.075952366 -0.20008045 0.22436668
-0.13443701 -0.041225895 0.5506607 -0.2283302 -0.15801743 -0.021891499 0.39536843 -0.3767273

shared.0.bias f4 [32]
00000000: 2a06 75be 9e09 063f dbce a3be ab93 243f
00000010: 95a6 b93e 26a9 d23e b7d3 32bd 7d6a 38be
00000020: 0841 f03e 3669 afbd 2144 45be aa9c 753e
00000030: 4f70 babe ff7a 9b3e 6515 8f3e ade8 853e
00000040: 8a1b 363e 6fd7 ef3e 232f e93e 6497 483e
00000050: 0ec5 84be 096e b33d 3fbb e03e 31d3 d03e
00000060: b754 903e 1cbc 1a3f e9d3 223e ccba e63e
00000070: b851 97be f874 c7bd 94ee 7f3e acdd babe
-0.23928133 0.52358425 -0.31993756 0.64287823 0.36259905 0.41144675 -0.04365894 -0.18009372
0.46924615 -0.08564989 -0.1926427 0.23985544 -0.3641381 0.30367276 0.2794601 0.2615408
0.17783943 0.4684405 0.45543775 0.19589001 -0.2593159 0.08761222 0.43892857 0.40786126
0.28189632 0.6044328 0.1590115 0.4506439 -0.29554534 -0.09739107 0.24993354 -0.36497247

shared.2.weight f4 [32, 32]
00000000: 4f84 d9bd d25d 8e3e 2ef5 c33d df27 243e
00000010: 238e 9b3e 0407 313d 072e 493d 149c 80bc
00000020: 500c 72bd e6f4 733e 9e72 debe 380c f8bc
00000030: 7ac6 8fbe 7de4 7d3e 17c9 0cbe eb79 973d
00000040: 4b5d 893d 5aad bd3b 01f8 ba3e a485 9e3e
00000050: e428 363e 442f 563d 2126 57bd 906e 893e
00000060: f098 63bd b419 9b3e ff97 843e e21d 953e
00000070: aaae 9c3e af49 4dbe 8761 0a3e e93f 19bd
00000080: 3b53 a2bd 9cec a53c 9cb0 30be 48f9 433d
00000090: 1119 f73c 3af4 57bd afd4 d9bd f909 e1bd
000000a0: b6a7 803c a03b 91bb d752 dabc 76b4 36bc
000000b0: 025f 983d c516 3abe f37a 92bd e504 a83d
000000c0: 4403 89bd 50a0 a6bb 9f7a d2bc d6de e63d
000000d0: 95ba ef3d a9fd b8bd 0c79 03be 388e 693d
000000e0: 930f 803d d54f 15bd 0acb b43d 91a6 8dbd
000000f0: 4299 be3c c101 fb3c f348 953c 8e21 fdbd
00000100: fd08 86bd 6ac7 053d a59c 26be b6ad ee3d
00000110: 02c9 a4bd 2832 383e e064 81bd 82ff 563e
00000120: 65fb 28bd 0c93 e13d 0f71 1a3d af10 273e
00000130: c375 78be bc28 93be 65bf 763d 6fc7 993a
00000140: a85c 0d3d 8c13 3abe 613c 2fbe c5f3 1bbe
00000150: 146d 88be ec72 6c3d 9370 363e 226b 813a
00000160: 8ba3 52bc e7de 17be 0b8f 46be 8b9f 71bd
00000170: fb70 1dbe b380 753e 55ca 053e 5f17 e6bc
00000180: e9f3 90be d506 0fbb d245 5b3e e7ba 013e
00000190: 35d7 9a3d 0417 e7bd fb1f 7a3e de9f efbd
000001a0: b176 e33d 2da0 6b3e 0970 43be 4192 09be
000001b0: 16d2 14be 1672 a6bb 6e8e 2cbe bc4c ed3d
000001c0: fbb2 37be 934c 683e 1579 833e 2f3e 473e
000001d0: 2d79 16be 82b1 723d 0a8b aa3d deb0 6f3e
000001e0: da50 29bd 820d e7bd fd30 563e 7098 ee3b
000001f0: dbdc 44bc 828d e73d e747 f3bb e6d2 c7bd
00000200: 18c7 9dbe 414a 7d3e 5e6c 01be b5ce 8f3e
00000210: 2943 c23e 3fe1 be3c c246 9d3d 829e a03d
00000220: 9858 823e 6682 8a3e 35b5 75be 8f4b 5c3d
00000230: d900 90be be2d 8abc 02e6 88be b6be 283e
00000240: 2b81 e83d cd0c aa3e 5a6d ce3e 6d49 bd3e
00000250: 1fa3 10bd b972 8abe d4b2 26be 4aff 8a3e
00000260: 8ab6 1e3e 7e34 ab3e 18e9 1e3e 4b4f 583e
00000270: 8c7c 2d3e 87b2 32be 2505 e83b 5bf5 07bd
00000280: 0033 5cbe ed47 c63d 5bbe 923e 545f 293e
00000290: 6ee5 d23d c132 81bd 500b 77bc 3905 973d
000002a0: b1e3 493d 8ad2 d7bc ab10 89be 57fa 943c
000002b0: 5f97 b0be 7cd4 413c b462 36be b859 aa3d
000002c0: f1cb d13d 735b 2ebd 6387 a03e edbe 383e
000002d0: fc47 8ebd 9279 abbd 50fc d13d a707 c83c
000002e0: 412c 28bd 2195 103e 3176 b33d 7643 78bd
000002f0: b6fd 813e 1905 083e ff45 973e 791e 343d
00000300: 0b8f 2abd 0c78 97bd 011d 24be 9e7b 84bc
00000310: da34 103e 2098 873e 6c08 7c3d 1b0d 283d
00000320: 3296 0a3c d421 9bbb 73b4 d8bd a215 8b3d
00000330: 2bfa ddbc fbc1 94bc 71d8 053e d3c8 b73d
00000340: 36f5 aabc 0daf 3dbd bf6b 94be aaee 2bbe
00000350: ca4e dcbc 9eb1 a13e cd75 793e e822 d6bd
00000360: 413f 293e ee89 c8bd de3d 70be e55b 9bbc
00000370: 3893 6abe 86e4 cc3d f95b c8bd b176 883d
00000380: d058 a0bc c431 abbd 0ab0 82be 7b19 113e
00000390: 3e16 2e3d 84df 803e 3403 8d3d 2c97 02be
000003a0: cbf8 a63d 681c a83e f7ec 56ba 6e56 643e
000003b0: 1d4c 0bbd 1df1 19be 58f7 493e e523 fa3d
000003c0: c118 2dbd f580 a9bd 0c8b 8fbe 1f2c 0fbe
000003d0: 93b5 25be 551e b33e 33b0 0c3d e452 38be
000003e0: 0a9e 2bbd b0bd b3bd 84bd 6cbe 68ff 9e3c
000003f0: f8c5 b0be 3ac6 543e 4542 babe 280f 533d
-0.10620939 0.27805954 0.09568249 0.16030835 0.3038188 0.04321958 0.04911616 -0.015699424
-0.059093773 0.2382389 -0.4344682 -0.030279264 -0.28081113 0.24794193 -0.13748585 0.07396301
0.06707247 0.0057884874 0.36517337 0.30961335 0.17789036 0.05229117 -0.052526597 0.26842165
-0.055565774 0.30293047 0.25897214 0.2912436 0.30602008 -0.2004764 0.13513766 -0.037414465
-0.07926031 0.020254426 -0.17254871 0.047845155 0.03016332 -0.052723147 -0.10636269 -0.1098823
0.01570497 -0.0044321567 -0.02665083 -0.011151424 0.07439996 -0.18172748 -0.07152357 0.082040586
-0.06690076 -0.0050850287 -0.025693236 0.11272971 0.117055096 -0.09032757 -0.12839144 0.057020396
0.062529705 -0.036453087 0.08827789 -0.06916536 0.023266438 0.030640485 0.018223261 -0.12359916
-0.06544683 0.03266088 -0.16270693 0.116542265 -0.08046152 0.17987883 -0.063180685 0.20995906
-0.041255374 0.11014375 0.037705477 0.16314958 -0.24263673 -0.28742015 0.06024112 0.001173241
0.034512192 -0.18171519 -0.17112876 -0.1522971 -0.2664572 0.057726786 0.17816381 0.0009873847
-0.0128563745 -0.14831124 -0.19390504 -0.058990043 -0.1537513 0.23974876 0.13065465 -0.028087316
-0.2831109 -0.002182414 0.21413353 0.12668954 0.07560579 -0.11283687 0.24426262 -0.11700414
0.11106623 0.23010321 -0.19085707 -0.13434698 -0.14533266 -0.005079518 -0.16851208 0.115869015
-0.1793937 0.22685461 0.25678316 0.19457315 -0.14694662 0.059251316 0.08327301 0.23407313
-0.04133687 -0.11281873 0.20917125 0.0072813556 -0.012015547 0.11306287 -0.007424343 -0.097570226
-0.3081596 0.24735357 -0.12638995 0.28087392 0.37941864 0.023300765 0.076795116 0.07842733
0.25458217 0.2705261 -0.23994906 0.053782996 -0.28125647 -0.016867515 -0.26737982 0.16479
0.11352762 0.3321289 0.40317804 0.36970082 -0.035311814 -0.2704065 -0.16279155 0.27147895
0.1549932 0.33438486 0.15518606 0.21123998 0.16942042 -0.17450915 0.0070806914 -0.033192974
-0.2150383 0.096816875 0.28660855 0.16540271 0.102976665 -0.06308509 -0.015078381 0.07374043
0.04928941 -0.02634551 -0.2677053 0.018185778 -0.34490487 0.011830445 -0.1781109 0.08317894
0.10243977 -0.04256768 0.31353292 0.18041582 -0.06947324 -0.08372797 0.10253203 0.024417711
-0.04105783 0.14119388 0.087627776 -0.06061121 0.2538888 0.13283195 0.2954559 0.043974373
-0.041640323 -0.07395944 -0.16026689 -0.016172227 0.14082661 0.2648325 0.06153147 0.041028123
0.008458661 -0.0047342572 -0.10581293 0.067912355 -0.027096828 -0.018158903 0.13070847 0.08973851
-0.020868879 -0.04630952 -0.28988454 -0.16790262 -0.026893038 0.31580824 0.24361344 -0.104558766
0.16528036 -0.09791933 -0.234611 -0.018964717 -0.22907722 0.10004525 -0.097831674 0.066632636
-0.0195736 -0.083591014 -0.25524932 0.14169876 0.04250168 0.2517053 0.068853766 -0.1275298
0.08152922 0.32834172 -0.00081987627 0.22298595 -0.034008134 -0.15033384 0.1972326 0.122138776
-0.042259935 -0.0827655 -0.28035772 -0.13981675 -0.16182546 0.3498408 0.034347724 -0.1800037
-0.041898765 -0.087764144 -0.2311917 0.019408897 -0.34526038 0.20778742 -0.36378685 0.051528126

shared.2.bias f4 [32]
00000000: a084 993d 85ab 20be 30bd 243e 84b1 6b3d
00000010: 9093 103e 04b7 0fbe 8972 98bd f1ab 1e3e
00000020: 14e1 083e d267 7f3d 7cf4 563e 4832 693d
00000030: a8f7 303d f256 20be 34c6 213e b14f 933c
00000040: 1165 523e 9100 63bd 906d cbb7 d78f f93d
00000050: cc7e 36be d862 2b3e d602 f23d 6717 353e
00000060: 4b20 b83d 89b0 123d c653 d73c 6bb8 593e
00000070: 7abd e5bc 31e7 1fbe 2de7 c4bd ae52 8c3e
0.07495999 -0.1569043 0.16087794 0.05754234 0.1411879 -0.14034659 -0.07443721 0.15495278
0.1336711 0.06235487 0.20991701 0.056932718 0.043204933 -0.15658167 0.15798265 0.017982336
0.20546366 -0.055420462 -2.4250505e-05 0.121856384 -0.17821807 0.16736925 0.11816947 0.17684709
0.089905344 0.03581289 0.026285063 0.21261756 -0.028044451 -0.15615536 -0.09614406 0.2740683

actor.weight f4 [5, 32]
00000000: b147 73bc 81e5 e4bd 7726 7cbc c620 f93c
00000010: 9e13 1a3e 9262 043a e4c9 3fbe 21a5 4ebe
00000020: 961b 7b3d cb03 87bd d046 9a3d c1a0 89bd
00000030: e036 88be c362 c8bd b8e9 83be 4be1 ef3d
00000040: a2fb f53b f283 bebd ba75 9fbe 5496 27bd
00000050: fcc0 8abd a954 3c3d 2b26 96bd a442 393e
00000060: 6040 57be 52f3 1dbe 06b8 4fbe 8769 dabb
00000070: b163 1dbe f7b8 7f3c 94d9 023e 5597 bbbd
00000080: 4158 adbd adf6 d63d efd0 53bd 6fe4 143e
00000090: b0f4 1abe ad47 6f3e 979d fd3d 659d 8e3d
000000a0: 0f79 0c3e a13a 113e 8fdb 9dbe b8d5 7dbc
000000b0: 6452 c9bd 0026 65bd d3c8 7dbe 83cf adbd
000000c0: 3005 99be e8ea 593d b70d 22be 2c80 fabd
000000d0: 103a eebd 7ec9 cbbd 9234 7fbe e768 0ebe
000000e0: 428d b8bd f13f b6be 1217 9e3d 78ce 71be
000000f0: b702 2dbe 84c6 253e 9db2 a4bd 86f5 62be
00000100: 5cf8 cfbd 2c8b db3d 9eec 24be 030c 033e
00000110: 0c33 d63c 83d6 12be 05ed 953d 322a 433e
00000120: 466f 82bc 4444 0ebe 8ee2 af3d 097a e0bd
00000130: 9037 783e b647 a1bd baa1 683e 93fc 27be
00000140: c017 653e 19a5 bd3d 026f 193d c833 433e
00000150: 8392 0dbd d51e 663e a5c8 833d b5eb afbd
00000160: 8548 2b3e faba 4e3e a32a 3fbe 468d 213e
00000170: 96f8 d23d e72f 35bd c938 d4bd 4d4f 62bc
00000180: 7047 ffbc 7a73 173d 6923 55bd aa23 debd
00000190: 196f 9cba 4f03 e6bc 9829 fabd 9d2d 26bd
000001a0: 1313 073e be09 41be 0a05 0d3e 8598 a43c
000001b0: 8e1f 4abb 805e f83c 38f6 9b3d b557 83bd
000001c0: baec c3bd 87bc d73c b740 6c3e 8730 233e
000001d0: 3796 173e f241 e83d 2ede 7b3e cf40 7abd
000001e0: 8e52 95bc ae95 043e 9271 f1bc e4d2 87bc
000001f0: e360 1d3e 6152 a03d 3e41 803c 3b56 3c3e
00000200: b966 cb3d ec64 163e 4e27 97ba f3be fa3d
00000210: 7d86 5dbe fbe2 85bc 0b78 493e f3a9 67bd
00000220: fa69 0f3d f642 36be 7556 9ebe 6c93 9a3b
00000230: 4fc5 00be f066 b13c 9fc9 63bd 305a eabd
00000240: 15fe 92be 7d68 fc3d fff6 f5bd 8f2f dabd
00000250: 379e 9a3d 1961 35be 92a8 e9be f79a b93c
00000260: d4cf 89be 8c34 15bf d371 463e b3f3 8abd
00000270: b221 b7be 11bc 2d3e ddb9 a9bd 5c2a 23be
-0.0148486355 -0.11176587 -0.01539003 0.030411135 0.15046546 0.00050500885 -0.18729359 -0.20180179
0.061305605 -0.0659252 0.07533038 -0.067201145 -0.26604366 -0.09784462 -0.2576425 0.11712893
0.0075068036 -0.0930251 -0.31144506 -0.04091485 -0.0677509 0.045979176 -0.07331499 0.18091828
-0.21020651 -0.1542485 -0.20285043 -0.006665412 -0.1537006 0.015608064 0.12778312 -0.09159724
-0.08464099 0.104962684 -0.051712926 0.14540266 -0.15132403 0.23367186 0.123835735 0.069636144
0.13718055 0.14182521 -0.30831572 -0.015492849 -0.09830168 -0.055944443 -0.2478364 -0.08486845
-0.2988677 0.05320254 -0.15825544 -0.12231478 -0.11632168 -0.09950541 -0.24922398 -0.13907205
-0.09011318 -0.35595658 0.07719244 -0.23613918 -0.16895567 0.16189009 -0.0804188 -0.22163972
-0.10154793 0.10719904 -0.16105887 0.12797551 0.026147388 -0.14339642 0.073205985 0.19059065
-0.0159222 -0.13893229 0.08588134 -0.10960776 0.24239945 -0.07875006 0.22717944 -0.16404943
0.22372341 0.092600055 0.03745938 0.19062722 -0.034563553 0.22472699 0.06434754 -0.085898794
0.16726883 0.20188513 -0.18668608 0.15776548 0.1030132 -0.044235136 -0.103623934 -0.013812852
-0.031161994 0.03697536 -0.052035723 -0.10846646 -0.0011934965 -0.02807775 -0.12214965 -0.040570844
0.1319087 -0.18851373 0.13771453 0.020092258 -0.0030841562 0.030318499 0.07615322 -0.06413213
-0.095666364 0.026335014 0.23071562 0.1593648 0.14803396 0.11340703 0.24596474 -0.061096963
-0.018227842 0.12947723 -0.0294731 -0.016580053 0.1536899 0.078282125 0.01565611 0.1839227
0.09931702 0.14686936 -0.00115321 0.12243452 -0.21633334 -0.016343584 0.19674699 -0.05655856
0.035013177 -0.17798981 -0.30925336 0.004717281 -0.12575267 0.02165553 -0.055612203 -0.11442983
-0.28709474 0.12324617 -0.120100014 -0.10653602 0.07549708 -0.17712821 -0.4563642 0.0226569
-0.26916373 -0.58283305 0.19379358 -0.06784763 -0.35767895 0.16966273 -0.08287404 -0.15934128

actor.bias f4 [5]
00000000: 3b39 373c 6c8c 99bd 3453 aebd 86bd 0a3c
00000010: 0b6d 03be
0.011183078 -0.074974865 -0.085119635 0.0084680375 -0.12834565

critic.weight f4 [1, 32]
00000000: 02b6 853e e7d0 8bbd 6d3b 18be 90f3 113e
00000010: 56aa b93e 0347 f23d 1a78 a5be c512 99be
00000020: ce6f 2cbe 2b8e b8bc a2ed ad3e 4745 bcbe
00000030: 1753 a4be 805f b03a b86b a5be f80b 50be
00000040: c979 dc3e e3fe f73d 4361 8abe d96d be3e
00000050: 7641 c83d c478 7f3e 1f17 ce3e 3db0 cd3e
00000060: f1b1 8fbe 6357 483e 7f3d 3cbe 510f 943e
00000070: 4385 5b3e c1d7 23bd e3ed e9bd 147d 7b3e
0.26115423 -0.06826954 -0.14866419 0.14253068 0.36262769 0.11829951 -0.32318193 -0.29897133
-0.16839525 -0.022528728 0.33970362 -0.36771604 -0.32094643 0.0013456196 -0.32308745 -0.20317066
0.43061665 0.12109163 -0.2702733 0.37193182 0.09778111 0.24948412 0.40252015 0.40173522
-0.28065446 0.19564585 -0.18382834 0.28917935 0.21437554 -0.04000068 -0.114223264 0.24559432

exp_avg f4 [32, 5]
00000000: 402e f339 d4a3 fa39 a745 a9b9 0194 3c37
00000010: 1d5d 22b9 8d25 4e3b 6c26 ee3c a281 aebc
00000020: 394c 943a 0833 523c 89d9 403b b436 903b
00000030: a815 8e3b 45a4 85b9 06d6 343b a30d 3f3d
00000040: c0e2 e03d 15a0 4e3c 4797 1dba 9264 623d
00000050: da7d 1f3d 8df0 c03d 3229 473c 40a2 a1b9
00000060: 0858 3b3d 243f 67bc ba89 f7bc a800 83bc
00000070: 9114 0c3a cd10 80bc 06a1 8e3c 35be 253d
00000080: fe05 b53b e3d7 96b9 cdd9 b03c 402c 7bbc
00000090: b85a 3fbd 729d 16bc dbb1 8539 210e a2bc
000000a0: 1815 743c e257 273d 3ac6 c73b 64b2 86b9
000000b0: d2ac 953c 62d5 153d 3396 8d3d aa00 9f3c
000000c0: 91d8 7cba a611 253d 26b4 86bc d054 c1bc
000000d0: d726 5b3c 3034 36ba 02f8 a0bc 628c 84bb
000000e0: a5da 5dbb 8a76 ffba fa19 03b6 a9ef 3fbb
000000f0: 00f1 96bc ed16 e7bc f518 713c 29ee 44ba
00000100: 2557 c8bc f431 f5bb 02c7 dd3c c575 0abd
00000110: 85df e83a 138b 233b 37d1 aebc 437a f2bc
00000120: 9aaf fbbc 0f11 9b3a 893f aabc a261 0f3c
00000130: 0f7a a73c 1fde 023b 7f11 5d37 ce51 2f3c
00000140: 3b74 71bc 8a0c 09bd 62b9 75bc 9a91 1d3a
00000150: 8e18 79bc f7e5 2a3d 2c61 db3d 15ae a73c
00000160: 5d9b 84ba 5875 453d f813 4c3d 07bc 003e
00000170: 7388 ae3c c465 84b9 948e 743d 0bfb 1c3d
00000180: 8f1c 873d 8da1 e03c 1ce3 5dba 2ef9 2b3d
00000190: b531 0b3a 4162 ce39 e22d e4b9 4136 a737
000001a0: 7102 99b9 ab2d d7bc b02a 52bd 34b2 02bd
000001b0: 1594 923a 356b e0bc 022d eabb 0b50 3ebc
000001c0: a7e2 14bc cd71 b439 8ced e1bb 5a08 1b3d
000001d0: f168 b73d 49c8 5d3c a579 2dba b6e0 393d
000001e0: 56ad 9e3a 7c27 1e3a d0c5 993a 8e33 22b7
000001f0: c14c 243a a6f6 3c3d 3be0 cd3d 4d13 a13c
00000200: 5263 08ba 6033 4e3d 15c8 333d a1a7 a63d
00000210: bdd7 e63c 0342 70ba d377 343d 7a10 bb3c
00000220: 3879 583d aaa3 253c 7709 6bb9 f92e d73c
00000230: d17b 7e3a ece3 4a3a 6806 5f3a 8c83 7a39
00000240: 68d1 6a39 ae03 33bd 7d45 53bd 5b8d 66bd
00000250: 864a 213b 31e5 1fbd d171 fc39 e93c c0bb
00000260: 1c43 d0bb 7e68 033a d3b2 5b3a 8759 5dbc
00000270: ce29 7bbc 3cce 90bc 29b9 6f3a 88ee 32bc
0.0004638303 0.00047805777 -0.00032286087 1.1240133e-05 -0.00015484211 0.0031455487 0.029071055 -0.021302048
0.001131422 0.01282955 0.0029426536 0.0044010524 0.0043360777 -0.00025490127 0.0027593388 0.046643864
0.10980749 0.012611409 -0.0006011617 0.055271693 0.03893838 0.094208814 0.012155818 -0.000308292
0.04573825 -0.014114175 -0.03021704 -0.015991524 0.0005343641 -0.015633011 0.017410766 0.0404646
0.005524396 -0.00028771078 0.02158823 -0.015330374 -0.046717376 -0.009192811 0.0002550025 -0.019782128
0.014897607 0.040855296 0.0060966285 -0.00025691383 0.018270884 0.03658045 0.06913414 0.019409496
-0.0009645308 0.040300034 -0.016443323 -0.023600012 0.013375959 -0.00069505256 -0.01964951 -0.0040450552
-0.0033852246 -0.0019490283 -1.9535642e-06 -0.0029287136 -0.018425465 -0.028209174 0.014715423 -0.0007512295
-0.024455616 -0.0074827615 0.027072433 -0.03380372 0.0017766809 0.002495472 -0.021339996 -0.029599315
-0.030723382 0.0011830645 -0.020782249 0.008751305 0.020443944 0.001996882 1.31767e-05 0.010700656
-0.014737184 -0.033459224 -0.014997812 0.0006010771 -0.015203608 0.041723218 0.107118934 0.020468751
-0.0010117103 0.04820761 0.04982373 0.12571727 0.021305298 -0.00025252823 0.059706286 0.03832535
0.06597244 0.027420783 -0.0008464323 0.041985683 0.0005309836 0.00039364587 -0.00043521734 1.9933215e-05
-0.00029184253 -0.026266893 -0.05131024 -0.03190823 0.0011183048 -0.02739487 -0.0071464786 -0.011615763
-0.009087241 0.00034417064 -0.006894773 0.03784976 0.08955563 0.013536521 -0.0006617553 0.045380317
0.0012106101 0.00060331053 0.0011731926 -9.667956e-06 0.0006267541 0.04613366 0.10052534 0.019662524
-0.0005202788 0.050341964 0.043891985 0.081374414 0.028179044 -0.000916511 0.044059586 0.022835005
0.05284998 0.010109821 -0.00022414872 0.026267515 0.0009707781 0.00077396515 0.00085077295 0.00023890863
0.00022393989 -0.04370468 -0.05157994 -0.05628715 0.002461107 -0.039036933 0.00048149985 -0.005866636
-0.0063556563 0.0005012824 0.0008380834 -0.0135101145 -0.015329791 -0.017676465 0.00091447175 -0.010921128

exp_avg_sq f4 [32, 5]
00000000: e3aa b63a 7ecd 393a 33da db39 268e 0e3a
00000010: 54f1 963a 87e6 9e3b 8438 913b 21f1 193b
00000020: 2c0a 933a e21f b73a 6091 7c3a 57fa 7e3a
00000030: c0b1 173a 0dae 053a 98e1 9f3a 7457 823c
00000040: 7d7c 643c 9f71 ff3b e9d0 af3b a3bb 3b3c
00000050: 5e3e 133c edbb ff3b 8caa 9e3b 9e1e 613b
00000060: efe9 e83b ef37 793b df31 943b 6b3f 443b
00000070: dacf d13a 5962 2d3b f646 123b f0ba 1b3b
00000080: b4b7 8e3a a540 1a3a 3e74 e83a ae03 773a
00000090: 4a40 573a b6a9 753a a141 d139 eee0 a23a
000000a0: 08aa b93a 18a1 b83a 6888 8d3a f57f 3b3a
000000b0: d888 bd3a 0135 573b a4ef 463b 22dc 193b
000000c0: 957f 8b3a d2ef 713b 87aa 4f3b a575 393a
000000d0: a54f 993a 28aa 963a 57ea 1d3b 5279 5c3a
000000e0: 7edc 693a b368 1d3a 6a91 8139 3f3c dd39
000000f0: b113 843b 954a 6f3a 19c1 f33a 2617 833a
00000100: 590e 163b e00c 9e3a 55b9 2f3a 82b4 9f3a
00000110: 1ae9 7a3a e1f2 b73a f264 f03b c021 0d3c
00000120: 73c7 a03b 0981 123b c34e 703b 00e0 8a3a
00000130: 41fb 783a 8ada fa39 1741 8639 edf3 f739
00000140: fb73 bb3a 8ad1 013b 5e87 b23a e3d2 6f3a
00000150: 8f96 c63a 0cd6 f53b 8265 1b3c e2e1 df3b
00000160: 6db4 843b 7da8 0b3c 0c5e e63c 5a27 e53c
00000170: 7371 7e3c ab70 f83b b515 fb3b a7c4 353c
00000180: 0763 3e3c 423d f33b a7d6 4f3b 2213 533b
00000190: 4785 fe39 1851 a839 0d37 6a39 62f5 6939
000001a0: 80d3 163a db4c 213c afea 433c f0c0 f63b
000001b0: d0c4 843b d078 bc3b 3fc8 cf39 f160 043a
000001c0: f223 c239 6657 5b39 cd61 bc39 645a 223c
000001d0: 409d 363c 6481 f03b 47d7 ab3b b5d2 293c
000001e0: 2233 133a 60d6 223a 62b5 a939 55ff cc39
000001f0: c55c 1b3a 9dec 3f3c 702c 3c3c 3973 d73b
00000200: f1d2 983b 4dfa 113c 65d4 253c 157a 3c3c
00000210: f7bf b53b cfb6 9e3b 13a7 093c 0126 723b
00000220: 02af 633b 824e 073b bf35 ac3a f60f 223b
00000230: b48e 813a 9dad 603a c934 243a af45 2d3a
00000240: 2d29 4739 786e 053c 024f 373c 83e7 003c
00000250: 501f 9f3b 237f 0f3c f513 303b 1bdb 243b
00000260: 440f 0e3b 567a fa39 fd9a c339 5225 6738
00000270: 2a58 9c38 ef4b 7438 9ff3 b936 1b5a 9e38
0.0013936426 0.00070878107 0.00041933506 0.0005438052 0.0011516013 0.0048492583 0.004431786 0.0023489671
0.0011218241 0.0013971294 0.00096346997 0.00097266346 0.00057866797 0.0005099483 0.001219797 0.015910842
0.013945696 0.007795527 0.00536548 0.01145831 0.008987037 0.007804385 0.004842108 0.0034350525
0.007107965 0.0038027724 0.0045225467 0.0029945027 0.0016007379 0.0026456325 0.0022320128 0.0023762546
0.0010888488 0.00058842666 0.0017734838 0.00094228506 0.0008211179 0.0009371297 0.00039912484 0.0012426653
0.0014165053 0.0014086096 0.0010798099 0.0007152551 0.0014460338 0.003283799 0.003035524 0.0023477157
0.0010642881 0.0036916626 0.0031687336 0.00070747203 0.001169671 0.0011494802 0.0024095976 0.0008410412
0.00089211005 0.0006004676 0.0002471314 0.00042197292 0.0040306677 0.000912824 0.0018596976 0.0010001406
0.0022896735 0.001205828 0.0006703337 0.0012184533 0.0009571478 0.0014034176 0.0073362524 0.008614004
0.0049065887 0.0022354743 0.003666804 0.0010595322 0.0009497889 0.0004784654 0.00025606967 0.0004729325
0.0014301533 0.0019808733 0.0013620665 0.0009148551 0.0015151071 0.007502323 0.009484651 0.0068323473
0.0040498287 0.008524057 0.028121017 0.027972866 0.015529978 0.0075817904 0.0076625 0.011094249
0.01162029 0.007423074 0.0031713636 0.003220745 0.00048545955 0.00032103877 0.00022336487 0.00022312024
0.0005753562 0.009844984 0.011957808 0.007530324 0.004051782 0.0057517067 0.00039631312 0.0005049846
0.00037029345 0.00020918026 0.00035931022 0.009909246 0.01114589 0.0073396433 0.005244169 0.010365178
0.00056152244 0.0006211754 0.00032369333 0.0003910015 0.00059266045 0.011714128 0.011485204 0.006575015
0.004663818 0.008909774 0.01012144 0.011503716 0.0055465656 0.00484357 0.00840165 0.0036948922
0.0034741764 0.002064616 0.0013138576 0.0024728752 0.0009884448 0.0008570792 0.0006263969 0.000660981
0.00018993458 0.008144014 0.0111882705 0.007867697 0.0048560277 0.008758339 0.0026867364 0.002515501
0.002167658 0.00047774863 0.00037308774 5.510945e-05 7.4550815e-05 5.8244852e-05 5.541791e-06 7.5508106e-05

exp_avg f4 [32]
00000000: c4e9 cc39 9a3e d33c c6fc abbb 3520 7abc
00000010: 6531 70bc af18 9e3c 8f21 dbbb 8cbb 353c
00000020: aea9 f1bb 327a c0bc f6a4 84bc 731f 193b
00000030: 6aed 91bc 009c 273d b0fb 173d b3d4 1cbb
00000040: fe77 943c f2fa cabc aed1 d1bc bb7b 07bd
00000050: 0f1e 0a3a 38c7 1d3d 36d7 333c ae3c 86bc
00000060: 2300 b9ba c73b c2bc 8d45 0bbd 7c9d 47bc
00000070: d946 7fba 0b5d 8b3d 824a fd3b 7e4a af3c
0.0003908408 0.025786687 -0.005248639 -0.015266468 -0.014660214 0.01929888 -0.00668735 0.011092078
-0.0073749637 -0.023495767 -0.01619194 0.0023364692 -0.017813403 0.040920258 0.037105262 -0.002393049
0.018123623 -0.024777863 -0.025612678 -0.033076983 0.00052687613 0.038520068 0.010976603 -0.016386356
-0.0014114421 -0.023710145 -0.034001876 -0.012183543 -0.0009738035 0.06804856 0.0077298293 0.021397825

exp_avg_sq f4 [32]
00000000: 5bd7 d03a d2bb ce3b be74 ea3a cb4b b43c
00000010: e03e 593c cd72 ea3b f037 433b 0924 023b
00000020: a699 353b 7b8c c23b fe7c 6f3b 495d a33a
00000030: 5592 8d3b afef 4a3b de5e 423c fd15 933a
00000040: dd11 713b 9a05 943c 4f66 0b3d 5cdc 6c3c
00000050: 9283 423a 81b3 8c3c bc0d 703a 4f6f b13c
00000060: 1ec8 9d3a 9ed8 943c b7af 893c 3a9d ab3b
00000070: 35f0 9b3a 3570 a93c 4b20 593b 20a6 0b39
0.0015933322 0.006309011 0.0017887575 0.022008797 0.0132596195 0.0071547986 0.002978798 0.0019857904
0.002770999 0.0059371567 0.0036543007 0.0012463714 0.0043204227 0.0030965616 0.011863438 0.0011221763
0.003678433 0.018069077 0.034033116 0.014456835 0.0007420118 0.017175438 0.000915732 0.021659521
0.0012037789 0.018169697 0.01680742 0.0052372487 0.0011897149 0.020683387 0.003313082 0.0001331796

exp_avg f4 [32, 32]
00000000: 7a41 5e37 035d 093c 30b2 6c36 57ed 833b
00000010: d5b3 f03a 5e2f 00bc b10e 84bb 255b 57ba
00000020: 872a a53a bff5 f1ba 9cf3 963b 289f 44ba
00000030: d8e7 083c 02d5 573c e981 d7ba 2ee5 2a3b
00000040: 6776 18bb 4708 193c 5d3c 113c fcbd 8a3b
00000050: acb5 6837 d0e2 a7bb 86dd b4bb b682 003c
00000060: b890 f438 0144 e03b 8c20 b03a d15f d83b
00000070: e6f7 03b8 e282 c9bb 3a23 163c 74fb c0ba
00000080: 0400 0000 0400 0000 0400 0000 0400 0000
00000090: 0400 0000 0400 0000 0400 0000 0400 0000
000000a0: 0400 0000 0000 0000 0400 0000 0400 0000
000000b0: 0000 0000 0400 0000 0400 0000 0400 0000
000000c0: 0400 0000 0400 0000 0400 0000 0000 0000
000000d0: 0400 0000 0400 0000 0400 0000 0400 0000
000000e0: 0400 0000 0400 0000 0400 0000 0400 0000
000000f0: 0400 0000 0400 0000 0400 0000 0400 0000
00000100: eabb f130 bd5e 2dbb faed a137 58bf 49ba
00000110: f643 de39 f084 113c 449b 503b 26bb 97b9
00000120: 1437 2f3b fc90 9d3b c0fa 4529 2900 813b
00000130: 09c8 02b0 89ad 60bb a31a 073b af33 07b9
00000140: b19e 103b 4c12 6cba 2b51 d3ba 11a9 be3a
00000150: 4737 67b5 c88a c63b 0716 f43b 1c6a 0ebb
00000160: c14d 66b7 9ee2 1bba 7f57 c3b9 1127 9bb9
00000170: 8460 ea37 41ba e13b 9372 69bb ca3c c93a
00000180: 26db ab37 cec6 813b 8398 99b5 e46f a43a
00000190: 541c 8fb9 2f67 1ebc 84a5 85bb bf6f a238
000001a0: 12d9 2dbb 15b5 b0bb 0afe 873a f0a4 88bb
000001b0: 00a4 fe3a cf81 b53b 34fc 0bbb 41da ac39
000001c0: 6a5e 20bb 4540 083b 2801 403b dad6 50ba
000001d0: 31ae ad37 e583 d8bb c5aa 0bbc 4669 553b
000001e0: f435 f737 e242 bb3a b685 b739 640c 7c3a
000001f0: 0846 78b7 60a3 ebbb 3a28 a63b 5ed4 d5ba
00000200: 695c c237 6ae8 333c a70b d437 fef2 873b
00000210: ff8b 7b3a 5365 92bc 1e67 f0bb 2ccb b7ba
00000220: 7fbf ccba 76a2 d4bb 92ea a33b 6d12 a3bb
00000230: e982 163c 0b26 873c 848d 88bb 98a7 b13a
00000240: e390 c3bb a0ca 2b3c eb5b 2c3c e7cf 553b
00000250: c102 af37 7723 42bc 612a 76bc d23a 223c
00000260: 422c 6f38 7d28 f33b e229 b43a 176a be3b
00000270: fe63 93b8 25c9 61bc 2b5a 493c f93c 53bb
00000280: 3666 4a36 ae10 903b cab2 9437 9c87 593b
00000290: 5071 1f3b 1a95 413b 1d79 61b8 5e3f 1638
000002a0: 5cad 743b 5cd7 3e3b 2cbd 4d3b 4086 5e3b
000002b0: 69c7 b73b b25a f43b e35d 7f3a a46e 6a3b
000002c0: 56d2 d13a 35ea d53b 8999 b93b 7009 8a3b
000002d0: c36e ae36 6885 0c3b c3be 9a3b 3cfe 903b
000002e0: 2e9b f938 2f98 a73b acd9 a03a 4c77 d23b
000002f0: 4c85 3db6 d499 003b ae5f 963b 707c b439
00000300: 13e5 8031 d7a0 62ba 17cf 4b37 94b5 ff3a
00000310: 9dd8 0d3b 9aef 2c3c 34d0 593b be17 0c3b
00000320: 033a 5b3b 4cbd 8c3b fba6 6d2c 4902 933b
00000330: 0400 0000 fc98 a3ba 966e 113b f07d 963b
00000340: 2234 a23b d120 6e39 f5ae 2ab9 14cc 943a
00000350: 2ebb 8735 4b3d d33b b9b4 443c cdda 19ba
00000360: 9f1f cbb8 e1a0 913a fdac 8b3a 5e20 953b
00000370: bcd9 7b38 2297 013c 81d4 5cba 9c4e fa3a
00000380: 0bb4 f5b7 5ea7 edb9 7ab0 9ab7 4c34 953a
00000390: 1443 9e3a f1e0 b73b f324 fa3a c70e b13a
000003a0: 5764 db3a 99c4 0e3b 89ee 11b7 da38 133b
000003b0: f312 8837 cfb6 65ba 869f 773a 0b67 323b
000003c0: 3498 2a3b 3c21 78b8 2efe 6db9 5832 023a
000003d0: dead 1bb8 1417 543b f161 d33b d674 e8b9
000003e0: cf1d 25b9 0211 1d3a c612 2f3a 7b4e 2d3b
000003f0: 8b39 1c38 6532 8a3b 5dc6 0dba 3d19 8f3a
1.3247476e-05 0.008383992 3.527046e-06 0.004026096 0.0018364141 -0.007823793 -0.0040300717 -0.0008215181
0.0012601175 -0.0018460079 0.004606677 -0.0007500523 0.008356057 0.013173344 -0.0016441914 0.0026076543
-0.0023263933 0.009340352 0.008864489 0.0042340737 1.3870576e-05 -0.0051234737 -0.0055195717 0.007843664
0.000116617826 0.006844044 0.0013437434 0.006603219 -3.1463707e-05 -0.0061496357 0.009163672 -0.0014723376
6e-45 6e-45 6e-45 6e-45 6e-45 6e-45 6e-45 6e-45
6e-45 0.0 6e-45 6e-45 0.0 6e-45 6e-45 6e-45
6e-45 6e-45 6e-45 0.0 6e-45 6e-45 6e-45 6e-45
6e-45 6e-45 6e-45 6e-45 6e-45 6e-45 6e-45 6e-45
1.7588466e-09 -0.0026454173 1.9303512e-05 -0.0007696054 0.00042393774 0.008881792 0.0031830827 -0.000289404
0.002673571 0.0048085432 4.3960278e-14 0.0039367867 -4.757799e-10 -0.0034283123 0.0020615242 -0.00012893857
0.0022067244 -0.0009005412 -0.0016122212 0.0014546235 -8.6134645e-07 0.0060590245 0.007448915 -0.0021730727
-1.3727172e-05 -0.00059465494 -0.00037258488 -0.0002959301 2.7939917e-05 0.0068886583 -0.003562127 0.00153532
2.0486837e-05 0.003960467 -1.1443775e-06 0.0012545553 -0.00027296192 -0.009668156 -0.004078569 7.745576e-05
-0.002652709 -0.0053926804 0.0010375392 -0.0041700527 0.0019427538 0.005539156 -0.0021360042 0.00032969008
-0.0024470338 0.002079026 0.0029297564 -0.00079665857 2.0704321e-05 -0.00660752 -0.008524601 0.0032563969
2.9469818e-05 0.00142869 0.00035004102 0.00096148835 -1.4798257e-05 -0.0071911067 0.0050707133 -0.0016313901
2.3169634e-05 0.010980705 2.5277795e-05 0.00414884 0.0009595751 -0.01787058 -0.0073365113 -0.0014022342
-0.0015621035 -0.0064890934 0.005002328 -0.0049765618 0.009186485 0.016497632 -0.0041672606 0.0013553975
-0.0059681996 0.010485321 0.010519962 0.003262514 2.0862908e-05 -0.011849276 -0.015024752 0.009901719
5.702326e-05 0.007420598 0.0013745392 0.0058109867 -7.028131e-05 -0.013780867 0.012289564 -0.0032232387
3.015984e-06 0.0043965196 1.772623e-05 0.0033192402 0.0024329014 0.0029538334 -5.3756976e-05 3.5821802e-05
0.0037334776 0.0029120063 0.0031393273 0.003395453 0.0056084883 0.007457101 0.0009741468 0.0035771513
0.001600812 0.006528164 0.005664055 0.004212551 5.1984985e-06 0.002144182 0.0047224476 0.0044248383
0.0001190215 0.0051145772 0.0012271903 0.0064229127 -2.8240784e-06 0.0019622939 0.0045890426 0.0003442499
3.751333e-09 -0.0008645183 1.214796e-05 0.001950907 0.0021644004 0.010555172 0.003323567 0.0021376456
0.0033451326 0.004295027 3.3772418e-12 0.0044863564 6e-45 -0.0012481506 0.0022191158 0.0045926496
0.0049500624 0.00022709674 -0.0001627764 0.0011352324 1.011276e-06 0.0064465157 0.012005978 -0.00058690907
-9.685684e-05 0.0011110568 0.0010656413 0.0045509776 6.0045844e-05 0.007909568 -0.00084239995 0.0019096914
-2.9290115e-05 -0.0004532886 -1.8440409e-05 0.0011383384 0.0012074434 0.005611532 0.0019084498 0.0013508432
0.0016738278 0.0021784662 -8.698212e-06 0.0022464306 1.6221287e-05 -0.00087628973 0.0009446073 0.0027222063
0.0026030662 -5.915876e-05 -0.0002269677 0.0004966608 -3.7116806e-05 0.0032362388 0.0064508845 -0.00044337538
-0.00015746731 0.0005991609 0.00066785177 0.0026444483 3.724689e-05 0.0042174333 -0.00054082816 0.0010917556

exp_avg_sq f4 [32, 32]
00000000: 8537 c237 7d8f e837 6274 0838 b428 0039
00000010: 7106 8338 fac7 af3a c557 f338 e718 0938
00000020: 1110 f338 d9e2 b538 bad6 2638 e630 4b39
00000030: d6c2 8c37 0526 3139 6aa8 2439 fb6b c139
00000040: 31ce 0f3a 16fe 2939 3316 7338 61c0 5538
00000050: f459 1638 7c98 133a bfb0 cb3a 4c5c 8838
00000060: 872d d038 031a 8c39 62e1 3b39 8893 aa39
00000070: cdae 4c37 431f 2a3a 3b53 3238 fd63 cc37
00000080: 4b89 aa12 cc60 e912 ba5e 0d11 e994 dd14
00000090: 4245 9f13 c594 4f13 a2b6 d710 1caf 8406
000000a0: 1c51 8409 0000 0000 e5af d212 a67a 7a03
000000b0: 0000 0000 2852 9313 5261 2a0c ab70 ae14
000000c0: cc3d dd11 9576 0912 def1 1d0b 0000 0000
000000d0: 3738 ec13 e3fa 8f07 f84f 0a11 f00d dd13
000000e0: 0024 a814 8a9d 2a15 12e7 ed14 c67d f113
000000f0: 051b 3806 5f20 b90b 1d0b 8006 78fa 1308
00000100: 24af 2534 110a 2937 069f 0637 ab58 5538
00000110: cb66 d137 4cae d439 ce84 f937 26bf 4c37
00000120: 534b 3d38 a4fd d337 de09 202b eacd 8c38
00000130: 06d8 2327 a39b 2936 bfb4 4138 2e5b 1f39
00000140: 99a3 3839 7884 8d37 bc29 a037 a1b4 9237
00000150: 988f 8f36 c565 3c39 94f6 0c3a 0431 0e37
00000160: 43c9 1e38 87c9 9338 5479 2a38 59dd d438
00000170: 32d9 a136 0c67 3f39 4d7d 8737 1a30 c636
00000180: 5ef7 3737 f541 8937 ed8f 8937 eca1 8038
00000190: b302 fd37 3ee2 e039 11c3 8538 c2a5 2837
000001a0: 9c8c 6c38 be91 4838 1814 8637 b681 9b38
000001b0: 333f 0637 1dad a338 945e 6a38 995b 1439
000001c0: 2aa4 3939 c75e b138 99f5 0338 50c4 f237
000001d0: 7787 a537 bd42 4b39 a364 063a 7f4e 0a38
000001e0: 7707 2538 1d15 1639 ba44 bc38 87fe 2339
000001f0: ed28 cc36 2f25 4f39 806f b137 dce0 e336
00000200: 9876 3238 4109 6d38 d5d1 8538 84c0 7539
00000210: 7c4e fc38 20b0 123b ffd8 8039 2cb8 8238
00000220: 8f53 5b39 768d 3739 b322 9d38 60fb ad39
00000230: c9af f837 3a11 aa39 2a55 7b39 3214 4e3a
00000240: e7de 753a 8e94 ab39 1bb5 f038 d8f3 de38
00000250: 67c0 9138 2cda 773a 52c6 333b 3c76 0739
00000260: 5b8d 4139 8152 163a 9490 ca39 db4f 363a
00000270: effe ac37 3d64 873a b8ca a238 c3c8 0d38
00000280: e05b ee36 b77b f036 0522 4d37 4232 2e38
00000290: ef41 a637 fe14 de39 2ffc 0438 eba5 0237
000002a0: 537d 1a38 7383 ce37 ce4c 1b37 e4f5 6538
000002b0: ecb6 9936 4536 1c38 a541 5538 1ad5 cc38
000002c0: bc42 3039 5084 2038 cb0b 6437 e462 4737
000002d0: be73 4137 c54f 2d39 7ee3 f039 2809 7c37
000002e0: b435 1838 636a 8d38 379d 2d38 e639 9f38
000002f0: 48e1 8036 20bb 5d39 61f3 2237 9da0 2737
00000300: 5a56 e235 214e f937 9358 3b38 0a7a 6c39
00000310: 9aad e838 9bc6 023b 06ea 0639 3133 6d38
00000320: 6f66 4939 fdfd e238 6fe5 4930 e930 9939
00000330: d158 c726 f196 1837 68db 5a39 01c3 343a
00000340: 88f3 573a 613c 8338 f358 6d38 4d4c 5838
00000350: 6040 db37 5c17 553a c307 263b dafa 0438
00000360: 425f 3b39 9b83 9f39 0fde 3c39 5099 e439
00000370: ed32 6b37 e20f 783a cc8c 4a38 24eb 0f38
00000380: e1f6 a136 a1ed d937 0a0b 2a38 7843 5239
00000390: b437 cf38 e6f9 fa3a c229 0139 e56d 4138
000003a0: afc6 4139 cbf8 f738 c3c5 2f35 a5a6 9039
000003b0: 5b52 6a34 9e13 da37 8485 6739 7853 0b3a
000003c0: 198c 4a3a bc81 a938 92e2 5538 b824 4538
000003d0: 41fa cd37 94ec 4b3a 4e3b 153b 1727 0d38
000003e0: 2b24 2a39 c2de 8339 9d8e 1839 801f bb39
000003f0: 9535 7437 4ecd 753a 0de9 3a38 61e9 1d38
2.3152455e-05 2.7723372e-05 3.2533317e-05 0.00012222194 6.2477666e-05 0.0013411038 0.00011603491 3.2686537e-05
0.000115901355 8.673006e-05 3.9777464e-05 0.00019377805 1.6780028e-05 0.00016894199 0.00015702998 0.0003689228
0.0005485742 0.0001621175 5.795639e-05 5.0962324e-05 3.5846562e-05 0.0005630327 0.0015540345 6.502177e-05
9.926693e-05 0.0002672226 0.00017917671 0.00032534846 1.22000465e-05 0.0006489644 4.251602e-05 2.4365256e-05
1.0762354e-27 1.472823e-27 1.1152129e-28 2.2374032e-26 4.0205536e-27 2.6200422e-27 8.508394e-29 4.991018e-35
3.185412e-33 0.0 1.3296225e-27 7.360919e-37 0.0 3.718903e-27 1.312561e-31 1.761395e-26
3.4905737e-28 4.337574e-28 3.041906e-32 0.0 5.9630208e-27 2.1663707e-34 1.0910923e-28 5.5801987e-27
1.6977864e-26 3.4455503e-26 2.4022026e-26 6.0960975e-27 3.4626405e-35 7.1308115e-32 4.816458e-35 4.453063e-34
1.5430538e-07 1.0075529e-05 8.024048e-06 5.0865736e-05 2.4962608e-05 0.00040565652 2.9744955e-05 1.2203853e-05
4.5131263e-05 2.527127e-05 5.685711e-13 6.714075e-05 2.27379e-15 2.5273555e-06 4.618312e-05 0.00015197389
0.00017608552 1.6870195e-05 1.909292e-05 1.7488668e-05 4.2784486e-06 0.00017966989 0.0005377319 8.475272e-06
3.7857575e-05 7.0470436e-05 4.0644154e-05 0.00010150177 4.8234588e-06 0.00018253567 1.6151602e-05 5.9064596e-06
1.0965245e-05 1.6362386e-05 1.6398693e-05 6.133676e-05 3.0161207e-05 0.00042893173 6.378268e-05 1.0052174e-05
5.6397737e-05 4.781945e-05 1.5983402e-05 7.4151365e-05 8.001737e-06 7.8046905e-05 5.587803e-05 0.00014148503
0.00017704131 8.457671e-05 3.1461565e-05 2.8940063e-05 1.9732614e-05 0.0001938445 0.00051266904 3.297487e-05
3.9346018e-05 0.0001431298 8.97734e-05 0.0001563971 6.084438e-06 0.0001975491 2.1151965e-05 6.7913043e-06
4.2548956e-05 5.651382e-05 6.3810185e-05 0.00023436738 0.00012030915 0.002238281 0.00024575737 6.233188e-05
0.00020916596 0.00017504938 7.4928066e-05 0.0003318442 2.964576e-05 0.00032437762 0.00023968951 0.00078612857
0.00093792233 0.00032726343 0.00011477825 0.00010631204 6.9499765e-05 0.00094548124 0.002743144 0.00012918649
0.00018458573 0.000573434 0.00038636161 0.00069546484 2.062271e-05 0.0010329556 7.762521e-05 3.3803994e-05
7.1036484e-06 7.1669597e-06 1.2226873e-05 4.153164e-05 1.9819445e-05 0.0004235878 3.1706117e-05 7.787235e-06
3.683318e-05 2.4618324e-05 9.256602e-06 5.4826858e-05 4.5810502e-06 3.724384e-05 5.0844294e-05 9.767171e-05
0.00016809528 3.82702e-05 1.3592605e-05 1.1884349e-05 1.1530645e-05 0.00016528282 0.00045945862 1.5022502e-05
3.628964e-05 6.74322e-05 4.1392832e-05 7.592495e-05 3.8409235e-06 0.00021145912 9.7126185e-06 9.991371e-06
1.6863444e-06 2.9719495e-05 4.4666765e-05 0.00022552177 0.00011094958 0.0019954804 0.00012866416 5.655288e-05
0.00019207013 0.00010823829 7.344942e-10 0.00029218875 1.3832473e-15 9.09505e-06 0.00020871835 0.0006895513
0.0008237888 6.257813e-05 5.6588044e-05 5.1569474e-05 2.6136811e-05 0.0008128786 0.0025334216 3.1704876e-05
0.00017869196 0.00030424897 0.000180118 0.00043601776 1.4018949e-05 0.0009462816 4.829168e-05 3.431285e-05
4.8269144e-06 2.597907e-05 4.054144e-05 0.00020052295 9.880905e-05 0.0019147962 0.00012317955 4.6117133e-05
0.0001847993 0.00011824219 6.548036e-07 0.0002758998 2.1822909e-07 2.599676e-05 0.00022079615 0.0005314867
0.00077265647 8.082713e-05 5.0994167e-05 4.7002657e-05 2.4554438e-05 0.00077790883 0.0022770944 3.3653425e-05
0.00016225937 0.00025152235 0.00014548977 0.0003569089 1.4556009e-05 0.0009376601 4.45629e-05 3.7649068e-05

exp_avg f4 [32]
00000000: 573f 0c3b 0400 0000 aedd 813b 0379 83bb
00000010: 9e68 7ebb fa73 ff3b 2dfa 293c 87e7 ba3b
00000020: dc6d 7e3c bb12 1633 d06b 843b cca5 9b3c
00000030: 6d45 3d3b 0000 0000 6356 df3b 3e83 21bc
00000040: c8cf 57bc c873 f5ba 5941 6e3c ee70 dbbb
00000050: 0400 0000 b634 0abc 0189 91bb 752c 8638
00000060: c210 4d3b edd3 45bc ced6 103c 9fab 1ebc
00000070: d28b a9bb 0400 0000 0400 0000 c9d0 c7b9
0.0021400058 6e-45 0.003963194 -0.0040122285 -0.003881968 0.007795808 0.010374588 0.0057038697
0.015529122 3.4941632e-08 0.0040411726 0.018999957 0.0028880492 0.0 0.006815718 -0.009857951
-0.0131720975 -0.0018726522 0.014541947 -0.006696812 6e-45 -0.008435419 -0.004441381 6.397899e-05
0.0031290506 -0.012074453 0.008840276 -0.009684472 -0.0051741386 6e-45 6e-45 -0.00038111795

exp_avg_sq f4 [32]
00000000: b21c a63a f5db 2815 172f 063a 3a27 003a
00000010: 28b9 1c3b 8a3a c739 6196 193b ccfa 033b
00000020: e127 233a 7cce 9034 1578 c13a b2c2 2a3b
00000030: 89d0 1f3b 0000 0000 a350 113b 7d84 a438
00000040: 1580 3d3b 9f44 9639 c485 933a aed7 353b
00000050: 37e0 dc10 e34f b73a 8979 163b 2a16 423b
00000060: 06a0 c43a 4217 8c3a f43a 5e3a 7bd2 e43a
00000070: 6ab3 4e3a 4cea 7b27 d8f2 5c11 407b a43a
0.0012673347 3.4100845e-26 0.0005118711 0.0004888658 0.0023914073 0.00037999853 0.002343558 0.00201385
0.0006223899 2.6972327e-07 0.0014760519 0.002605599 0.0024385771 0.0 0.0022173307 7.844807e-05
0.0028915454 0.00028661356 0.0011255075 0.0027746963 8.712016e-29 0.00139856 0.0022960624 0.0029615262
0.0015001304 0.0010688084 0.00084774126 0.0017457748 0.0007885011 3.496026e-15 1.7429772e-28 0.0012548938

exp_avg f4 [5, 32]
00000000: 051e d53b 0400 0080 bfc3 09bb 9fd6 643b
00000010: b155 0b3c 716f b939 a5bc ddba cf1d faba
00000020: 1871 abba 264c 082f f918 d53b 86fa 03bb
00000030: 845d ddba 0000 0000 4b7c 87ba 9c03 373a
00000040: ab97 c43b 46e8 123b 1064 11ba 531d 043c
00000050: 0400 0080 7817 043c b136 973b 48e9 ca3b
00000060: 5c61 5bba 0877 e13b cc1d e8ba 00ac 023c
00000070: f6b7 013c 0400 0080 0400 0080 5515 a33b
00000080: 2167 883b 0400 0080 8537 473c b274 4f3b
00000090: ee68 693b 7dcd c83a 7a07 463c 71a1 863c
000000a0: 809a 153c 5db1 97ac 7d29 45ba 6056 5a3c
000000b0: ed41 6d3c 0000 0000 5628 013c 4b4a 98b8
000000c0: 336e 20ba 8a7c 703b f7d4 373b 5997 793b
000000d0: 0400 0080 c8d8 b03b a8a2 9539 aca7 513b
000000e0: f119 c73b 2a9f 3c3b e404 223c 0bac 9d3b
000000f0: d46c 933a 0400 0000 0400 0080 fbef a53b
00000100: 062b f2bc 0400 0000 2c23 d9bc 0524 adbc
00000110: 0d6a 14bd 58f2 2abb 6922 e9bc a03c 2cbd
00000120: 9026 abbc bbb6 82af bd7f 9bbc f40e f2bc
00000130: 1941 15bd 0000 0000 8afc 99bc 36dc faba
00000140: f782 81bc 6519 84bc c5b6 c9bb 0817 15bd
00000150: 0400 0000 9b91 2bbd 5a9d 82bc 1cb5 d4bc
00000160: 7641 79bc acc0 00bd ee6c acbc 55fd 12bd
00000170: b3ec ffbc 0400 0080 0400 0080 c1ce e5bc
00000180: 467e d1bb 0400 0000 095b a63c 04ce 603a
00000190: 1339 09bc 668c 46ba 48c6 a63c 05b0 f43c
000001a0: efe8 713c 2606 ceaf 7e83 36bc 9e64 ad3c
000001b0: bc30 d33c 0000 0000 028d 5c3c ea19 bcba
000001c0: 3cd1 40bc 34f2 563a 85db a23b c2b3 d2bb
000001d0: 0400 0000 c6f9 3ebb 4276 bebb 6a6a e9bb
000001e0: b97b 3c3c ee0c 94bb f8b3 833c 3772 00bc
000001f0: 7165 01bc 0400 0000 0400 0000 8892 d2ba
00000200: 3b97 3eba 0400 0000 db1a 953b 73c9 b5b9
00000210: 572b c1ba 5821 8938 588d 923b 5844 ad3b
00000220: 72c1 673b 995a 51ac 0c47 d7ba eeee a73b
00000230: e076 973b 0000 0000 adc5 2b3b 67e4 90b8
00000240: 1ee9 ecba 5145 e039 3b3d 973a c613 aaba
00000250: 0400 0080 e2ce 6dba f4ff d1ba 7a8d 8cba
00000260: 8a39 ee3a bf41 aeba 4eff 803b 6fa8 7cba
00000270: e534 ceba 0400 0000 0400 0080 dcb0 97b9
0.0065038227 -6e-45 -0.0021021215 0.0034917963 0.008504317 0.0003536898 -0.0016917182 -0.001908237
-0.0013079969 1.2396181e-10 0.006503221 -0.0020138337 -0.0016888832 0.0 -0.0010336725 0.0006981434
0.0059995255 0.0022416278 -0.00055462215 0.008063632 -6e-45 0.008062236 0.004614674 0.00619236
-0.00083686947 0.0068806447 -0.0017709075 0.007975578 0.007917395 -6e-45 -6e-45 0.004976908
0.0041626845 -6e-45 0.012159233 0.003165525 0.0035615521 0.0015320029 0.0120867435 0.016434403
0.009131074 -4.3113694e-12 -0.0007521136 0.0133262575 0.01448105 0.0 0.007883152 -7.261763e-05
-0.00061199366 0.0036695325 0.002805052 0.0038084595 -6e-45 0.005396936 0.00028540683 0.003199081
0.0060760905 0.0028781393 0.009888861 0.004811769 0.0011247643 6e-45 -6e-45 0.0050640083
-0.02956153 6e-45 -0.02650603 -0.02113534 -0.03623395 -0.002608439 -0.02845879 -0.042050004
-0.020892411 -2.37767e-10 -0.018981809 -0.029548146 -0.036439035 0.0 -0.018797178 -0.0019139114
-0.01580952 -0.01612539 -0.006155821 -0.036398917 6e-45 -0.041886907 -0.015944172 -0.025965266
-0.015213361 -0.031433746 -0.021048035 -0.035886128 -0.031240797 -6e-45 -6e-45 -0.02805269
-0.006393227 6e-45 0.02030708 0.00085756206 -0.008375424 -0.00075740216 0.02035822 0.029869089
0.014765008 -3.747555e-10 -0.011139749 0.021166142 0.025780074 0.0 0.013461353 -0.0014350985
-0.011768635 0.0008199543 0.0049700164 -0.00643012 6e-45 -0.0029140576 -0.0058124373 -0.0071232812
0.011504107 -0.004518143 0.016077027 -0.007839731 -0.007897721 6e-45 6e-45 -0.0016065398
-0.000727046 6e-45 0.0045503206 -0.00034673102 -0.0014737648 6.53888e-05 0.004472416 0.005287688
0.0035363105 -2.9750978e-12 -0.0016424372 0.005124918 0.0046223253 0.0 0.0026210353 -6.908998e-05
-0.0018074845 0.00042776254 0.0011538634 -0.0012975864 -6e-45 -0.00090716605 -0.0016021715 -0.0010723316
0.0018175107 -0.001329474 0.0039366847 -0.00096381357 -0.0015732317 6e-45 -6e-45 -0.00028932735

exp_avg_sq f4 [5, 32]
00000000: eef4 1038 b3f2 d30c d441 1b37 a234 2c37
00000010: 9430 4338 00d3 1736 d6cf 2e37 54ab 8237
00000020: 4ad5 dc36 7d3c dc30 e74c da37 64cb 5a37
00000030: aaad 5337 0000 0000 0ced 6e36 90d0 8d34
00000040: 6720 cb37 1b20 9936 b1e1 2335 2d57 3038
00000050: 1a6b bc0c 4412 4438 be35 cb37 e0a2 fa37
00000060: 6a2e 3136 e496 f837 9984 0137 9db8 5538
00000070: bec8 dc37 d770 a91e 1f8f e909 bf10 dd37
00000080: 5005 7439 c5dd 330c 887c 9639 0c8f 9838
00000090: c837 8039 f87b 3238 740b a739 72ce f039
000000a0: 5537 5839 fd6c b131 b245 bf38 6b3b d239
000000b0: 96bf c639 0000 0000 cad5 d538 b583 e435
000000c0: a916 af38 efa0 6c38 4922 8d37 e742 6739
000000d0: 420c f10d 5f74 8d39 d3bc e538 195b 2a39
000000e0: 3830 8538 fa89 0f39 6afe 7e39 4312 a039
000000f0: 5412 cd38 6cc9 0821 b2f1 280a 0d34 4139
00000100: 84ae 373b b82f d10e 99bc 583a 4382 603a
00000110: 835b 6b3b 6ee9 4b39 9650 683a 5d49 b83a
00000120: f3ab 0a3a 0546 2f33 c597 023b 5172 a43a
00000130: e7c0 943a 0000 0000 97f5 9e39 34cb 2637
00000140: e36f ec3a 3a61 f039 487b 5438 672f 5a3b
00000150: 78a1 4b0f 7919 753b e586 e43a 9985 173b
00000160: fbef 6c39 4f28 1b3b 4adb 263a c9cd 823b
00000170: 1bad 033b 92c7 cf20 6bb7 ab11 8124 003b
00000180: c804 0d3b a646 150d 43a6 f339 4877 2a3a
00000190: 08b9 393b ad74 e138 4b7a 043a 7972 4c3a
000001a0: 77bc a439 bd3e 7f32 77ae d93a d8a8 2b3a
000001b0: 852c 263a 0000 0000 b68a 3839 761f 0f37
000001c0: 30ce c23a af95 8b39 c5c8 0438 79fd 2c3b
000001d0: d0bd 060f f7f5 3c3b b879 bd3a a4d6 f13a
000001e0: 5bda 0039 c3a3 fc3a 8ed4 c239 b42d 4e3b
000001f0: 221f da3a ccc9 b020 ee5b b311 ae66 c63a
00000200: c857 3b39 01a3 1a0c 5033 9d39 b847 1538
00000210: f4f2 3739 f3a4 3438 a0f5 aa39 544e e939
00000220: 37d9 5d39 0894 af31 f0c7 6c38 a907 e839
00000230: ec44 c739 0000 0000 53f8 ee38 4ea0 a434
00000240: 8a86 6d38 b072 7f38 07b3 a737 a988 0c39
00000250: de6a cb0e 7e00 4539 160e a238 32fe e038
00000260: c09d 8438 d521 ab38 c106 8239 3327 6639
00000270: 187a 8738 f523 0d1d 3d31 df09 7cd0 1639
3.4560384e-05 3.2655767e-31 9.254047e-06 1.0264253e-05 4.6536865e-05 2.2623572e-06 1.0419599e-05 1.5576989e-05
6.581341e-06 1.6024299e-09 2.6023436e-05 1.3041168e-05 1.2617014e-05 0.0 3.5602743e-06 2.6415046e-07
2.4214574e-05 4.563493e-06 6.1050656e-07 4.204286e-05 2.9030446e-31 4.6747053e-05 2.4224511e-05 2.9878167e-05
2.6402072e-06 2.9634168e-05 7.719872e-06 5.0955092e-05 2.6319522e-05 1.794024e-20 5.62273e-33 2.6353051e-05
0.00023271632 1.3856395e-31 0.00028703013 7.274569e-05 0.00024455623 4.2553962e-05 0.00031861255 0.0004593018
0.00020619978 5.1637685e-09 9.1205715e-05 0.0004009859 0.00037908246 0.0 0.00010196453 1.7025656e-06
8.348871e-05 5.6416666e-05 1.6824475e-05 0.000220548 1.4855723e-30 0.0002698032 0.00010954742 0.000162464
6.350916e-05 0.00013688943 0.00024318104 0.00030531184 9.7785756e-05 4.634517e-19 8.1343636e-33 0.00018425305
0.0028027603 5.156843e-30 0.00082678493 0.00085643324 0.00359127 0.00019446548 0.0008862106 0.001405995
0.00052899047 4.0809045e-08 0.0019926887 0.0012546276 0.0011348993 0.0 0.00030319087 9.941683e-06
0.0018038716 0.00045848807 5.0659553e-05 0.0033292414 1.00397705e-29 0.0037399216 0.0017435221 0.0023120402
0.00022596114 0.002367515 0.0006365074 0.0039918167 0.0020092193 3.5199229e-19 2.7092083e-28 0.0019553008
0.0021517742 4.599921e-31 0.00046472446 0.00065027596 0.0028339047 0.000107505686 0.00050536235 0.000779904
0.00031420935 1.4857219e-08 0.0016607781 0.0006548292 0.00063390314 0.0 0.00017599281 8.530789e-06
0.0014862474 0.0002662367 3.1658234e-05 0.0026396199 6.643267e-30 0.002883313 0.0014455831 0.0018450809
0.00012288375 0.0019274879 0.0003716093 0.0031460347 0.0016641358 2.9949098e-19 2.8297876e-28 0.0015136802
0.00017866411 1.1912781e-31 0.00029983604 3.559116e-05 0.00017542747 4.3068965e-05 0.00032607932 0.00044499582
0.00021157121 5.1099995e-09 5.645299e-05 0.00044256196 0.0003800759 0.0 0.00011394978 3.0664017e-07
5.6630503e-05 6.090355e-05 1.9991317e-05 0.0001340235 5.0146273e-30 0.00018787567 7.727386e-05 0.000107285
6.323634e-05 8.160217e-05 0.00024800564 0.00021949112 6.4600434e-05 1.8679784e-21 5.37316e-33 0.00014382781

exp_avg f4 [5]
00000000: 0a83 133a 0068 623c dc05 14bd f4a8 833c
00000010: 4012 613b
0.00056271313 0.013818741 -0.0361384 0.016071774 0.0034343153

exp_avg_sq f4 [5]
00000000: 83fc 2a38 d4db 3e3a fc9f 443b f4b9 013b
00000010: 27e4 273a
4.076633e-05 0.0007280682 0.0030002585 0.0019794675 0.0006404542

exp_avg f4 [1, 32]
00000000: c804 493d 0400 0080 dbdb fcbc 6ee6 353c
00000010: 3e75 673d d463 753c 81b6 09bd ca99 4abd
00000020: 4813 d6bc 60b2 5b30 1eda 3d3d 6d50 0abd
00000030: d040 2bbd 0000 0000 ff0f b2bc 5caa cc3b
00000040: ed73 5c3d 5104 9a3c 691c dbbb 14d0 443d
00000050: 0400 0000 b683 2e3d 3b18 023d f768 433d
00000060: 32c5 8cbc 12ba 0c3d d0ab cbbc ddfe 733d
00000070: 01d4 2a3d 0400 0080 0400 0000 977f 0d3d
0.049076825 -6e-45 -0.030866554 0.011102302 0.056508295 0.014977414 -0.033621315 -0.04946307
-0.02613224 7.992522e-10 0.04635059 -0.033768106 -0.041809857 0.0 -0.021736143 0.0062458944
0.053821493 0.018800886 -0.0066867364 0.04805 6e-45 0.042606078 0.03176139 0.047707524
-0.017183874 0.034357138 -0.0248622 0.05956923 0.04170609 -6e-45 6e-45 0.034545507
