modelPPO_player_1.pth (torch, 27102 bytes, 21 tensors)

shared.0.weight f4 [32, 5]
0.3957845 0.025667489 -0.39340296 0.20670472 -0.3828216 -0.1532454 -0.048731983 0.14238073
0.32054687 -0.21895315 -0.40373626 -0.20389445 0.19282258 0.3999594 0.1575159 -0.32706285
-0.4117003 0.056664523 -0.29711556 -0.15887055 -0.3601608 -0.094398946 0.29771316 0.02197589
0.13065054 0.04861501 -0.14198354 -0.1172761 0.27645934 0.18875915 0.15849145 0.22664587
-0.3611674 -0.27030537 -0.25944 0.37588447 0.21754642 0.1975757 0.07050634 -0.20860907
-0.13182938 0.088806845 0.3799987 -0.3237106 -0.20724013 -0.17165393 -0.41789633 0.11133622
0.4034697 -0.13766032 0.02909363 0.056634575 0.13606097 -0.23500736 -0.21501909 0.37168542
0.16863236 0.24767743 -0.3801823 0.16216859 0.012601136 -0.14361139 0.3392066 -0.450902
-0.38512015 0.33053318 -0.109637104 -0.25299355 0.14030208 0.08590271 0.017613132 0.33034933
-0.14128278 0.1638986 -0.20545727 -0.005496955 -0.31234035 0.41287363 -0.047755565 -0.16168267
-0.09765378 -0.15593515 0.36393344 0.17348273 0.2745068 -0.06612035 0.047075514 0.10236817
-0.15663384 -0.32703343 -0.1241543 -0.090322375 -0.19460884 0.28729147 0.17714125 0.12499952
0.2635288 -0.18068396 0.08424911 0.3257047 0.06818625 -0.2834708 0.25104907 -0.40040836
-0.38979372 0.39957082 -0.14224024 -0.064957045 -0.28172106 0.16686223 -0.350991 -0.08470457
0.22847621 0.18441547 0.011284486 0.23189121 -0.2142169 -0.04874435 -0.25937548 0.0045805573
0.39475828 -0.3306757 0.28881228 0.4363751 -0.077936046 0.30997205 0.32359403 -0.14563747
0.2543617 0.39800227 0.0047261124 0.07921132 0.4028 0.13255264 0.28203008 0.26430282
-0.26224422 0.36435756 0.11513062 -0.12409361 -0.08216654 0.112027965 0.3503629 -0.37920654
-0.16225784 -0.35991293 -0.43243268 -0.26062202 0.028802842 0.17007565 -0.24295527 -0.23696338
-0.026573598 0.42482787 -0.19972861 -0.35980043 -0.10906127 -0.0036540523 0.3719375 -0.38542402
00000000: 44a4 ca3e a044 d23c 1d6c c9be 67aa 533e
00000010: 3101 c4be 5dec 1cbe 309b 47bd 41cc 113e
00000020: b81e a43e 4135 60be 85b6 cebe b5c9 50be
00000030: 4873 453e 7ac7 cc3e d94b 213e c874 a7be
00000040: 62ca d2be 0f19 683d 881f 98be f6ae 22be
00000050: ff66 b8be 3c54 c1bd dc6d 983e c806 b43c
00000060: 41c9 053e 8820 473d 2264 11be 742e f0bd
00000070: 148c 8d3e 144a 413e 954b 223e db15 683e
00000080: efea b8be 7765 8abe 52d5 84be ee73 c03e
00000090: 7dc4 5e3e 4951 4a3e a165 903d 9e9d 55be
000000a0: 48fe 06be 5de0 b53d 318f c23e 65bd a5be
000000b0: c236 54be 0cc6 2fbe 82f6 d5be 3e04 e43d
000000c0: 9593 ce3e d4f6 0cbe c455 ee3c a8f9 673d
000000d0: 9153 0b3e c5a5 70be f72d 5cbe 8d4d be3e
000000e0: f6ad 2c3e 279f 7d3e 41a7 c2be 860f 263e
000000f0: ff74 4e3c dd0e 13be 7dac ad3e a0dc e6be
00000100: 782e c5be a53b a93e 6b89 e0bd 5f88 81be
00000110: 59ab 0f3e c3ed af3d 6a49 903c 8c23 a93e
00000120: 6fac 10be 09d5 273e 6463 52be cd1f b4bb
00000130: 13eb 9fbe 2c64 d33e 579b 43bd 2490 25be
00000140: b4fe c7bd 77ad 1fbe 7c55 ba3e 75a5 313e
00000150: 288c 8c3e 1b6a 87bd 41d2 403d 67a6 d13d
00000160: 9f64 20be ed70 a7be 9c44 febd f0fa b8bd
00000170: 8a47 47be de17 933e 8464 353e c0ff ff3d
00000180: 3fed 863e 3705 39be cc8a ac3d c4c2 a63e
00000190: 3ca5 8b3d 1623 91be 8189 803e 5302 cdbe
000001a0: 0b93 c7be 8c94 cc3e 6da7 11be 3308 85bd
000001b0: be3d 90be efdd 2a3e 18b5 b3be 9779 adbd
000001c0: abf5 693e 69d7 3c3e 91e2 383c e474 6d3e
000001d0: ad5b 5bbe 28a8 47bd ddcc 84be 8018 963b
000001e0: c21d ca3e 534e a9be 34df 933e 8f6c df3e
000001f0: ef9c 9fbd a8b4 9e3e 1eae a53e fd21 15be
00000200: b23b 823e f4c6 cb3e 81dd 9a3b 8b39 a23d
00000210: cd3b ce3e e1bb 073e 3f66 903e b352 873e
00000220: e044 86be 138d ba3e 9ac9 eb3d ca24 febd
00000230: ee46 a8bd eb6e e53d c462 b33e 5c27 c2be
00000240: eb26 26be 8246 b8be d167 ddbe 4070 85be
00000250: f0f3 eb3c 5028 2e3e 44c9 78be 87a6 72be
00000260: e0b0 d9bc 0a83 d93e a885 4cbe c337 b8be
00000270: 845b dfbd d378 6fbb 986e be3e 4c56 c5be

shared.0.bias f4 [32]
-0.32655963 -0.1623075 0.40178448 0.40717804 0.28431922 -0.39532667 -0.19238256 -0.29723525
-0.23972528 -0.078919165 -0.33639464 0.04753818 0.33698037 -0.098091565 0.09204251 0.14465407
-0.21878058 0.2862406 -0.13930744 -0.3672912 -0.32514033 -0.32431793 0.03552908 -0.3658577
-0.432614 0.0905006 -0.08138045 -0.13235778 -0.039182197 -0.3663296 -0.3883236 0.15366565
00000000: d332 a7be f033 26be b2b6 cd3e a479 d03e
00000010: 4a92 913e 4268 cabe efff 44be 382f 98be
00000020: 8b7a 75be 5fa0 a1bd eb3b acbe 65b7 423d
00000030: b188 ac3e 3be4 c8bd c980 bc3d 3220 143e
00000040: 0408 60be 218e 923e 9ca6 0ebe 980d bcbe
00000050: cb78 a6be 000d a6be f186 113d b351 bbbe
00000060: 957f ddbe 6158 b93d cbaa a6bd cc88 07be
00000070: 837d 20bd 8e8f bbbe 5ad2 c6be 875a 1d3e

shared.2.weight f4 [32, 32]
0.07269214 0.0017240251 -0.14121935 0.13852687 -0.021401478 -0.077934414 0.022319295 -0.15586677
-0.11954757 0.02147603 -0.16018482 -0.11489101 0.04384433 0.1360413 0.03894852 -0.14066736
-0.0043690866 -0.118169144 -0.0841199 0.09196877 -0.024981467 0.056171596 -0.061965227 -0.0881648
0.019727765 0.082685664 -0.094609775 -0.13778628 -0.026075331 0.09288962 0.11878665 -0.018793019
0.13933903 0.09490716 0.061155554 -0.06403067 0.07874593 -0.010237917 0.04086632 0.07230506
-0.0866447 0.13233241 -0.029757852 0.029951734 -0.038935322 -0.15842065 0.12778804 -0.02538165
0.14126757 0.078834616 -0.032097414 0.04245494 -0.10236301 -0.057023257 0.12799358 -0.03346367
0.11094866 -0.008062842 0.04640202 0.16080068 0.03119867 0.087026045 0.102596715 -0.043935504
-0.119525865 -0.019914702 0.007307753 -0.12344708 -0.051271558 0.044881523 -0.0149386525 -0.044364616
0.12877016 0.1273806 0.08606316 0.15123852 -0.0066865534 0.1103944 -0.06760283 -0.10854514
-0.12346274 0.025348067 -0.047325373 0.020580813 -0.15736021 -0.08003569 0.0048659444 0.12102966
0.09726952 -0.08095527 0.1066487 -0.086669326 -0.1761146 0.11541049 -0.045243442 -0.16275702
0.16821977 0.02130363 0.010293359 0.12897798 -0.09809775 0.12216823 0.15309273 0.04474891
0.06599125 0.0814514 0.036826596 0.120500155 0.06788317 0.058790438 0.1215479 -0.045600276
-0.08734877 0.033924367 -0.14847396 0.06465237 0.1287458 -0.086034715 -0.01839724 -0.14937817
-0.007912597 -0.12697645 -0.14182022 0.057198998 -0.07414647 -0.059055828 0.12733068 0.13966113
-0.15584537 0.05814172 0.037862636 0.011544488 -0.09080153 0.02619934 0.039766353 -0.17889893
0.090488896 0.16069174 -0.03631981 -0.16932055 0.054603595 0.1467109 0.15490939 0.15403467
-0.12556157 -0.04357427 -0.05773747 -0.081820264 -0.1467033 0.17048559 0.111313455 0.09343435
-0.037905015 -0.13987742 -0.050513986 0.052508853 -0.043131463 -0.14633147 0.11246015 -0.09902804
0.071536794 0.16731362 0.15860529 -0.13133748 -0.13246436 0.12250547 -0.14318103 -0.12556328
-0.043473974 -0.053497918 0.09346543 -0.16132303 0.098719284 0.13739549 0.039647534 0.13467525
-0.043612182 -0.06782737 0.16716124 -0.030017406 0.14228256 -0.15246595 -0.008278459 -0.16465712
-0.09544586 -0.037481844 -0.0740232 -0.044343054 -0.13011864 -0.026379853 0.17016633 -0.17485256
0.10794046 -0.053362545 0.16624197 -0.15331194 0.14323823 0.08274518 -0.090782106 0.11135351
-0.017742287 -0.13019787 -0.041938808 0.036772788 0.11565893 -0.08510014 -0.103597276 0.034403145
0.027552003 0.10449847 0.08343239 -0.11182288 0.1676318 -0.08017085 0.09924424 0.04474044
-0.13148665 -0.0018936836 0.15362439 -0.11101904 0.07154658 0.12068327 -0.064627595 -0.07610937
0.11016901 -0.048561018 -0.0593232 -0.13617532 0.08117241 0.17301716 -0.0026804113 0.14891706
-0.13355762 -0.15534623 0.1387549 -0.14823084 0.05200829 0.08787037 0.12986946 -0.078753285
0.13584463 0.025247829 0.031183824 -0.14039429 -0.035734847 0.124614514 -0.14579403 -0.011900589
-0.05179638 -0.0021440932 0.17750823 0.080973044 0.1059675 -0.10335594 -0.11764102 0.050936505
00000000: 9edf 943d aff8 e13a ce9b 10be fdd9 0d3e
00000010: 2752 afbc 149c 9fbd f4d6 b63c 8a9b 1fbe
00000020: 5bd5 f4bd 80ee af3c 7d07 24be fa4b ebbd
00000030: 1d96 333d 694e 0b3e 7c88 1f3d 1b0b 10be
00000040: 8e2a 8fbb aa02 f2bd 0e47 acbd 1f5a bc3d
00000050: efa5 ccbc 3014 663d 40cf 7dbd bf8f b4bd
00000060: 1f9c a13c 1a57 a93d c5c2 c1bd d917 0dbe
00000070: ef9b d5bc ea3c be3d 6a46 f33d d1f3 99bc
00000080: e4ae 0e3e af5e c23d 3f7e 7a3d 8322 83bd
00000090: 8c45 a13d f0bc 27bc 7163 273d ad14 943d
000000a0: c772 b1bd 2682 073e bdc6 f3bc 575d f53c
000000b0: a57a 1fbd 0639 22be deda 023e 2eed cfbc
000000c0: 72a8 103e 0b74 a13d 9478 03bd 3be5 2d3d
000000d0: b3a3 d1bd 3891 69bd c010 033e 3411 09bd
000000e0: 0d39 e33d 031a 04bc 0b10 3e3d efa8 243e
000000f0: 5a94 ff3c b63a b23d 3a1e d23d b7f5 33bd
00000100: fac9 f4bd 2824 a3bc e075 ef3b d3d1 fcbd
00000110: 2002 52bd b0d5 373d 40c1 74bc acb7 35bd
00000120: 53dc 033e 0f70 023e e241 b03d 45de 1a3e
00000130: e01a dbbb 7616 e23d 5a73 8abd ea4c debd
00000140: 08da fcbd c0a6 cf3c 40d8 41bd 1899 a83c
00000150: 0923 21be c0e9 a3bd 8072 9f3b 66de f73d
00000160: 3e35 c73d e0cb a5bd a26a da3d b07f b1bd
00000170: 6357 34be 565c ec3d 3051 39bd c7a9 26be
00000180: ce41 2c3e f384 ae3c 7aa5 283c ce12 043e
00000190: 79e7 c8bd 5633 fa3d 57c4 1c3e a24a 373d
000001a0: 6c26 873d fecf a63d 7cd7 163d c9c8 f63d
000001b0: 5506 8b3d 3ece 703d 1bee f83d 5bc7 3abd
000001c0: e9e3 b2bd 47f4 0a3d 8f09 18be 7668 843d
000001d0: f0d5 033e f832 b0bd cfb5 96bc 97f6 18be
000001e0: d6a3 01bc 1d06 02be 5239 11be 7f49 6a3d
000001f0: 1bda 97bd 86e4 71bd f962 023e 5403 0f3e
00000200: ee95 1fbe 0326 6e3d da15 1b3d 1825 3d3c
00000210: 27f6 b9bd 00a0 d63c 0be2 223d 4831 37be
00000220: 3e52 b93d 608c 243e 15c4 14bd 5e62 2dbe
00000230: 05a8 5f3d 623b 163e 91a0 1e3e 44bb 1d3e
00000240: 3693 00be ef7a 32bd 207e 6cbd 6291 a7bd
00000250: 6439 16be c693 2e3e 4ff8 e33d 825a bf3d
00000260: 4a42 1bbd 073c 0fbe c1e7 4ebd 8613 573d
00000270: 9eaa 30bd ebd7 15be 8251 e63d 37cf cabd
00000280: e281 923d 4354 2b3e 6d69 223e 557d 06be
00000290: bda4 07be 26e4 fa3d 0c9e 12be a993 00be
000002a0: c411 32bd a220 5bbd ce6a bf3d dd31 25be
000002b0: 562d ca3d 67b1 0c3e 7465 223d 4fe8 093e
000002c0: b0a2 32bd 13e9 8abd 512c 2b3e 10e7 f5bc
000002d0: 85b2 113e 0920 1cbe 60a2 07bc e09b 28be
000002e0: 1e79 c3bd 9086 19bd 7a99 97bd 10a1 35bd
000002f0: d23d 05be 901a d8bc 1540 2e3e 8d0c 33be
00000300: e30f dd3d af92 5abd 563b 2a3e cefd 1cbe
00000310: 0bad 123e 4e76 a93d f8eb b9bd 4f0d e43d
00000320: 4658 91bc 9752 05be 07c8 2bbd 109f 163d
00000330: 97de ec3d fb48 aebd cf2a d4bd 50ea 0c3d
00000340: bdb4 e13c 4b03 d63d 9ade aa3d 6503 e5bd
00000350: aca7 2b3e 9d30 a4bd 9040 cb3d c041 373d
00000360: 70a4 06be 7a35 f8ba b64f 1d3e f35d e3bd
00000370: 0387 923d ca28 f73d 795b 84bd 3bdf 9bbd
00000380: 4aa0 e13d ebe7 46bd e2fc 72bd 8b71 0bbe
00000390: b83d a63d 692b 313e d7a9 2fbb b77d 183e
000003a0: 54c3 08be 1513 1fbe c415 0e3e d3c9 17be
000003b0: a506 553d 61f5 b33d 80fc 043e 6749 a1bd
000003c0: db1a 0b3e 89d4 ce3c 3875 ff3c 85c3 0fbe
000003d0: b45e 12bd e535 ff3d 084b 15be b0fa 42bc
000003e0: 7128 54bd ea83 0cbb b8c4 353e 32d5 a53d
000003f0: 7d05 d93d 47ac d3bd c6ed f0bd cca2 503d

shared.2.bias f4 [32]
0.17839298 0.017694047 -0.0784191 0.066373244 0.05432811 -0.12691656 0.07030136 -0.07071503
0.06457658 0.08342166 0.093699075 0.1673951 -0.0018146932 0.073501825 0.06594236 0.048796475
-0.1704533 0.021959897 0.1738778 -0.057027675 0.115432546 0.13252948 0.049760357 0.042119116
-0.07936204 -0.15331827 -0.15848097 -0.13251027 -0.09715784 0.1604841 -0.0008434839 -0.13134184
00000000: a6ac 363e 1bf3 903c 319a a0bd b2ee 873d
00000010: 2787 5e3d 6af6 01be 29fa 8f3d 0bd3 90bd
00000020: ba40 843d fad8 aa3d 4de5 bf3d 9f69 2b3e
00000030: 00db edba 2088 963d ca0c 873d d0de 473d
00000040: 4f8b 2ebe 3ee5 b33c 060d 323e da95 69bd
00000050: e667 ec3d cfb5 073e 84d1 4b3d 1885 2c3d
00000060: 9188 a2bd 77ff 1cbe d648 22be c6b0 07be
00000070: b1fa c6bd f255 243e 3f1d 5dba 7a7e 06be

actor.weight f4 [5, 32]
-0.045491543 -0.06858286 0.15661032 0.04751586 0.16121519 -0.00335069 -0.11496235 0.065375835
0.1115152 -0.16394363 -0.069357745 -0.013855303 0.16391565 0.0003975699 -0.12012948 -0.048294537
-0.10826307 -0.117484406 -0.032438904 0.16961698 -0.12200536 0.020173945 -0.06410146 0.17428456
0.10992292 0.08879355 -0.13541134 0.13355824 0.14230539 -0.10437628 0.084562495 -0.14596707
-0.045453478 -0.083659485 -0.10660657 0.10405708 -0.12952486 0.075791374 0.09004164 -0.09867151
0.06564517 -0.02921247 -0.036206137 0.120439604 -0.14169917 0.025627706 -0.13466047 -0.11485919
0.095370784 -0.116671875 0.044132426 0.08499034 -0.047744278 -0.03834113 -0.1530332 -0.16615634
-0.093873344 0.13674855 -0.10566261 -0.053218465 -0.16493419 -0.06549457 -0.121266566 0.018419906
0.18070702 -0.05222693 0.07778148 0.04919807 -0.0028506059 -0.080048494 -0.113769665 0.069887795
-0.06629409 -0.02673906 0.15697616 -0.13227218 0.15752442 0.016969552 0.07112881 0.051873602
0.060290903 0.05805923 -0.13576496 0.091722436 -0.045643374 -0.16739863 0.08844783 0.012408008
-0.017925564 0.057301946 -0.14340645 -0.019191708 0.0051532774 -0.11561336 0.15200482 -0.008960679
-0.16458206 -0.14253144 -0.087827265 -0.123632334 0.06092626 -0.17003343 0.0026403908 -0.008882194
0.096724235 0.10660331 -0.14799432 0.16018215 0.13415448 0.010290566 -0.03450169 0.10242076
-0.07038363 0.10157676 -0.10828745 -0.058585875 -0.11174119 0.047910184 -0.06347691 0.028795749
-0.05982239 -0.12723422 0.006762596 -0.15935001 0.16593759 0.08913464 -0.027329847 -0.056036405
0.039714966 -0.022982175 0.10817979 -0.10287483 -0.123247966 -0.0011626184 -0.14811848 0.0608123
-0.030544844 -0.10608383 -0.09415877 -0.006880168 -0.14415357 -0.17045821 -0.15915805 0.011914516
-0.03726487 0.097303875 0.049560104 -0.09041548 0.16329636 -0.04989542 -0.11774557 -0.031191837
0.070807606 0.09318958 -0.09111315 0.12831296 -0.1707345 -0.16790146 -0.11312347 -0.11594377
00000000: 5755 3abd 2c75 8cbd 755e 203e fe9f 423d
00000010: 9815 253e 4097 5bbb 6171 ebbd c4e3 853d
00000020: 1562 e43d d7e0 27be 6f0b 8ebd 5a01 63bc
00000030: 81d9 273e ee70 d039 7206 f6bd 7ed0 45bd
00000040: 07b9 ddbd aa9b f0bd a8de 04bd 13b0 2d3e
00000050: f2dd f9bd d443 a53c a047 83bd a777 323e
00000060: 451f e13d 65d9 b53d 45a9 0abe 7ec3 083e
00000070: 81b8 113e 3bc3 d5bd 1a2f ad3d 6478 15be
00000080: 6d2d 3abd aa55 abbd 8c54 dabd e11b d53d
00000090: 2aa2 04be 8238 9b3d c067 b83d 4a14 cabd
000000a0: fa70 863d fd4e efbc e34c 14bd 0aa9 f63d
000000b0: 9619 11be 32f1 d13c 6fe4 09be 4c3b ebbd
000000c0: c251 c33d aaf1 eebd 34c4 343d 6a0f ae3d
000000d0: 818f 43bd 970b 1dbd bcb4 1cbe e324 2abe
000000e0: ab40 c0bd d007 0c3e a365 d8bd 9bfb 59bd
000000f0: 82e4 28be 0422 86bd 9b5a f8bd 58e5 963c
00000100: 430b 393e e8eb 55bd e64b 9f3d ea83 493d
00000110: 3bd1 3abb 77f0 a3bd 1200 e9bd 5521 8f3d
00000120: 32c5 87bd e00b dbbc 5cbe 203e 5c72 07be
00000130: 154e 213e bb03 8b3c fbab 913d 6a79 543d
00000140: 98f3 763d 84cf 6d3d f805 0bbe f9d8 bb3d
00000150: 8cf4 3abd 8c6a 2bbe 2324 b53d f54a 4b3c
00000160: a2d8 92bc 72b5 6a3d 24d9 12be ee37 9dbc
00000170: d3dc a83b b3c6 ecbd 27a7 1b3e d0cf 12bc
00000180: 3388 28be c3f3 11be c8de b3bd f332 fdbd
00000190: d08d 793d 3e1d 2ebe 680a 2d3b 9f86 11bc
000001a0: 5b17 c63d d652 da3d d38b 17be ca06 243e
000001b0: cb5f 093e c399 283c a551 0dbd fac1 d13d
000001c0: 4b25 90bd 7a07 d03d d0c5 ddbd bef7 6fbd
000001d0: 91d8 e4bd 783d 443d 2f00 82bd 10e5 eb3c
000001e0: 5308 75bd b049 02be c498 dd3b a62c 23be
000001f0: 8beb 293e 398c b63d d8e2 dfbc 6e86 65bd
00000200: 29ac 223d 1d45 bcbc 5e8d dd3d 0ab0 d2bd
00000210: 6e69 fcbd 0063 98ba 5fac 17be 5116 793d
00000220: 2e39 fabc 7b42 d9bd 50d6 c0bd 0873 e1bb
00000230: fe9c 13be 998c 2ebe 54fa 22be 1a35 433c
00000240: 0ca3 18bd 4147 c73d 89ff 4a3d c02b b9bd
00000250: 2937 273e 245f 4cbd 9724 f1bd 0686 ffbc
00000260: 9403 913d 2eda be3d 8899 babd 7964 033e
00000270: 06d5 2ebe 5cee 2bbe 47ad e7bd ed73 edbd

actor.bias f4 [5]
0.10389733 -0.17006187 0.00854985 -0.16202794 0.0024579228
00000000: 20c8 d43d b324 2ebe ac14 0c3c a7ea 25be
00000010: 1a15 213b

critic.weight f4 [1, 32]
-0.07393452 -0.011472101 -0.048931852 0.13363223 -0.058991954 0.17456509 0.11571137 -0.16153587
-0.15847614 -0.11795751 -0.116670765 0.009507141 0.061239094 0.034906194 -0.08419591 -0.109176025
0.0437904 0.15782382 0.1345842 -0.15377536 0.039469287 0.054827437 -0.15919113 -0.13002841
-0.12932356 0.124888696 0.13066028 0.06537402 0.1647329 -0.012484258 -0.1015344 -0.025714487
00000000: fb6a 97bd 7bf5 3bbc c46c 48bd e3d6 083e
00000010: 8ca1 71bd 31c1 323e 15fa ec3d a969 25be
00000020: 9247 22be b593 f1bd 15f1 eebd d7c3 1b3c
00000030: d8d5 7a3d ccf9 0e3d e86e acbd ae97 dfbd
00000040: 905d 333d 919c 213e 71d0 093e 4a77 1dbe
00000050: 8caa 213d bc92 603d 0003 23be 2b26 05be
00000060: 656d 04be a5c5 ff3d cfcb 053e d0e2 853d
00000070: beaf 283e c68a 4cbc 44f1 cfbd 30a7 d2bc

exp_avg f4 [32, 5]
-0.0022861294 -0.0022870419 -0.0021148713 -0.0004768614 0.0016714535 9.0289286e-05 -0.00018409044 -0.00010211052
-2.445666e-05 0.00021993094 -0.0010003246 -0.0013907587 -0.0025045595 -0.0006007382 0.0014715497 -0.00021567474
-0.00052616606 -0.0006636125 -0.00020105162 0.00031071535 -0.00043368753 0.00027025264 -0.00056207634 -0.00013382464
-0.0010575289 0.0 0.0 0.0 0.0 0.0 2.7979553e-05 5.553588e-05
0.00015400926 7.113021e-05 -7.3098316e-05 0.0030331046 0.0028711061 0.0033729225 0.000810781 -0.0010677227
0.0018755046 0.002682417 0.0024280543 0.00057810836 -0.0020113562 -1.8304656e-08 -1.5388514e-08 -1.6241325e-08
-1.7950942e-08 1.9879725e-08 -0.0001173934 -0.00016734049 -0.00015706276 -3.993484e-05 0.00015731485 -4.539507e-05
-0.00045399874 -0.0036445027 -0.0009249669 0.00074672163 0.0031146663 0.0036316558 0.0052671726 0.0013094681
-0.0020662756 1.8271157e-05 2.12877e-05 -2.6668988e-05 -3.2695356e-05 -1.8870502e-05 -0.0018176587 -0.0018771748
-0.00075661676 -0.00021024866 0.00083644944 0.000456833 0.00049422286 -0.00020011843 -4.7563222e-05 -7.59784e-05
-0.0001357066 -0.00015484879 -0.00014130586 -3.3644254e-05 -7.580664e-05 0.0010403219 0.0015207807 0.002148561
0.0005255431 -0.00076303515 0.0 0.0 0.0 0.0 0.0 -0.00022135566
-0.00022508056 -0.0001946422 -5.0288192e-05 -0.00013435213 -0.00012999828 -0.00013066965 -0.00015893442 -3.784159e-05
0.00016964161 1.2447911e-05 1.2816244e-05 -1.3130152e-05 -1.3130158e-05 -8.085289e-06 -0.0023961717 -0.0033705605
-0.0045806854 -0.001090655 0.0025700612 0.0 0.0 0.0 0.0 0.0
-0.00088904466 -0.0006997887 -0.0011073726 -0.0002638282 0.00033416582 0.00034016854 0.00029073775 -0.0009744079
-0.00022971933 -0.0006120233 -0.003912642 -0.0032012477 -0.0014491453 -0.0003450426 0.0007294023 0.0016125365
0.0011385828 0.00045347607 0.00010793032 6.517942e-05 0.00011564051 -0.00029830905 0.0006652494 0.00020785432
0.0006207999 0.0 0.0 0.0 0.0 0.0 0.0 0.0
0.0 0.0 0.0 -8.066358e-05 -0.00023391188 -0.00078142184 -0.00017622313 0.00022771419
00000000: e3d2 15bb 32e2 15bb a799 0abb 4103 fab9
00000010: ac14 db3a b159 bd38 6708 41b9 2b24 d6b8
00000020: 4728 cdb7 439d 6639 531d 83ba 1e4a b6ba
00000030: 8923 24bb dc7a 1dba 04e1 c03a bf26 62b9
00000040: 68ee 09ba 48f6 2dba 62d1 52b9 82e7 a239
00000050: 8e60 e3b9 b2b0 8d39 4e58 13ba 4753 0cb9
00000060: c89c 8aba 0000 0000 0000 0000 0000 0000
00000070: 0000 0000 0000 0000 a2b5 ea37 32ef 6838
00000080: 8c7d 2139 be2b 9538 5c4c 99b8 0dc7 463b
00000090: 2b29 3c3b 400c 5d3b 988a 543a d4f2 8bba
000000a0: 7ed3 f53a 7dcb 2f3b fe1f 1f3b 328c 173a
000000b0: f5d0 03bb 5d3c 9db2 b32f 84b2 0d83 8bb2
000000c0: 8a32 9ab2 fac3 aa32 1a31 f6b8 1f78 2fb9
000000d0: 37b1 24b9 b57f 27b8 e2f4 2439 9666 3eb8
000000e0: ae06 eeb9 9cd8 6ebb 7a79 72ba a4bf 433a
000000f0: 6e1f 4c3b 1301 6e3b 3f98 ac3b 75a2 ab3a
00000100: 5a6a 07bb 0345 9937 fd92 b237 37b7 dfb7
00000110: 5f22 09b8 184c 9eb7 813e eeba 890b f6ba
00000120: b157 46ba 3276 5cb9 2c45 5b3a 1683 ef39
00000130: bc8e 013a e2d6 51b9 9f7e 47b8 9856 9fb8
00000140: 774c 0eb9 e85e 22b9 812b 14b9 3e1d 0db8
00000150: 61fa 9eb8 695b 883a ef54 c73a dfce 0c3b
00000160: 9ac4 093a 6c06 48ba 0000 0000 0000 0000
00000170: 0000 0000 0000 0000 0000 0000 b51b 68b9
00000180: 9a03 6cb9 de18 4cb9 89ec 52b8 e0e0 0cb9
00000190: 2650 08b9 5e04 09b9 a2a7 26b9 19b8 1eb8
000001a0: d3e1 3139 5fd7 5037 5905 5737 9349 5cb7
000001b0: 9949 5cb7 0da6 07b7 1709 1dbb 9fe4 5cbb
000001c0: 9319 96bb 4ff4 8eba 796e 283b 0000 0000
000001d0: 0000 0000 0000 0000 0000 0000 0000 0000
000001e0: c70e 69ba 0672 37ba 4225 91ba 6c52 8ab9
000001f0: fa32 af39 a658 b239 296e 9839 686f 7fba
00000200: d0e0 70b9 3070 20ba 9f35 80bb 06cc 51bb
00000210: 3ff1 bdba d5e6 b4b9 5c35 3f3a bf5b d33a
00000220: 803c 953a 87c0 ed39 a658 e238 efb0 8838
00000230: 0784 f238 5d66 9cb9 2264 2e3a 78f3 5939
00000240: 2dbd 223a 0000 0000 0000 0000 0000 0000
00000250: 0000 0000 0000 0000 0000 0000 0000 0000
00000260: 0000 0000 0000 0000 0000 0000 ee29 a9b8
00000270: 3e46 75b9 55d8 4cba 89c8 38b9 90c6 6e39

exp_avg_sq f4 [32, 5]
1.2684791e-06 9.4804017e-07 7.286241e-07 9.119602e-07 1.813628e-06 9.596272e-07 9.88389e-07 1.0314028e-06
6.3862706e-07 1.0491112e-06 6.186935e-07 1.2181333e-06 1.0985677e-06 5.7374007e-07 1.3610332e-06 1.6645077e-06
1.8023388e-06 1.676816e-06 1.7255603e-06 1.4664238e-06 1.1351393e-06 1.7424209e-06 2.0314847e-06 1.4954833e-06
2.5524207e-06 0.0 0.0 0.0 0.0 0.0 9.0636956e-07 7.3739983e-07
2.577833e-06 9.933628e-07 1.1271799e-06 9.636818e-07 7.961679e-07 8.721592e-07 5.312466e-07 6.680758e-07
8.387631e-07 1.6585865e-06 1.0466744e-06 9.760884e-08 2.2416039e-06 1.48607056e-08 1.6555488e-08 2.3079442e-08
2.8193996e-08 3.386512e-08 3.2804607e-07 4.0462186e-07 6.232772e-07 1.09256796e-07 6.005879e-07 2.7534375e-06
1.8104587e-06 9.50213e-06 6.705814e-06 3.532865e-06 3.405457e-06 3.8375024e-06 4.2984598e-06 1.7224004e-06
3.517512e-06 6.089772e-07 6.613693e-07 8.557512e-07 1.4138107e-06 5.1430675e-07 3.840551e-06 4.700129e-06
2.0420894e-06 1.3570865e-06 4.9536275e-06 2.830907e-07 5.2105554e-07 2.1148486e-07 1.6346901e-07 5.7502035e-07
3.339158e-09 4.355733e-09 3.623883e-09 2.0543549e-10 1.0387011e-09 8.6142643e-07 9.405045e-07 6.99916e-07
4.1745062e-07 9.609023e-07 0.0 0.0 0.0 0.0 0.0 4.9822514e-08
5.2869474e-08 1.1875959e-08 1.07954525e-08 7.861917e-09 1.1371492e-07 1.9483178e-07 6.862468e-08 1.2247489e-08
2.3559585e-07 3.3093613e-07 3.2080703e-07 3.394811e-07 3.392652e-07 1.920549e-07 6.294972e-07 5.3800653e-07
1.1531229e-06 8.620236e-07 1.1608656e-06 0.0 0.0 0.0 0.0 0.0
4.1976122e-07 3.701217e-07 3.4558778e-07 3.764987e-07 4.2372082e-07 1.6608373e-06 1.8496575e-06 1.8052757e-06
9.186562e-07 1.9168426e-06 9.094233e-07 1.2872404e-06 9.597691e-07 7.747959e-07 1.7522244e-06 7.498502e-07
6.2530955e-07 4.6073765e-07 4.5257173e-07 5.6310574e-07 3.1595214e-06 3.1081104e-06 5.6611066e-06 2.9252246e-06
4.07821e-06 0.0 0.0 0.0 0.0 0.0 0.0 0.0
0.0 0.0 0.0 8.693975e-07 1.6085329e-06 6.698939e-07 3.350428e-07 1.7404673e-06
00000000: 9c40 aa35 d37c 7e35 ab96 4335 6ecd 7435
00000010: c96b f335 8acc 8035 caa8 8435 bb6e 8a35
00000020: 1e6e 2b35 30cf 8c35 4b14 2635 be7e a335
00000030: 8072 9335 1e03 1a35 bfac b635 0d68 df35
00000040: e4e7 f135 f60e e135 cd99 e735 f0d1 c435
00000050: 175b 9835 20dd e935 a454 0836 6ab8 c835
00000060: 414a 2b36 0000 0000 0000 0000 0000 0000
00000070: 0000 0000 0000 0000 3e4d 7335 bbf1 4535
00000080: d5fe 2c36 b053 8535 9b49 9735 db57 8135
00000090: 3eb8 5535 531e 6a35 fd9a 0e35 d255 3335
000000a0: 5d27 6135 999c de35 757b 8c35 079d d133
000000b0: 766e 1636 134e 7f32 e735 8e32 3b40 c632
000000c0: 412f f232 1873 1133 4f1e b034 ce3a d934
000000d0: 484f 2735 8fa0 ea33 1638 2135 b2c7 3836
000000e0: e3fe f235 566b 1f37 8102 e136 2916 6d36
000000f0: 4e89 6436 e5c3 8036 7d3b 9036 3a2d e735
00000100: 650e 6c36 9878 2335 f488 3135 c6b6 6535
00000110: 2ac2 bd35 e40e 0a35 15de 8036 cdb5 9d36
00000120: d40a 0936 2325 b635 5637 a636 b1fb 9734
00000130: aade 0b35 8414 6334 0586 2f34 195b 1a35
00000140: 1777 6531 6fa9 9531 0608 7931 f3e0 612f
00000150: 0cc2 8e30 c63c 6735 fa76 7c35 dce1 3b35
00000160: fa1d e034 5af8 8035 0000 0000 0000 0000
00000170: 0000 0000 0000 0000 0000 0000 6ffc 5533
00000180: 9a12 6333 0507 4c32 e776 3932 1411 0732
00000190: 7033 f433 f432 5134 d15e 9333 0769 5232
000001a0: 18f8 7c34 84ab b134 623b ac34 ed41 b634
000001b0: 4124 b634 a637 4e34 b8fa 2835 876b 1035
000001c0: 00c5 9a35 d065 6735 0acf 9b35 0000 0000
000001d0: 0000 0000 0000 0000 0000 0000 0000 0000
000001e0: 8b5b e134 24b5 c634 3989 b934 9621 ca34
000001f0: bf7b e334 efe9 de35 bf41 f835 cd4c f235
00000200: 9399 7635 1ba3 0036 181f 7435 3ec5 ac35
00000210: 6ad1 8035 92fb 4f35 f92d eb35 5049 4935
00000220: f2da 2735 4d5b f734 fcf8 f234 5528 1735
00000230: 2a08 5436 ee94 5036 89f4 bd36 fa4e 4436
00000240: 8fd7 8836 0000 0000 0000 0000 0000 0000
00000250: 0000 0000 0000 0000 0000 0000 0000 0000
00000260: 0000 0000 0000 0000 0000 0000 8b60 6935
00000270: c5e4 d735 c2d2 3335 efdf b334 009a e935

exp_avg f4 [32]
-0.0023876498 -0.00011224175 -0.0027538321 -0.00060879445 -0.0006155167 0.0 5.469566e-05 0.0036803714
0.002659297 -1.9660556e-08 -0.00016503887 -0.0037791543 0.00562438 2.1324659e-05 -0.00075230206 -0.00021897937
-0.00015476356 0.002339115 0.0 -0.00022273012 -0.00017407085 1.3130158e-05 -0.0050169434 0.0
-0.0012132644 -0.0010568498 -0.0015871605 0.00049655995 0.00059244246 0.0 0.0 -0.0008320488
00000000: 1e7a 1cbb 5563 ebb8 a379 34bb 8197 1fba
00000010: a05a 21ba 0000 0000 0569 6538 6332 713b
00000020: 9a47 2e3b 05e2 a8b2 490e 2db9 b0ab 77bb
00000030: b84c b83b 5be2 b237 2336 45ba d49d 65b9
00000040: 0748 22b9 d64b 193b 0000 0000 a98c 69b9
00000050: ca86 36b9 9949 5c37 2c65 a4bb 0000 0000
00000060: 6606 9fba ff85 8aba 4508 d0ba 932b 023a
00000070: 244e 1b3a 0000 0000 0000 0000 da1d 5aba

exp_avg_sq f4 [32]
1.9359534e-06 1.4272571e-06 1.5754952e-06 1.9406505e-06 2.7809965e-06 0.0 1.362829e-06 1.246954e-06
2.0654043e-06 3.3820008e-08 6.0628577e-07 3.122127e-06 4.70537e-06 7.374768e-07 5.602391e-06 6.352123e-07
4.3470156e-09 1.1807222e-06 0.0 5.4506305e-08 2.4636572e-07 3.4120703e-07 1.5650164e-06 0.0
5.5299273e-07 2.802151e-06 1.5478814e-06 1.0615043e-06 4.614538e-06 0.0 0.0 1.9508238e-06
00000000: 6deb 0136 2e90 bf35 9a75 d335 1f3c 0236
00000010: 28a1 3a36 0000 0000 73ea b635 035d a735
00000020: 609b 0a36 7e41 1133 a4bf 2235 bc85 5136
00000030: d2e2 9d36 05f7 4535 2cfc bb36 7583 2a35
00000040: c15c 9531 4e79 9e35 0000 0000 511a 6a33
00000050: 3f44 8434 232f b734 8e0d d235 0000 0000
00000060: 5f71 1435 960c 3c36 cdc0 cf35 0379 8e35
00000070: 94d6 9a36 0000 0000 0000 0000 e6ea 0236

exp_avg f4 [32, 32]
-3.0883246e-05 -8.710741e-10 -9.818512e-06 -3.7303898e-06 -1.096481e-05 0.0 -3.2949192e-05 -3.5326837e-05
-1.3761121e-11 0.0 -7.1648043e-07 -6.378664e-05 -2.6569045e-05 -1.0399689e-05 -5.0134055e-05 -4.0405293e-06
-4.5964384e-06 -3.222674e-05 0.0 -6.604256e-06 -6.588885e-12 -3.84813e-07 1.0003482e-07 0.0
-1.0021579e-09 -8.010989e-05 -3.1797746e-05 -7.125749e-06 -1.0253672e-05 0.0 0.0 -3.851262e-06
-1.9925035e-05 -3.562556e-05 -9.79509e-05 1.5912708e-05 -0.00022592771 0.0 2.6162064e-05 -0.001902201
-0.00045977815 3.4489152e-09 -2.250171e-06 -0.0018661597 -0.002230908 5.7848393e-07 -0.0015290307 -0.0010468547
9.76408e-06 -0.0018086054 0.0 3.1482483e-07 -1.5820697e-05 3.3467504e-06 -5.0439918e-05 0.0
-0.00018451396 -0.0010866458 -0.0006794894 -0.0009601911 -0.0011202996 0.0 0.0 -0.00016709887
0.0 0.0 0.0 0.0 0.0 0.0 0.0 0.0
0.0 0.0 0.0 0.0 0.0 0.0 0.0 0.0
0.0 0.0 0.0 0.0 0.0 0.0 0.0 0.0
0.0 0.0 0.0 0.0 0.0 0.0 0.0 0.0
0.00012342278 -0.000499121 -0.0011602547 -0.00029905117 -0.00086812966 0.0 0.00012620373 0.0032483067
-0.0002525122 -9.3266985e-09 -1.1126065e-05 0.0040804553 0.0013765467 2.782374e-05 0.0018218438 0.0002161593
1.0714933e-05 0.0010811837 0.0 1.3637642e-05 -1.4666019e-05 1.0132266e-05 -0.00044253966 0.0
0.0002468947 0.003803124 0.0015451241 0.0012651349 0.00071126746 0.0 0.0 -0.0013939575
-1.2744077e-05 -1.1768311e-05 -2.9122284e-05 -6.7318295e-05 -1.4230271e-05 0.0 -2.638945e-05 5.2734656e-05
9.876403e-06 3.8494865e-09 -6.306149e-07 4.3078293e-05 -9.304465e-06 -6.6110084e-07 3.9262985e-05 -2.3227125e-05
0.0 6.0486536e-06 0.0 5.890519e-09 -2.568169e-07 -5.5062992e-11 -2.1633889e-05 0.0
-3.8998394e-07 5.9874994e-05 2.2056165e-05 -1.2596912e-05 1.8140421e-05 0.0 0.0 -2.231445e-05
0.0 0.0 0.0 0.0 0.0 0.0 0.0 0.0
0.0 0.0 0.0 0.0 0.0 0.0 0.0 0.0
0.0 0.0 0.0 0.0 0.0 0.0 0.0 0.0
0.0 0.0 0.0 0.0 0.0 0.0 0.0 0.0
0.0001552767 -0.0001043945 -0.0004519006 -6.1793224e-05 -6.30733e-05 0.0 6.6520246e-05 0.0052299313
0.00084521744 -1.1369409e-08 -7.087437e-06 0.005468722 0.004796261 2.1059075e-05 0.0039786045 0.001866565
-3.0916483e-05 0.0039894753 0.0 1.124863e-05 1.2297824e-05 3.1956915e-06 -1.2392895e-05 0.0
0.00038971117 0.0039387513 0.0019746951 0.002221422 0.002520636 0.0 0.0 -0.0001390649
-0.00023383932 0.00037394726 0.0021999767 0.0002933926 0.0017511938 0.0 -0.00013526864 -0.004257266
-0.00024979064 1.407905e-08 7.2499433e-06 -0.004041817 -0.0017499306 -3.1556687e-05 -0.0027911263 0.00015440445
8.48258e-06 -0.0016793158 0.0 -3.2161654e-05 -8.97081e-06 -1.1511584e-05 0.00031332954 0.0
-0.00040249573 -0.0035360225 -0.00087059697 -0.0011504425 -0.0011021941 0.0 0.0 0.0011995744
00000000: a288 01b8 6470 6fb0 30ba 24b7 9c57 7ab6
00000010: 80f5 37b7 0000 0000 ed32 0ab8 e72b 14b8
00000020: 9416 72ad 0000 0000 2954 40b5 31c5 85b8
00000030: 97e0 deb7 537a 2eb7 0847 52b8 e293 87b6
00000040: 1b3b 9ab6 332b 07b8 0000 0000 219a ddb6
00000050: 66d3 e7ac 4c98 ceb4 b9d2 d633 0000 0000
00000060: 4cbc 89b0 ab00 a8b8 925e 05b8 b819 efb6
00000070: 3007 2cb7 0000 0000 0000 0000 173a 81b6
00000080: b024 a7b7 a76c 15b8 fd6a cdb8 487c 8537
00000090: 02e7 6cb9 0000 0000 9b76 db37 4653 f9ba
000000a0: 610e f1b9 f501 6d31 a501 17b6 ee99 f4ba
000000b0: 6d34 12bb 1d49 1b35 c269 c8ba 9d36 89ba
000000c0: 67d0 2337 ba0e edba 0000 0000 3205 a934
000000d0: b0b6 84b7 bc98 6036 738f 53b8 0000 0000
000000e0: 177a 41b9 c86d 8eba c31f 32ba 55b5 7bba
000000f0: 04d7 92ba 0000 0000 0000 0000 4337 2fb9
00000100: 0000 0000 0000 0000 0000 0000 0000 0000
00000110: 0000 0000 0000 0000 0000 0000 0000 0000
00000120: 0000 0000 0000 0000 0000 0000 0000 0000
00000130: 0000 0000 0000 0000 0000 0000 0000 0000
00000140: 0000 0000 0000 0000 0000 0000 0000 0000
00000150: 0000 0000 0000 0000 0000 0000 0000 0000
00000160: 0000 0000 0000 0000 0000 0000 0000 0000
00000170: 0000 0000 0000 0000 0000 0000 0000 0000
00000180: 0d6b 0139 71d7 02ba b013 98ba f8c9 9cb9
00000190: 3293 63ba 0000 0000 8e55 0439 8be1 543b
000001a0: 9d63 84b9 413b 20b2 16aa 3ab7 57b5 853b
000001b0: 3e6d b43a 0767 e937 efca ee3a d2a8 6239
000001c0: 49c4 3337 81b6 8d3a 0000 0000 3acd 6437
000001d0: 120e 76b7 c0fd 2937 ab04 e8b9 0000 0000
000001e0: a571 8139 d53d 793b c385 ca3a e2d2 a53a
000001f0: 5a74 3a3a 0000 0000 0000 0000 74b5 b6ba
00000200: 65cf 55b7 8370 45b7 a14b f4b7 3c2d 8db8
00000210: 8cbe 6eb7 0000 0000 ea5e ddb7 682f 5d38
00000220: d4b2 2537 7144 8431 8747 29b5 f7ae 3438
00000230: 5f1a 1cb7 8176 31b5 4fae 2438 dfd7 c2b7
00000240: 0000 0000 8af5 ca36 0000 0000 8e65 ca31
00000250: a5e0 89b4 6b2b 72ae 6c7a b5b7 0000 0000
00000260: fc5e d1b4 4922 7b38 4105 b937 5357 53b7
00000270: 422c 9837 0000 0000 0000 0000 eb2f bbb7
00000280: 0000 0000 0000 0000 0000 0000 0000 0000
00000290: 0000 0000 0000 0000 0000 0000 0000 0000
000002a0: 0000 0000 0000 0000 0000 0000 0000 0000
000002b0: 0000 0000 0000 0000 0000 0000 0000 0000
000002c0: 0000 0000 0000 0000 0000 0000 0000 0000
000002d0: 0000 0000 0000 0000 0000 0000 0000 0000
000002e0: 0000 0000 0000 0000 0000 0000 0000 0000
000002f0: 0000 0000 0000 0000 0000 0000 0000 0000
00000300: c6d1 2239 5fee dab8 12ed ecb9 fc96 81b8
00000310: 3846 84b8 0000 0000 c980 8b38 d85f ab3b
00000320: 9591 5d3a 3153 43b2 9fd0 edb6 f732 b33b
00000330: f429 9d3b 05a8 b037 f45e 823b 87a7 f43a
00000340: 52ac 01b8 25ba 823b 0000 0000 7fb8 3c37
00000350: c052 4e37 9075 5636 14eb 4fb7 0000 0000
00000360: 2652 cc39 a410 813b e369 013b 4795 113b
00000370: 4131 253b 0000 0000 0000 0000 f3d1 11b9
00000380: c432 75b9 5a0e c439 7c2d 103b 7dd2 9939
00000390: 5088 e53a 0000 0000 e6d6 0db9 8980 8bbb
000003a0: 55f6 82b9 51e0 7132 8a44 f336 3871 84bb
000003b0: ed5d e5ba bc5b 04b8 54eb 36bb a1e7 2139
000003c0: 6750 0e37 7d1c dcba 0000 0000 50e5 06b8
000003d0: 5681 16b7 e021 41b7 6146 a439 0000 0000
000003e0: 1006 d3b9 9dbc 67bb c638 64ba 72ca 96ba
000003f0: 7f77 90ba 0000 0000 0000 0000 0a3b 9d3a

exp_avg_sq f4 [32, 32]
3.2353182e-06 1.8714188e-12 6.6435293e-09 4.6862148e-08 1.214529e-10 0.0 3.4025122e-06 1.4795473e-06
1.9158532e-10 0.0 1.6736594e-09 1.688074e-06 1.8237286e-06 2.5258663e-07 4.845737e-06 2.9220235e-08
5.952094e-12 2.7558758e-06 0.0 3.7526013e-09 5.7881026e-12 6.340113e-08 1.9073363e-15 0.0
1.6386407e-12 2.1955796e-06 1.4870072e-09 7.473262e-09 1.5106359e-07 0.0 0.0 6.6278153e-07
4.8325376e-07 1.6977211e-07 2.0994486e-07 1.3741298e-08 2.3842787e-08 0.0 3.9881684e-07 1.0365998e-06
2.6607808e-08 3.4544826e-08 3.3591166e-10 5.0161145e-07 1.1905717e-06 2.5209545e-08 1.3219847e-06 3.999276e-07
1.731145e-11 1.2078461e-06 0.0 4.6219104e-10 4.096859e-09 4.1232258e-09 7.2899238e-09 0.0
2.5261255e-07 4.964121e-07 1.0808078e-07 3.9727703e-07 1.6724215e-07 0.0 0.0 5.427067e-07
0.0 0.0 0.0 0.0 0.0 0.0 0.0 0.0
0.0 0.0 0.0 0.0 0.0 0.0 0.0 0.0
0.0 0.0 0.0 0.0 0.0 0.0 0.0 0.0
0.0 0.0 0.0 0.0 0.0 0.0 0.0 0.0
1.5992092e-06 6.2591255e-07 8.649192e-07 1.901244e-07 1.8879703e-07 0.0 5.7585567e-06 4.1513576e-06
3.3083234e-07 1.8641335e-07 9.000507e-09 5.456596e-06 4.1507774e-06 3.2290308e-07 3.4260888e-06 1.3523376e-06
2.4467822e-11 2.99891e-06 0.0 1.5341801e-09 5.751101e-08 1.6591662e-07 6.911339e-08 0.0
3.9318397e-07 5.383906e-06 8.133392e-07 1.0071578e-06 9.331509e-07 0.0 0.0 2.8263803e-06
9.4244534e-08 7.766122e-08 1.09188456e-07 3.7849254e-08 9.111204e-09 0.0 1.4235334e-07 5.457262e-07
9.118394e-08 3.348772e-08 7.554812e-10 2.699023e-07 1.5170459e-06 3.9072305e-09 5.921325e-07 3.2894883e-07
0.0 1.140675e-06 0.0 1.9231942e-12 1.1758043e-09 2.058104e-09 3.906349e-09 0.0
1.4059015e-07 3.4911327e-08 1.7337968e-08 1.9087148e-07 4.0000498e-07 0.0 0.0 3.033802e-07
0.0 0.0 0.0 0.0 0.0 0.0 0.0 0.0
0.0 0.0 0.0 0.0 0.0 0.0 0.0 0.0
0.0 0.0 0.0 0.0 0.0 0.0 0.0 0.0
0.0 0.0 0.0 0.0 0.0 0.0 0.0 0.0
3.5946046e-06 5.583863e-07 5.876652e-07 2.950133e-07 1.1966688e-07 0.0 3.5680139e-06 5.101216e-06
5.942033e-07 3.2752433e-07 7.632513e-09 3.1047966e-06 6.9491825e-06 3.6530636e-07 7.074555e-06 2.1718174e-06
1.7777592e-10 6.099878e-06 0.0 4.3454316e-09 1.1120399e-07 1.1345284e-07 3.6603687e-08 0.0
6.295462e-07 4.710483e-06 3.374871e-07 1.3110538e-06 1.5823127e-06 0.0 0.0 3.368039e-06
3.0866395e-06 6.904518e-07 7.55346e-07 4.5555208e-07 2.1193591e-07 0.0 7.83101e-06 4.1161566e-06
6.5468214e-07 4.4314808e-07 1.2320051e-08 4.659593e-06 9.273974e-06 5.962569e-07 4.647988e-06 2.767741e-06
1.3605201e-11 5.82478e-06 0.0 7.136288e-09 1.4564806e-07 2.3379263e-07 6.405198e-08 0.0
5.802198e-07 5.472395e-06 2.7244099e-07 1.2773274e-06 1.9979095e-06 0.0 0.0 4.0065975e-06
00000000: 581e 5936 7cb0 032c 1a45 e431 7a45 4933
00000010: f489 052f 0000 0000 b756 6436 dc94 c635
00000020: 79a6 522f 0000 0000 a806 e630 c891 e235
00000030: d6c6 f435 3e9b 8734 9098 a236 faff fa32
00000040: b26b d12c 96f1 3836 0000 0000 3bf0 8031
00000050: 98a6 cb2c 2427 8833 2570 0927 0000 0000
00000060: 419e e62b c557 1336 6a5f cc30 c163 0032
00000070: 0b34 2234 0000 0000 0000 0000 00ea 3135
00000080: f2b8 0135 9a4a 3634 346d 6134 de12 6c32
00000090: d8ce cc32 0000 0000 f81c d634 4c21 8b35
000000a0: 308f e432 705e 1433 5dab b82f 7aa6 0635
000000b0: bbcb 9f35 608c d832 0c6f b135 a1b5 d634
000000c0: eb45 982d 471d a235 0000 0000 9b17 fe2f
000000d0: 5ac4 8c31 47ac 8d31 d97a fa31 0000 0000
000000e0: ce9e 8734 2e41 0535 0a1a e833 5749 d534
000000f0: 2c93 3334 0000 0000 0000 0000 85ae 1135
00000100: 0000 0000 0000 0000 0000 0000 0000 0000
00000110: 0000 0000 0000 0000 0000 0000 0000 0000
00000120: 0000 0000 0000 0000 0000 0000 0000 0000
00000130: 0000 0000 0000 0000 0000 0000 0000 0000
00000140: 0000 0000 0000 0000 0000 0000 0000 0000
00000150: 0000 0000 0000 0000 0000 0000 0000 0000
00000160: 0000 0000 0000 0000 0000 0000 0000 0000
00000170: 0000 0000 0000 0000 0000 0000 0000 0000
00000180: 69a4 d635 6204 2835 cb2c 6835 ff24 4c34
00000190: 22b8 4a34 0000 0000 a039 c136 e44b 8b36
000001a0: 409d b134 e928 4834 a6a0 1a32 ce17 b736
000001b0: e846 8b36 765b ad34 c2eb 6536 f781 b535
000001c0: a338 d72d e240 4936 0000 0000 2adb d230
000001d0: 0602 7733 d026 3234 7d6b 9433 0000 0000
000001e0: cb16 d334 66a7 b436 3f54 5a35 ae2d 8735
000001f0: a47d 7a35 0000 0000 0000 0000 d8ac 3d36
00000200: 7b63 ca33 b5c6 a633 fd7a ea33 b28f 2233
00000210: 8087 1c32 0000 0000 cad9 1834 057e 1235
00000220: e7d0 c333 23d4 0f33 43aa 4f30 17e7 9034
00000230: 4d9d cb35 5d40 8631 09f3 1e35 629a b034
00000240: 0000 0000 4b19 9935 0000 0000 3055 072c
00000250: f099 a130 8c6e 0d31 9c38 8631 0000 0000
00000260: 20f5 1634 69f1 1533 98ee 9432 5af2 4c34
00000270: 44c0 d634 0000 0000 0000 0000 42e0 a234
00000280: 0000 0000 0000 0000 0000 0000 0000 0000
00000290: 0000 0000 0000 0000 0000 0000 0000 0000
000002a0: 0000 0000 0000 0000 0000 0000 0000 0000
000002b0: 0000 0000 0000 0000 0000 0000 0000 0000
000002c0: 0000 0000 0000 0000 0000 0000 0000 0000
000002d0: 0000 0000 0000 0000 0000 0000 0000 0000
000002e0: 0000 0000 0000 0000 0000 0000 0000 0000
000002f0: 0000 0000 0000 0000 0000 0000 0000 0000
00000300: d63a 7136 04e4 1535 0cc0 1d35 5262 9e34
00000310: c87d 0034 0000 0000 0372 6f36 1d2b ab36
00000320: 5781 1f35 9ad6 af34 2620 0332 005c 5036
00000330: 062d e936 531f c434 f761 ed36 8abf 1136
00000340: 7977 432f 8ead cc36 0000 0000 d24e 9531
00000350: 0acf ee33 5ca3 f333 2e36 1d33 0000 0000
00000360: 16fe 2835 be0e 9e36 e02f b534 77f7 af35
00000370: da5f d435 0000 0000 0000 0000 7806 6236
00000380: 1024 4f36 7d57 3935 fbc2 4a35 9a92 f434
00000390: 8090 6334 0000 0000 ef61 0337 841d 8a36
000003a0: 6abd 2f35 cfe9 ed34 28a8 5332 9959 9c36
000003b0: 6a97 1b37 760e 2035 eaf5 9b36 6ebd 3936
000003c0: 6158 6f2d 7b72 c336 0000 0000 7433 f531
000003d0: 6f63 1c34 6e08 7b34 f38c 8933 0000 0000
000003e0: 67c0 1b35 849f b736 0144 9234 a370 ab35
000003f0: d313 0636 0000 0000 0000 0000 6970 8636

exp_avg f4 [32]
-0.00011552704 -0.0032919392 0.0 0.003710646 1.7473121e-05 0.0 0.007902744 -0.0032092042
-0.00020873542 -4.7403732e-06 0.0028736193 0.0040244646 0.0 0.011056007 0.008619515 0.002263183
0.0 -0.0032027583 -0.007058274 0.0011264514 -0.013963241 0.003418177 0.0048181964 0.0037282933
2.6752707e-06 -0.0021381204 3.8068215e-06 0.0006292064 1.8962233e-05 -0.000392476 2.0848238e-05 0.0
00000000: 1b47 f2b8 93bd 57bb 0000 0000 4f2e 733b
00000010: 3e93 9237 0000 0000 837a 013c 8351 52bb
00000020: fddf 5ab9 7f0f 9fb6 5553 3c3b a8df 833b
00000030: 0000 0000 4124 353c de38 0d3c e951 143b
00000040: 0000 0000 5ee5 51bb 1849 e7bb 70a5 933a
00000050: 14c6 64bc 7e03 603b f6e1 9d3b 6256 743b
00000060: cd88 3336 b51f 0cbb b278 7f36 54f1 243a
00000070: 1611 9f37 3dc5 cdb9 40e3 ae37 0000 0000

exp_avg_sq f4 [32]
1.0939408e-05 4.0895616e-06 0.0 1.1233437e-05 2.5580005e-06 0.0 1.7058444e-05 1.5784453e-05
1.46881475e-05 2.2868551e-07 1.8573051e-05 2.9838428e-05 0.0 1.0127927e-05 1.0638538e-05 6.423005e-06
0.0 1.688779e-05 7.2561506e-06 9.212794e-06 1.239214e-05 1.11990685e-05 1.2463505e-05 6.8752906e-06
6.1187907e-06 3.4237733e-06 6.993043e-07 8.773721e-08 3.744286e-06 7.0498745e-06 1.0946597e-07 0.0
00000000: 6688 3737 1139 8936 0000 0000 3f77 3c37
00000010: 1daa 2b36 0000 0000 bb18 8f37 db68 8437
00000020: 1d6d 7637 988c 7534 53cd 9b37 894d fa37
00000030: 0000 0000 1eeb 2937 2c7c 3237 3185 d736
00000040: 0000 0000 41aa 8d37 dc79 f336 a690 1a37
00000050: d6e7 4f37 a2e3 3b37 591a 5137 4cb2 e636
00000060: 0350 cd36 fac3 6536 d3b7 3b35 0b6a bc33
00000070: 5846 7b36 f68d ec36 8e13 eb33 0000 0000

exp_avg f4 [5, 32]
3.1271302e-06 0.0009666536 0.0 0.00072124525 -1.4549602e-05 0.0 0.0015815666 0.00033912202
1.0864964e-06 6.045349e-10 0.0007294947 0.0022622722 0.0 0.0003920825 0.0008579375 0.0015344651
0.0 0.0009567754 0.0013767789 0.00010005935 0.00041390667 0.0009979188 0.00029266698 0.0005283519
6.2420114e-09 9.2422364e-05 -1.271073e-10 -2.3418181e-06 4.6580226e-08 2.205519e-06 1.8138087e-05 0.0
3.1154068e-05 -0.00047518217 0.0 0.000116790696 0.00046096908 0.0 0.0010407033 -0.0010059517
-8.130153e-06 -4.5777832e-10 0.002509795 0.0012239288 0.0 0.0028798622 -0.0018986419 -0.0022323749
0.0 -0.0014509279 -0.002713902 -0.0004142123 0.0027284003 0.0030385829 -0.0017510719 -0.00085028907
-1.1027298e-07 -0.0015918042 4.934789e-08 -3.75937e-05 -1.5214279e-07 7.148427e-06 -3.1457945e-05 0.0
-1.6487726e-05 0.0012430917 0.0 -0.0007408302 -0.00069720775 0.0 0.0018105354 0.00045745724
-4.385978e-06 6.151175e-08 -0.00092280156 0.0013134001 0.0 -0.0016940963 0.0012237465 0.00410808
0.0 0.0026264049 0.0031544995 -6.281604e-05 -0.00014974725 0.00016483036 0.00032642958 0.0012002477
5.697321e-08 0.00010462742 -3.6295835e-09 -7.7061195e-06 -1.9199184e-07 3.69052e-07 -8.138978e-05 0.0
-3.996678e-05 0.0059429696 0.0 0.005744845 8.320378e-05 0.0 0.007916583 0.0028023832
-3.0115036e-05 -1.2536991e-08 0.004369943 0.012783725 0.0 0.0019573194 0.0061341147 0.00771374
0.0 0.0053279474 0.008304767 -7.648983e-05 0.0006250825 0.0049093384 0.0037289625 0.004021997
-3.4156407e-09 0.0021766126 1.6862886e-08 1.4233098e-05 -1.646288e-07 -1.35959435e-05 -1.8847688e-05 0.0
9.664788e-06 -0.011544148 0.0 -0.008727032 0.00022578285 0.0 -0.018675655 -0.0039494997
3.7198686e-05 -5.1539686e-08 -0.00960441 -0.026632419 0.0 -0.005103498 -0.009748908 -0.017261773
0.0 -0.011287303 -0.015629262 5.322139e-05 -0.00527327 -0.013102346 -0.0037676545 -0.007013716
2.5505365e-08 -0.0011515479 -6.194568e-08 4.2775813e-05 2.7586222e-07 -4.9491277e-06 4.100497e-05 0.0
00000000: b0db 5136 0667 7d3a 0000 0000 f311 3d3a
00000010: 111a 74b7 0000 0000 924c cf3a 30cc b139
00000020: bbd3 9135 5d2c 2630 903b 3f3a a142 143b
00000030: 0000 0000 6c90 cd39 36e7 603a 1b20 c93a
00000040: 0000 0000 1cd0 7a3a 0975 b43a f4d6 d138
00000050: 9d01 d939 99cc 823a 1971 9939 1981 0a3a
00000060: 5079 d631 e1d2 c138 86c1 0baf 2128 1db6
00000070: 800f 4833 8702 1436 3f27 9837 0000 0000
00000080: 6dab 0238 df21 f9b9 0000 0000 87ed f438
00000090: 39ae f139 0000 0000 3568 883a 23da 83ba
000000a0: be66 08b7 92aa fbaf 5f7b 243b 3c6c a03a
000000b0: 0000 0000 12bc 3c3b dadb f8ba 094d 12bb
000000c0: 0000 0000 102d beba b8db 31bb a22a d9b9
000000d0: f6ce 323b f622 473b 3984 e5ba efe5 5eba
000000e0: 36cf ecb3 16a4 d0ba 94f2 5333 eead 1db8
000000f0: b15c 23b4 85dc ef36 b6f1 03b8 0000 0000
00000100: 1f4f 8ab7 3cef a23a 0000 0000 4634 42ba
00000110: d2c4 36ba 0000 0000 7d4f ed3a dfd6 ef39
00000120: 442b 93b6 7118 8433 2ae8 71ba 6526 ac3a
00000130: 0000 0000 700c deba 1e66 a03a 139d 863b
00000140: 0000 0000 c31f 2c3b b8bb 4e3b 1bbc 83b8
00000150: 7905 1db9 50d6 2c39 a324 ab39 a151 9d3a
00000160: b5b2 7433 6b6b db38 4f6c 79b1 8849 01b7
00000170: 5126 4eb4 1f22 c634 ceaf aab8 0000 0000
00000180: 01a2 27b8 3ebd c23b 0000 0000 413f bc3b
00000190: b07d ae38 0000 0000 8eb4 013c 30a8 373b
000001a0: 8c9f fcb7 4562 57b2 bd31 8f3b d472 513c
000001b0: 0000 0000 5f46 003b af00 c93b 8bc3 fc3b
000001c0: 0000 0000 1096 ae3b b810 083c 2a69 a0b8
000001d0: 94dc 233a 84de a03b 9c61 743b f5ca 833b
000001e0: 96b8 6ab1 80a5 0e3b e1d9 9032 b1ca 6e37
000001f0: d2c4 30b4 221a 64b7 1a1b 9eb7 0000 0000
00000200: f325 2237 ab23 3dbc 0000 0000 d3fb 0ebc
00000210: 1fc0 6c39 0000 0000 b0fd 98bc ce6a 81bb
00000220: c905 1c38 7c5c 5db3 d15b 1dbc 3b2c dabc
00000230: 0000 0000 3f3b a7bb e2b9 1fbc 9068 8dbc
00000240: 0000 0000 61ee 38bc f008 80bc 083a 5f38
00000250: 65cb acbb 39ab 56bc c1ea 76bb 50d3 e5bb
00000260: e416 db32 89ef 96ba ff06 85b3 2e6a 3338
00000270: 371a 9434 af10 a6b6 c0fc 2b38 0000 0000

exp_avg_sq f4 [5, 32]
4.2433438e-08 1.0476434e-06 0.0 1.0236326e-06 9.7506225e-09 0.0 6.4189186e-07 2.2234887e-07
1.637162e-09 2.9887908e-11 5.895695e-07 2.0550392e-06 0.0 2.291755e-07 7.5332343e-07 8.3334777e-07
0.0 1.8899739e-07 1.109153e-06 8.173802e-09 8.132091e-08 7.2803425e-07 1.7662062e-07 1.236831e-07
2.3716014e-11 1.0675983e-08 3.7995137e-14 1.081349e-12 1.9423944e-10 7.367261e-08 5.861793e-11 0.0
4.143429e-06 2.0417963e-05 0.0 3.0970623e-05 1.9433652e-07 0.0 8.497443e-06 6.188196e-06
1.803445e-08 2.2422408e-11 1.4350649e-05 4.2706935e-05 0.0 4.345197e-06 2.0947504e-05 1.5220787e-05
0.0 2.02256e-06 2.1358974e-05 3.1921954e-07 1.1384741e-06 1.0900612e-05 2.6204175e-06 1.4038217e-06
8.210817e-08 2.5157064e-07 1.709802e-10 3.019162e-10 1.1905023e-09 7.651101e-06 2.1768959e-10 0.0
2.2577356e-06 3.498031e-05 0.0 3.784398e-05 8.7890146e-07 0.0 1.3028137e-05 5.9322497e-06
4.734537e-08 5.691846e-11 2.4697116e-05 5.642506e-05 0.0 1.16324345e-05 2.021879e-05 1.7216165e-05
0.0 2.6700504e-06 2.7115178e-05 1.8556203e-07 1.6970096e-06 2.8929815e-05 3.5481141e-06 1.9391823e-06
3.27536e-08 1.9795242e-07 8.736559e-13 1.0481383e-11 4.1519552e-09 3.543588e-06 1.1904708e-09 0.0
1.2663048e-06 1.8604434e-05 0.0 2.2659382e-05 1.2458275e-07 0.0 1.0667933e-05 3.4046195e-06
2.0483861e-07 7.8245424e-11 1.19347305e-05 3.673154e-05 0.0 3.2684773e-06 1.3770686e-05 1.5264359e-05
0.0 3.5711662e-06 1.9715251e-05 7.773164e-08 1.7500674e-06 1.2373505e-05 3.2730577e-06 2.1498317e-06
2.56492e-10 2.0747966e-07 2.8301573e-11 3.8283588e-11 4.58721e-09 1.4438605e-06 6.54448e-11 0.0
4.2648885e-06 1.7844339e-05 0.0 3.5105266e-05 1.18996105e-07 0.0 1.737103e-05 4.8520797e-06
2.5632792e-07 5.081909e-10 1.6395852e-05 5.8035905e-05 0.0 4.4645417e-06 1.9476887e-05 2.183933e-05
0.0 5.0082767e-06 2.3944489e-05 3.8321534e-07 2.5654654e-06 1.0816866e-05 4.5048396e-06 3.1883162e-06
5.7951524e-09 3.2045284e-07 3.3167266e-10 3.7297002e-10 1.6588688e-08 6.660856e-06 3.74513e-10 0.0
00000000: 0f40 3633 c19c 8c35 0000 0000 c063 8935
00000010: b183 2732 0000 0000 794e 2c35 cbbe 6e34
00000020: 8402 e130 cb72 032e e842 1e35 4ee9 0936
00000030: 0000 0000 4813 7634 fe37 4a35 39b3 5f35
00000040: 0000 0000 35ef 4a34 35de 9435 c36c 0c32
00000050: a5a2 ae33 226e 4335 1ba5 3d34 c0cd 0434
00000060: b79b d02d 7869 3732 691d 2b29 b42f 982b
00000070: 8b91 552f f235 9e33 f6e6 802e 0000 0000
00000080: c907 8b36 3e47 ab37 0000 0000 74e6 0138
00000090: d1aa 5034 0000 0000 3d90 0e37 33a4 cf36
000000a0: 2dea 9a32 c63a c52d 91c3 7037 3920 3338
000000b0: 0000 0000 f5cc 9136 6cb8 af37 c85c 7f37
000000c0: 0000 0000 51bb 0736 0c2c b337 3361 ab34
000000d0: accd 9835 c6e1 3637 6eda 2f36 f26a bc35
000000e0: 7253 b033 9b0f 8734 a6fe 3b2f edfa a52f
000000f0: 139f a330 3b5d 0037 2c5a 6f2f 0000 0000
00000100: 9a83 1736 d2b7 1238 0000 0000 aaba 1e38
00000110: a6ed 6b35 0000 0000 6c93 5a37 a30d c736
00000120: c958 4b33 7d54 7a2e a72c cf37 f2a9 6c38
00000130: 0000 0000 ed28 4337 859b a937 6f6b 9037
00000140: 0000 0000 1e2f 3336 6775 e337 e73e 4734
00000150: cec4 e335 4eae f237 231c 6e36 e622 0236
00000160: f7ac 0c33 bf8c 5434 8be9 752b f463 382d
00000170: fca8 8e31 61ce 6d36 f89d a330 0000 0000
00000180: e7f5 a935 b810 9c37 0000 0000 a714 be37
00000190: 0cc5 0534 0000 0000 6cfa 3237 eb7a 6436
000001a0: 9cf1 5b34 4210 ac2e 473b 4837 3110 1a38
000001b0: 0000 0000 0358 5b36 a508 6737 f60b 8037
000001c0: 0000 0000 2ba8 6f36 2e62 a537 6ced a633
000001d0: dce3 ea35 cd97 4f37 b4a6 5b36 d445 1036
000001e0: 0a02 8d2f 93c7 5e34 7af1 f82d 7d5f 282e
000001f0: 879d 9d31 abca c135 26ea 8f2e 0000 0000
00000200: 1d1b 8f36 6db0 9537 0000 0000 fe3d 1338
00000210: cd8a ff33 0000 0000 01b8 9137 0ccf a236
00000220: 719d 8934 c1b0 0b30 d389 8937 946b 7338
00000230: 0000 0000 1fce 9536 4c62 a337 9b33 b737
00000240: 0000 0000 c50c a836 66dc c837 b7bc cd34
00000250: 5c2a 2c36 167a 3537 4728 9736 dbf6 5536
00000260: b31e c731 b40a ac34 c756 b62f dd0a cd2f
00000270: e97e 8e32 5180 df36 05e4 cd2f 0000 0000

exp_avg f4 [5]
0.005188384 0.00016956581 0.006946009 0.028120898 -0.0611784
00000000: 5203 aa3b 7acd 3139 599b e33b cc5d e63c
00000010: 3496 7abd

exp_avg_sq f4 [5]
1.3652321e-05 0.00029280147 0.00039374662 0.0002466907 0.00034599286
00000000: 460c 6537 2683 9939 c76f ce39 4456 8139
00000010: 6066 b539

exp_avg f4 [1, 32]
0.00020538778 0.0022427798 0.0 0.0016368895 -0.0009852098 0.0 -0.0036105267 0.0033997367
0.00011236601 4.3449742e-07 -0.007400858 -0.003025167 0.0 -0.009736368 0.0074365716 0.00646504
0.0 0.004018775 0.010022243 0.0010572565 -0.009252445 -0.010609691 0.005233945 0.0029936146
-2.29842e-07 0.005537618 1.5117001e-07 0.000109891385 6.4447136e-07 0.00020167748 0.00013878834 0.0
00000000: 5d5d 5739 9afb 123b 0000 0000 e68c d63a
00000010: 2822 81ba 0000 0000 969e 6cbb 1ece 5e3b
00000020: 0ba6 eb38 df44 e934 e682 f2bb e141 46bb
00000030: 0000 0000 4a85 1fbc 7cae f33b b0d8 d33b
00000040: 0000 0000 eeaf 833b 5534 243c a493 8a3a
00000050: 9197 17bc 45d4 2dbc 8381 ab3b 8530 443b
00000060: 7dca 76b4 e874 b53b 4c51 2234 7d75 e638
00000070: bcff 2c35 6379 5339 b687 1139 0000 0000

exp_avg_sq f4 [1, 32]
1.0610775e-05 1.3225384e-05 0.0 5.5990742e-05 1.8424621e-06 0.0 5.1325924e-06 3.4072912e-06
3.969177e-06 2.8648888e-09 3.3780252e-05 1.673028e-05 0.0 2.5244908e-05 5.5171945e-06 9.531698e-06
0.0 6.387166e-06 1.4170222e-05 2.11123e-06 9.2416385e-06 2.536631e-05 1.1264832e-05 3.476863e-06
8.082506e-08 1.0562554e-06 1.6060893e-09 2.5426323e-09 9.6584145e-08 3.8928824e-06 3.710232e-09 0.0
00000000: ee04 3237 97e2 5d37 0000 0000 9ad7 6a38
00000010: 844a f735 0000 0000 a238 ac36 d1a8 6436
00000020: f92e 8536 a8df 4431 45af 0d38 0158 8c37
00000030: 0000 0000 07c5 d337 5720 b936 55ea 1f37
00000040: 0000 0000 5751 d636 a4bc 6d37 a8ae 0d36
00000050: 890c 1b37 bcc9 d437 16fe 3c37 0d54 6936
00000060: 0c92 ad33 a9c4 8d35 3ebd dc30 76ba 2e31
00000070: b269 cf33 9b9f 8236 17f7 7e31 0000 0000
