modelA2C_player_1.pth (torch, 199758 bytes, 33 tensors)

model.0.weight f4 [64, 6]
-0.15118523 0.29392517 0.14094348 -0.050282903 0.22312775 -0.29965007 -0.29309595 -0.37494636
-0.36034802 0.00041024177 -0.046106014 -0.15239605 -0.10927323 -0.16480353 -0.2274401 -0.35395572
0.38027146 -0.13720489 -0.20309186 -0.2596329 -0.29818255 -0.053442016 0.24359946 0.2587671
-0.15691432 -0.069591105 0.32210997 0.091883525 0.30612308 0.32659942 -0.051003132 0.25441962
-0.19847426 0.3042129 0.3243618 -0.2295647 -0.21770595 0.27540302 -0.040730502 0.23651616
-0.20038031 -0.272809 -0.18522173 -0.30250078 -0.21442793 -0.25656632 0.17780691 -0.3317883
-0.114989206 -0.337462 -0.03706456 0.4021673 0.33507657 0.07613307 0.06856204 -0.08222364
-0.10074951 -0.21395494 -0.24167968 -0.051500145 0.13558635 -0.3263742 0.37917322 -0.14845137
-0.23087908 0.40683094 0.2829321 -0.0763968 0.115460426 0.213552 -0.11893945 0.14354032
-0.39401913 0.12172842 0.3934648 -0.16134594 -0.14368965 -0.16835757 -0.05405083 -0.39667395
0.0736088 0.09514877 -0.2156838 -0.3138687 -0.13624547 -0.16432849 -0.38814235 0.3287242
0.2320683 0.14419772 0.20359834 0.3249673 0.3985595 -0.2173705 0.28555936 0.24489437
-0.117757484 -0.3608302 0.13241583 -0.27182993 0.13987538 0.122452416 -0.31714067 -0.09455846
-0.08625726 -0.15921141 -0.28808632 0.37536284 -0.22106634 0.36503994 0.14565158 -0.07516976
-0.25849074 0.10544195 0.19184361 0.06801054 0.18102227 0.1642822 0.35882735 -0.05085024
-0.14702111 -0.10402666 0.06075544 -0.24071701 -0.2553002 0.26283556 0.15064836 -0.20252684
-0.34415856 0.1850197 0.016471563 -0.05376026 -0.25986907 -0.19470923 0.029423734 0.27153224
-0.34890482 0.074760385 0.17349522 -0.060889464 -0.35717037 0.026243258 -0.07205496 0.29188302
-0.358431 -0.018758098 0.09747949 -0.17750771 -0.09428041 0.1951598 -0.018783517 -0.39853013
0.14210482 -0.05491062 -0.29532394 0.25710756 0.0077212 0.18875043 -0.18197682 -0.37353826
-0.2197906 -0.29876417 0.38288158 -0.19709 -0.32296276 -0.14970262 -0.05768654 0.03178824
-0.17887555 0.19979846 0.14384943 0.3240623 -0.16301492 0.05773356 -0.39611894 0.18740018
0.23550099 0.2388198 -0.21083368 0.0652396 0.18737566 -0.007990179 0.14996998 -0.1634949
-0.34596762 0.058893733 -0.06155897 -0.40887415 -0.23392794 -0.2972096 -0.3194154 0.01973482
-0.1921618 0.014935322 -0.3102916 -0.047410153 -0.27908975 -0.3584351 0.0022247857 -0.16023941
0.03614973 0.2743377 0.04940318 0.31850585 0.057104535 0.12753516 0.32481954 0.08855499
-0.1165191 -0.3516652 -0.06869075 0.33175144 0.060241625 0.07341368 0.15720752 -0.40538675
-0.29655716 -0.15417491 0.11169311 0.26318988 -0.21090019 0.004684029 0.227414 0.20645021
-0.04397034 0.051775783 -0.35671237 -0.23831232 -0.008159895 0.2910906 -0.18346377 0.2522333
0.3006136 -0.3799599 0.012826754 0.2667714 0.040293597 0.07031591 -0.37310904 -0.18243179
-0.060801327 0.33727184 0.29764518 -0.10066048 -0.38262266 -0.147244 0.0206643 0.13681443
-0.33347028 -0.10649975 -0.35620555 -0.1485361 -0.32855836 -0.12453012 0.10898574 -0.25884545
00000000: 4dd0 1abe 5c7d 963e 7d53 103e 72f5 4dbd
00000010: 9a7b 643e bc6b 99be ac10 96be f8f8 bfbe
00000020: 897f b8be b815 d739 a9d9 3cbd b60d 1cbe
00000030: a5ca dfbd 42c2 28be 0fe6 68be af39 b5be
00000040: f1b2 c23e 707f 0cbe 50f7 4fbe 9aee 84be
00000050: 62ab 98be 04e6 5abd 2372 793e 1f7d 843e
00000060: 26ae 20be c885 8ebd 99eb a43e 6e2d bc3d
00000070: 2abc 9c3e 0a38 a73e a9e8 50bd 4a43 823e
00000080: d63c 4bbe cbc1 9b3e c012 a63e 0213 6bbe
00000090: 4fee 5ebe a001 8d3e 07d5 26bd 4b31 723e
000000a0: 7f30 4dbe 9fad 8bbe c4aa 3dbe 62e1 9abe
000000b0: ff92 5bbe a95c 83be 0413 363e 28e0 a9be
000000c0: 767f ebbd d2c7 acbe 02d1 17bd dfe8 cd3e
000000d0: 288f ab3e a8eb 9b3d 416a 8c3d de64 a8bd
000000e0: c255 cebd 0117 5bbe e17a 77be d1f1 52bd
000000f0: 26d7 0a3e 851a a7be fe22 c23e a303 18be
00000100: 916b 6cbe 254c d03e 7adc 903e ed75 9cbd
00000110: 8476 ec3d 60ad 5a3e 8796 f3bd 3cfc 123e
00000120: e0bc c9be c04c f93d 3874 c93e df37 25be
00000130: 6123 13be ed65 2cbe 6764 5dbd d918 cbbe
00000140: 36c0 963d 5cdd c23d 37dc 5cbe 66b3 a0be
00000150: ef83 0bbe ba45 28be 98ba c6be 8a4e a83e
00000160: 50a3 6d3e 91a8 133e 157c 503e 1d62 a63e
00000170: fe0f cc3e 5f96 5ebe d634 923e 97c5 7a3e
00000180: d62a f1bd bcbe b8be 0498 073e 4b2d 8bbe
00000190: 7e3b 0f3e 55c8 fa3d 4360 a2be dea7 c1bd
000001a0: a5a7 b0bd 5108 23be 0d80 93be 8f2f c03e
000001b0: 375f 62be 84e6 ba3e b025 153e 9af2 99bd
000001c0: e658 84be f3f1 d73d a772 443e 1c49 8b3d
000001d0: e75d 393e 9839 283e 38b8 b73e 5748 50bd
000001e0: b48c 16be ee0b d5bd b2da 783d 857e 76be
000001f0: b5b6 82be 6292 863e 9043 1a3e 3263 4fbe
00000200: 8d35 b0be ce75 3d3e 5fef 863c b833 5cbd
00000210: 8f0d 85be db61 47be 0b0a f13c 4606 8b3e
00000220: a7a3 b2be f91b 993d bba8 313e 3b67 79bd
00000230: 09df b6be 1afc d63c 8d91 93bd b171 953e
00000240: 4584 b7be 95aa 99bc 54a3 c73d 95c4 35be
00000250: 1616 c1bd f8d7 473e e4df 99bc 240c ccbe
00000260: ed83 113e f5e9 60bd b334 97be 9aa3 833e
00000270: 1f02 fd3b cb47 413e 2258 3abe 6840 bfbe
00000280: c910 61be 9ef7 98be 0e09 c43e f6d1 49be
00000290: 605b a5be a54b 19be b948 6cbd 6334 023d
000002a0: 272b 37be f897 4c3e 444d 133e 7eeb a53e
000002b0: 62ed 26be 077a 6c3d 1ad0 cabe d5e5 3f3e
000002c0: 2c27 713e 2d8d 743e c9e4 57be 579c 853d
000002d0: 68df 3f3e 3de9 02bc bb91 193e 356b 27be
000002e0: ab22 b1be 8e3a 713d 4225 7cbd f457 d1be
000002f0: ce8a 6fbe db2b 98be 6a8a a3be ebaa a13c
00000300: 10c6 44be 48b3 743c 8ade 9ebe 2631 42bd
00000310: dae4 8ebe ce84 b7be b6cd 113b cd15 24be
00000320: bd11 143d fe75 8c3e fd5a 4a3d 3313 a33e
00000330: 72e6 693d 9498 023e bf4e a63e 525c b53d
00000340: 91a1 eebd 760d b4be bcad 8cbd 53db a93e
00000350: ecbf 763d e959 963d 02fb 203e da8e cfbe
00000360: 57d6 97be 07e0 1dbe 5bbf e43d d3c0 863e
00000370: 38f6 57be 7c7c 993b 37df 683e af67 533e
00000380: 3e1a 34bd d812 543d 01a3 b6be 2508 74be
00000390: 15b1 05bc d409 953e eddd 3bbe b924 813e
000003a0: 07ea 993e 1b8a c2be 4e27 523c 4396 883e
000003b0: e60a 253d ca01 903d 2608 bfbe 66cf 3abe
000003c0: d00a 79bd e5ae ac3e f364 983e 1527 cebd
000003d0: 1ee7 c3be 22c7 16be 2e48 a93c 1519 0c3e
000003e0: 9ebc aabe 8a1c dabd 9360 b6be d919 18be
000003f0: cd38 a8be a609 ffbd ea33 df3d 6487 84be

model.0.bias f4 [64]
-0.27187553 -0.06922805 0.24793164 0.37566593 -0.1603001 -0.23025061 -0.29835683 -0.3674357
-0.11108627 -0.20606257 -0.09865028 -0.21054699 0.3489106 0.22945513 -0.3989905 -0.11843925
0.062821195 0.071285374 0.12624852 0.39596832 -0.32911307 0.18399325 0.32477492 -0.003037468
-0.23028307 0.23956442 -0.028948927 0.32034257 -0.108420745 0.19838244 -0.17165792 -0.21615107
-0.2719233 0.39298862 -0.049676232 -0.3602883 0.2204925 -0.2748203 -0.18219444 -0.37683704
0.090551555 0.1761807 0.07538015 0.36740756 -0.31702697 0.29202095 -0.12197667 0.061030902
0.19396982 -0.027148027 -0.061885785 0.3060433 -0.33560777 -0.39891818 0.34270194 -0.038568456
-0.38555098 0.21342033 -0.28218603 0.3558896 0.27387926 -0.28718123 0.11460865 0.037653487
00000000: 4533 8bbe 70c7 8dbd cbe1 7d3e 4957 c03e
00000010: b625 24be d1c6 6bbe 3ac2 98be 8820 bcbe
00000020: 3381 e3bd 1102 53be 2809 cabd a199 57be
00000030: 69a4 b23e 49f6 6a3e 7c48 ccbe 4790 f2bd
00000040: 66a8 803d 11fe 913d 4b47 013e 5cbc ca3e
00000050: 8281 a8be ba68 3c3e e648 a63e 4210 47bb
00000060: 53cf 6bbe 6050 753e 4d26 edbc f103 a43e
00000070: b20b debd c424 4b3e 18c7 2fbe b556 5dbe
00000080: 8839 8bbe ce35 c93e 4e79 4bbd b577 b8be
00000090: c9c8 613e 3fb5 8cbe 2e91 3abe c9f0 c0be
000000a0: 1873 b93d b768 343e e860 9a3d d81c bc3e
000000b0: 5c51 a2be c583 953e e8ce f9bd 8afb 793d
000000c0: 06a0 463e 8a65 debc f37b 7dbd b5b1 9c3e
000000d0: c8d4 abbe 013f ccbe a176 af3e f5f9 1dbd
000000e0: f066 c5be dc8a 5a3e b07a 90be 2937 b63e
000000f0: e739 8c3e 6b09 93be f1b7 ea3d 8b3a 1a3d

model.2.weight f4 [64, 64]
0.12295454 -0.109359495 -0.086317934 -0.022580806 -0.073257685 0.10005453 -0.03227028 -0.024097048
0.010675727 0.051713772 0.03570696 0.013485213 0.08924311 0.08281872 -0.115706146 -0.0014994272
0.079392016 0.07739226 -0.043405488 0.113683455 0.011286192 -0.013322654 0.05558047 0.03692533
-0.08934784 0.08980809 0.047667433 0.027029764 0.025314085 -0.01350167 -0.023571305 0.09799836
-0.0557224 0.105165996 0.114135586 0.082226254 0.09333871 -0.08952203 -0.04576482 -0.06538201
0.09408778 -0.051805377 -0.06696187 -0.121358156 -0.0061019557 0.063890636 0.0644958 0.06995985
0.06469226 -0.10569039 -0.008525447 0.10085691 -0.004089441 -0.0034251625 -0.094941415 -0.0501198
0.034434352 -0.12466188 0.031030515 -0.0055760443 0.098141894 0.0045884605 -0.030947948 -0.10353742
0.019104626 0.11056742 -0.09798278 -0.035925195 -0.071697116 -0.048412308 -0.09358605 -0.087982304
-0.114212416 0.0005977189 0.033317473 0.08575093 -0.0012233013 -0.060395014 -0.04950384 0.016908621
-0.12203223 0.0507295 0.040162645 0.07115879 -0.06455078 0.0837055 0.11380433 -0.046222042
-0.069043055 0.10483677 -0.020600569 -0.061914686 0.012355329 0.06940164 -0.032503877 0.07291121
-0.041616216 0.10078003 -0.03459428 0.10054064 -0.07765959 -0.08488171 -0.03553725 -0.09801246
-0.10773547 0.12330782 0.069888964 -0.12219216 0.115621254 0.07984812 -0.053972986 -0.06366885
0.09379554 0.009470065 0.054715376 0.12051101 -0.014699206 0.03304354 -0.022186242 0.08456623
-0.115755245 0.109442845 -0.051717505 0.06511338 0.09981524 -0.036355745 0.019308792 -0.021278845
0.08395035 0.021976888 0.015428243 -0.11751061 0.1182774 0.09543003 -0.1259825 -0.019885695
-0.11190399 0.03242679 -0.10810629 0.0016193212 -0.038234774 0.078981385 0.11221293 0.04797172
0.07317937 0.06445134 -0.021339066 0.013978515 0.107827544 -0.11885164 0.086201705 0.037831035
-0.048568837 -0.11260436 0.028602336 -0.039967906 -0.011374081 -0.0052869287 -0.039951697 0.018446272
0.020406324 -0.01997423 -0.07993871 -0.04515762 -0.048614047 0.037085492 -0.10957177 0.10790274
-0.10883844 -0.07740161 -0.05485931 0.00848385 0.03428772 0.042774834 -0.057167783 -0.042645674
-0.07863374 0.0046266173 0.12453933 0.1037514 0.12530357 -0.11822843 0.11096857 -0.0065786312
-0.09115077 0.10917341 0.022953253 0.09807115 -0.024655765 -0.03754122 0.050032914 -0.05157495
0.09772896 -0.007787781 0.007829483 -0.009822618 0.050924532 -0.0131026795 -0.10854848 -0.04302179
-0.122440085 0.10224716 0.043026973 0.113916695 -0.062668145 0.1093298 -0.09496457 0.0703316
-0.10417031 -0.12013827 -0.04779091 -0.09182951 0.08204415 0.065873116 0.0989527 -0.06083144
0.10268842 0.05354354 0.07449714 0.060842577 -0.09631342 0.024136197 -0.10750614 -0.06609417
0.002847863 0.05200305 0.104687124 -0.07434094 0.068556674 0.09987596 -0.06561909 -0.0064612217
0.06491092 -0.016962469 0.06675836 0.11421195 0.07128629 -0.09906634 0.05273978 0.10367456
-0.048549894 0.04753141 0.019820899 0.026078861 -0.066277646 0.034717623 -0.04676632 0.0020670798
-0.079828866 0.0626336 0.11255603 -0.10656532 -0.087630756 -0.011573808 -0.04876617 -0.099039696
00000000: 97cf fb3d dff7 dfbd 75c7 b0bd 62fb b8bc
00000010: 2008 96bd 64e9 cc3d d72d 04bd 2c67 c5bc
00000020: 3fe9 2e3c d2d1 533d 7641 123d 15f1 5c3c
00000030: 17c5 b63d dc9c a93d 58f7 ecbd 6e88 c4ba
00000040: 4898 a23d d57f 9e3d f4c9 31bd dfd2 e83d
00000050: b8e9 383c 4347 5abc 59a8 633d 043f 173d
00000060: 00fc b6bd 4eed b73d ed3e 433d 866d dd3c
00000070: 7c5f cf3c 1c36 5dbc 9c18 c1bc 5db3 c83d
00000080: 2c3d 64bd 4561 d73d ebbf e93d 3d66 a83d
00000090: 5e28 bf3d 5357 b7bd e473 3bbd 01e7 85bd
000000a0: 18b1 c03d e031 54bd 4e23 89bd a08a f8bd
000000b0: eaf2 c7bb 18d9 823d 6016 843d 1c47 8f3d
000000c0: 607d 843d 3474 d8bd 51ae 0bbc 118e ce3d
000000d0: b800 86bb b178 60bb a570 c2bd 6b4a 4dbd
000000e0: 090b 0d3d ba4e ffbd b533 fe3c 40b7 b6bb
000000f0: 9efe c83d cc5a 963b 8d86 fdbc 6d0b d4bd
00000100: 4e81 9c3c 2c71 e23d 32ab c8bd 4c26 13bd
00000110: f0d5 92bd fc4b 46bd 0baa bfbd 1130 b4bd
00000120: 33e8 e9bd 3db0 1c3a e777 083d 2f9e af3d
00000130: 2e57 a0ba c360 77bd 8ac4 4abd f383 8a3c
00000140: 09ec f9bd bcc9 4f3d 9681 243d b3bb 913d
00000150: 3333 84bd ca6d ab3d 3f12 e93d 5353 3dbd
00000160: 7266 8dbd a9b4 d63d 86c2 a8bc 419a 7dbd
00000170: 016e 4a3c 7222 8e3d c922 05bd 7952 953d
00000180: c475 2abd c365 ce3d bbb2 0dbd 40e8 cd3d
00000190: fe0b 9fbd 76d6 adbd 828f 11bd c2ba c8bd
000001a0: 6aa4 dcbd cf88 fc3d f221 8f3d e23f fabd
000001b0: d6ca ec3d 6987 a33d c712 5dbd d064 82bd
000001c0: e017 c03d 5528 1b3c 3b1d 603d 7ace f63d
000001d0: f0d4 70bc aa58 073d ecbf b5bc 0f31 ad3d
000001e0: 1611 edbd 9223 e03d bcd5 53bd 2a5a 853d
000001f0: ef6b cc3d c3e9 14bd 792d 9e3c f950 aebc
00000200: 29ee ab3d e008 b43c bec6 7c3c 67a9 f0bd
00000210: 6c3b f23d d270 c33d 8e01 01be 53e7 a2bc
00000220: eb2d e5bd f4d1 043d d566 ddbd 673f d43a
00000230: 119c 1cbd fec0 a13d e5cf e53d ff7d 443d
00000240: 11df 953d 10ff 833d 44cf aebc 2406 653c
00000250: b0d4 dc3d 7d68 f3bd 858a b03d b7f4 1a3d
00000260: 1ef0 46bd 1d9d e6bd 724f ea3c 63b5 23bd
00000270: 5a5a 3abc f93d adbb 64a4 23bd a31c 973c
00000280: 2a2b a73c ffa0 a3bc e8b6 a3bd 32f7 38bd
00000290: 861f 47bd f5e6 173d 2a67 e0bd 1dfc dc3d
000002a0: b0e6 debd bc84 9ebd 28b4 60bd d9ff 0a3c
000002b0: 4871 0c3d aa34 2f3d c428 6abd 3bad 2ebd
000002c0: ba0a a1bd e19a 973b 7a0e ff3d 9d7b d43d
000002d0: 944f 003e bf21 f2bd 7d43 e33d 8f91 d7bb
000002e0: 41ad babd 4f96 df3d 7608 bc3c 87d9 c83d
000002f0: e3fa c9bc d3c4 19bd 50ef 4c3d 4140 53bd
00000300: 1f26 c83d a430 ffbb 3b47 003c 0cef 20bc
00000310: 3e96 503d 9fac 56bc aa4e debd 9e37 30bd
00000320: dec1 fabd f666 d13d 0d3d 303d 284d e93d
00000330: 2858 80bd 4de8 df3d c97c c2bd 040a 903d
00000340: 3e57 d5bd 0e0b f6bd 67c0 43bd 1c11 bcbd
00000350: c306 a83d 7ce8 863d b7a7 ca3d 632a 79bd
00000360: 4e4e d23d 7950 5b3d f591 983d 1136 793d
00000370: f83f c5bd 46b9 c53c 2e2c dcbd 615c 87bd
00000380: 36a3 3a3b 2601 553d 3466 d63d 1040 98bd
00000390: 7167 8c3d c48b cc3d 4d63 86bd a8b8 d3bb
000003a0: 04f0 843d e0f4 8abc 9bb8 883d f4e7 e93d
000003b0: 8cfe 913d 4be3 cabd ab05 583d 5453 d43d
000003c0: 41dc 46bd 4cb0 423d 705f a23c 56a3 d53c
000003d0: 93bc 87bd 1134 0e3d 0a8e 3fbd d877 073b
000003e0: 517d a3bd 0b46 803d c783 e63d eb3e dabd
000003f0: c177 b3bd 12a0 3dbc 09bf 47bd 53d5 cabd

model.2.bias f4 [64]
0.014202808 -0.00081221276 0.040549103 0.079662785 -0.111598596 0.045269396 -0.06689624 -0.12536931
-0.054077454 -0.0791513 -0.049455136 0.08319427 -0.013593274 -0.04988648 0.09863102 -0.030258369
0.09818171 0.118544064 0.035315618 0.069545925 -0.008925864 0.039269038 0.1002036 0.016889151
-0.090737775 0.047344696 0.12064508 0.106302306 0.036355145 -0.036781155 -0.06756038 0.022540169
-0.038906537 -0.05043009 -0.023768622 -0.11363159 -0.073730096 -0.08590091 -0.10381639 0.119578086
-0.12294842 0.026241725 0.10381772 -0.00068615115 -0.060688585 -0.0325588 0.023064172 0.069125645
-0.05527605 0.118845604 -0.1259308 -0.037200537 -0.025919773 0.0644906 -0.07513277 -0.033442326
0.03333624 0.053080577 -0.06899156 -0.021655416 0.008500261 0.073039 0.0037881092 -0.012969902
00000000: e5b2 683c adea 54ba d116 263d 3e26 a33d
00000010: ce8d e4bd 676c 393d e500 89bd d060 00be
00000020: 5280 5dbd 141a a2bd 7891 4abd c261 aa3d
00000030: 53b6 5ebc c455 4cbd 0fff c93d 66e0 f7bc
00000040: 7e13 c93d 3bc7 f23d 1ca7 103d 186e 8e3d
00000050: c93d 12bc 92d8 203d 8c37 cd3d 1e5b 8a3c
00000060: bad4 b9bd 83ec 413d c514 f73d 06b5 d93d
00000070: 22e9 143d d6a7 16bd 195d 8abd 29a6 b83c
00000080: 765c 1fbd c88f 4ebd 6ab6 c2bc aeb7 e8bd
00000090: ceff 96bd d1ec afbd b09d d4bd 5be5 f43d
000000a0: 62cc fbbd e3f8 d63c 639e d43d d3de 33ba
000000b0: 9894 78bd 605c 05bd 13f1 bc3c bf91 8d3d
000000c0: 2469 62bd 5365 f33d 01f4 00be 975f 18bd
000000d0: b455 d4bc a613 843d 36df 99bd d2fa 08bd
000000e0: 958b 083d 056b 593d 724b 8dbd b366 b1bc
000000f0: ae44 0b3c 7995 953d ed41 783b b67f 54bc

model.4.weight f4 [6, 64]
0.06990602 -0.04443816 -0.040131085 0.08811587 -0.059347775 -0.016768374 0.10003068 -0.026287291
0.082099594 -0.035874903 -0.097704016 0.073166855 -0.035221275 0.05105644 0.014649726 0.067419745
-0.0068693687 -0.10687599 0.077277236 -0.1117095 0.103823096 -0.050996292 -0.11222922 0.06930845
-0.054162174 0.1169205 0.04257651 0.054953396 0.04420106 -0.017893089 0.10663139 -0.039410397
0.09806484 -0.103995845 0.028168807 0.061096836 0.038028903 0.08951004 -0.09803719 0.03587882
-0.05078434 -0.07945376 0.11159981 0.013045264 -0.08109155 0.04066573 0.00042856473 0.08512429
-0.008371271 0.088709936 0.050997883 0.030714674 0.06735552 0.06698305 -0.03108905 -0.111930326
-0.06284554 -0.11638935 -0.053952094 -0.07279047 -0.11391481 -0.05511531 -0.037135895 -0.02600607
0.023390166 0.104499236 0.119984426 -0.08551092 -0.055653 0.04308032 0.12207728 0.01705548
0.013770663 0.11490281 0.04635217 0.006063201 0.051125336 0.048167467 0.10305019 0.08091266
-0.11213328 -0.0073568085 0.050866403 -0.11132783 0.02654895 -0.119809374 -0.022442954 0.04052892
-0.12411495 -0.06477656 -0.053073026 0.10808454 0.12043729 0.10608143 0.066372186 -0.09147849
-0.012945027 -0.013305025 -0.008151435 0.052685987 0.11803915 -0.042311475 -0.064984515 0.048971236
-0.08242792 -0.12131983 0.091431655 0.10817799 0.11545783 -0.09386988 -0.02853046 0.064134724
0.11103035 0.089104936 -0.11982609 0.11293648 0.04892709 -0.038551804 0.123098575 0.117800355
0.039690986 -0.011530943 0.052599702 -0.07647618 0.10831295 0.030612538 -0.09169677 -0.0024762591
0.07388222 -0.00040868382 0.08977133 0.033135448 -0.03371764 -0.08344849 -0.042144753 0.06438186
-0.020174615 -0.06985928 0.035240095 0.0450261 0.123209074 -0.009633304 0.11761911 0.031866778
0.00567257 0.039830044 -0.024297133 -0.027159542 -0.10950559 0.0516449 -0.06433572 0.019411525
-0.0030241103 0.011946009 -0.069225065 -0.118882045 0.10705685 -0.054145716 0.038265742 -0.12074098
0.031355325 0.11968485 -0.08793012 -0.08149461 0.012834908 0.109745234 0.0132541405 -0.0856481
-0.108969435 -0.030504145 0.07632331 0.010146364 0.038146663 0.123752296 0.0282553 0.02439857
-0.10321915 0.11615262 0.08028969 -0.045367558 -0.025588537 -0.0019167024 -0.03861047 -0.1157175
-0.04640877 0.028212998 0.07262386 -0.044843618 0.08554645 -0.079057045 0.009484411 -0.05557719
0.07146446 0.10880521 -0.0047392743 0.0813996 -0.008424628 -0.07439936 0.11313046 0.028939424
0.10122635 -0.026023477 0.09972058 0.06833499 0.0372663 -0.025003502 -0.030282637 -0.08939856
0.099840954 -0.001378763 0.124099344 0.086550266 -0.09127646 0.057964124 -0.06759479 -0.03525046
0.09356754 -0.03441132 -0.027700804 -0.036312327 -0.019618891 0.0011248135 0.10763505 0.09064622
0.0043277433 -0.047417935 -0.11930527 -0.003307457 -0.08758012 -0.067868106 0.048933767 -0.039226796
0.076239415 0.06591854 -0.08669581 -0.05747912 0.008939674 0.018369418 0.09583197 -0.12130621
0.07656766 -0.03096796 -0.071214825 -0.07513838 -0.11500898 0.064043425 0.046479996 -0.114569925
-0.030213617 0.08939267 0.04511868 -0.039977364 -0.00755343 -0.1138572 -0.10221371 0.10148976
00000000: e32a 8f3d ca04 36bd 7e60 24bd 1876 b43d
00000010: a716 73bd d45d 89bc e3dc cc3d 7258 d7bc
00000020: d523 a83d 90f1 12bd 0b19 c8bd 81d8 953d
00000030: 2f44 10bd 8f20 513d 6805 703c 5d13 8a3d
00000040: 7118 e1bb cde1 dabd 8743 9e3d f3c7 e4bd
00000050: 34a1 d43d 7de1 50bd 6fd8 e5bd 97f1 8d3d
00000060: 28d9 5dbd 0474 ef3d b564 2e3d d016 613d
00000070: 2c0c 353d 8794 92bc 8f61 da3d cc6c 21bd
00000080: 38d6 c83d c6fb d4bd 45c2 e63c ad40 7a3d
00000090: 32c4 1b3d 0a51 b73d b9c7 c8bd abf5 123d
000000a0: 3d03 50bd a7b8 a2bd 718e e43d cebb 553c
000000b0: 5413 a6bd 1c91 263d fcb0 e039 a555 ae3d
000000c0: a827 09bc 8ead b53d 28e3 503d 579d fb3c
000000d0: b1f1 893d 692e 893d 77ae febc ba3b e5bd
000000e0: 2ab5 80bd 8a5d eebd dffc 5cbd 2c13 95bd
000000f0: 2b4c e9bd 97c0 61bd cf1b 18bd af0a d5bc
00000100: bc9c bf3c b203 d63d 65ba f53d 5920 afbd
00000110: 66f4 63bd fd74 303d a703 fa3d efb7 8b3c
00000120: 599e 613c 2a52 eb3d c6db 3d3d d1ad c63b
00000130: cd68 513d 404b 453d fa0b d33d 89b5 a53d
00000140: 22a6 e5bd 6211 f1bb 4a59 503d d8ff e3bd
00000150: 2f7d d93c 9e5e f5bd 49da b7bc a701 263d
00000160: fb2f febd 93a9 84bd 1a63 59bd 6d5b dd3d
00000170: d3a7 f63d 3941 d93d 24ee 873d 1359 bbbd
00000180: 6117 54bc 52fd 59bc 998d 05bc 43cd 573d
00000190: 83be f13d cc4e 2dbd 9a16 85bd 1096 483d
000001a0: f8cf a8bd 8876 f8bd 8540 bb3d 6c8c dd3d
000001b0: 2875 ec3d da3e c0bd b6b8 e9bc 1159 833d
000001c0: e163 e33d a67c b63d 6267 f5bd 3e4b e73d
000001d0: c667 483d 7fe8 1dbd 1b1b fc3d 5041 f13d
000001e0: 0493 223d 48ec 3cbc c972 573d 8b9f 9cbd
000001f0: 2ed3 dd3d 25c7 fa3c 84cb bbbd bc48 22bb
00000200: 904f 973d 9d44 d6b9 08da b73d 09b9 073d
00000210: 821b 0abd 0be7 aabd fa9f 2cbd a3da 833d
00000220: 3c45 a5bc 6212 8fbd eb57 103d 4a6d 383d
00000230: 0a55 fc3d 01d5 1dbc 4ae2 f03d bd86 023d
00000240: f7e0 b93b d424 233d c80a c7bc b07d debc
00000250: 7744 e0bd 9a89 533d 72c2 83bd eb04 9f3c
00000260: 2730 46bb 31b9 433c dfc5 8dbd 6e78 f3bd
00000270: 9f40 db3d e6c7 5dbd 8abc 1c3d 0c47 f7bd
00000280: 716e 003d 551d f53d b514 b4bd a5e6 a6bd
00000290: 8249 523c 1cc2 e03d e527 593c 4568 afbd
000002a0: 5e2b dfbd d4e3 f9bc 654f 9c3d ef3c 263c
000002b0: ad3f 1c3d d871 fd3d a977 e73c 83df c73c
000002c0: 9064 d3bd 6de1 ed3d ec6e a43d 55d3 39bd
000002d0: 0d9f d1bc dc39 fbba 0326 1ebd 4cfd ecbd
000002e0: 1f17 3ebd f21e e73c d1bb 943d f1ad 37bd
000002f0: fa32 af3d a9e8 a1bd 8164 1b3c e8a4 63bd
00000300: f55b 923d 44d5 de3d ea4b 9bbb d5b4 a63d
00000310: 7307 0abc b15e 98bd f1b0 e73d 5f12 ed3c
00000320: c34f cf3d 302f d5bc 4e3a cc3d 37f3 8b3d
00000330: 8ca4 183d 25d4 ccbc 4b13 f8bc 9816 b7bd
00000340: 6a79 cc3d 9cb7 b4ba cc27 fe3d 4441 b13d
00000350: 27ef babd ca6b 6d3d 236f 8abd c962 10bd
00000360: 57a0 bf3d e2f2 0cbd ccec e2bc 3cbc 14bd
00000370: ccb7 a0bc 7a6e 933a c46f dc3d baa4 b93d
00000380: becf 8d3b 4f39 42bd 5256 f4bd ecc1 58bb
00000390: 355d b3bd 6ffe 8abd c66e 483d 47ac 20bd
000003a0: 6923 9c3d 4d00 873d 938d b1bd 3a6f 6bbd
000003b0: b677 123c 767b 963c 8d43 c43d 646f f8bd
000003c0: 81cf 9c3d 85b0 fdbc 14d9 91bd 27e2 99bd
000003d0: d489 ebbd 3329 833d cf61 3e3d a3a3 eabd
000003e0: 8c82 f7bc 8113 b73d 5dce 383d 4ebf 23bd
000003f0: c382 f7bb f72d e9bd 6c55 d1bd ddd9 cf3d

model.4.bias f4 [6]
0.12024761 -0.056637395 0.0684813 0.07534093 0.12075552 0.07552734
00000000: 6144 f63d 9dfc 67bd ec3f 8c3d 584c 9a3d
00000010: ac4e f73d 14ae 9a3d

model.0.weight f4 [64, 96]
-0.028944938 0.05241197 -0.029041033 -0.0028959513 -0.040973708 -0.051699758 -0.098606125 0.034516826
-0.051627927 -0.028483868 -0.069586396 -0.061954353 0.06480811 -0.015836844 -0.098133035 -0.06364029
-0.051483646 -0.013699147 0.09724188 -0.08592054 0.008221736 -0.09084165 0.07779429 0.019992543
0.09174227 -0.024533983 -0.026830105 0.077342056 0.004285992 -0.0032629468 0.03791911 -0.0030971072
0.10125353 -0.09614984 0.01730918 0.0021758224 0.07219835 0.030636126 0.02128884 0.09053707
-0.09514197 -0.08067633 -0.03263391 0.051105026 0.036545835 0.05265073 0.06612027 0.05040247
0.0035540038 0.0294546 0.039085824 -0.05174395 0.049686354 -0.049343407 0.03809 -0.015916724
0.0088677425 -0.09890857 0.005866829 -0.08912781 -0.022037646 0.031374928 -0.08749361 -0.054213822
0.05076945 -0.04024015 0.07492738 -0.048554648 0.022516886 -0.012450204 0.06417978 0.043305784
-0.033604935 0.069406606 4.4162094e-05 -0.026318306 -0.07523575 0.057763442 0.0003064682 0.08895621
-0.08104343 -0.07939021 0.06824062 0.076745346 0.011474571 0.08515369 0.007895969 -0.018443756
0.024808262 -0.042483054 0.050538227 -0.09895342 -0.02271873 0.027756661 -0.0082135415 -0.056812763
0.08130142 0.027960079 -0.055868085 0.049123377 0.035460386 0.009066634 -0.050509106 0.057099994
-0.06848059 -0.08111389 0.03148589 -0.01663876 0.09353316 -0.065219335 0.040565908 0.007998534
-0.02036023 -0.09280183 0.031165812 -0.025455493 0.09173193 0.06005037 -0.10386677 0.049089503
-0.055779383 -0.09927156 0.077310614 -0.050957408 0.07442919 -0.05707873 -0.010006016 -0.04217431
-0.032409396 -0.04099327 0.08709227 0.031188602 -0.0065170177 0.08636053 0.09360358 -0.09798306
0.06428086 -0.094903775 0.0641544 0.06995075 -0.08234278 -0.02691328 -0.06497115 -0.016619213
0.05085773 0.0769052 0.09317895 -0.028944202 0.037026946 0.09086377 0.055001106 -0.09571997
0.03178042 0.08708533 0.08019784 0.03160312 -0.08317951 0.05286007 -0.086143345 -0.01709381
0.031701796 0.09672075 -0.018419448 0.058678944 0.017128814 0.026521754 -0.07540899 0.072124526
0.035920143 -0.044013686 -0.07872509 -0.0979753 0.05850638 -0.025292093 0.040617 -0.018302834
-0.08422936 -0.08389163 -0.011157963 0.0904494 -0.06480009 -0.03884462 -0.07316825 0.027198596
-0.09410863 -0.013429844 0.07191044 -0.04222576 -0.09761464 0.031082649 -0.052711867 0.037077088
0.06489198 -0.022547364 0.06340884 0.089984946 -0.06399261 -0.001228042 0.028164193 0.020967174
-0.06837547 0.09292918 0.0143607585 0.08800489 0.084954575 -0.011478705 -0.07476822 -0.06406987
-0.09071059 -0.07999617 0.042202715 -0.0057633924 0.059353717 0.016611535 -0.085161336 0.09805823
-0.017480412 0.07392361 -0.08655646 0.09242714 0.066138916 0.06813465 0.030393861 0.03373698
-0.010281265 -0.018556738 -0.069750525 0.0028781206 -0.05483202 0.07667333 -0.08173157 -0.025687182
-0.05609373 0.09979497 0.024353659 0.0751823 0.04342548 -0.021906871 -0.042534612 -0.08894111
0.02528945 0.04290533 -0.015549893 0.008122459 0.016928341 0.06117512 -0.083546914 -0.0114746755
0.09049832 -0.010280262 0.016071472 -0.032676153 0.06950019 0.10284745 0.0955107 -0.015094231
00000000: ef1d edbc efad 563d 76e7 edbc 00ca 3dbb
00000010: 0cd4 27bd 20c3 53bd 02f2 c9bd 8461 0d3d
00000020: ce77 53bd 0057 e9bc 5083 8ebd d9c3 7dbd
00000030: 1dba 843d 45bc 81bc f9f9 c8bd d755 82bd
00000040: 84e0 52bd 6372 60bc c026 c73d 1cf7 afbd
00000050: 76b4 063c 300b babd 9d52 9f3d 67c7 a33c
00000060: 5fe3 bb3d 7efb c8bc cfca dbbc 8365 9e3d
00000070: 8271 8c3b 2ad7 55bb 1251 1b3d d6f8 4abb
00000080: 035e cf3d 35ea c4bd fbcb 8d3c 3e98 0e3b
00000090: bbdc 933d 9df8 fa3c ef65 ae3c 806b b93d
000000a0: cbd9 c2bd a239 a5bd 23ab 05bd 8153 513d
000000b0: 16b1 153d 4ba8 573d 106a 873d d272 4e3d
000000c0: 4aea 683b c64a f13c 7518 203d 77f1 53bd
000000d0: eb83 4b3d 501c 4abd 4304 1c3d ca63 82bc
000000e0: 024a 113c 9490 cabd 873e c03b a488 b6bd
000000f0: 4b88 b4bc ff82 003d da2f b3bd 500f 5ebd
00000100: a0f3 4f3d dbd2 24bd 8773 993d 3de1 46bd
00000110: 5575 b83c f1fb 4bbc b070 833d 6861 313d
00000120: 54a5 09bd 0d25 8e3d b03a 3938 7d99 d7bc
00000130: 3315 9abd 5c99 6c3d 77ad a039 ac2e b63d
00000140: 19fa a5bd 5697 a2bd bdc1 8b3d aa2c 9d3d
00000150: d7ff 3b3c 0f65 ae3d 185e 013c 5c17 97bc
00000160: b23a cb3c b602 2ebd 2c01 4f3d 17a8 cabd
00000170: a11c babc f061 e33c 1792 06bc 80b4 68bd
00000180: 5c81 a63d 890c e53c efd5 64bd 9835 493d
00000190: e93e 113d 388c 143c a3e2 4ebd afe1 693d
000001a0: 8d3f 8cbd 0a1f a6bd 59f7 003d 024e 88bc
000001b0: 508e bf3d b791 85bd 7028 263d 480c 033c
000001c0: 7fca a6bc e30e bebd 724f ff3c 0a88 d0bc
000001d0: f3dd bb3d 60f7 753d 1ab8 d4bd 1312 493d
000001e0: ec78 64bd e34e cbbd 0755 9e3d b7b8 50bd
000001f0: 556e 983d 63cb 69bd 46f0 23bc f8be 2cbd
00000200: b7bf 04bd 8fe8 27bd 6f5d b23d 3d7f ff3c
00000210: b58c d5bb cadd b03d 3cb3 bf3d 58ab c8bd
00000220: afa5 833d e95c c2bd 6263 833d 5742 8f3d
00000230: 55a3 a8bd 3d79 dcbc 980f 85bd 0425 88bc
00000240: 3250 503d 7980 9d3d 9bd4 be3d 641c edbc
00000250: 91a9 173d c916 ba3d d748 613d d508 c4bd
00000260: 302c 023d cb59 b23d c43e a43d 4672 013d
00000270: 055a aabd cd83 583d ec6b b0bd 5108 8cbc
00000280: bed9 013d 8715 c63d 62e4 96bc 5559 703d
00000290: ba51 8c3c 2644 d93c 0770 9abd 06b6 933d
000002a0: 0021 133d b247 34bd 9f3a a1bd 46a7 c8bd
000002b0: 63a4 6f3d 5d31 cfbc 035e 263d d3ef 95bc
000002c0: 7180 acbd 60cf abbd e4cf 36bc 893d b93d
000002d0: e9b5 84bd 891b 1fbd 3cd9 95bd 97cf de3c
000002e0: 07bc c0bd d908 5cbc c845 933d ebf4 2cbd
000002f0: 2fea c7bd 0aa1 fe3c 66e8 57bd 25de 173d
00000300: 16e6 843d 40b5 b8bc 7edc 813d 074a b83d
00000310: 8f0e 83bd 40f6 a0ba 98b8 e63c 5ac3 ab3c
00000320: 7008 8cbd a751 be3d 6349 6b3c e83b b43d
00000330: aafc ad3d 2e11 3cbc 1520 99bd 1037 83bd
00000340: 79c6 b9bd 08d5 a3bd c1dc 2c3d d7da bcbb
00000350: e21c 733d ea14 883c 1169 aebd c1d2 c83d
00000360: 1533 8fbc 4365 973d 8344 b1bd 714a bd3d
00000370: d773 873d 2e8a 8b3d 8cfc f83c ca2f 0a3d
00000380: c072 28bc 4d04 98bc 5dd9 8ebd da9e 3c3b
00000390: 8a97 60bd e806 9d3d e262 a7bd ed6d d2bc
000003a0: 8ac2 65bd 4e61 cc3d 5381 c73c 2df9 993d
000003b0: ebde 313d 0a76 b3bc c638 2ebd c226 b6bd
000003c0: d22b cf3c 80bd 2f3d fac4 7ebc 1014 053c
000003d0: 4ead 8a3c c392 7a3d a51a abbd 4700 3cbc
000003e0: 2f57 b93d 8b6e 28bc 52a8 833c 6ed7 05bd
000003f0: 1e56 8e3d afa1 d23d 1d9b c33d cb4d 77bc

model.0.bias f4 [64]
-0.07038762 -0.08780871 -0.012466594 0.08110408 0.028903669 -0.090472676 0.094438314 -0.06190779
0.06134377 -0.075891145 0.06380682 -0.07152928 0.024041036 0.037655618 0.072258666 -0.09605794
0.049077623 0.013813755 0.050020732 0.01340774 -0.06284857 0.043527428 0.00936184 0.074058495
0.09357712 -0.04804102 0.02976782 0.03816252 0.015687501 0.06704471 -0.0029629674 -0.086101405
-0.039819855 0.057761945 -0.08839679 -0.08793312 -0.04902919 -0.058015846 0.07160011 0.011468873
-0.06506164 0.0083625335 -0.09556957 0.057678223 0.0068631633 0.0051470045 0.034111146 -0.033984665
0.052051418 -0.02527298 -0.093631364 -0.06356095 0.0900245 -0.099155255 -0.08520078 0.027520116
-0.055780523 0.030929055 0.016960446 0.04644746 -0.07760801 0.011843999 0.076314345 -0.0027487222
00000000: 6227 90bd 0ed5 b3bd af40 4cbc e519 a63d
00000010: 63c7 ec3c bd49 b9bd e068 c13d 0693 7dbd
00000020: 9b43 7b3d d16c 9bbd 26ad 823d f17d 92bd
00000030: b5f1 c43c c73c 1a3d 5afc 933d 06ba c4bd
00000040: 9e05 493d 1653 623c 8ae2 4c3d 23ac 5b3c
00000050: c0b6 80bd d149 323d 6762 193c fbab 973d
00000060: 5ca5 bf3d a9c6 44bd a5db f33c 4d50 1c3d
00000070: 1383 803c bd4e 893d 582e 42bb ef55 b0bd
00000080: 251a 23bd ca97 6c3d 6009 b5bd 4816 b4bd
00000090: d5d2 48bd 06a2 6dbd 14a3 923d f1e7 3b3c
000000a0: 0a3f 85bd 0203 093c fbb9 c3bd 0040 6c3d
000000b0: 63e4 e03b 34a8 a83b 21b8 0b3d 8133 0bbd
000000c0: de33 553d 4809 cfbc cdc1 bfbd 3e2c 82bd
000000d0: c45e b83d e911 cbbd bf7d aebd de71 e13c
000000e0: 1e7a 64bd ee5e fd3c a2f0 8a3c b13f 3e3d
000000f0: f3f0 9ebd 550d 423c b24a 9c3d e823 34bb

model.2.weight f4 [64, 64]
-0.096911244 0.059760273 -0.0648651 -0.07252955 -0.08110615 0.04291296 -0.05140442 0.102350295
-0.111779 -0.072579995 0.09800557 -0.081637986 -0.0044728694 -0.08394279 -0.07111593 -0.10501034
0.033255782 0.0035434938 -0.0068710386 -0.025024902 0.08322757 0.07959722 0.029953402 -0.06281854
-0.09673354 0.011307956 0.03958102 -0.015447524 -0.09428247 -0.09512164 0.10127081 -0.067459196
0.0877835 -0.0012543626 -0.012143047 -0.010850637 0.08587023 0.08465144 -0.12021391 0.093938254
0.03258787 0.10875796 0.048017044 -0.034692578 -0.09657275 0.028082056 0.03299246 -0.102528416
-0.10017944 0.02931931 -0.076015785 -0.036851224 0.07992056 0.11918625 0.04612223 0.045410004
-0.04790638 -0.083262764 0.1034587 0.08393528 -0.022055283 0.0019897618 0.089262456 0.08857938
0.040773142 -0.027820066 0.082187586 -0.028328868 0.08046301 0.11000493 0.0327242 -0.040063255
-0.10776896 -0.024278617 0.055163592 0.022754196 -0.03708291 -0.07147057 0.055097446 -0.05578673
-0.08636455 -0.021636192 -0.09003191 -0.10143329 0.052797344 0.0033375951 0.016905138 -0.075357206
0.075024225 0.06569291 0.014024207 -0.10433133 -0.108129896 0.04748212 0.11620246 -0.06365268
-0.12080626 0.10645702 -0.025957542 0.06374409 -0.048529204 0.103521585 0.019238545 -0.09498728
0.08944273 0.05341275 -0.04954195 0.113401406 0.045595374 0.09388394 0.03793771 0.0055004642
0.017521761 -0.11368114 -0.045500483 -0.051863186 -0.0011407016 -0.012175045 -0.10522987 -0.109794006
-0.08726315 -0.11059538 -0.0032230504 -0.0637857 -0.07028088 0.07177102 0.0022939602 -0.010917097
-0.0055598756 -0.08497318 0.11113591 0.030685177 -0.083417945 -0.02090293 -0.01604561 -0.019284286
-0.0036448871 0.057706516 -0.04989698 -0.021211052 0.072628126 -0.08613969 0.100920565 -0.002750597
0.012405631 -0.06119127 -0.10626515 0.037454244 -0.042547036 0.07544367 -0.06920699 0.033355862
0.0834706 -0.008758577 -0.10731257 0.067209296 0.08879504 -0.038998775 -0.113268405 -0.06754022
-0.04682767 -0.02467719 -0.070752665 -0.11890645 -0.031578403 -0.013534783 -0.10522222 0.055625886
-0.01610266 -0.04953218 -0.10969787 -0.0004446896 0.1183339 -0.12011522 0.0667596 -0.027500719
-0.073247544 0.109349355 0.027802024 0.09174778 0.11004262 0.11380649 0.061440874 -0.021061357
-0.08085096 0.10033426 0.08377644 0.038247664 0.03264541 -0.044791758 -0.107937224 -0.104770765
-0.012698996 -0.071288005 0.056235895 -0.1101439 0.09569131 0.10692917 -0.068580806 0.032696266
-0.08253338 0.04124298 -0.0798146 0.0059073707 -0.06043498 0.10707475 -0.033760525 -0.04657108
0.018418727 -0.06983967 0.07217677 0.06360488 -0.014499399 0.011217996 0.077761285 0.10435214
0.08942091 -0.065917164 -0.09811125 0.09279971 0.05862063 0.0060730795 0.11639335 -0.05885283
0.0573879 0.11392182 -0.01759959 0.054345686 -0.032973226 -0.1142051 0.024900649 -0.0716036
-0.072295204 0.06562458 -0.076437384 -0.03865869 -0.08853033 0.005008892 0.041967146 -0.12430181
0.056168806 -0.050249863 -0.026542073 -0.058551356 -0.0025810834 0.05700045 -0.064676456 -0.07811307
0.07074314 -0.054933976 -0.09319724 0.12243145 0.0609669 -0.121240765 0.027835596 0.06600006
00000000: 6779 c6bd 30c7 743d fed7 84bd 5f8a 94bd
00000010: fb1a a6bd 80c5 2f3d 718d 52bd 089d d13d
00000020: 63ec e4bd d2a4 94bd 25b7 c83d d131 a7bd
00000030: 2691 92bb 33ea abbd 3ba5 91bd a90f d7bd
00000040: 3737 083d f639 683b 7326 e1bb 0601 cdbc
00000050: 3773 aa3d de03 a33d d660 f53c 02a7 80bd
00000060: 3c1c c6bd 0145 393c b51f 223d 9d17 7dbc
00000070: 2b17 c1bd 22cf c2bd 1267 cf3d 0c28 8abd
00000080: d6c7 b33d 6d69 a4ba a1f3 46bc dfc6 31bc
00000090: bbdc af3d bc5d ad3d b632 f6bd b362 c03d
000000a0: dc7a 053d 7ebc de3d 85ad 443d ce19 0ebd
000000b0: efc7 c5bd 570c e63c 1a23 073d 6bfa d1bd
000000c0: e12a cdbd 0d2f f03c 2aae 9bbd 4ff1 16bd
000000d0: 64ad a33d ec17 f43d aaea 3c3d d7ff 393d
000000e0: 7b39 44bd ab85 aabd 28e2 d33d 43e6 ab3d
000000f0: 48ad b4bc aa66 023b 3ccf b63d 1b69 b53d
00000100: bd01 273d e8e6 e3bc f751 a83d f111 e8bc
00000110: cac9 a43d 444a e13d d009 063d 5e19 24bd
00000120: f9b5 dcbd f3e3 c6bc 38f3 613d 0267 ba3c
00000130: 40e4 17bd 2a5f 92bd dcad 613d a080 64bd
00000140: e6df b0bd 623e b1bc a662 b8bd 42bc cfbd
00000150: 0742 583d 8ebb 5a3b a57c 8a3c e154 9abd
00000160: 4da6 993d 018a 863d cac5 653c aaab d5bd
00000170: 3573 ddbd 9d7c 423d 8efb ed3d 565c 82bd
00000180: 4669 f7bd 2306 da3d e9a4 d4bc 438c 823d
00000190: 8fc6 46bd 2003 d43d 279a 9d3c b188 c2bd
000001a0: c02d b73d 54c7 5a3d 80ec 4abd ff3e e83d
000001b0: 37c2 3a3d 3946 c03d 9264 1b3d 3d3d b43b
000001c0: cc89 8f3c a8d1 e8bd b75e 3abd 7e6e 54bd
000001d0: 9883 95ba d779 47bc c282 d7bd aedb e0bd
000001e0: 06b7 b2bd d57f e2bd d039 53bb 14a2 82bd
000001f0: 6cef 8fbd affc 923d 4456 163b a0dd 32bc
00000200: 9e2f b6bb 6b06 aebd 399b e33d 7b5f fb3c
00000210: 07d7 aabd 9f3c abbc 1572 83bc 14fa 9dbc
00000220: 0fdf 6ebb ab5d 6c3d c760 4cbd cdc2 adbc
00000230: 0ebe 943d 016a b0bd 71af ce3d 5c43 34bb
00000240: fd40 4b3c b2a3 7abd 8ba1 d9bd 9f69 193d
00000250: cd45 2ebd 3682 9a3d 65bc 8dbd 28a0 083d
00000260: a2f2 aa3d 2280 0fbc b1c6 dbbd 07a5 893d
00000270: 2dda b53d 2ebd 1fbd 44f9 e7bd 8752 8abd
00000280: 5fce 3fbd d227 cabc c6e6 90bd 3a85 f3bd
00000290: 5b58 01bd ffc0 5dbc bf7e d7bd f8d7 633d
000002a0: bae9 83bc 41e2 4abd 47a9 e0bd 3a25 e9b9
000002b0: 0b59 f23d f8fe f5bd 42b9 883d 3049 e1bc
000002c0: cf02 96bd 8ef2 df3d 12c1 e33c 43e6 bb3d
000002d0: 065e e13d 6113 e93d 6da9 7b3d de88 acbc
000002e0: 3095 a5bd 0c7c cd3d fb92 ab3d 95a9 1c3d
000002f0: 32b7 053d 9077 37bd 310e ddbd 0e92 d6bd
00000300: 730f 50bc 72ff 91bd 9c57 663d 2093 e1bd
00000310: cef9 c33d aefd da3d 1874 8cbd 85ec 053d
00000320: 4307 a9bd 66ee 283d d675 a3bd 9e92 c13b
00000330: ab8a 77bd 024a db3d 7a48 0abd 51c1 3ebd
00000340: dfe2 963c 1a08 8fbd 6ad1 933d 4643 823d
00000350: e38e 6dbc afcb 373c 4f41 9f3d 93b6 d53d
00000360: 4f22 b73d 94ff 86bd 8dee c8bd c60d be3d
00000370: 301c 703d af00 c73b a35f ee3d aa0f 71bd
00000380: 930f 6b3d d84f e93d 042d 90bc 9599 5e3d
00000390: ef0e 07bd 5de4 e9bd 72fc cb3c e9a4 92bd
000003a0: 820f 94bd 2e66 863d 348b 9cbd 9358 1ebd
000003b0: 644f b5bd a221 a43b bee5 2b3d f391 febd
000003c0: 4311 663d cdd2 4dbd c36e d9bc 8cd3 6fbd
000003d0: 6527 29bb 4e79 693d 1775 84bd bff9 9fbd
000003e0: c8e1 903d 7302 61bd 32de bebd 57bd fa3d
000003f0: 6eb8 793d 144d f8bd 7a07 e43c 0a2b 873d

model.2.bias f4 [64]
-0.02793782 0.06885042 -0.028581176 0.0043897023 0.07912097 -0.040362097 0.019751392 -0.07698283
-0.05612885 0.115368776 0.04726162 0.10346239 0.08672823 0.06962805 -0.12530859 0.030823037
-0.09363348 -0.028923495 0.08406002 0.061809134 0.10421925 0.008784998 -0.078979 0.056224998
0.08104541 0.025371658 0.06788142 0.0458434 -0.0547647 -0.043458853 -0.1053297 -0.042228837
-0.07711009 -0.022465365 0.11133888 0.116581 0.014686005 -0.044391904 -0.0654769 0.025495177
-0.039760128 0.04204229 -0.0402737 -0.087127626 0.039511006 -0.060770098 0.09362764 0.012052494
0.096472256 0.01430772 -0.11632286 -0.05691281 -0.0017808956 0.0013330035 -0.109358296 0.071401045
0.049254548 0.042223047 0.117081985 0.03754959 -0.08588996 0.01100786 0.09364444 0.02834311
00000000: dbdd e4bc 7301 8d3d 1223 eabc 7ed7 8f3b
00000010: 2d0a a23d ba52 25bd accd a13c 2da9 9dbd
00000020: 5de7 65bd 7746 ec3d 6795 413d 17e4 d33d
00000030: 929e b13d 2799 8e3d e550 00be 9880 fc3c
00000040: e9c2 bfbd f7f0 ecbc a927 ac3d 932b 7d3d
00000050: e770 d53d f4ee 0f3c bebf a1bd 2f4c 663d
00000060: 23fb a53d 39d8 cf3c 6a05 8b3d 4ac6 3b3d
00000070: f350 60bd e901 32bd 19b7 d7bd 25f8 2cbd
00000080: e5eb 9dbd 4909 b8bc a405 e43d 05c2 ee3d
00000090: 929d 703c 49d4 35bd c118 86bd 43db d03c
000000a0: 84db 22bd 8934 2c3d 09f6 24bd f86f b2bd
000000b0: 4bd6 213d 11ea 78bd d9bf bf3d d377 453c
000000c0: 3f93 c53d ed6a 6a3c ae3a eebd 681d 69bd
000000d0: f16c e9ba 2db8 ae3a 3ef7 dfbd b63a 923d
000000e0: 23bf 493d 13f2 2c3d aec8 ef3d 99cd 193d
000000f0: 13e7 afbd 505a 343c a8c8 bf3d cf2f e83c

model.4.weight f4 [1, 64]
-0.098776385 -0.00859598 0.045582816 -0.09715009 0.053261697 0.11778771 -0.055902474 -0.10042761
-0.057173472 -0.034957472 -0.11009852 0.033225086 -0.04043581 0.0057677464 -0.11854871 0.12503493
0.01261219 0.1137037 0.08313667 -0.10860319 -0.06710734 -0.07178361 -0.06319579 0.009970385
0.048826706 0.12544017 0.121470265 -0.06014205 -0.06049638 -0.067288205 -0.04610689 -0.029757138
0.03067713 0.039622124 -0.1147477 -0.019679947 -0.006008589 -0.10790572 -0.06677324 0.122056276
-0.115683146 -0.017892469 -0.039837696 -0.04224313 -0.07569044 -0.08075264 0.04567737 0.009367809
-0.09983512 0.0722372 0.0043586465 -0.059288815 0.042622343 -0.012280214 -0.06509939 -0.056084964
0.059557028 -0.01816762 0.0077607417 -0.11137155 0.016030774 0.06455481 -0.015343918 0.06471428
00000000: 464b cabd 27d6 0cbc 0cb5 3a3d a0f6 c6bd
00000010: f028 5a3d af3a f13d fef9 64bd feac cdbd
00000020: bb2e 6abd 912f 0fbd 557b e1bd 0717 083d
00000030: 05a0 25bd 5dff bc3b abc9 f2bd 2809 003e
00000040: 5ca3 4e3c 7cdd e83d 8f43 aa3d 596b debd
00000050: 936f 89bd 4903 93bd cb6c 81bd d35a 233c
00000060: 83fe 473d 6373 003e 67c5 f83d 8357 76bd
00000070: 0dcb 77bd 66ce 89bd 94da 3cbd 3ec5 f3bc
00000080: 9b4e fb3c cf4a 223d d800 ebbd d737 a1bc
00000090: b3e3 c4bb adfd dcbd 69c0 88bd a4f8 f93d
000000a0: 49eb ecbd 3a93 92bc da2c 23bd 2207 2dbd
000000b0: 9703 9bbd a461 a5bd 3218 3b3d 707b 193c
000000c0: 5b76 ccbd 19f1 933d fad2 8e3b d4d8 72bd
000000d0: c494 2e3d f332 49bc d452 85bd 59b9 65bd
000000e0: 12f2 733d 43d4 94bc d24d fe3b c416 e4bd
000000f0: f852 833c 5035 843d 0f65 7bbc ec88 843d

exp_avg f4 [64, 96]
-0.01317492 0.010719827 0.19597495 0.2300304 -0.012569044 0.0 0.13735647 0.18330865
0.11249755 0.41163576 -0.0024802375 0.00032077997 0.038417418 0.009111357 0.15130122 0.10788333
-0.0011787802 0.0005430969 0.07122975 0.06825566 0.18672597 0.31606257 -0.015272619 0.00081999734
0.04714487 0.022892889 -0.10996551 0.37043914 -0.0072924704 0.0007206856 0.057556488 0.030857757
-0.17014652 0.4282492 -0.020307172 0.00083507545 0.030894669 0.007049427 -0.08881581 0.295583
-0.0048169037 0.0011807365 0.03800562 0.054674685 0.15119183 0.2699114 -0.021321284 0.0013421495
0.037943617 0.08093449 0.20412248 0.2858333 -0.014724768 0.0021018155 0.032493114 0.0134568075
-0.07789089 0.14684863 -0.0073292013 0.0026103896 0.040272832 0.026700769 -0.14853016 0.19805996
-0.0028241607 0.003342834 0.07342864 0.047684606 0.25871655 0.18510154 -0.0036486213 0.0033310836
0.017692963 0.014173277 0.16628389 0.31772095 -0.00036868712 0.0027840862 0.049160376 -0.0028312642
0.076920584 0.11778038 -0.0064303395 0.002976874 0.023201788 0.015243555 -0.09315415 0.12958692
-0.0034987926 0.0024929491 0.015670048 -0.0077954205 0.113631204 -0.021395693 -0.013788438 0.0006312009
1.1694912 0.8956543 -0.5626072 0.09469024 0.17202847 0.0 0.88062626 0.688277
-0.23544388 -0.5770608 0.13263163 0.0075740158 1.0886874 0.85632056 -0.38979182 0.65456605
0.15466142 0.014743284 1.0067445 0.952954 -0.5343916 -0.10645107 0.17403235 0.02094711
0.9938917 0.7545874 0.6512442 -0.38611346 0.14479564 0.026368696 0.91717595 0.9242879
0.8476127 -0.49405238 0.14092645 0.032103222 0.94996905 0.96093214 0.546141 -0.062213905
0.10894089 0.03766292 0.91380787 0.83018935 -0.32949933 0.035624705 0.14117347 0.04233101
0.8342819 0.7087508 -0.5016782 -0.05332893 0.13162793 0.045816995 0.8880325 0.8499669
0.46705854 0.43385893 0.12246675 0.048698634 0.8225566 0.77565634 0.6668478 0.28021228
0.098633 0.05100992 0.75035304 0.6470172 -0.59898996 0.26743284 0.09054041 0.053430498
0.68267703 0.5912814 -0.31595987 -0.17451124 0.07944852 0.055071533 0.62748104 0.6277866
-0.05466631 0.37057832 0.08026189 0.056486588 0.6922838 0.62623656 0.40573743 0.32356626
0.09875898 0.0576474 0.631708 0.596203 -0.17972769 0.6622951 0.08680864 0.060018677
-0.74550223 -0.57194626 -0.06931823 -0.5802906 -0.08136434 0.0 -0.74414146 -0.6451783
-0.10729645 -0.53533566 -0.066096336 -0.0051759207 -0.74150795 -0.44523263 -0.08906507 -0.63793707
-0.09239469 -0.010427649 -0.79851043 -0.7412984 -0.09084179 -0.6680201 -0.09577661 -0.015745003
-0.7773154 -0.4938145 -0.20853426 -0.5626513 -0.09502401 -0.020283908 -0.7709703 -0.71583
-0.23332454 -0.5961671 -0.056075327 -0.025614068 -0.8021989 -0.71646905 -0.20313765 -0.6206138
-0.072141625 -0.030859685 -0.76676863 -0.6981908 -0.09977722 -0.6390556 -0.0787047 -0.035319634
-0.7225309 -0.6722298 -0.07487193 -0.5901885 -0.059278008 -0.03992185 -0.75480133 -0.6889714
-0.17705631 -0.67234206 -0.06674042 -0.04298141 -0.7031616 -0.60459 -0.19180252 -0.6298445
00000000: 9fdb 57bc 37a2 2f3c a8ad 483e 178d 6b3e
00000010: 64ee 4dbc 0000 0000 2da7 0c3e 43b5 3b3e
00000020: 1e65 e63d ecc1 d23e 7b8b 22bb 5c2e a839
00000030: 955b 1d3d cd47 153c b5ee 1a3e eff1 dc3d
00000040: 4d81 9aba 9e5e 0e3a e7e0 913d a0c9 8b3d
00000050: 1835 3f3e f4d2 a13e 023a 7abc 17f5 563a
00000060: fb1a 413d de89 bb3c 9935 e1bd 33aa bd3e
00000070: adf5 eebb 64ec 3c3a 5ac0 6b3d 68c9 fc3c
00000080: e43a 2ebe 7b43 db3e 3a5b a6bc f7e8 5a3a
00000090: d116 fd3c e1fe e63b 10e5 b5bd a856 973e
000000a0: 1ed7 9dbb f1c2 9a3a c8ab 1b3d 90f2 5f3d
000000b0: 08d2 1a3e d431 8a3e f9a9 aebc 10eb af3a
000000c0: c46a 1b3d fbc0 a53d 7c05 513e be58 923e
000000d0: 2740 71bc 9dbe 093b 8017 053d f179 5c3c
000000e0: 4285 9fbd 7d5f 163e cc29 f0bb 1213 2b3b
000000f0: 20f5 243d 92bb da3c 4a18 18be 3bd0 4a3e
00000100: 8e15 39bb 7313 5b3b c161 963d ef50 433d
00000110: 7f76 843e 428b 3d3e b51d 6fbb 4f4e 5a3b
00000120: d5f0 903c 0837 683c 5346 2a3e 52ac a23e
00000130: 594c c1b9 3775 363b 645c 493d bb8c 39bb
00000140: 8a88 9d3d d736 f13d 99b5 d2bb a817 433b
00000150: ad11 be3c 1bc0 793c 9ac7 bebd 6fb2 043e
00000160: 004c 65bb bf60 233b 795e 803c ba70 ffbb
00000170: 7ab7 e83d 0546 afbc e7e8 61bc 2d77 253a
00000180: e3b1 953f 9a49 653f 0707 10bf f5ec c13d
00000190: 3b28 303e 0000 0000 b970 613f ec32 303f
000001a0: 3318 71be 42ba 13bf 96d0 073e 732f f83b
000001b0: 1c5a 8b3f d337 5b3f cb92 c7be a491 273f
000001c0: 905f 1e3e d18d 713c 01dd 803f cbf4 733f
000001d0: e3cd 08bf 0503 dabd 8935 323e 4699 ab3c
000001e0: b06f 7e3f a42c 413f f1b7 263f aab0 c5be
000001f0: 4f45 143e 2a03 d83c 0bcc 6a3f 229e 6c3f
00000200: 25fd 583f 6ff4 fcbe 064f 103e ab7e 033d
00000210: 2c31 733f a6ff 753f e6cf 0b3f 02d4 7ebd
00000220: 671c df3d 6f44 1a3d 50ef 693f 4a87 543f
00000230: 23b4 a8be 36eb 113d c78f 103e 4863 2d3d
00000240: 8093 553f b170 353f fc6d 00bf 706f 5abd
00000250: 79c9 063e 9aaa 3b3d 1956 633f 6e97 593f
00000260: 4c22 ef3e c222 de3e d9cf fa3d 3878 473d
00000270: 1293 523f 6a91 463f 8ab6 2a3f fc77 8f3e
00000280: 1900 ca3d c7ef 503d 2317 403f eba2 253f
00000290: 6857 19bf f5ec 883e 406d b93d f0d9 5a3d
000002a0: ecc3 2e3f 385e 173f 7ec5 a1be 13b3 32be
000002b0: e8b5 a23d b092 613d 99a2 203f 9fb6 203f
000002c0: c8e9 5fbd 71bc bd3e 5960 a43d 7b5e 673d
000002d0: 8339 313f 0a51 203f d1bc cf3e 7aaa a53e
000002e0: 2642 ca3d ae1f 6c3d 9eb7 213f c3a0 183f
000002f0: 890a 38be 2c8c 293f bac8 b13d 25d6 753d
00000300: 3cd9 3ebf 126b 12bf b7f6 8dbd ed8d 14bf
00000310: 59a2 a6bd 0000 0000 0e80 3ebf 682a 25bf
00000320: 3ebe dbbd c20b 09bf 845d 87bd c59a a9bb
00000330: 77d3 3dbf 88f5 e3be bf67 b6bd d84f 23bf
00000340: 6d39 bdbd bbd8 2abc 2e6b 4cbf bbc5 3dbf
00000350: 430b babd 5e03 2bbf 8726 c4bd aafb 80bc
00000360: 24fe 46bf 41d5 fcbe 018a 55be ea09 10bf
00000370: f39b c2bd 702a a6bc 4f5e 45bf a340 37bf
00000380: a1ec 6ebe 689e 18bf 3eaf 65bd 98d4 d1bc
00000390: e85c 4dbf 846a 37bf 5103 50be 8ce0 1ebf
000003a0: fdbe 93bd 73cd fcbc f34a 44bf a2bc 32bf
000003b0: 0058 ccbd 2699 23bf ee2f a1bd 52ab 10bd
000003c0: c9f7 38bf 4117 2cbf 7456 99bd 9816 17bf
000003d0: 7fcd 72bd 1885 23bd a93a 41bf 6e60 30bf
000003e0: 404e 35be 9c1e 2cbf 34af 88bd 460d 30bd
000003f0: 6602 34bf 69c6 1abf e167 44be 7d3d 21bf
