modelPPO.pth (torch, 26778 bytes, 21 tensors)

shared.0.weight f4 [32, 5]
0.40870354 0.8819229 0.15121508 0.6178077 -0.03956066 0.97256374 -0.0566378 0.43299192
-0.17996255 -0.22402418 0.27833673 -0.045570597 0.46113855 0.01774682 0.07933533 -0.32968694
-0.52869564 0.3823529 -0.24668016 -0.12583092 -0.27643636 -0.5255071 0.31707048 -0.1233559
0.3862081 0.06392812 0.029848542 0.4871981 0.04942636 -0.3755293 0.06949225 -0.12334519
-0.25663164 -0.3264715 0.7865426 -0.29361138 0.65935504 0.00861516 0.7559634 0.37342927
0.733916 -0.10379887 0.8017654 0.050864846 0.16056962 -0.39260003 0.06194654 0.44442278
-0.19807598 0.060650002 0.07904539 -0.29062742 0.21267039 0.25489998 0.0037246179 0.30053973
0.23662134 -0.511725 -0.57593584 0.29295224 0.20703693 -0.213033 0.22571804 -0.63200873
-0.1595938 0.3068174 0.35824996 -0.4172136 -0.30293933 0.035858877 -0.28833967 -0.19685367
0.12145958 -0.34474388 -0.47378114 0.44401723 0.1492031 0.046408333 0.43951684 0.22444345
-0.0042595114 -0.31084108 0.363745 0.1477548 0.32210776 0.03977363 -0.3781166 -0.42889816
-0.540757 -0.8672317 0.25953618 -0.26182616 -0.47536415 0.7754136 0.06912673 -0.2996464
-0.7384755 0.08507113 -0.35686135 -0.2772594 0.05874773 0.10068378 0.13983352 0.11306772
0.40837118 -0.2426125 -0.41331068 -0.2837572 -0.42532834 0.10995064 -0.12197234 -0.42703968
0.56587136 0.015196968 0.36101884 0.05032021 0.22046927 0.2650383 0.29744732 -0.3765009
-0.4682755 0.4873042 -0.3954028 0.4407887 0.011035541 0.1953995 -0.055594075 -0.02382708
-0.34658772 -0.5145004 0.13355929 -0.09005896 0.16860907 0.088390544 -1.0464019 -0.48139346
-0.251412 0.45822626 0.23971327 -0.12316018 0.2420836 0.44909653 -0.09344644 -0.41707617
-0.59036493 -0.35829207 0.072472185 -0.49923095 -0.3529913 0.7150292 -0.006052163 0.06679767
0.035074413 -0.5166965 0.5430477 -0.22921948 0.07265713 0.22516628 0.32699898 -0.8433504
00000000: 9741 d13e b3c5 613f 20d8 1a3e a528 1e3f
00000010: 5c0a 22bd f0f9 783f 0afd 67bd 1eb1 dd3e
00000020: 1a48 38be 9866 65be 2782 8e3e 3ca8 3abd
00000030: 5a1a ec3e c761 913c 907a a23d bacc a8be
00000040: 9958 07bf c2c3 c33e b999 7cbe d2d9 00be
00000050: 1189 8dbe a287 06bf 1057 a23e 05a2 fcbd
00000060: 11bd c53e bfec 823d ee84 f43c 0872 f93e
00000070: 4b73 4a3d 6045 c0be f451 8e3d 679c fcbd
00000080: 3965 83be 4627 a7be db5a 493f 3b54 96be
00000090: 7ecb 283f 9a26 0d3c d186 413f 1f32 bf3e
000000a0: ebe1 3b3f 8194 d4bd 7f40 4d3f a857 503d
000000b0: 5d6c 243e df02 c9be a8bb 7d3d 628b e33e
000000c0: 6ed4 4abe 236c 783d 8de2 a13d 1ecd 94be
000000d0: 44c6 593e 4082 823e b818 743b 58e0 993e
000000e0: dd4c 723e 6900 03bf 8870 13bf d6fd 953e
000000f0: 7d01 543e 5325 5abe a122 673e 53cb 21bf
00000100: 8f6c 23be 2c17 9d3e 8a6c b73e 059d d5be
00000110: dd1a 9bbe c2e0 123d 42a1 93be 0294 49be
00000120: cdbf f83d 4582 b0be 7193 f2be 3a56 e33e
00000130: b3c8 183e aa16 3e3d 5a08 e13e 81d4 653e
00000140: 5f93 8bbb 9026 9fbe c93c ba3e 094d 173e
00000150: 4feb a43e ade9 223d 8098 c1be 8a98 dbbe
00000160: 0d6f 0abf e602 5ebf ede1 843e 140e 86be
00000170: ee62 f3be 8181 463f 5192 8d3d 416b 99be
00000180: bb0c 3dbf c639 ae3d 88b6 b6be f2f4 8dbe
00000190: 76a1 703d 4c33 ce3d 8530 0f3e 0c90 e73d
000001a0: 0716 d13e 696f 78be 759d d3be a048 91be
000001b0: a3c4 d9be cd2d e13d a2cc f9bd f2a4 dabe
000001c0: f2dc 103f b4fc 783c 76d7 b83e 911c 4e3d
000001d0: b2c2 613e 1ab3 873e 044b 983e bac4 c0be
000001e0: cec1 efbe f07f f93e 3c72 cabe 0eaf e13e
000001f0: 6ace 343c ce16 483e 9db6 63bd 0231 c3bc
00000200: f273 b1be 4cb6 03bf c4c3 083e d570 b8bd
00000210: dba7 2c3e 1a06 b53d 7ff0 85bf 3479 f6be
00000220: 13b9 80be a29c ea3e 6577 753e 683b fcbd
00000230: c3e4 773e fbef e53e d960 bfbd 028b d5be
00000240: 2822 17bf 0f72 b7be 4c6c 943d 339b ffbe
00000250: 47bb b4be 270c 373f 3951 c6bb 38cd 883d
00000260: 30aa 0f3d 3946 04bf 2d05 0b3f 83b8 6abe
00000270: 43cd 943d fd91 663e 696c a73e d0e5 57bf

shared.0.bias f4 [32]
0.21826456 0.09154217 0.44585812 -0.36788738 0.36690935 0.5418256 -0.21738495 0.36060393
0.23461561 0.46856824 0.58950794 -0.16903299 -0.23830625 0.10146058 -0.34383115 -0.13612813
0.5710517 -0.035128053 0.18833725 -0.3372213 0.4308978 0.2700537 0.112498365 0.61070985
0.17288242 0.4636429 -0.3282346 -0.3212182 -0.090799004 -0.6170856 0.4098293 -0.38052952
00000000: bf80 5f3e 767a bb3d 8447 e43e bc5b bcbe
00000010: 8bdb bb3e 15b5 0a3f 299a 5ebe 14a1 b83e
00000020: 133f 703e 2de8 ef3e fee9 163f fc16 2dbe
00000030: 8e06 74be 91ca cf3d a30a b0be 2c65 0bbe
00000040: 7230 123f 6fe2 0fbd 7bdb 403e 45a8 acbe
00000050: a39e dc3e 7b44 8a3e 8b65 e63d 7b57 1c3f
00000060: 1708 313e 9a62 ed3e 5e0e a8be b676 a4be
00000070: d4f4 b9bd 52f9 1dbf 25d5 d13e c4d4 c2be

shared.2.weight f4 [32, 32]
0.3773454 0.21890943 0.41058224 0.24388796 0.17712025 -0.04510907 0.05826183 -0.0068894
0.2871179 -0.08173294 0.05873407 -0.023167819 0.11241513 -0.022038449 0.41089153 0.041379742
-0.15070829 0.01779615 0.15904453 0.20080437 0.570996 0.132016 -0.09004414 0.46479145
-0.3314704 0.10320552 0.15278876 0.2830834 -0.17833614 0.35220972 -0.16635196 0.14022432
-0.3141487 -0.33667448 0.45498404 -0.09038533 -0.016484283 0.23420815 -0.24168985 -0.07705503
-0.6750729 0.42854163 0.21146505 -0.050450284 -0.15841833 0.27705982 -0.13541473 -0.33873546
0.3596879 -0.15402573 0.38545072 -0.20807046 0.49197978 0.077711925 0.07080196 0.15398186
-0.25307694 0.10963716 -0.7393769 -0.4161657 -0.38578618 -0.6186577 0.00072476885 -0.8443458
-0.13484214 0.09440421 0.5269756 0.085374855 -0.09074219 0.044662427 0.048021425 0.06924564
0.22713466 0.11898821 0.10760654 0.103185505 0.12912686 -0.1540898 0.16777836 -0.1958859
-0.034803964 0.105287366 0.35317862 0.0039018677 0.5154115 0.15016648 -0.11028374 0.5795365
-0.15632589 0.12941603 0.18951443 -0.07850154 -0.35611162 0.2658918 -0.0092907585 -0.0757261
0.5419817 0.13438529 0.37084225 -0.22951476 -0.38652188 0.17150928 -0.13773325 0.6442779
0.41098124 0.19879448 0.050572786 -0.36969233 -0.45286608 0.100372955 -0.18183233 -0.16015142
0.019935109 -0.41187263 0.09298161 -0.5167085 0.45762596 -0.51782274 -0.31385717 0.3635024
0.68027633 -0.20363988 0.24499834 -0.5060343 -0.12023463 -0.026718125 -0.331846 -0.11515101
-0.08179126 -0.9488214 -0.02715353 -0.013180013 -0.19423401 0.12214262 -0.22507936 0.14015327
-1.6835256 0.13353595 0.12946306 0.035073563 -0.44475153 0.13792276 -0.33300975 -0.28320265
0.11048875 0.05987188 0.29825696 -0.3654443 -0.033306435 -0.2072159 0.020731518 0.036753748
0.11678548 0.177997 -0.4292272 -0.1182985 0.24098088 -0.7462993 -0.1443778 -0.19765769
0.3891979 -0.5643324 0.09834101 0.22176777 -0.1922029 0.086038716 -0.26381814 0.13204028
-0.5715279 0.06379991 -0.13895354 0.1214178 -0.029859891 0.10765745 0.29852274 -0.5260757
-0.21008483 0.008372001 0.04984889 0.19887798 0.2539918 -0.15929599 -0.15313107 0.40055546
-0.02632469 0.1741527 0.19605288 -0.029694619 -0.10258705 0.18467243 -0.40299106 0.14603584
-0.35653555 -0.32965726 0.05624905 0.08276805 0.31019738 0.3271371 -0.657773 -0.1312953
-0.54576176 0.18412125 0.3960364 -0.6116046 -0.24475786 -0.11060866 -0.24161561 -0.2055098
0.4295052 -0.09677221 0.31978446 -0.15214097 -0.72732896 0.10491644 0.19918206 0.1039854
0.19022751 0.078882754 -0.1562577 -0.06356919 0.2539147 -0.8493064 0.09974721 -0.11506505
-0.82339597 -0.82194024 0.2962256 -0.34356263 0.2626804 0.28010002 -0.95245093 -0.45306346
-1.0810573 0.25771162 0.4188151 -0.027114185 -0.36730555 0.07217771 -0.22470489 -0.32693315
0.35812998 -0.047960117 0.22138043 -0.3311244 -0.20509373 -0.023719914 0.089931026 -0.025046006
-0.384508 0.282995 -0.62864625 -0.18712015 -0.24316965 -1.1521553 0.25243104 -0.40416753
00000000: 6b33 c13e cb29 603e d637 d23e c4bd 793e
00000010: 035f 353e 4ac4 38bd f5a3 6e3d 7ac0 e1bb
00000020: 1e01 933e 9a63 a7bd 2393 703d 70ca bdbc
00000030: e739 e63d fa89 b4bc 6060 d23e ce7d 293d
00000040: 4653 1abe 3bc9 913c 92dc 223e a99f 4d3e
00000050: cb2c 123f 342f 073e 1069 b8bd 25f9 ed3e
00000060: 7db6 a9be 6a5d d33d a874 1c3e 4ff0 903e
00000070: c09d 36be d554 b43e 2b58 2abe f796 0f3e
00000080: 19d8 a0be 9960 acbe abf3 e83e f21b b9bd
00000090: 0c0a 87bc 43d4 6f3e 8b7d 77be 07cf 9dbd
000000a0: 94d1 2cbf cf69 db3e 4b8a 583e f5a4 4ebd
000000b0: 6a38 22be c9da 8d3e 29aa 0abe bc6e adbe
000000c0: 0329 b83e ecb8 1dbe cc59 c53e 6c10 55be
000000d0: c6e4 fb3e 6e27 9f3d 9e00 913d 6cad 1d3e
000000e0: 4d93 81be 7389 e03d ce47 3dbf ac13 d5be
000000f0: c485 c5be 5a60 1ebf 6afe 3d3a 0c27 58bf
00000100: 0f14 0abe ff56 c13d dfe7 063f 03d9 ae3d
00000110: 0bd7 b9bd f3ef 363d 1db2 443d a8d0 8d3d
00000120: fd95 683e 17b0 f33d d160 dc3d ec52 d33d
00000130: d539 043e b7c9 1dbe 17ce 2b3e 5096 48be
00000140: 9a8e 0ebd e7a0 d73d d4d3 b43e 7ab6 7f3b
00000150: 02f2 033f 3ec5 193e 71dc e1bd 815c 143f
00000160: e513 20be a385 043e 1210 423e 6ac5 a0bd
00000170: 4354 b6be f822 883e 4438 18bc 4916 9bbd
00000180: 50bf 0a3f 4c9c 093e 09df bd3e eb05 6bbe
00000190: 32e6 c5be 21a0 2f3e f209 0dbe 65ef 243f
000001a0: 226c d23e c890 4b3e 6925 4f3d 5048 bdbe
000001b0: 10de e7be 5690 cd3d 4132 3abe bcfe 23be
000001c0: f44e a33c f8e0 d2be 246d be3d 0247 04bf
000001d0: f34d ea3e 0890 04bf e3b1 a0be fd1c ba3e
000001e0: 9726 2e3f f986 50be d8e0 7a3e 778b 01bf
000001f0: 933d f6bd f8df dabc b8e7 a9be 4bd4 ebbd
00000200: 2d82 a7bd f6e5 72bf 1471 debc fbf0 57bc
00000210: 48e5 46be e925 fa3d 347b 66be 5784 0f3e
00000220: c47d d7bf a6bd 083e f791 043e 4ca9 0f3d
00000230: 79b6 e3be a03b 0d3e 4180 aabe f0ff 90be
00000240: ed47 e23d 373c 753d 23b5 983e 841b bbbe
00000250: 546c 08bd 6830 54be 25d5 a93c 198b 163d
00000260: 3a2d ef3d d844 363e abc3 dbbe 7c46 f2bd
00000270: b1c3 763e 790d 3fbf c6d7 13be c766 4abe
00000280: f244 c73e 1778 10bf 0367 c93d 1717 633e
00000290: d6d0 44be 1135 b03d 2c13 87be 9135 073e
000002a0: a74f 12bf 87a9 823d d649 0ebe e5a9 f83d
000002b0: bb9c f4bc 827b dc3d f9d7 983e e6ac 06bf
000002c0: 7a20 57be b82a 093c 5a2e 4c3d aba6 4b3e
000002d0: 370b 823e 7d1e 23be 64ce 1cbe 9b15 cd3e
000002e0: e0a6 d7bc 1655 323e 16c2 483e 2142 f3bc
000002f0: 2919 d2bd c51a 3d3e d854 cebe 6b8a 153e
00000300: d48b b6be d6c8 a8be 6765 663d 4c82 a93d
00000310: 31d2 9e3e 847e a73e d063 28bf 4672 06be
00000320: 0bb7 0bbf 488a 3c3e 48c5 ca3e 1e92 1cbf
00000330: cea1 7abe cb86 e2bd 156a 77be 2971 52be
00000340: 1be8 db3e 8230 c6bd caba a33e d8ca 1bbe
00000350: 3b32 3abf 6ede d63d 62f6 4b3e 4cf6 d43d
00000360: 00cb 423e 488d a13d 0502 20be 9030 82bd
00000370: 1c01 823e 256c 59bf 4448 cc3d 3aa7 ebbd
00000380: 14ca 52bf ad6a 52bf e2aa 973e 71e7 afbe
00000390: 0c7e 863e 4569 8f3e d3d3 73bf eff7 e7be
000003a0: 1660 8abf c7f2 833e ef6e d63e 911e debc
000003b0: 790f bcbe e8d1 933d 0a19 66be c863 a7be
000003c0: d05c b73e d471 44bd 8db1 623e 2389 a9be
000003d0: 1704 52be 4450 c2bc c22d b83d 482d cdbc
000003e0: 3cde c4be b8e4 903e f6ee 20bf 6d9c 3fbe
000003f0: 7701 79be d379 93bf a43e 813e 0cef cebe

shared.2.bias f4 [32]
-0.06903887 0.21639381 0.09888618 -0.047161907 0.21721373 0.22448702 0.3731187 0.08770617
-0.112381764 0.013901078 0.2961405 0.01831404 0.21652085 0.03375074 0.04754187 0.17116252
-0.0043011457 0.17622182 0.14797866 -0.03686678 0.22576721 0.03690976 -0.01845048 -0.11052277
-0.051139895 0.08856428 0.34548047 -0.19168973 0.1749316 0.039314162 -0.002017603 0.02200502
00000000: 4064 8dbd 5796 5d3e d684 ca3d d82c 41bd
00000010: 476d 5e3e eddf 653e 6a09 bf3e 4b9f b33d
00000020: 6928 e6bd 59c1 633c ba9f 973e 5307 963c
00000030: a4b7 5d3e 373e 0a3d 44bb 423d 3a45 2f3e
00000040: a0f0 8cbb 7e73 343e b887 173e 9f01 17bd
00000050: 852f 673e b02e 173d 7625 97bc c359 e2bd
00000060: 1178 51bd 3061 b53d d1e2 b03e 504a 44be
00000070: 4521 333e e307 213d c339 04bb df43 b43c

actor.weight f4 [5, 32]
0.04637622 0.14548714 0.2897825 0.30060834 -0.09843292 0.23673688 -0.21551785 -0.033335567
0.24899182 0.14798284 0.13885856 -0.5771136 -0.39355704 0.34342954 -0.28772834 0.26608583
0.06680979 0.12488085 -0.17544764 0.062133387 0.05504203 0.09757049 0.3084149 -0.0065468047
0.053535968 0.12355693 -0.006548262 0.19133854 -0.042675033 0.044249266 0.040033516 0.28814897
0.2510076 -0.30753458 -0.039077368 0.744385 0.17924021 0.12401994 -0.2380818 -0.9773925
-0.013059868 -0.0539411 -0.5107783 -0.5839782 -0.30864933 0.20288068 -0.10682924 0.0746674
0.013128132 -0.15020151 -0.112168975 -0.13830398 -0.83526057 -0.4668557 0.5767651 -0.19726668
-0.09303383 -0.052518364 -0.19196126 0.12903142 0.26110542 0.18202735 0.2880946 0.7582326
-0.23140298 0.32280496 -0.08573086 -0.5808524 0.7591079 0.16267629 0.39497188 0.75614285
0.02684946 0.17924228 0.4099176 0.74533075 0.67699385 -0.15887228 0.42369878 0.1600082
0.20412816 -0.030461084 0.4674913 -0.0069385697 -0.804012 0.029978504 -0.851294 0.08789295
-0.27773625 -0.20165136 0.36276147 -0.18780118 0.06003998 -0.1363674 -0.16514859 -0.9283253
-0.07935268 0.16734175 0.15780954 -1.0460687 -0.32420173 -0.28748646 0.22451104 0.7604177
-0.0154480385 0.25471196 0.5756025 0.602969 0.24735059 -0.022066576 0.21735264 -0.013278711
0.11584571 -0.036878154 0.30871785 -0.11202525 1.060011 0.7203505 -0.5296137 0.22190987
0.22535498 -0.082225785 0.03897314 0.08628004 -0.18835956 -0.16922258 -0.24042028 -0.6981626
0.10548862 -0.33786914 0.06787004 0.43234828 -0.7462145 -0.11072621 -0.33963642 -1.1143712
-0.1093517 0.09524481 -0.5293466 -1.3570781 -0.51974595 0.11933699 -0.22732112 -0.04453713
-0.23761617 -0.2040121 -0.20118515 0.20315434 0.35119316 -0.12386789 0.5932917 -0.1500122
0.16336682 0.13427506 -0.39726666 0.027263524 -0.05155356 0.19214535 0.0635026 0.8602511
00000000: fef4 3d3d 95fa 143e 5f5e 943e 56e9 993e
00000010: 3397 c9bd 276b 723e b6b0 5cbe e08a 08bd
00000020: b6f7 7e3e d088 173e f030 0e3e b8bd 13bf
00000030: 4f80 c9be ffd5 af3e 2151 93be 673c 883e
00000040: 92d3 883d 88c1 ff3d 8ca8 33be 947f 7e3d
00000050: c073 613d 09d3 c73d 8fe8 9d3e 9486 d6bb
00000060: 8848 5b3d 6a0b fd3d ce92 d6bb 40ee 433e
00000070: 04cc 2ebd b83e 353d 2ffa 233d 4388 933e
00000080: 1184 803e 2c75 9dbe 970f 20bd 0490 3e3f
00000090: bf8a 373e 2bfe fd3d b7cb 73be 6536 7abf
000000a0: 0ef9 55bc 58f1 5cbd 5ec2 02bf 987f 15bf
000000b0: 4907 9ebe f4bf 4f3e 4ac9 dabd 39eb 983d
000000c0: 6017 573c 6dce 19be d9b8 e5bd 8f9f 0dbe
000000d0: a3d3 55bf b607 efbe e1a6 133f 4700 4abe
000000e0: 8588 bebd 7f1d 57bd 7e91 44be d020 043e
000000f0: 9caf 853e 6165 3a3e 2381 933e 881b 423f
00000100: e7f4 6cbe b146 a53e a993 afbd beb2 14bf
00000110: e554 423f 9d94 263e c139 ca3e 9492 413f
00000120: 66f3 db3c 4a8b 373e b8e0 d13e ffcd 3e3f
00000130: 784f 2d3f 6aaf 22be 0cef d83e 31d9 233e
00000140: f906 513e 8689 f9bc 055b ef3e f15c e3bb
00000150: bbd3 4dbf 7b95 f53c 67ee 59bf 3801 b43d
00000160: 7233 8ebe b27d 4ebe dfbb b93e f44e 40be
00000170: 7bec 753d e5a3 0bbe b61c 29be baa6 6dbf
00000180: a883 a2bd a35b 2b3e d398 213e 94e5 85bf
00000190: c5fd a5be 6d31 93be 39e6 653e bcaa 423f
000001a0: c519 7dbc 9b69 823e af5a 133f 2d5c 1a3f
000001b0: 7949 7d3e f7c4 b4bc b191 5e3e f38e 59bc
000001c0: 8440 ed3d 8c0d 17bd 4410 9e3e 7f6d e5bd
000001d0: 71ae 873f e468 383f c394 07bf 573c 633e
000001e0: 75c3 663e fe65 a8bd 4da2 1f3d 97b3 b03d
000001f0: 54e1 40be af48 2dbe bc30 76be c9ba 32bf
00000200: 6b0a d83d 2ffd acbe 73ff 8a3d c15c dd3e
00000210: ea07 3fbf 6cc4 e2bd d3e4 adbe b7a3 8ebf
00000220: c9f3 dfbd b60f c33d 4283 07bf bcb4 adbf
00000230: 120e 05bf f466 f43d dec6 68be 916c 36bd
00000240: a751 73be 8ce8 50be 7b03 4ebe b107 503e
00000250: 97cf b33e 73ae fdbd f7e1 173f cc9c 19be
00000260: a249 273e 677f 093e 8966 cbbe c157 df3c
00000270: d329 53bd c0c1 443e a70d 823d 6b39 5c3f

actor.bias f4 [5]
-0.1337654 -0.17769976 0.044970598 0.1010244 -0.05455586
00000000: ccf9 08be edf6 35be 1733 383d e1e5 ce3d
00000010: f775 5fbd

critic.weight f4 [1, 32]
0.42534062 1.0151426 0.33528194 -0.32943568 0.09251832 0.31716606 -0.6567222 0.18245763
0.3638672 -0.64132476 0.711427 0.111880966 0.5003141 0.83119446 -1.0599549 0.42567778
0.5748155 0.19538654 -0.5288375 -0.5024548 -0.19249311 0.23452935 -0.46014538 0.79469293
-0.54819435 0.46739334 0.8681382 0.3555786 -0.3767023 0.4163849 -0.37268636 -0.15064886
00000000: 3fc6 d93e 31f0 813f 13aa ab3e cbab a8be
00000010: 3f7a bd3d 9763 a23e f21e 28bf 2cd6 3a3e
00000020: cd4c ba3e dc2d 24bf 1420 363f d921 e53d
00000030: 9614 003f 29c9 543f 9aac 87bf 70f2 d93e
00000040: 1c27 133f 6913 483e e561 07bf e1a0 00bf
00000050: ea1c 45be 7628 703e 2d98 ebbe ff70 4b3f
00000060: 7756 0cbf 2e4e ef3e 4e3e 5e3f 660e b63e
00000070: 20df c0be 6730 d53e bfd0 bebe b243 1abe

exp_avg f4 [32, 5]
0.046294376 0.008423263 -0.029787622 -0.0019643418 -0.04375596 0.031914014 0.032777432 0.013707386
-0.015746363 -0.01525596 -0.12875372 -0.021984141 0.04102062 0.0032901086 -0.009734155 0.005100969
-0.0019756798 -0.00599422 0.0014613421 0.002209101 0.033466324 -0.008947616 -0.027772332 0.0038959284
0.01898536 0.042595275 0.0046183276 -0.010349625 0.0021012411 0.027977277 0.0066084764 0.0068385853
-0.006886084 -0.0068851993 -0.002202384 0.11359671 0.029357854 -0.005515976 0.0059335246 -0.006925008
0.08546126 0.0062872986 -0.02308633 0.012256042 -0.037526704 -0.0132292425 0.0048267534 0.008927738
-0.0033371602 0.014362549 -0.0017872831 -0.013605777 -0.018198961 0.0022468872 0.03116414 -0.007192931
-0.008575862 0.008791824 0.00882274 0.006856264 -0.019771686 -0.0043594805 -0.0056946226 -0.006297834
-0.013127266 -0.023912901 -0.031473666 -0.02893465 0.0078709135 0.018465865 -0.03763952 0.05360734
0.08528804 -0.015281742 -0.08128864 0.020961232 0.02672712 0.02745496 -0.005926472 -0.013757247
0.10775355 0.010079979 -0.023662072 0.00384337 0.055749737 -0.013967409 0.015298985 0.04016572
0.00056449685 -0.027998481 3.443762e-05 2.3953085e-05 1.3986388e-05 4.963923e-06 6.013674e-06 -0.0037130811
0.0026040256 0.0058556795 0.00056704925 -0.0046705687 -0.2876231 -0.005345663 0.095738 -0.020713348
-0.11307765 0.00026732963 -0.0052132257 -0.0048202304 0.0016190188 0.006114568 0.06531001 0.016776618
-0.007085182 0.00048425372 0.004838341 -0.1598309 -0.027045336 0.05460778 0.012414299 -0.024374757
0.16538979 -0.08468093 -0.24883296 0.034125544 0.10608493 0.0018750323 0.0012901416 0.0022746758
0.00033660544 0.0115055265 0.008526532 0.005209557 0.012059348 0.0002387822 -0.007639209 -0.0037270375
0.010559687 0.019176388 -0.006382205 -0.033118572 0.13556498 0.04586395 -0.024378028 -0.008010827
0.037430264 0.0012638092 4.3895157e-05 0.0013310276 0.001324588 0.0006990396 0.05394368 0.009195997
-0.020075468 -0.004684186 0.018935649 -0.006754993 -0.011226662 -0.010305501 0.0016686465 -0.0028247829
00000000: 2c9f 3d3d ba01 0a3c 2c05 f4bc 30bc 00bb
00000010: 7339 33bd 45b8 023d a141 063d f294 603c
00000020: 84fe 80bc 22f4 79bc 04d8 03be 1618 b4bc
00000030: 3d05 283d dd9e 573b 017c 1fbc 0826 a73b
00000040: 687a 01bb 296b c4bb 818a bf3a 91c6 103b
00000050: fc13 093d 0699 12bc cd82 e3bc d552 7f3b
00000060: 3087 9b3c 6278 2e3d 5755 973b 7991 29bc
00000070: fab4 093b 9a30 e53c eb8b d83b 3616 e03b
00000080: a9a4 e1bb 3d9d e1bb df55 10bb 64a5 e83d
00000090: e27f f03c 5cbf b4bb 036e c23b 2deb e2bb
000000a0: 5006 af3d af05 ce3b 8b1f bdbc 91cd 483c
000000b0: 9ab5 19bd 77bf 58bc be29 9e3b a645 123c
000000c0: 42b4 5abb e650 6b3c 4543 eaba c4ea 5ebc
000000d0: fd15 95bc 8340 133b f04b ff3c aeb2 ebbb
000000e0: c681 0cbc 950b 103c 418d 103c 83aa e03b
000000f0: 3bf8 a1bc f9d9 8ebb f599 babb 105e cebb
00000100: bf13 57bc fde4 c3bc 88ea 00bd 5c08 edbc
00000110: 01f5 003c ba45 973c e62b 1abd 5f93 5b3d
00000120: 7fab ae3d 4660 7abc a97a a6bd e4b6 ab3c
00000130: d5f2 da3c 39e9 e03c da32 c2bb 1366 61bc
00000140: e5ad dc3d 7f26 253c f6d6 c1bc 0ce1 7b3b
00000150: d659 643d 8fd7 64bc 98a8 7a3c cf84 243d
00000160: befa 133a 125d e5bc 1d71 1038 dcee c837
00000170: 14a7 6a37 c68f a636 11c9 c936 2a57 73bb
00000180: 4da8 2a3b 00e1 bf3b 08a6 143a 920b 99bb
00000190: 5643 93be ac2a afbb 4912 c43d 0aaf a9bc
000001a0: 4195 e7bd 6028 8c39 b5d3 aabb 06f3 9dbb
000001b0: 4235 d43a b75c c83b 41c1 853d 1e6f 893c
000001c0: d02a e8bb 6fe3 fd39 f28a 9e3b b6aa 23be
000001d0: 2e8e ddbc 68ac 5f3d 5865 4b3c 92ad c7bc
000001e0: f15b 293e 326d adbd 11ce 7ebe 3ac7 0b3d
000001f0: 0e43 d93d a5c3 f53a f819 a93a ba12 153b
00000200: 6b7a b039 ad81 3c3c deb2 0b3c eeb4 aa3b
00000210: 9294 453c 9c61 7a39 5452 fabb 5041 74bb
00000220: 8a02 2d3c cd17 9d3c d121 d1bb 57a7 07bd
00000230: 8cd1 0a3e d6db 3b3d 6eb4 c7bc d83f 03bc
00000240: 7a50 193d 66a6 a53a 111c 3838 e075 ae3a
00000250: cc9d ad3a c13f 373a 0cf4 5c3d cfaa 163c
00000260: 4f75 a4bc cd7d 99bb ef1e 9b3c fd58 ddbb
00000270: 09f0 37bc 67d8 28bc 7cb6 da3a fe1f 39bb

exp_avg_sq f4 [32, 5]
0.007752937 0.007200787 0.008610889 0.0073200883 0.0119346455 0.008840112 0.010791085 0.013460306
0.01234126 0.011185197 0.021256285 0.022891296 0.0137698045 0.011662901 0.011586071 0.0008326788
0.0006998928 0.00059654505 0.00048267006 0.0006210035 0.0056880484 0.005189703 0.004445961 0.003934327
0.0041193194 0.0017188975 0.0014119914 0.0010625581 0.0011647932 0.0015708404 0.0016085062 0.0016442642
0.001872953 0.0020582818 0.00062057143 0.007984287 0.0069072987 0.005839931 0.00493161 0.008811263
0.017481755 0.018737005 0.012701204 0.010031291 0.015405066 0.0036030824 0.00443237 0.002778185
0.002242338 0.0028119953 0.0024249174 0.002102638 0.0017368844 0.0017713355 0.0023417112 0.004140142
0.003738841 0.0043720286 0.0034379293 0.0042808037 0.0016725897 0.0016287827 0.0015494954 0.0017184796
0.0015389307 0.002739716 0.002706653 0.002642125 0.0023883937 0.0026652385 0.0042625563 0.0043022144
0.0037393095 0.0033976056 0.0039437804 0.0055567822 0.008271311 0.0038027645 0.0041014953 0.0033690552
0.01654903 0.014683267 0.008795993 0.010557444 0.010221151 0.0016935423 0.0016852752 0.0017113729
0.0014316768 0.0021828297 0.007519481 0.0060687657 0.0018427706 0.0016591331 0.0022404587 0.0016013519
0.0013610434 0.0013228322 0.0015065524 0.001816602 0.09124672 0.071529575 0.040552035 0.033597056
0.038009234 0.0018666002 0.0014314952 0.0017046884 0.0011242781 0.001541051 0.0064625484 0.006452303
0.0033421824 0.0037152013 0.002950308 0.054320272 0.047102775 0.028780546 0.024561469 0.017875537
0.044167563 0.037329376 0.03242707 0.029806904 0.027994907 0.0009833003 0.00085463614 0.00070113165
0.0006356326 0.0008193371 0.0118431905 0.008152221 0.007333812 0.0069156857 0.011486005 0.0029314125
0.0027022702 0.0015781018 0.0016538021 0.0012375601 0.014765208 0.012666974 0.01828191 0.016398022
0.012165931 0.0068466314 0.0057593724 0.0070526744 0.0073276535 0.0022436543 0.004440073 0.0035315878
0.0029293948 0.0021605643 0.0022203806 0.0058477405 0.004567836 0.004405115 0.003590411 0.0056876107
00000000: 590c fe3b 94f4 eb3b b014 0d3c 5add ef3b
00000010: 8889 433c 1ed6 103c 17cd 303c 9e88 5c3c
00000020: ff32 4a3c 1e42 373c a921 ae3c 8786 bb3c
00000030: bf9a 613c c115 3f3c 81d3 3d3c 2148 5a3a
00000040: 0379 373a 7661 1c3a e10e fd39 d7ca 223a
00000050: cf62 ba3b 620e aa3b 6daf 913b 87eb 803b
00000060: 5bfb 863b a14c e13a 9212 b93a 8945 8b3a
00000070: f9ab 983a a8e4 cd3a 83d4 d23a 5a84 d73a
00000080: e07d f53a 3de4 063b d8ad 223a 87d0 023c
00000090: 9f56 e23b e45c bf3b 5899 a13b 1e5d 103c
000000a0: e635 8f3c 597e 993c b618 503c 495a 243c
000000b0: 8865 7c3c b121 6c3b 6a3d 913b 3612 363b
000000c0: 30f4 123b 7449 383b 5deb 1e3b 69cc 093b
000000d0: 2ba8 e33a 282c e83a 6577 193b 07aa 873b
000000e0: 5807 753b 3c43 8f3b e24e 613b fc45 8c3b
000000f0: cc3a db3a e17c d53a 7018 cb3a 9b3e e13a
00000100: f2b5 c93a cf8c 333b 1a62 313b 8027 2d3b
00000110: 9986 1c3b 48ab 2e3b eaac 8b3b 97f9 8c3b
00000120: 340f 753b 5daa 5e3b d43a 813b ab15 b63b
00000130: 6584 073c cd37 793b d665 863b 5ecb 5c3b
00000140: d591 873c 1692 703c 121d 103c 21f9 2c3c
00000150: 9d76 273c daf9 dd3a 74e4 dc3a 2550 e03a
00000160: 1aa7 bb3a ce0d 0f3b fa65 f63b 7fdc c63b
00000170: 1f89 f13a 4577 d93a a9d4 123b 74e4 d13a
00000180: 0a65 b23a e262 ad3a 8377 c53a 0c1b ee3a
00000190: 8fdf ba3d 197e 923d e419 263d 119d 093d
000001a0: 92af 1b3d b6a8 f43a 02a1 bb3a da6f df3a
000001b0: 835c 933a 17fd c93a c9c3 d33b d76d d33b
000001c0: 8408 5b3b bc7a 733b f459 413b ef7e 5e3d
000001d0: d7ee 403d 2ec5 eb3c 2235 c93c b86f 923c
000001e0: 0ce9 343d b0e6 183d 3fd2 043d 9c2d f43c
000001f0: 9355 e53c 15e2 803a a909 603a 26cc 373a
00000200: 95a0 263a c8c8 563a f109 423c e590 053c
00000210: 7950 f03b fa9c e23b cc2f 3c3c f11c 403b
00000220: 9218 313b 4fd8 ce3a 64c4 d83a a035 a23a
00000230: c5e9 713c 2489 4f3c f2c3 953c 2555 863c
00000240: 9d53 473c b559 e03b 1eb9 bc3b 1f1a e73b
00000250: d01c f03b 460a 133b 087e 913b 3672 673b
00000260: 17fb 3f3b 4198 0d3b ce83 113b 679e bf3b
00000270: c9ad 953b c858 903b 1a4d 6b3b 235f ba3b

exp_avg f4 [32]
-0.017319946 0.03282012 0.021751072 -0.006450889 -0.024223821 -0.009956251 0.006877653 -0.0144319115
-0.03788374 0.011951674 -0.015177038 -0.0087832995 0.0070869485 -0.030167367 0.0792197 0.0274601
-0.021229506 0.025012998 -1.5463042e-05 0.0021714254 0.09584771 -0.0059190146 -0.0051697684 0.014826654
-0.21956664 0.0011969232 0.007144149 0.023499794 -0.0045009917 -0.001332868 -0.0050202245 -0.0093077645
00000000: 8fe2 8dbc 646e 063d 4e2f b23c fb61 d3bb
00000010: 0971 c6bc 8b1f 23bc ef5d e13b d373 6cbc
00000020: fb2b 1bbd f4d0 433c 1ca9 78bc d4e7 0fbc
00000030: a239 e83b 8e21 f7bc f03d a23d 01f4 e03c
00000040: 80e9 adbc 0fe8 cc3c a1b6 81b7 794e 0e3b
00000050: ce4b c43d 4bf4 c1bb 2967 a9bb 7feb 723c
00000060: 14d6 60be 14e2 9c3a 7719 ea3b a482 c03c
00000070: 0e7d 93bb a1b3 aeba b280 a4bb 987f 18bc

exp_avg_sq f4 [32]
0.022240538 0.024125045 0.019835051 0.0013883784 0.008823694 0.0023471513 0.0025921268 0.017263614
0.038457718 0.006225106 0.0043283715 0.007070845 0.0026692098 0.005183636 0.0057982206 0.012326498
0.014776772 0.0029363392 0.005899261 0.0027233574 0.065969996 0.0034074774 0.008618453 0.028797697
0.048578374 0.0016486098 0.020147623 0.0041600936 0.02387731 0.008302553 0.004150097 0.0110964915
00000000: ca31 b63c e3a1 c53c 1e7d a23c 40fa b53a
00000010: 4191 103c aad2 193b ace0 293b 6c6c 8d3c
00000020: d785 1d3d f9fb cb3b 03d5 8d3b 8cb2 e73b
00000030: e9ed 2e3b 7edb a93b 00ff bd3b 14f5 493c
00000040: 461a 723c 996f 403b 974e c13b 5b7a 323b
00000050: 471b 873d fc4f 5f3b 6934 0d3c 26e9 eb3c
00000060: 1efa 463d 2a16 d83a a10c a53c 6551 883b
00000070: 599a c33c 6e07 083c 89fd 873b 0fce 353c

exp_avg f4 [32, 32]
-0.028939793 -0.034882646 -0.009831037 0.005129713 0.010461299 0.0023974685 -3.5992784e-05 0.0008065914
-0.028727021 0.016901549 0.0013045561 -0.00309846 -0.0041426374 -0.011922012 0.010242063 -0.0049523064
0.001777459 0.0039986833 2.8337056e-06 0.00068926765 -0.0065739173 -0.000114689006 0.007135655 0.00012199712
0.006559391 -0.004642802 0.009096769 0.011271249 -0.011657581 -3.4893514e-05 -0.00638182 0.019043708
-0.015188824 -0.020938633 0.0009341205 0.0023022846 0.016305884 0.004894949 3.7652997e-05 0.011722994
-0.011982089 0.020952087 0.004268934 -8.1976876e-05 -0.0033758422 -0.0005277944 0.0031150319 -0.0003743472
0.01037133 -0.001431909 -6.4217625e-06 -0.004703791 0.0068763923 -0.00015250436 0.011394662 0.0038724174
0.009248148 -0.004592097 -0.0013266155 0.011558462 -0.007714193 -2.1848551e-05 0.009789145 0.0036491158
-0.027219694 -0.03258735 -0.009018611 0.0049577313 0.010573992 0.0014556136 -7.609017e-05 0.0013815728
-0.026284939 0.01594964 0.0014249916 -0.0034962785 -0.00398797 -0.011604449 0.009165702 -0.0042782277
0.002497462 0.0031068728 1.3805121e-06 0.0009866792 -0.0054119253 0.00048038986 0.007303982 -0.0008634663
0.00596527 -0.0055704056 0.0068446393 0.0103824 -0.0121856965 -2.1894606e-05 -0.0050561884 0.016007716
0.027667204 0.033222288 0.0073277084 -0.006283497 -0.017777972 -0.003392972 -3.3686647e-05 -0.0056548174
0.027730169 -0.022606526 -0.0040495642 -1.0880836e-06 0.0033555313 0.0080692675 -0.008431962 0.0045544906
-0.00798523 -0.007754027 -1.2178612e-06 -0.0022092047 0.0015812088 -0.0046805968 -0.012728434 -0.0008263414
-0.008062102 0.0031660942 -0.0052326876 -0.012076767 0.010039353 -1.2243551e-33 -0.0020964863 -0.013181152
0.0009118992 0.0008915102 0.00058469106 -3.7400543e-05 0.00029524483 0.0007536237 -3.3727858e-06 0.00043879278
0.0003068699 0.0006446615 0.00031124262 0.0010122991 0.00021179004 0.0013951722 -0.00014687085 3.499768e-08
0.00043834187 0.00081016624 -1.1359875e-06 -2.1844317e-05 0.0005241421 0.00042552518 8.494376e-05 0.00092563085
0.0002303792 0.0014687853 -0.00021908703 -2.1272464e-05 0.0013338674 5.6606523e-06 0.0011404903 -0.00022764578
-0.0037797354 -0.0075893323 0.0023089903 0.0018592548 0.0032952793 0.01075198 -6.229354e-05 0.0029470972
-0.0038820216 0.012400862 0.0037274493 -0.0035676612 -0.0011799475 -0.0058104475 0.0053528054 -0.0007598072
0.0022657327 0.0002719896 2.363245e-06 -0.00039782215 -0.0009083963 -0.0014356204 0.0019441727 0.0094259735
0.0034232216 0.003042448 0.008900988 0.005156032 -0.00029673227 -6.0444627e-06 -0.0032484662 0.012130835
-0.010173149 0.0014087346 -0.024688354 -0.009301064 -0.017627388 -0.056530546 -1.8014733e-05 -0.018373169
-0.0073694005 -0.055601656 -0.02308689 0.00019985688 -0.00024203917 0.0013188729 -0.018296631 3.3821175e-06
-0.020699188 -0.011652048 -5.044774e-06 -0.0015752752 -0.008381711 -0.00093602686 -0.012423058 -0.052204277
-0.011807024 -0.03244232 -0.030393379 -0.019654376 -0.018978836 6.4183834e-05 -0.0050252615 -0.03528984
0.0006049871 0.00021234025 0.003573742 -0.00036819445 0.006322212 0.0016636663 1.4895048e-05 0.0060745967
0.0022944477 0.0068722325 0.0026900386 5.818501e-05 -5.5608627e-05 0.0005247413 -0.002876723 7.5593356e-08
0.006017952 -0.0006866594 -2.1705575e-06 -0.0005823656 0.005912416 0.0023113247 0.0049523637 0.0012838672
0.0016817153 -0.0015156177 -0.0035007636 0.0003661236 -0.0010719167 1.647358e-05 0.007844129 -0.0047359024
00000000: 2513 edbc 1be1 0ebd 5c12 21bc 2717 a83b
00000010: de65 2b3c d91e 1d3b f5f6 16b8 6f71 533a
00000020: ee54 ebbc 1e75 8a3c a4fd aa3a 880f 4bbb
00000030: f6be 87bb 8b54 43bc 53ce 273c f546 a2bb
00000040: a1f9 e83a 6307 833b b12a 3e36 f8af 343a
00000050: 046a d7bb 3185 f0b8 36d2 e93b b4d8 ff38
00000060: 29f0 d63b a522 98bb 9d0a 153c 0bab 383c
00000070: 70ff 3ebc a05a 12b8 961e d1bb 8d01 9c3c
00000080: 8cda 78bc 7f87 abbc c4df 743a ede1 163b
00000090: eb93 853c cf65 a03b 99ed 1d38 cd11 403c
000000a0: 8650 44bc b6a3 ab3c 6ae2 8b3b 00eb abb8
000000b0: 3c3d 5dbb af5b 0aba 9025 4c3b 0844 c4b9
000000c0: 83ec 293c e5ae bbba 857a d7b6 4222 9abb
000000d0: 5c53 e13b 94e9 1fb9 adb0 3a3c 62c8 7d3b
000000e0: 8b85 173c 4d79 96bb d4e1 adba b45f 3d3c
000000f0: 57c7 fcbb 6847 b7b7 a662 203c 0126 6f3b
00000100: d6fb debc 507a 05bd ccc2 13bc 7774 a23b
00000110: 893e 2d3c 4aca be3a 9992 9fb8 e415 b53a
00000120: 8353 d7bc d2a8 823c c9c6 ba3a d221 65bb
00000130: 84ad 82bb 9620 3ebc be2b 163c 6030 8cbb
00000140: 76ac 233b ad9c 4b3b 094a b935 7653 813a
00000150: 8556 b1bb d6dc fb39 3e56 ef3b 3e5a 62ba
00000160: 5078 c33b f387 b6bb ff48 e03b f11a 2a3c
00000170: 84a6 47bc 4faa b7b7 62ae a5bb 9d22 833c
00000180: 55a6 e23c 1814 083d 461d f03b cbe5 cdbb
00000190: 1ca3 91bc a05c 5ebb c34a 0db8 0c4c b9bb
000001a0: 612a e33c 5231 b9bc 35b2 84bb 450a 92b5
000001b0: 79e8 5b3b f634 043c 3626 0abc d63d 953b
000001c0: 7bd4 02bc 7e15 febb 6475 a3b5 4ec8 10bb
000001d0: 9040 cf3a b15f 99bb ec8a 50bc d59e 58ba
000001e0: e816 04bc 3f7e 4f3b f776 abbb a2dd 45bc
000001f0: 197c 243c 4e6e cb88 3465 09bb c2f5 57bc
00000200: 850c 6f3a 3db4 693a f445 193a 87de 1cb8
00000210: 17cb 9a39 d58e 453a 0558 62b6 c50d e639
00000220: 61e3 a039 80fe 283a 472e a339 1faf 843a
00000230: f513 5e39 36de b63a 5801 1ab9 5b50 1633
00000240: 40d1 e539 5661 543a 3c78 98b5 503e b7b7
00000250: 9566 093a 0619 df39 d523 b238 09a6 723a
00000260: f291 7139 4284 c03a baba 65b9 4572 b2b7
00000270: 2ad5 ae3a a2f0 bd36 817c 953a 33b4 6eb9
00000280: 70b5 77bb efaf f8bb 6e52 173b 3db2 f33a
00000290: 9df5 573b 1329 303c 97a3 82b8 1624 413b
000002a0: 8469 7ebb fc2c 4b3c 3948 743b 6ccf 69bb
000002b0: 78a8 9aba 9165 bebb 9666 af3b cc2d 47ba
000002c0: b07c 143b d399 8e39 3d98 1e36 c992 d0b9
000002d0: 7221 6eba 6d2b bcba 9cd3 fe3a 666f 1a3c
000002e0: 2158 603b cf63 473b 73d5 113c eef3 a83b
000002f0: bb92 9bb9 8ad1 cab6 38e4 54bb 69c0 463c
00000300: 48ad 26bc 4aa5 b83a 3b3f cabc 7d63 18bc
00000310: 5067 90bc 938c 67bd 581e 97b7 5483 96bc
00000320: 037b f1bb 90be 63bd b820 bdbc ac90 5139
00000330: e5cb 7db9 08de ac3a d1e2 95bc 56f8 6236
00000340: 5891 a9bc 3be8 3ebc 4746 a9b6 7779 ceba
00000350: 7253 09bc b35f 75ba 158a 4bbc 27d4 55bd
00000360: 3f72 41bc 3de2 04bd 89fb f8bc 3702 a1bc
00000370: 8179 9bbc 6f9a 8638 f3aa a4bb 148c 10bd
00000380: ff97 1e3a a7a7 5e39 7135 6a3b 390a c1b9
00000390: 8f2a cf3b 610f da3a bee5 7937 690d c73b
000003a0: 725e 163b 7730 e13b 5c4b 303b ae0b 7438
000003b0: 4f3d 69b8 cb8e 093a 6787 3cbb e355 a233
000003c0: 3e32 c53b ef00 34ba e5a9 11b6 e5a9 18ba
000003d0: f1bc c13b 9879 173b 7047 a23b 6f47 a83a
000003e0: 006d dc3a b1a7 c6ba 116d 65bb 47f4 bf39
000003f0: 8e7f 8cba be30 8a37 a984 003c a12f 9bbb

exp_avg_sq f4 [32, 32]
0.0017886842 0.0008290754 0.0003329338 0.00022317907 0.0006344149 0.0006047973 1.8484141e-05 0.00050416164
0.00066274905 0.00035720872 0.00039552053 0.000469705 6.558988e-05 0.00077682995 0.00018823818 0.00018655245
0.00026662834 0.0016009948 0.0003152451 0.00067400513 0.00014470746 0.00090309343 0.00015541175 0.0009017649
0.00021945288 0.000937569 0.0003543648 0.00016125094 0.000793648 1.4906554e-05 0.00020437797 0.00022830165
0.0029222576 0.0013513889 0.0012643895 0.0008204942 0.0031974628 0.002626451 7.3316594e-05 0.0016524093
0.0010993092 0.0021162832 0.002386351 0.0007728798 0.00012067395 0.0014805803 0.00056989695 0.0002803535
0.0018833515 0.0042546536 0.0013154333 0.0027350655 0.0006719284 0.0041640545 0.0007743987 0.0032957385
0.00090815057 0.0028707252 0.0007610185 0.0005923747 0.0014011975 3.983179e-05 0.000752389 0.00056619337
0.0012063204 0.0005384461 0.00021061435 0.00014357209 0.00041303423 0.00037524334 1.5044416e-05 0.00035430974
0.0004257645 0.00021320027 0.00024779502 0.00032115975 4.3647928e-05 0.0005486368 0.00011755144 0.00012574614
0.00016383728 0.001016696 0.00022090667 0.00044834163 9.5589974e-05 0.0006092342 9.130372e-05 0.0005958336
0.00016849037 0.0006064319 0.00022174345 9.993921e-05 0.00054352573 1.2904112e-05 0.00014664872 0.0001484108
0.0015045538 0.00065147824 0.0005011127 4.137129e-05 0.00026737995 0.0012094066 6.4184246e-06 0.0004930458
0.00052349444 0.00058288855 0.000718832 1.4725887e-05 4.663545e-06 0.00018661817 3.569263e-05 0.00013492313
0.00042947324 0.00040304117 0.00061693473 3.3217566e-05 0.00020405199 7.068465e-05 0.00015543906 0.0015679479
0.00018967496 0.0008107441 0.00043132243 0.00017246116 0.00037054613 5.058907e-07 0.0001240698 0.000311193
9.558885e-05 0.00010158817 6.3328254e-05 4.9342034e-06 9.156205e-05 0.00029179652 2.7069607e-06 4.3029442e-05
6.117304e-06 0.00013974828 0.00029828536 0.00017883389 1.0993414e-05 0.00034085312 3.2059357e-05 6.044687e-06
0.00010047529 0.000916968 0.00044385256 7.3392504e-05 2.9086477e-05 0.00029757945 7.619938e-06 0.0004410443
0.00014495684 0.00081592554 0.00014641871 1.2510307e-05 0.00035904194 8.672957e-08 8.523637e-05 6.0601105e-05
0.001026117 0.0004387548 0.00021981513 0.00013689512 0.0003776822 0.00045403236 2.8910638e-06 0.00030871804
0.00037508752 0.00025110334 0.00029149515 0.00034146992 4.6760586e-05 0.0005459279 0.000117878204 0.0001096861
0.00017367819 0.0012170263 0.00017873582 0.00043582168 8.110914e-05 0.0006241823 8.840245e-05 0.0006213864
0.0001307467 0.0007239502 0.00023259388 9.380301e-05 0.0005283148 2.7939257e-06 0.0001313687 0.00015185605
0.00036485886 0.00033040356 0.00055762945 0.00057907344 0.0016537776 0.0015915453 1.776805e-05 0.00033839865
0.0002445426 0.0012653393 0.001331984 0.00014740898 0.000109106186 0.00040570775 0.0004983252 2.9644856e-05
0.00094876427 0.0034207904 0.0009333042 0.0017654608 0.00021161223 0.0024609226 0.00041461593 0.001739976
0.00039184862 0.001962279 0.0007599493 0.00041343458 0.00059249415 2.1921736e-05 0.00039141407 0.0005001292
3.9606086e-05 4.824529e-05 0.00024836772 0.00014454985 0.00052422483 0.000816897 8.507415e-06 0.00012748217
4.6829016e-05 0.00075215753 0.0006495507 4.8837122e-05 3.2671454e-05 0.00010491576 0.00018453316 6.5587888e-06
0.0004048382 0.0015609608 0.00048851164 0.0004930326 0.00012206011 0.0009392661 0.00013875819 0.00082316046
0.00011899604 0.001084157 0.00022901526 0.00013649261 0.00012768192 2.3663088e-06 0.00021779438 0.00016966417
00000000: 4872 ea3a 4f56 593a 9e8d ae39 2d05 6a39
00000010: dd4e 263a 428b 1e3a 640e 9b37 b729 043a
00000020: 56bc 2d3a be47 bb39 de5d cf39 bd42 f639
00000030: 4c8d 8938 2da4 4b3a cd61 4539 4b9d 4339
00000040: 40ca 8b39 79d8 d13a 7b47 a539 b8af 303a
00000050: 9dbc 1739 93bd 6c3a 06f6 2239 6b64 6c3a
00000060: ef1c 6639 31c7 753a 0aca b939 7815 2939
00000070: d10c 503a 2917 7a37 4b4e 5639 4264 6f39
00000080: 5983 3f3b 1621 b13a dfb9 a53a 6f16 573a
00000090: 868c 513b 8920 2c3b 8cc1 9938 a895 d83a
000000a0: b216 903a 57b1 0a3b 5464 1c3b 169b 4a3a
000000b0: 5512 fd38 0810 c23a 2365 153a 69fc 9239
000000c0: cada f63a 9f6a 8b3b 9e6a ac3a c93e 333b
000000d0: 5a24 303a 9f72 883b 0401 4b3a 51fd 573b
000000e0: f410 6e3a c722 3c3b 167f 473a 9849 1b3a
000000f0: 63a8 b73a 0f11 2738 f93b 453a 986c 143a
00000100: 651d 9e3a 8226 0d3a 5cd8 5c39 d78b 1639
00000110: 848c d839 4fbc c439 4667 7c37 a6c2 b939
00000120: 2539 df39 838e 5f39 7cea 8139 5561 a839
00000130: 9b12 3738 64d2 0f3a f385 f638 b9da 0339
00000140: bccb 2b39 a842 853a 2fa3 6739 650f eb39
00000150: 7a77 c838 04b5 1f3a 507a bf38 b731 1c3a
00000160: caac 3039 f5f8 1e3a ce83 6839 7496 d138
00000170: 657b 0e3a bd7e 5837 b7c5 1939 b99e 1b39
00000180: 7334 c53a f7c7 2a3a 1b5d 033a 1686 2d38
00000190: 212f 8c39 f484 9e3a d95d d736 be3f 013a
000001a0: 1e3b 093a fdcc 183a 0070 3c3a 340f 7737
000001b0: 8c7b 9c36 efae 4339 abb4 1538 277a 0d39
000001c0: ec2a e139 454f d339 cab9 213a 1753 0b38
000001d0: caf6 5539 883c 9438 5bfd 2239 9a83 cd3a
000001e0: 7ce3 4639 1e88 543a 1e23 e239 b1d6 3439
000001f0: dc45 c239 8bcc 0735 bc18 0239 9e27 a339
00000200: e076 c838 bc0b d538 19cf 8438 7c90 a536
00000210: 0005 c038 44fc 9839 3ba9 3536 837a 3438
00000220: 3e43 cd36 6589 1239 2f63 9c39 5b85 3b39
00000230: 5b70 3837 88b4 b239 7977 0638 77d3 ca36
00000240: 43b6 d238 ae60 703a e2b4 e839 4dea 9938
00000250: bcfe f337 7004 9c39 c5ae ff36 f73b e739
00000260: 8eff 1739 d6e3 553a f987 1939 5ce3 5137
00000270: cb3d bc39 1640 ba33 edc0 b238 f12d 7e38
00000280: c67e 863a ac08 e639 2d7e 6639 818b 0f39
00000290: a603 c639 310b ee39 1904 4236 6fdb a139
000002a0: 65a7 c439 85a6 8339 d1d3 9839 5107 b339
000002b0: cc20 4438 9a1c 0f3a 6135 f738 4707 e638
000002c0: 621d 3639 a084 9f3a 086b 3b39 ff7e e439
000002d0: 2319 aa38 2aa0 233a b464 b938 89e4 223a
000002e0: 0d19 0939 7ac7 3d3a 72e4 7339 1cb8 c438
000002f0: 9b7e 0a3a 477f 3b36 04c0 0939 8c3b 1f39
00000300: 874a bf39 043a ad39 e12d 123a f6cc 173a
00000310: 91c3 d83a 669b d03a 990c 9537 196b b139
00000320: f435 8039 bed9 a53a f795 ae3a cc91 1a39
00000330: f0cf e438 2cb5 d439 0aa2 023a d8ad f837
00000340: 7eb6 783a 572f 603b fca8 743a 0967 e73a
00000350: 3ae4 5d39 6e47 213b cf60 d939 e80f e43a
00000360: 0871 cd39 9499 003b 5637 473a 40c2 d839
00000370: 9c51 1b3a 92e4 b737 b536 cd39 1a1b 033a
00000380: b61e 2638 fc5a 4a38 5a37 8239 4e92 1739
00000390: 226c 093a 0825 563a 12bb 0e37 bcac 0539
000003a0: 466a 4438 702c 453a 9c46 2a3a 76d6 4c38
000003b0: b508 0938 3806 dc38 3e7f 4139 9113 dc36
000003c0: 7740 d439 2799 cc3a 760f 003a dc3e 013a
000003d0: 86fa ff38 1539 763a 9e7f 1139 5dc9 573a
000003e0: 838d f938 461a 8e3a d123 7039 751f 0f39
000003f0: 5be2 0539 e0cc 1e36 bc5f 6439 e1e7 3139

exp_avg f4 [32]
-0.0005315062 0.009695628 -0.000661883 -0.006677142 0.001659115 0.004838558 -0.042928997 0.005772988
-0.003384197 -0.00066995615 0.014440917 0.011681432 0.0011734118 0.013911365 -0.0017005831 -0.0025050628
-1.3043476e-32 -0.003096232 -0.02353492 0.0023686108 0.0069253216 -0.004472167 0.0052889087 0.000762145
0.0054808683 -0.001973848 0.024954127 0.0012921736 -0.022882236 -0.0013077048 -0.0023459382 0.0068033743
00000000: c754 0bba 69da 1e3c 3782 2dba edcb dabb
00000010: a976 d93a c48c 9e3b 51d6 2fbd 552b bd3b
00000020: 67c9 5dbb ff9f 2fba 9999 6c3c 7a63 3f3c
00000030: 2bcd 993a 7eec 633c 1ae6 deba fb2b 24bb
00000040: 8273 878a 27ea 4abb 4ecc c0bc b23a 1b3b
00000050: cfed e23b 428b 92bb 954e ad3b afca 473a
00000060: db98 b33b ad5b 01bb 996c cc3c 275e a93a
00000070: 8773 bbbc 4b67 abba 50be 19bb d7ee de3b

exp_avg_sq f4 [32]
0.0008531358 0.0048662145 0.00054938166 0.0014466255 0.0009934136 0.000678791 0.0026661365 0.0016908842
0.00061432744 0.0021254178 0.003869801 0.0013121003 0.001995641 0.0018723839 0.00564816 0.0010069215
0.00010500421 0.00023591726 0.0021141006 0.001229621 0.002957911 0.0007169665 0.0021337639 0.001885431
0.0015875833 0.0010382492 0.0040567126 0.00064446474 0.0010247723 0.00078111625 0.0011550504 0.0018366034
00000000: f9a4 5f3a c474 9f3b 6104 103a b29c bd3a
00000010: 6e35 823a e5f0 313a 59ba 2e3b a9a0 dd3a
00000020: d10a 213a 984a 0b3b 7d9c 7d3b c8fa ab3a
00000030: 4dc9 023b c76a f53a 3314 b93b aefa 833a
00000040: b535 dc38 8f60 7739 b98c 0a3b 3c2b a13a
00000050: 83d9 413b cff2 3b3a 9ed6 0b3b 9120 f73a
00000060: 7516 d03a dd15 883a 2cee 843b 4cf1 283a
00000070: a751 863a d3c3 4c3a 0f65 973a 2fba f03a

exp_avg f4 [5, 32]
-0.0025977765 -0.0020534042 -0.0031372453 -0.0005694798 0.000115329 -0.0015440196 -0.0035707373 -0.0009472407
-0.0015909342 -0.0032759195 -0.0025146238 -0.00055834337 -0.0011442928 -0.0002728443 -0.0006980614 -0.0014469615
-3.8561992e-35 -0.002515632 -0.0014416717 -0.0015110614 -0.00075139466 -0.00010465556 -0.002440897 4.67256e-06
-0.00085369044 -0.0017133083 -0.0012834419 -0.0001732703 -0.0026730928 -0.0013484309 -0.0013342043 -0.0015193636
0.017360575 -0.002978626 0.009310844 0.03126849 -0.00020421819 -0.012416437 -0.018155353 -0.0008366564
0.004723207 -0.012638322 -0.005514217 -0.0007264799 -0.0010452513 -0.00010838751 0.001553295 -0.007061241
2.14339e-34 0.0054883794 -0.0044531072 0.0005690205 0.021825392 0.0011039372 0.040518396 -1.1771249e-05
0.0074856095 0.01256215 -0.001813782 0.011420622 -0.012294741 0.021718737 0.0023966816 0.05597817
-0.0039446857 0.00017806877 -0.0039002856 -0.0006109879 -0.00042913647 -0.0040789144 -0.0036034563 -0.00012144159
-0.0026555322 -0.0034040052 -0.0015956007 -0.00012979438 -0.0005555105 0.0002660732 -0.0015126303 -0.003454253
-1.1887289e-34 -0.0039179274 -0.0021814662 -0.0020542277 0.00082246977 -0.0011519586 -0.0024622912 -5.030731e-06
-0.0021493612 -0.005223829 -0.00023903033 -0.0005972013 -0.0032906677 -0.0033721407 -0.0018973559 -0.00062654115
0.00671771 0.011814673 0.0102661345 0.004831756 0.00035998446 0.00086808216 0.011907699 0.006386766
0.003433081 0.010287595 0.011572111 0.004334638 0.005945995 0.001252218 0.0043666046 0.0018241528
-1.1146725e-34 0.007493969 0.0031888434 0.0038612674 0.0033173626 9.550815e-05 0.012540117 2.315657e-05
0.00049977115 0.0009533042 0.007664271 6.848715e-05 0.007785948 0.0028417741 0.0033574689 0.011547719
-0.007144739 0.001252905 9.51346e-06 -0.032641873 -0.00030327466 0.023347363 0.027704787 -0.00069246616
0.0024539048 0.022134326 0.008110824 -0.0006866483 0.0013762288 -4.5682355e-05 -0.0009169627 0.015926143
2.0881105e-34 0.0035137197 0.010654087 0.005179237 -0.022208266 0.00047579137 -0.03839177 -2.971739e-05
-0.0015675776 0.0002749021 0.0008057502 -0.0100255655 0.021164922 -0.014446229 0.002814218 -0.05930256
00000000: 753f 2abb 6892 06bb 3e9a 4dbb 2449 15ba
00000010: c9dc f138 b360 caba 0803 6abb 3f50 78ba
00000020: e586 d0ba cfb0 56bb 63cc 24bb ca5d 12ba
00000030: 18fc 95ba 8b0c 8fb9 1cfe 36ba f9a7 bdba
00000040: dd07 4d86 4ddd 24bb 7af6 bcba cf0e c6ba
00000050: 3ef9 44ba 877a dbb8 75f7 1fbb fcc8 9c36
00000060: 32ca 5fba 1691 e0ba 2a39 a8ba e4af 35b9
00000070: 0e2f 2fbb d5bd b0ba 78e0 aeba 6225 c7ba
00000080: c437 8e3c 0d35 43bb 838c 183c 6313 003d
00000090: 6723 56b9 506e 4bbc 89ba 94bc 1053 5bba
000000a0: 22c5 9a3b f710 4fbc 9bb0 b4bb 3e71 3eba
000000b0: d000 89ba 1a4e e3b8 ee97 cb3a fc61 e7bb
000000c0: e473 8e07 ddd7 b33b 5feb 91bb 522a 153a
000000d0: 2acb b23c fcb1 903a 9ef6 253d 217d 45b7
000000e0: d849 f53b 7ad1 4d3c 6dbc edba 8f1d 3b3c
000000f0: e26f 49bc 7eeb b13c a511 1d3b 5e49 653d
00000100: 6c42 81bb f9b7 3a39 ef9b 7fbb b42a 20ba
00000110: b9fd e0b9 6aa8 85bb f727 6cbb 75ae feb8
00000120: 7008 2ebb bb15 5fbb 7a23 d1ba 6a19 08b9
00000130: ae9f 11ba be7f 8b39 7343 c6ba c060 62bb
00000140: 5902 1e87 f561 80bb eef6 0ebb 39a0 06bb
00000150: 039b 573a 51fd 96ba 645e 21bb a6cd a8b6
00000160: 4cdc 0cbb a72c abbb 37a4 7ab9 808d 1cba
00000170: 3ea8 57bb 22ff 5cbb b3b0 f8ba 773e 24ba
00000180: 3c20 dc3b 5592 413c 4a33 283c b553 9e3b
00000190: 4cbc bc39 0290 633a 8218 433c 1448 d13b
000001a0: 8bfd 603b 4d8d 283c f498 3d3c 9409 8e3b
000001b0: 9fd6 c23b 7721 a43a bc15 8f3b 6918 ef3a
000001c0: 572a 1487 f88f f53b eafb 503b 510d 7d3b
000001d0: 1c68 593b 8c4b c838 1075 4d3c 5b40 c237
000001e0: 1303 033a 29e7 793a 9124 fb3b c2a0 8f38
000001f0: 4421 ff3b 0f3d 3a3b fb08 5c3b a532 3d3c
00000200: 6a1e eabb 8438 a43a 009c 1f37 7cb3 05bd
00000210: d600 9fb9 f842 bf3c 26f5 e23c 9e86 35ba
00000220: b1d1 203b 0c53 b53c 43e3 043c 3000 34ba
00000230: 9362 b43a 0e9b 3fb8 5360 70ba 8b77 823c
00000240: 5cc7 8a07 6f46 663b 7b8e 2e3c 97b6 a93b
00000250: 1cee b5bc a373 f939 b040 1dbd 9c49 f9b7
00000260: 2d77 cdba bc20 9039 fb38 533a 4542 24bc
00000270: 0f62 ad3c e0af 6cbc be6e 383b 3ee7 72bd

exp_avg_sq f4 [5, 32]
4.1511492e-05 1.8093937e-05 5.6805096e-05 8.768542e-06 2.050522e-06 1.8638624e-05 3.2037355e-05 3.7276702e-06
2.1801456e-05 2.5616162e-05 1.7958915e-05 1.7006953e-06 8.071837e-06 2.5571358e-06 7.5795497e-06 2.7545895e-05
4.4952728e-08 3.2948235e-05 9.420422e-06 2.0322062e-05 5.461773e-06 3.8939293e-06 2.4488027e-05 9.3650954e-07
8.659969e-06 4.354989e-05 9.859159e-06 6.1736764e-06 2.4591003e-05 2.9406408e-05 9.074979e-06 3.0737192e-05
0.004129868 0.00036313754 0.003334203 0.0057385373 4.403913e-05 0.00065346016 0.000664964 5.3386004e-05
0.0012919543 0.0005968897 0.0003607992 2.5342642e-05 0.0001695973 8.7321496e-05 0.00016131465 0.0009072574
1.424446e-06 0.0018578125 0.0001689809 0.00058537733 0.00039857463 8.096092e-05 0.008421474 2.2485421e-05
0.000445269 0.0030996923 0.00021437427 0.00084003067 0.00056671264 0.0031401173 0.0010814456 0.012501707
0.00080515957 0.00039003347 0.0012227597 6.2372106e-05 9.013583e-05 0.0004182029 0.0011758942 0.00017978596
0.00046982596 0.00079188845 0.00034299179 0.00011102402 0.00017638494 1.4831804e-05 0.00013786672 0.00060700986
1.1094265e-06 0.0005609786 0.00035246465 0.0007933224 8.744755e-05 9.006498e-05 0.00024278068 2.8684488e-05
0.00018797773 0.00073750416 0.00018693382 4.420093e-05 0.0009420368 0.000660451 0.00015158007 0.0002582847
0.0010902863 0.0005024999 0.0015694668 0.00011849272 7.0691014e-05 0.00046677957 0.0013154906 0.00019721892
0.0005906523 0.0009658161 0.0004816091 0.00011201436 0.00023604682 4.594757e-05 0.00018357001 0.00072916335
1.2935236e-06 0.0008228357 0.00039984062 0.0007858627 0.00016281889 0.00011492332 0.000444988 2.8869823e-05
0.00024492075 0.0010477848 0.00023384808 0.00010565827 0.00095090375 0.0007555663 0.0002296208 0.00049130956
0.004067712 0.00026948645 0.0032980032 0.00571168 2.6107324e-05 0.000645662 0.0005736678 3.1993073e-05
0.0013103533 0.0005856108 0.00028314753 1.1717351e-05 0.00014773873 7.734993e-05 0.00019075625 0.0009298941
1.3855675e-06 0.0018029714 0.000227703 0.000627864 0.00044268466 0.00010413859 0.008086466 2.3465891e-05
0.00052930915 0.0031278725 0.00014079665 0.00082489237 0.0005961244 0.003086251 0.0010448333 0.012233265
00000000: a01c 2e38 6fc8 9737 0242 6e38 9a1c 1337
00000010: b39b 0936 245a 9c37 d95f 0638 e328 7a36
00000020: 45e2 b637 4ae2 d637 7aa6 9637 7243 e435
00000030: 476c 0737 429b 2b36 d653 fe36 5c12 e737
00000040: 0c12 4133 e631 0a38 680c 1e37 4c79 aa37
00000050: 4644 b736 99a8 8236 a36b cd37 7264 7b35
00000060: 494a 1137 57a9 3638 c468 2537 7a27 cf36
00000070: c748 ce37 c8ad f637 bd40 1837 cfeb 0038
00000080: d853 873b 7f63 be39 a582 5a3b 570a bc3b
00000090: a8b6 3838 f84c 2b3a fb50 2e3a c9ea 5f38
000000a0: cb56 a93a 9778 1c3a a629 bd39 e996 d437
000000b0: eed5 3139 5f20 b738 9226 2939 03d5 6d3a
000000c0: 982f bf35 d881 f33a 7730 3139 0274 193a
000000d0: c8f7 d039 90c9 a938 39fa 093c 139f bc37
000000e0: fe72 e939 3524 4b3b a8c9 6039 8135 5c3a
000000f0: 718f 143a 6dca 4d3b 4bbf 8d3a f6d3 4c3c
00000100: 5811 533a 687d cc39 0245 a03a c5cd 8238
00000110: 4e07 bd38 3e42 db39 7620 9a3a ed84 3c39
00000120: f952 f639 bc96 4f3a 94d3 b339 91d5 e838
00000130: f9f3 3839 1dd6 7837 5190 1039 be1f 1f3a
00000140: 9be7 9435 a30e 133a 01cb b839 f7f6 4f3a
00000150: 0c64 b738 45e1 bc38 f192 7e39 789f f037
00000160: e31b 4539 1155 413a aa03 4439 6364 3938
00000170: 05f3 763a 1e22 2d3a 77f1 1e39 636a 8739
00000180: f0e7 8e3a 33ba 033a 91b6 cd3a 4b7f f838
00000190: f33f 9438 18ba f439 8a6c ac3a 8dcc 4e39
000001a0: 01d6 1a3a d22e 7d3a 7b80 fc39 40e9 ea38
000001b0: 5683 7739 d4b7 4038 b37c 4039 5325 3f3a
000001c0: 229d ad35 92b3 573a b3a1 d139 5a02 4e3a
000001d0: 5dba 2a39 fd02 f138 474d e939 792d f237
000001e0: b568 8039 d355 893a 1e35 7539 da94 dd38
000001f0: 1246 793a 3211 463a 5dc6 7039 3acb 003a
00000200: 714a 853b dc49 8d39 5023 583b 0b29 bb3b
00000210: 0d01 db37 a541 293a 3262 163a 4d30 0638
00000220: 29c0 ab3a ad83 193a 6b73 9439 a495 4437
00000230: 50ea 1a39 ed36 a238 be05 4839 23c4 733a
00000240: bdf7 b935 ae51 ec3a 8fc3 6e39 3d97 243a
00000250: 2118 e839 fb64 da38 197d 043c 9ed8 c437
00000260: 56c1 0a3a fefc 4c3b d0a2 1339 973d 583a
00000270: 3b45 1c3a b342 4a3b caf2 883a 086e 483c

exp_avg f4 [5]
-0.0024461995 0.003356093 -0.004193921 0.0075229304 0.005545887
00000000: 6b50 20bb e6f1 5b3b 296d 89bb ea82 f63b
00000010: 46ba b53b

exp_avg_sq f4 [5]
4.3399476e-05 0.0016357709 0.0013301772 0.0013881602 0.0016759131
00000000: d507 3638 5d67 d63a 5759 ae3a edf2 b53a
00000010: 50aa db3a

exp_avg f4 [1, 32]
-0.06045031 0.03254611 -0.022621702 -0.12141405 0.0022574523 0.070057355 0.08210302 0.010960851
-0.010106751 0.06819577 0.04122815 0.0039397967 0.010553985 0.005509882 0.0027052725 0.04968455
-1.6372775e-34 -0.009989395 0.013584485 0.0015367655 -0.10462329 -0.0034497727 -0.15686294 2.3795543e-05
-0.020450428 -0.028875215 0.0284588 -0.04298333 0.058115378 -0.08477959 0.0030342434 -0.22955497
00000000: bf9a 77bd 124f 053d 2651 b9bc eea7 f8bd
00000010: c4f1 133b 3b7a 8f3d a125 a83d 2495 333c
00000020: c996 25bc 39aa 8b3d d9de 283d 6919 813b
00000030: 9fea 2c3c 3d8c b43b f14a 313b 0782 4b3d
00000040: aba1 5987 8faa 23bc 7691 5e3c 4b6d c93a
00000050: bc44 d6bd 9515 62bb aea0 20be 8a9c c737
00000060: a887 a7bc b78b ecbc 6e22 e93c 4a0f 30bd
00000070: 640a 6e3d eca0 adbd 28da 463b 7510 6bbe
