modelA2C_player_0.pth (torch, 154896 bytes, 21 tensors)

model.0.weight f4 [64, 6]
00000000: 67cc ae3d 7978 ac3e 0e09 66be f021 6c3e
00000010: 9605 623d a6a3 91be 8b38 463d 3f25 2abe
00000020: 2f4f 483e c6a4 263e bdb1 b93e 7a5d 7e3c
00000030: 0462 cbbe 9bb3 8c3e 6678 4dbe d047 cdbe
00000040: 970f 71be 292d 92be 8cb6 283d 9c43 693d
00000050: d501 c23e e9be dd3d d5b4 febd 1350 aabe
00000060: 3109 dabd 3615 d3bc bd5e c53e 65d3 83bd
00000070: ac8f 62bd 00e1 9bbe d694 a03e deec 8f3e
00000080: ee2e 833e 2c0b e8bd 9158 c8be ee8f 8a3e
00000090: a058 b23c 845e 723e 685f 693e f03c 1f3e
000000a0: 34c3 b7be d47a 1a3e 283a b9be f8b6 c3be
000000b0: cf7b bd3e e54b aabe 718d 58bd 64da b5be
000000c0: a08b a3be cc5d 8b3e 84bc 8c3e 5ab2 63bb
000000d0: d63a 3b3e 2443 0a3d 7b23 97be 56af 2cbe
000000e0: 8c2f 313e 0560 47be 6125 0b3e e582 5dbe
000000f0: af97 c0be ecb3 89be adac cabe 2791 623e
00000100: 94e5 5f3e 3d77 613e f9a3 a93d 8f46 fabd
00000110: 6114 903e e866 0e3e 5be3 20be f0c5 ba3e
00000120: e4ef a3bb 3d49 29be 3fa4 6a3e 09c2 933e
00000130: 67a7 683e 4f7a b03e d1ca 923e 72df 95be
00000140: 6d05 68bd b831 89be 97b0 b2be 5b14 75be
00000150: 1db5 31be 8a05 75bd 1360 a93d d79d 4c3e
00000160: a564 58be 7f2c 16be de2f e7bc 4d68 82be
00000170: cc13 84be d8fc a7bd 2ae2 053d e030 ecbd
00000180: a205 b23d 2c71 adbe bada 3c3e e507 1fbe
00000190: f048 993e c1d2 97bd f93d ae3d ba03 313e
000001a0: cbc9 b2bd aba3 b53e 1d1c 1c3d dfa7 abbe
000001b0: e682 c43e fc55 b43e c8b7 c93e b031 693e
000001c0: 600c ce3d 0fa6 c8be 159e bf3e d60f b4be
000001d0: a116 863e 4992 2bbe 1d2a 8f3e ef67 88be
000001e0: 20e2 5b3e e24e b53e 5490 6a3e 200d 083e
000001f0: 7001 aebe 6280 c93e ae30 b63e 7ecc 9a3e
00000200: 5f8d 66be ca3e 21be ee6d 883e 9fb7 82be
00000210: fae6 cc3e e03a 9a3e 5234 833e 9040 0f3e
00000220: bdf4 47be 8871 263e 7a97 cc3e 28e0 cc3e
00000230: 40d3 3a3e 1a55 a2be 782a 40bd f823 653d
00000240: 42c3 cb3e 3a26 9b3e f4bf 6b3e 488a b43d
00000250: 86a2 853e 645e 013e 1eaf 6abe 074e bd3e
00000260: b0db 933e 2e5c a53d 553f c4be 3153 213e
00000270: 56ff cf3c 147f 21bc ccf2 4a3d 59a9 ee3b
00000280: 3a61 9c3c 4974 a03e beb5 55bd 3dcb d6bd
00000290: 289d a03b 516b a63e 6393 b5be b3f8 11be
000002a0: 4e7a bd3e f768 1cbe f1b4 bebc 3268 b7be
000002b0: fee1 133e 044d af3e bf1e c93e d936 b0be
000002c0: 15bc 4e3e 6d49 1bbe 124c 8fbb 77a1 7cbe
000002d0: 23e3 54bd 1361 263e 1157 83be da82 ce3e
000002e0: 7d80 983e d429 673e 285b b4be 2770 043e
000002f0: e8c3 893d 74fb dc3d d29c ae3e 1fa7 a6bd
00000300: d620 7ebe 211c a3be 4335 16be ed2d 873e
00000310: 14e2 0e3e d3c2 aa3d f8f0 79be f492 aa3e
00000320: 3c91 b7be c52c 02be 4519 37be ffdb d9bc
00000330: 145d a83e d01b eb3d d4a6 133e daad 12be
00000340: 8406 c6bd 1839 4ebd 5ec1 a1be c024 bf3e
00000350: 6cb1 b4be 9a1a 713e 1ca4 8bbe 7ddd 29be
00000360: 4e28 53be 6eef d13d 28fd 10be f2df 513e
00000370: 8d36 f9bd 3961 3dbe f379 9c3e 6003 a5bd
00000380: d427 cabe daff cc3b 9768 163e b438 843e
00000390: ab83 6c3c 3da9 93be f5d7 0bbe 48e4 ce3e
000003a0: 5be4 353d 05b0 653e 7e39 723e 00e3 8ebe
000003b0: 4f1c 8b3e fbad a5be 4f6b c03e bc06 3abe
000003c0: 576a cd3e f16a c3be 2b60 9c3e 1902 5e3e
000003d0: f548 b53e 6948 a7be 6b50 81be c957 a13e
000003e0: 2cba de3c cea8 733d d2c7 a2be 1c6e 123e
000003f0: 34b5 8fbe 6910 adbe 40a6 453e 5c75 82be
0.085350804 0.33685663 -0.22464392 0.23059821 0.05518111 -0.28445166 0.048393767 -0.16615771
0.19561456 0.16273794 0.36268416 0.015525216 -0.39723217 0.27480778 -0.2006546 -0.4009385
-0.23541103 -0.2855008 0.041189715 0.056949243 0.37892023 0.10827429 -0.12436835 -0.33264217
-0.10646284 -0.02576695 0.38548842 -0.06436805 -0.055312797 -0.304451 0.31363553 0.28110403
0.25621742 -0.11330256 -0.3913007 0.27062935 0.021770775 0.23668867 0.22790301 0.1555059
-0.35891116 0.15085918 -0.36177182 -0.38225532 0.3700852 -0.33261028 -0.052869264 -0.3551818
-0.31942463 0.2722 0.27487576 -0.0034743757 0.18284163 0.033755437 -0.29519257 -0.1686376
0.17303294 -0.19470222 0.13588478 -0.21631964 -0.37615725 -0.26895082 -0.39584866 0.22125684
0.21864921 0.22018142 0.082832284 -0.12220489 0.28140548 0.13906443 -0.15711729 0.3647914
-0.0050029624 -0.16531844 0.22914217 0.28858975 0.22720109 0.34468314 0.28670362 -0.29272038
-0.0566458 -0.26795745 -0.34900352 -0.23933546 -0.17354245 -0.059819736 0.08270278 0.19982086
-0.21132143 -0.14665411 -0.028221067 -0.254702 -0.25796354 -0.08202523 0.03268639 -0.1153276
0.086924806 -0.33875406 0.18442813 -0.15530355 0.2993846 -0.07413245 0.08507914 0.17286578
-0.08729895 0.3547643 0.03811275 -0.33526513 0.38381118 0.3522185 0.39398026 0.2277286
0.10060954 -0.39189193 0.37425295 -0.35168332 0.2618914 -0.16755022 0.27961817 -0.26641795
0.21472979 0.35411745 0.2290662 0.13286257 -0.33985472 0.3935576 0.35584015 0.3023414
-0.22514866 -0.15746608 0.2664637 -0.25530717 0.4001997 0.30123043 0.25625855 0.13989472
-0.19526954 0.16254246 0.39959317 0.40014768 0.18244648 -0.31705552 -0.0469155 0.055942506
0.39797407 0.30302602 0.23022443 0.088154376 0.26100558 0.12633663 -0.22918364 0.36973593
0.28878546 0.080742225 -0.38329569 0.15754391 0.025390308 -0.009856958 0.049547955 0.0072833714
0.01908933 0.3133872 -0.052175276 -0.104879834 0.004901547 0.3250375 -0.3546401 -0.14255027
0.37007374 -0.15274416 -0.023279639 -0.35821682 0.14441678 0.34238446 0.3928127 -0.34416845
0.20188935 -0.15164728 -0.004373082 -0.24670969 -0.051974427 0.16247968 -0.25652364 0.40334207
0.2978553 0.2257455 -0.35225797 0.12933408 0.06726819 0.107901484 0.3410402 -0.081373446
-0.24817213 -0.31857398 -0.14668755 0.26402226 0.1395343 0.08337941 -0.24408329 0.3331524
-0.35852993 -0.1271239 -0.17880733 -0.02659416 0.32883513 0.11479914 0.14419109 -0.14324132
-0.096692115 -0.050347418 -0.3159284 0.37332726 -0.35291612 0.23545304 -0.27273643 -0.16588397
-0.20620844 0.10250746 -0.14159071 0.20495585 -0.12168608 -0.18494119 0.3056179 -0.08057284
-0.3948351 0.006256086 0.14688335 0.2582451 0.014435689 -0.28840056 -0.136566 0.4040854
0.04440723 0.22430427 0.23654744 -0.27907562 0.27170035 -0.323593 0.3758187 -0.18166631
0.40120193 -0.38167527 0.3054212 0.21680488 0.35407224 -0.32672432 -0.25256667 0.31512287
0.027188383 0.059487157 -0.31793076 0.14299816 -0.28067935 -0.33801582 0.193017 -0.25480163

model.0.bias f4 [64]
00000000: fe4a cebe e3e7 303d 153f cc3e 1108 5d3c
00000010: 64f2 793d 7068 4cbd 2056 a23c b44a cfbd
00000020: 1ea2 b23e 47e6 ad3d b38d 9dbd e78f 97be
00000030: 00b1 a73d c78f a73c bb22 16be bd92 21be
00000040: 5391 bd3d 9d72 f23d 48c3 623e 1ba3 bdbe
00000050: e6f3 c53e 0427 903e 2259 c93e 7dbb b9be
00000060: cc72 c13e 80ae 323e e893 27be dfd6 2a3e
00000070: e898 783e a63e ce3e f391 1fbd d92d a83e
00000080: 5eaf cf3e 6264 73be 286c c3bd aa64 063e
00000090: 7b02 263c b066 903e 4a02 abbe 7d07 d1be
000000a0: 749e b0bd af50 5fbe 3da3 abbe c193 af3e
000000b0: ef9a 6c3e b18b 983d 78eb 88be fd51 a23e
000000c0: 7dca 993d 921e babd 590a c7be 8282 f4bd
000000d0: 1d43 88be 48db da3d f6f6 7e3e ba90 953e
000000e0: db81 55be d18c c13c 014b 93be ce2f 0e3e
000000f0: ef4f 97be ba5f c3be a7a1 ca3e 06ab babe
-0.4029159 0.043189894 0.39891878 0.013490693 0.061022177 -0.049904287 0.019816458 -0.1012167
0.3488931 0.084911875 -0.076930426 -0.29601976 0.08188057 0.0204543 -0.14661686 -0.15778632
0.09256234 0.11838267 0.22144806 -0.37038502 0.38662642 0.28154767 0.39325815 -0.36275855
0.37782896 0.17449379 -0.16365016 0.1668353 0.24277079 0.40282172 -0.038957547 0.3284748
0.40563482 -0.23768762 -0.095421135 0.13124338 0.010132427 0.28203344 -0.33400184 -0.40826026
-0.086239725 -0.21808122 -0.33522978 0.34292415 0.23105977 0.07448519 -0.26742148 0.31703177
0.07509325 -0.09087862 -0.38875082 -0.11938955 -0.26613703 0.10686356 0.24898896 0.2921198
-0.20850317 0.023626717 -0.2876816 0.13885424 -0.29553172 -0.3815897 0.39576456 -0.36458606

model.2.weight f4 [64, 64]
00000000: 00ee 6a3d 30aa 693d ab34 89bd be6b 64bc
00000010: aba4 fb3d 0444 eb3d c092 96bb 80f4 55b6
00000020: 1ace bebd 9b17 6cbc bacc 733d 264e 9a3b
00000030: f58f 10bb e517 a83d 44e8 2d3d af81 08bc
00000040: b32d b0bd c63a ecbc ce02 86bd b3c1 e13d
00000050: 803c 033c 1c74 7cbd 786a e33d e4c2 d53d
00000060: c09a 723d bd3c a93d d18e bfbd 7132 ed3d
00000070: d0a2 5f3d ddf2 a63d c9a3 963c e224 8ebd
00000080: 5d6d b7bd 08e0 103d 2af8 f93d 46fb 36ba
00000090: d94d 0a3d a00f 57bd 2f44 fcbc ab09 f83d
000000a0: 3f14 933d d933 2b3d 9f03 443c f37f bfbd
000000b0: 8bd3 1f3d 4947 ba3d 5125 cb3d 4ffc bbbd
000000c0: b775 55bd d57d a83d 8769 cb3d bf69 863d
000000d0: 72b8 d0bc 0cc7 493d d4d7 17bd a2c2 f93d
000000e0: 6b9e 713b b872 25bd 767a 92bd 4ca2 a43d
000000f0: 8ada b7bd 051b ae3c d444 0d3d 6814 b2bc
00000100: 45c0 c1bd e4de c13d d807 593d 907d c1bd
00000110: e247 e6bd 985b f73c 1895 673d 31ee 51bd
00000120: 741a 003e d7ed 6fbd cc07 b7bd 8649 c23d
00000130: 3a8f de3d 42a9 823d 3c0f 4fbd 7794 ce3d
00000140: d824 8c3d 706a a23c c07d 0dbb 5250 dabd
00000150: 38cf 463d bc72 203d b8e4 59bd fcdb b53d
00000160: a097 66bd 8861 09bd f0a8 46bc 7a1c eabd
00000170: 6c88 53bd 7a6c d33d 0a1e fd3c 17bd 603d
00000180: 61a7 0f3d 0718 ccbc fcd9 053d fe3b 803d
00000190: f63d babd f8ed 853d e049 a8bc 242d 233d
000001a0: acf7 45bd 5ccb 16bd d696 793c 60e8 943b
000001b0: 0a43 e53c cea7 b0bd a939 f5bd 2012 c53c
000001c0: 9fc4 14bb f03e 443c c119 adbd 1c55 493d
000001d0: 7004 b5bc 54de 3abd 3076 d6bc ba7f 3dbd
000001e0: 6855 bb3d d6e2 f1bd 10ea 703d 55d0 fbbc
000001f0: 02b7 88bd 5d42 c53d a832 4dbd 1bbb c23d
00000200: 8480 e33d 8bf8 7fbd 979b 86bd 972c cf3d
00000210: 95b9 ec3d e025 633d f092 823c a2d1 e63d
00000220: b3d5 7bbd 89e9 8b3d a1b4 843d 9928 0ebb
00000230: 0877 763d e50e a33d bd8e d2bc d7fe 6ebd
00000240: 9856 903d f4be 07bd 2a94 a0bd 382c f9bd
00000250: a813 2dbd 6cbd 47bd 5624 92bd 40fd abbd
00000260: f01c 453c 60d9 10bd a5f6 6d3d 09c7 f0bd
00000270: 393e 94bd c7c7 89bd b227 a0bd 5c65 41bc
00000280: 639b 213d 6404 54bd 4e97 e63d cd57 0f3d
00000290: 589c a6bd 90e4 e23d 1d6b c3bb a1dc 0d3d
000002a0: 77f9 aa3d 9b1c ab3d a378 0abd 0635 f5bd
000002b0: 0f3b a93d 691b 6f3d 7ee1 053c f56e 8d3d
000002c0: 7764 103d f950 c73d e788 803b e104 0ebd
000002d0: 716e 09bd 507b 383d fd9d 613d 2aee c43d
000002e0: aa4d d0bd d08c 2abd 560b 15bd 0956 c7bc
000002f0: 5204 c63c 0e9d f0bd 2abb f5ba 7f2a 76bd
00000300: e803 16bd 08a4 a03d aa67 b3bd a88f 8fbc
00000310: 9c42 d5bd 6666 eebd 20d3 0fbd 4e7f 86bd
00000320: 30c8 e3bd e017 d63b 300d 96bd 12a2 c33d
00000330: 409f 223c d890 e7bd 1096 34bd 8e15 a13d
00000340: c886 f73d 5cdc 413d a836 163d 60eb 943b
00000350: 34ab d33d 6285 d8bd 7464 aabd 22f8 e1bd
00000360: ec1c 263d 58d1 8bbd bcad cfbd 0c79 41bd
00000370: f806 ca3c e099 193d 2852 ae3c 54c6 963d
00000380: 782c cc3c c0b9 a83d 94a9 aa3d f249 ffbd
00000390: a414 03bd 5029 b43d f8fa 503d 8c1d be3d
000003a0: 2afe ec3d 4cb8 2f3d e67e b8bd a4b0 b1bd
000003b0: 52fe f8bd c0e1 873b 5a89 b23d 4a4e d7bd
000003c0: 2c42 f7bd e8b2 bd3c 68e8 563d eec6 edbd
000003d0: 702e 67bc 983f 28bd 7e84 aa3d 8085 a7bd
000003e0: 7a90 df3d 9c21 69bd b4c1 be3d 908d 9a3c
000003f0: a4c6 133d 4eb6 f7bd 5830 93bc 34a5 06bd
0.05735588 0.05704707 -0.06699499 -0.013941703 0.12287267 0.11487582 -0.0045951307 -3.188179e-06
-0.093166545 -0.014409925 0.059521414 0.004709023 -0.0022058461 0.082076825 0.042457834 -0.0083317
-0.086024664 -0.02883662 -0.06543504 0.11023273 0.00801003 -0.061634168 0.11104292 0.10437563
0.059229612 0.08263538 -0.09353412 0.115818866 0.05459863 0.08151791 0.018388646 -0.069406286
-0.08956406 0.035369903 0.12205537 -0.00069801917 0.033765648 -0.052505136 -0.030794231 0.12111219
0.07181596 0.041797493 0.011963754 -0.09350576 0.039020102 0.09095628 0.09919227 -0.091789834
-0.052114215 0.082271256 0.09932237 0.06563138 -0.025478575 0.04926209 -0.037071064 0.121953264
0.0036868106 -0.040392607 -0.07152264 0.08038768 -0.0897723 0.021253118 0.034489468 -0.021738246
-0.09460501 0.09466341 0.052985996 -0.09447777 -0.11244179 0.030195042 0.05653867 -0.051252548
0.12510091 -0.05857643 -0.08937034 0.0948668 0.10867162 0.063799396 -0.050551638 0.10086911
0.06842965 0.019826144 -0.0021589845 -0.10659851 0.048537463 0.03917192 -0.05319664 0.08879849
-0.056296945 -0.03354028 -0.012125239 -0.11431213 -0.051643774 0.10323425 0.030898113 0.05486783
0.035071734 -0.0249138 0.03267859 0.062614426 -0.09093849 0.065395296 -0.020543039 0.03983797
-0.0483319 -0.036815032 0.015233716 0.004544303 0.027986068 -0.08625756 -0.119738884 0.024056494
-0.0022700203 0.011977896 -0.08452178 0.049153432 -0.022096843 -0.045622185 -0.026179403 -0.046264388
0.09147149 -0.11810844 0.05881697 -0.030738989 -0.06675531 0.096317984 -0.050097138 0.09508344
0.11108497 -0.06249289 -0.06572645 0.10115927 0.115588345 0.055456042 0.015939206 0.11270453
-0.061483096 0.06831653 0.06479765 -0.0021691679 0.06017211 0.07961825 -0.025702829 -0.058348503
0.070477664 -0.03314109 -0.0784076 -0.12166637 -0.042255074 -0.04876463 -0.07135837 -0.08397913
0.012030825 -0.035363555 0.058096547 -0.11756713 -0.072384305 -0.06727558 -0.07820071 -0.011803951
0.03945483 -0.051762 0.11259328 0.034995843 -0.08135289 0.11078751 -0.0059636966 0.034634236
0.08348363 0.083550654 -0.033806454 -0.11973004 0.08263218 0.05837575 0.008171437 0.06905929
0.03525206 0.09732241 0.00392257 -0.03467262 -0.03355259 0.045039475 0.05508231 0.09615739
-0.10171063 -0.041638196 -0.036387764 -0.024333017 0.024171982 -0.11748706 -0.0018747796 -0.06009912
-0.03662482 0.078437865 -0.08760007 -0.017524555 -0.10413095 -0.11640625 -0.035113454 -0.0656725
-0.11122167 0.006533608 -0.07326734 0.09552397 0.0099256635 -0.11306924 -0.044088423 0.07865439
0.12086254 0.04732929 0.036673218 0.0045446604 0.10335389 -0.10572316 -0.08319941 -0.11033656
0.040554926 -0.068270385 -0.10140559 -0.04723458 0.024661526 0.037500262 0.02127941 0.07362047
0.024923548 0.08238554 0.08333126 -0.12465276 -0.032002106 0.08796942 0.051020592 0.09282979
0.115719154 0.04290037 -0.09008579 -0.0867627 -0.12157883 0.0041467845 0.08717604 -0.10512979
-0.12073168 0.023156598 0.052467734 -0.116102085 -0.014110193 -0.041076273 0.08326052 -0.0817976
0.109162286 -0.056916818 0.0931429 0.01886633 0.03607811 -0.12095319 -0.017967388 -0.032872394

model.2.bias f4 [64]
00000000: f178 eb3d 44a1 78bd ce5d b3bd 84f9 5fbd
00000010: 0c57 f5bd 8add d33d 8532 573d a042 82bc
00000020: 850f b53c 33e5 933d 1fed 623d c079 d7bd
00000030: 6038 d53d bbaa 473d 83b9 4f3d add7 c6bd
00000040: e292 6dbd 12a4 ab3d 4637 fe3c 5f6a 443d
00000050: 3a4a e73c 3b64 f73d a84e 663d 5e40 cbbc
00000060: e1dd a5bd 0f93 ac3d 9205 9cbd 70b2 e7bd
00000070: b0fc fe3c ccdc 34bd c0da 6339 7338 0d3d
00000080: ec85 283d 49a9 283d 3f1d 8e3d d8f6 05bd
00000090: 47e1 8ebd 4d04 893d 922f 46bc b15a d33d
000000a0: 21af fe3d 5121 573d e58c 27bd 1e02 c8bc
000000b0: 0e70 db3c dbff c13d 174e 35bd 42de a1bd
000000c0: e4a4 123d 603f 3c3d b762 eebc 8837 90bc
000000d0: 505c c53d b154 8c3d 8701 0c3d 75c9 923d
000000e0: 5db1 a23c 6b64 84bd 8ccb 033d 6103 e9bd
000000f0: 108a 58bd 0faa 843d 57aa 9cbd 1e36 ce3d
0.11497677 -0.06070067 -0.08758126 -0.054681316 -0.119794935 0.103449896 0.052538414 -0.01590091
0.022102127 0.07221451 0.055401918 -0.10521269 0.10411143 0.048746806 0.050714027 -0.09709106
-0.058001406 0.08380903 0.031032216 0.047953006 0.028233636 0.12079664 0.056227356 -0.024810966
-0.08098961 0.08426487 -0.0761825 -0.11313331 0.03112635 -0.04415588 0.00021729898 0.034477662
0.041143343 0.041177068 0.06939172 -0.03270611 -0.06976562 0.066902734 -0.012096303 0.103200324
0.12435747 0.052522007 -0.040905852 -0.024415072 0.02678683 0.09472629 -0.044263925 -0.079037204
0.035801783 0.045958877 -0.029099805 -0.017604604 0.09636748 0.06852091 0.034181144 0.07167331
0.019859964 -0.06464466 0.03217654 -0.113775976 -0.05286604 0.064777486 -0.07649677 0.10068916

model.4.weight f4 [6, 64]
00000000: b45d ad3c ff60 94bd df4f eabc f84d d23d
00000010: dc9b 4cbd 4398 243d 55a1 f0bd 2e15 adbc
00000020: 8322 a33c 55aa 593d 405b 2c3d 43fb babd
00000030: 296d 5abd efbf d3bd e96f 8abd 6985 a43d
00000040: be3a eb3d aeaf 01be a37c 883c 47f2 cbbd
00000050: d432 30bd 3d31 8fbd a9f6 ba3d bd74 063d
00000060: cfc0 4bbd 6bc3 edbd 5b8f b3bc 2a6e f03d
00000070: 961f 20bd 7aaa a9bd 45d7 e4bd 76b8 ff3d
00000080: a593 b7bd 37c0 bbbc a21d 123d 46da 10bc
00000090: eb9b 8e3d c934 d13c 69cb da3d e2ca e7bd
000000a0: 9009 e23d 4bf4 d6bd 2c3b a6bd 7f9d b83d
000000b0: 3881 dcbc 64b9 c5bd ea05 4e3d f86b b3bb
000000c0: 262d af3d 2740 013a 1cf4 13bc e448 47bd
000000d0: 5b12 31bc 0f70 653d 31e2 4b3b 57ac b4ba
000000e0: 0925 e1bd b565 e6bd 001d b13d 6d22 acbd
000000f0: 54ce 20bd c252 a6bd 11d7 fbbd 7f26 c8bd
00000100: 967c 1ebd 2f7c 833d 0b19 ddbd de5a 873d
00000110: 5c50 02bd 851b 6abd b4cc 813d f0d7 563d
00000120: 6dd6 a33c 233b 263d f1eb b9bd 114b e9bc
00000130: 6060 913d b8e4 c73d d8ee 643d 83c4 ecbd
00000140: 303b dcbd 86b5 45bd 16c8 763c 8e35 a53d
00000150: 1e24 7d3d f1c2 9c3d a8b0 633d 925f 89bd
00000160: 097a 7f3d 3524 f83d d49b 643d 5087 babd
00000170: 30bb df3d d46e 2abd d2b9 653d f8cb b7bd
00000180: 2c76 92bd fe42 c5bc 2a4e e0bd 31b4 01bd
00000190: 68f1 ec39 2865 38bd a788 823d d6e4 813d
000001a0: 5355 ec3c 9313 013e eb3c c93a 4609 60ba
000001b0: bfb6 b5bd 7d0e 9fbd 15d4 f7bd 353c d43d
000001c0: d851 cf3c 24c2 b03c 91c7 64bd 9e1a 883d
000001d0: 229d e7bc f862 ba3d 4527 6a3d a186 02bd
000001e0: df41 46bd 0a3a f83b ddf0 973d f4d6 503d
000001f0: 62ca 4e3a b7f4 ddbd 3d97 bebd 2a82 99bd
00000200: 99b0 dc3d 7ad5 88bd d31d 2b3d dc32 d4bd
00000210: 881e f8bc 6500 b0bd af02 a93d a41c 793d
00000220: be45 3a3c 6b23 063d 5cef b5ba 1f8c 233d
00000230: da2a 433d 34bf 1fbd 0a5b 533d 2b5c e13d
00000240: b360 9d3c 4abf edbd 6f18 61bc ed74 00be
00000250: 5025 903d ad3c b8bd 5f9d a03d 041e fcbd
00000260: 623e 84bd 6eb4 27bb 68be a4bd 1898 813d
00000270: 213c f53d dad9 abbd 2d15 b23d e909 743d
00000280: 69b8 343d 7321 953d 1e18 8abd 1118 e5bd
00000290: fa3f 553d c543 993a 1c4b 6e3d e480 f53d
000002a0: 962c bf3d 170a cf3d 4d06 b7bd 243b 053d
000002b0: 5705 87bd 6df5 f3bd 873e d03d 9c37 d53c
000002c0: ae3a f03d f07f d63d a3de 32bd 804d ef3b
000002d0: 33ec be3d aa41 61bd 7fd9 edbd adc2 5e3d
000002e0: a8b6 b33d cbca 793d bcf5 3e3d 3854 8bbc
000002f0: 8b53 3f3d bc74 fdbd 8540 a9bd 5881 cfbd
00000300: 1d45 cbbd 9207 31bd aa16 1ebd 7432 41bd
00000310: 9840 a63d 77ee 663d b5a1 e2bd f49c 74bd
00000320: fb65 a23d 0bc7 b03c dec6 81bd 6877 bcbd
00000330: 77c0 18bd 3b56 ea3d f158 90bd e007 8f3c
00000340: 10b8 643c 46b5 f5bc ac89 b93d e6b6 62bd
00000350: 117e 893d 3b4a dc3d 77d8 d5bd 2fe0 e63d
00000360: 9159 003e 4a60 f6bd 69fb ac3d 70ae c73c
00000370: 8d41 8c3d 0b6b 783d 70f0 cdbd b608 45bd
00000380: e777 a3bd ae5c bc3d 66bb dc3d 449c b53d
00000390: 4e07 11bd 3d2c e93d 2c2a 92bd 144a 91bc
000003a0: 6a9c 613d 3604 ae3d 8bf7 353d 2e43 5fbc
000003b0: a978 c93d b495 c53d 2966 263d 8b4a 99bd
000003c0: 80ad 48bd 616b c83c 2103 af3d f46f 273d
000003d0: 5f0e 1d3c c409 563d 1256 c43d 05a5 6a3d
000003e0: 1607 573d 31d6 e73d fb77 a23d 7ffa 9fbd
000003f0: 2bac 003c 6b60 e33c c0a9 ae3d dde5 7e3d
0.021162845 -0.07245063 -0.028602539 0.102687776 -0.049953327 0.04018427 -0.11749522 -0.021128263
0.019913917 0.053140957 0.04207921 -0.091299556 -0.05332676 -0.10339343 -0.067596264 0.080332585
0.114858136 -0.12664673 0.016660994 -0.0995832 -0.043017223 -0.06991813 0.09129078 0.032826174
-0.049744423 -0.11609539 -0.021918943 0.11739762 -0.039092623 -0.08284469 -0.11173872 0.12486355
-0.08963708 -0.022918804 0.03567279 -0.008841103 0.06963333 0.025537865 0.10683329 -0.11317994
0.1103698 -0.10495814 -0.08116755 0.09014415 -0.026917085 -0.09654501 0.05029861 -0.0054755174
0.08553533 0.0004930519 -0.009030368 -0.0486535 -0.010807599 0.05601507 0.0031110162 -0.0013784271
-0.10993392 -0.11249868 0.086481094 -0.08405004 -0.03925927 -0.081212536 -0.1229688 -0.097729675
-0.038693033 0.064201705 -0.10795792 0.066091284 -0.031814918 -0.05715515 0.06337872 0.052452028
0.019999707 0.04058374 -0.090782054 -0.028478177 0.0709846 0.097604215 0.05589184 -0.11560919
-0.107534766 -0.048268817 0.015062353 0.08066855 0.061802022 0.076543696 0.055588394 -0.06707682
0.06237224 0.12116281 0.05581267 -0.0910784 0.10924375 -0.0416096 0.056085415 -0.08974451
-0.07151446 -0.024079796 -0.109524086 -0.031665985 0.0004519329 -0.045018345 0.063737206 0.06342475
0.02884928 0.12605123 0.0015353238 -0.0008546304 -0.08872747 -0.07766435 -0.12100998 0.10363046
0.02530758 0.021576948 -0.055854384 0.06645702 -0.028273169 0.09100908 0.057166357 -0.031866673
-0.048402663 0.007575278 0.07418988 0.050986245 0.0007888434 -0.10837691 -0.0930619 -0.0749553
0.10775871 -0.066813424 0.04177649 -0.10361263 -0.030287996 -0.08593825 0.08252465 0.06081833
0.011369167 0.03274862 -0.0013880539 0.03992855 0.04764829 -0.039000705 0.051600493 0.11003908
0.019211149 -0.11608751 -0.013738736 -0.12544604 0.07038367 -0.08995948 0.07842516 -0.123104125
-0.06457211 -0.0025589722 -0.080441296 0.06327838 0.11974359 -0.08391161 0.08695445 0.059579764
0.04412118 0.072817706 -0.06742881 -0.11186231 0.052062966 0.001169317 0.0581771 0.119874746
0.09334676 0.10109346 -0.08936749 0.032527104 -0.06592815 -0.11912046 0.10168176 0.026027493
0.11729942 0.10473621 -0.043669354 0.00730294 0.09322395 -0.054994263 -0.1161375 0.054384876
0.08775073 0.060984414 0.04662107 -0.017007932 0.046710532 -0.12375781 -0.08264259 -0.10132092
-0.09925292 -0.04322011 -0.038595833 -0.047167256 0.08117789 0.05637976 -0.110659994 -0.059719995
0.079296075 0.021579286 -0.06336759 -0.092024624 -0.037292924 0.114422284 -0.07048214 0.01745981
0.0139599 -0.029993664 0.09059462 -0.055350207 0.067134984 0.10756346 -0.10441678 0.112732284
0.12534167 -0.120300844 0.0844639 0.02437517 0.0684844 0.06064896 -0.100556254 -0.04810401
-0.07981854 0.09197365 0.10777931 0.08867696 -0.035407357 0.11385391 -0.0713695 -0.017735519
0.05508081 0.08496897 0.04442553 -0.013626857 0.09837467 0.09647694 0.04062477 -0.07484921
-0.048993587 0.024465265 0.08545519 0.04087825 0.009585946 0.052255407 0.09586729 0.05728628
0.052496992 0.11320151 0.07933041 -0.0781145 0.007853548 0.027755937 0.08528471 0.062230933

model.4.bias f4 [6]
00000000: ae94 7ebc e681 1abc 05f5 e2bc db66 783d
00000010: 80b1 51bd 2a74 393c
-0.015538378 -0.009430384 -0.027704725 0.060644966 -0.051194668 0.0113192

model.0.weight f4 [64, 96]
00000000: edbf 73bd 995f 25bd 8f77 853d fbb3 bcbc
00000010: bf6e 8f3d 0c41 ebbc 7079 4fbd 230b 8a3d
00000020: c4af 7dbd c09a 793d 7183 8ebd d577 b7bd
00000030: d983 97bd 1155 353d a943 8a3c 98b7 d8bb
00000040: f402 b23d 1a57 cb3d 1e6e 01bb 024b 00bd
00000050: 5473 82bb fda8 cebd 017e 033d bcfb 70bd
00000060: 1811 ccbd c822 b0bd b2fa a63d cde7 883c
00000070: d083 b13a 02d5 7b3d 7c58 e13b 2a0d b7bd
00000080: 4213 bb3c 3ef6 573d ed6c 9ebd 740b a73d
00000090: 832a 70bc e5e3 99bd 039c b83d b516 89bc
000000a0: d9c8 aebd 7ac0 ac3d a4b4 a3bd 51ff 5fbd
000000b0: 1c98 cd3c 7e55 223b e8b9 84bd dbf6 96bd
000000c0: d079 22bd f7d8 603d fc15 a2bd 9ef4 92bd
000000d0: ee05 2cbb 130d 91bd 7e38 e93c f78e 01bd
000000e0: 58b6 3c3d 6fea c8bd e517 a23d 5a20 893d
000000f0: 6392 9c3c 561a aabb 5695 fa3c 8a72 803c
00000100: 2288 983d ac2a 913d 5027 6a3d fc46 3cbd
00000110: 26d1 9dbd d62b 453d f20d 7c3d b740 c93d
00000120: 2ba1 aa3d e48e b3bd 7d6b 3e3c 29b8 bc3d
00000130: 2a35 bebd 156d 533b d82a 66bd 83fe c7bd
00000140: 93ff d1bd fc5a 23bd 7938 2e3c 1978 99bd
00000150: 529c 1bbc 8ba3 6bbd 4a12 ce3c 48d8 82bd
00000160: 20a3 6ebd 235d 6fbd 38a1 343c e5f7 82bd
00000170: 4d2c da3c 831f 9c3d 9124 b4bd f0c5 95bd
00000180: d574 31bd 0427 3cbd f9c7 793c f48d 57bd
00000190: 5a36 b8bd 34c1 733d 9e2a 9f3d 9ad4 21bd
000001a0: 827f 11bd 69f2 babd 7038 853d 67f6 bc3c
000001b0: c9e2 b03c 2d82 423d d2ce 733d b924 af3c
000001c0: 671a 30bd 2d90 8cbd ebd2 9e3d a4e2 27bd
000001d0: 3b6f 9b3d 13f8 0b3d 58dd c73c f41e c03d
000001e0: 8a13 6b3d a500 94bd db3d c8bb c81d abbd
000001f0: eb35 d23b 7630 1cbd 9f3a 5f3d 5c75 b93d
00000200: 8e46 663d f3cb e4bc 9bf9 98bc 61c2 4a3d
00000210: 60d4 a43d 97ce 763c 0e50 cfbd bf19 ca3d
00000220: 115e 82bb 131c 97bb 9da4 ad3c cb38 c93b
00000230: 82d2 d6bc a7b2 89bd a653 98bd b55b b93d
00000240: b15f 0fbd 0c3f 99bb 9da5 aa3d db9a 333d
00000250: edc6 29bd 5d3f e1bc e2a9 c4bd fa44 1c3d
00000260: c7b0 103d e0e7 5abd 7186 4bbd 8f76 a13c
00000270: 327e 83bd 3fdf 4fbd df05 88bd 289e 91bd
00000280: 2813 3c3b 3a0d 4c3b e14e 28bd 4447 013d
00000290: 23ca 743d 9bb6 0dbd 86e4 72bd f1ca 103d
000002a0: a6e6 2fbd b9f6 30bd 5fbd c4bd 7de5 35bd
000002b0: 3746 9a3d 9f4d aa3d e3c0 753c ffcc dd3c
000002c0: aefa 82bd c8ee abbd 902a 9ebc cf7b a2bd
000002d0: f91d 9fbd b065 8439 13d7 3b3d c7e5 8c3d
000002e0: 56ea cbbc bf2f 843c 023e 113d 749a 23bd
000002f0: 3d28 98bd 0f08 2a3d 34aa 603d 38b1 23bd
00000300: d293 ab3d ee47 833d 6630 f53c a735 3d3a
00000310: a30d c73b c36a 43bd bbc0 963c 0cb5 c83d
00000320: 4b8d c13d 0b30 4a3c 1840 d8bc 4530 8ebc
00000330: 669d 1f3d 1fff a2bd 9ebc 2ebc 1255 89bd
00000340: 1d60 c03c 4106 ddbc 2cc2 a7bd 2122 9c3c
00000350: 7906 dbbc 7a6e 8b3d ff62 aabd 8a1f 99bd
00000360: 040b 5e3d 2cc1 abbd 3b84 0bbd ec9e 893d
00000370: 7d13 8e3d abff 0fbc 2145 313c 9d3a 2b3d
00000380: f404 a2bd f380 c5bd 3c88 5d3d 3596 8c3d
00000390: 397a a13c c471 a53d da4b b7bd 3083 3c3d
000003a0: 69fa 03bc 142f 9fbd f878 91bc 3dab 863d
000003b0: 08ed cc3d 8410 c53d 27e9 283d bdfe 5bbd
000003c0: 7ad3 66bd 5344 273c b632 ef3c 3ddd 973c
000003d0: c013 b43d 4e3c 62bd ef8e 85bd 6bab e5bc
000003e0: 1123 aebb 36db 863d 1974 ad3d d4ee 4e3d
000003f0: ec4d 33bd fcb5 94ba 06e4 c4bd b58e 30bb
-0.059509207 -0.040374372 0.065169446 -0.02303504 0.07003545 -0.02871754 -0.05065292 0.067404054
-0.0619352 0.060938597 -0.06958664 -0.08958403 -0.07398195 0.04427058 0.016877966 -0.006613683
0.086919695 0.09928723 -0.0019749473 -0.031321533 -0.0039810333 -0.10090826 0.03210259 -0.058833823
-0.09964198 -0.08600384 0.08153285 0.016712094 0.0013543312 0.061482437 0.0068770032 -0.08938058
0.022836331 0.05272507 -0.0773562 0.081564814 -0.014658573 -0.075141706 0.09014132 -0.01673446
-0.085344024 0.084351495 -0.07993439 -0.054686848 0.025096945 0.0024770196 -0.06480771 -0.07371303
-0.03966695 0.054894414 -0.079143494 -0.07175563 -0.0026248652 -0.07082572 0.02846932 -0.031630483
0.046072334 -0.0981034 0.07914714 0.06695624 0.019112771 -0.005191128 0.030588787 0.015679616
0.0744784 0.07088217 0.057166398 -0.045966133 -0.077059075 0.04813751 0.061536737 0.098267965
0.083315216 -0.087674886 0.011622307 0.09214813 -0.09287484 0.0032261063 -0.056193203 -0.09765341
-0.10253825 -0.03988169 0.010633581 -0.0749361 -0.009497719 -0.057529014 0.025155205 -0.063889086
-0.058261037 -0.05843843 0.011024766 -0.063949384 0.026632452 0.07623198 -0.08796037 -0.07313144
-0.04332431 -0.045935646 0.015245431 -0.05262561 -0.08994742 0.059510425 0.077718005 -0.039509393
-0.03552199 -0.09128267 0.06504905 0.023066713 0.021592515 0.047487427 0.05952341 0.021379815
-0.04299393 -0.06863437 0.07755073 -0.040987626 0.07589575 0.03417213 0.024397537 0.09380904
0.05739168 -0.072266854 -0.0061108894 -0.0835529 0.006415119 -0.038132153 0.054499265 0.09055588
0.05621963 -0.027929282 -0.018673709 0.04950178 0.0804832 0.015063903 -0.10122691 0.09868192
-0.0039784987 -0.004611501 0.021196658 0.0061408035 -0.026223425 -0.06723528 -0.0743783 0.09050695
-0.035003368 -0.004676705 0.083323695 0.043848854 -0.041449476 -0.027496034 -0.09602715 0.03815172
0.035324838 -0.05344379 -0.04968876 0.019709853 -0.06420554 -0.050750013 -0.06641745 -0.07110244
0.0028697941 0.0031135813 -0.04109085 0.031562105 0.059763085 -0.034597974 -0.05929997 0.03534979
-0.042944573 -0.043204043 -0.09606432 -0.04440831 0.07532924 0.08315586 0.014999601 0.027075289
-0.063954696 -0.08395153 -0.019307405 -0.07933771 -0.07769389 0.00025252765 0.045859408 0.06879764
-0.024892014 0.016136048 0.035459526 -0.03994222 -0.0742955 0.04151159 0.05484982 -0.03996393
0.08377804 0.06410204 0.029930305 0.00072177727 0.0060746237 -0.047709238 0.018402448 0.09800157
0.094507776 0.012340556 -0.02639775 -0.017357001 0.038968466 -0.07958817 -0.010665087 -0.06705679
0.02348333 -0.026980521 -0.08191332 0.019059243 -0.026736485 0.06808181 -0.08319663 -0.07476719
0.054209724 -0.08386454 -0.03406165 0.06719765 0.06937311 -0.008788983 0.010819704 0.041803945
-0.07911101 -0.09643736 0.054085 0.06864587 0.0197116 0.0807834 -0.089500144 0.046023548
-0.008055308 -0.07772651 -0.017757878 0.0657563 0.100061476 0.09622291 0.041237976 -0.053709734
-0.056354024 0.010209161 0.029198986 0.018538112 0.087928295 -0.055233292 -0.06521403 -0.02803584
-0.005314239 0.0658478 0.084694095 0.050520733 -0.043775484 -0.001134574 -0.096138045 -0.0026940529

model.0.bias f4 [64]
00000000: cfdb 9bbd 914d c63d 4d79 f8bc 8250 93bd
00000010: 4c95 763d 9194 523d 357c c83c 4b17 e43c
00000020: 1ddb cebd a286 11bd e71a 393b 4e0b 913d
00000030: 7c92 b13d f036 9e3c b491 b7bd 198f b63d
00000040: 18cf 313c 3a46 7ebd 8261 4abd 1597 8fbd
00000050: 948e cdbc 8b51 33bd 3ae7 d4bc f9f4 6cbd
00000060: c183 223d f8e8 053d 6509 9fbd 445c 02bd
00000070: 2f1b e6bc 27de 273d 99f2 393d 2b06 823d
00000080: e262 b1bd 33dd 413d e068 0c3d 60a0 76bd
00000090: 50c5 fc3b af19 543d 8f4e c23d ade3 46bb
000000a0: 1986 87bd 0f6f a9bd 7b41 203d 3ccd 603d
000000b0: 1bf4 893d 5e46 98bd 2f9c 80bd 5aef b7bd
000000c0: e6fb 423d ddf5 56bd 38a7 ba3d 7b6c ecbc
000000d0: 3f11 41bb ee02 33bd 8ed6 c5bc e701 26bd
000000e0: 30e1 9a3d 78b0 36bc 3cc7 d93c bc23 523d
000000f0: 6e21 bcbd 3edd 20bc 3f01 993c eda7 4e3c
-0.076102845 0.09682763 -0.030331278 -0.0719309 0.060200974 0.051411215 0.024473289 0.027843138
-0.10100386 -0.035528786 0.0028244795 0.07082234 0.08670518 0.019313306 -0.089633375 0.089140125
0.010852598 -0.062078692 -0.049409397 -0.070112385 -0.0250924 -0.043778937 -0.025989164 -0.05785081
0.03967643 0.03269288 -0.07765464 -0.031826273 -0.028089134 0.040983345 0.045397375 0.06348833
-0.086614385 0.047330093 0.034279704 -0.06021154 0.007713951 0.051782306 0.0948764 -0.0030348108
-0.06617374 -0.08273136 0.039124947 0.054883227 0.067360125 -0.074352965 -0.0627979 -0.089811996
0.04760351 -0.052480567 0.09113926 -0.028860321 -0.0029459742 -0.043703966 -0.02415016 -0.040529158
0.07562482 -0.011150472 0.02658426 0.05130361 -0.09186064 -0.009818373 0.018677352 0.012613279

model.2.weight f4 [64, 64]
00000000: 467f 683a fef4 d5bc e3ff 12bd a896 9d3c
00000010: 9b34 e63d 7a30 bfbd 30a1 e43d 0714 da3d
00000020: 9815 003e 09f4 d9bd e66c 143d cc5c d43d
00000030: 0c37 bc3d 993f e6bd 7a43 72bd fa8d b43d
00000040: f2e2 c3bc e757 543d 36a0 8bbd ede0 073d
00000050: 19ed c5bd cc9d f13d aca9 e5ba 8cda cbbd
00000060: 6999 c53d 3f9b 86bc 33f0 a8bd 9490 e3bd
00000070: 5b80 8c3d b02e f13d f77c 23bd 2dff d3bd
00000080: fb85 a2bd e072 f93d 919e b23d 7384 16bc
00000090: a1ef fc3d ce2c 22bd c34e d8bc 571b 043c
000000a0: 07d5 6a3d 3ef2 383d 8c5f e53d 088b 9fbd
000000b0: 49aa 003c efc7 8c3d 87d0 393d 5d1e 733d
000000c0: 524c 0abc 1020 8c38 ea77 733d 4ef1 ec3d
000000d0: 32b9 41bc 254d b23d 6b4a 813d 0089 51bd
000000e0: f386 033c 584e c0bc ebbf 8dbc f516 d0bd
000000f0: 445c 223d ef73 b53d dbdd e33d b419 aebd
00000100: 7857 db3c 825d 223d e0e2 95bd 5037 023d
00000110: c4c1 59bd b082 46bd fae4 8bbd daf5 ab3d
00000120: 5026 953d 5921 943d 1d8e cabd 23e9 b2bc
00000130: a2aa 1ebd 5632 283b a763 8a3d 626c 3d3d
00000140: df04 773d c733 a8bd 7af4 e5bd 4a17 0e3c
00000150: f8f5 123d d4f5 81bd d787 d8bd b9bf 7cbc
00000160: 82a2 523d 3625 ee3d c4e0 95bd 4447 b33d
00000170: 6e32 8c3d 35c1 a2bd e87d a4bd c49c 633d
00000180: db32 9e3d 94e0 9a3d 1d44 f6bd e5c9 f03d
00000190: 8815 d1bc 582b c63d 28ec e33d 297e 34bd
000001a0: c254 bb3d d747 b6bd 4ba8 b83d ee2c ff3c
000001b0: 2a03 7dbb 2c3d 35bc 3f29 0fbd 829e b1bd
000001c0: 383e ed3c 69a0 fc3c 3877 c3bb 5c77 85bd
000001d0: 917f 9b3d fbed b1bc 00c5 5dbd ce57 0f3d
000001e0: 383c 5fbc 9ccc 243d 9003 e2bd 1015 ee3d
000001f0: 4062 8fbb 93f2 39bc 5222 4cbd 5c14 173d
00000200: 93a1 7fbc 44be c73d 2c4a 12bd b04c e63d
00000210: 4d53 363d 9498 c5bd 2719 533c 9239 c93c
00000220: 7711 cb3d 785f 58bd 9027 d6bd d4a4 ae3d
00000230: d622 d73d 2a5d bf3d b719 e2bd bdf2 493d
00000240: 80db 8b3b ce95 9cbd 3ff9 a8bd 797f 013e
00000250: bf07 ba3d 8018 a33c 172f de3d e8fe d93d
00000260: 43c7 f1bd 8ad3 c6bd d949 4b3d ab11 e3bd
00000270: e10f 683d c6e5 d7bd 7c3b 59ba 585c c43c
00000280: 60cf 8bbb 5bcb 95bd 6510 bb3d 4f18 38bd
00000290: a7dd fd3d 7957 14bd f6d8 d6bd 6b50 823d
000002a0: 3038 99bc dbe1 d6bd c97b b7bd d502 a9bc
000002b0: f9a7 eebd 618f d23d 8c2e 1cbc 61fa 9b3d
000002c0: e09e aa3d 559f 78bd 516d b9bd aa28 e13d
000002d0: a6c8 fb3d 4517 653d 4ccd 0f3d 4440 eabd
000002e0: c6a5 2cbc 68fa c93c e4f6 0cbd d851 55bd
000002f0: e8a4 ac3c 668a 883d f6ca 8abb 9324 d13d
00000300: fa92 2fbd 705e 82bc 827f 07bd bf74 1e3c
00000310: 03f9 4d3d b45f c93d e306 f73d 990b 0d3d
00000320: 7860 01bd 29b8 f6bd 1689 45bd a8db f3bd
00000330: d22d 873d b85e 963d b885 9fbd 6dc6 a3bd
00000340: 3267 963c 5ce5 b5bd 949f ba3d d197 91bc
00000350: 0610 d63d b05f f3bc 29da b4bd 0063 a63d
00000360: bd13 943d 7e37 d33d a857 f4bd bc6f cb3a
00000370: ec37 da3d fcc8 e43d 146f 463d 47a6 bbbd
00000380: 84b3 743d 8cf7 c1bd 79da be3d 1a69 4abc
00000390: 0179 17bd df0b 98bd f590 da3d 36c8 f53d
000003a0: efe7 1ebc 0c1b c6bb b985 a0bd cb16 bd3d
000003b0: 34bf 93bd f8f4 e43d d373 93bd 9c91 8f3d
000003c0: a2d6 783d c29f a6bc 57c2 96bd 4590 e9bc
000003d0: 29f4 f1bd 13d7 adbc ba00 4a3d 6a6f b3bd
000003e0: 3392 9b3d 68a9 55bd 6fe5 a13c 50f2 143d
000003f0: b28e 923d 513c 0b3d 48c7 a3bd 45e1 9dbd
0.0008869063 -0.026117798 -0.035888564 0.019236878 0.112405024 -0.09335418 0.111635566 0.10648351
0.12508237 -0.10642249 0.036236666 0.10369262 0.09190187 -0.11242599 -0.059146382 0.088161424
-0.023911927 0.051841643 -0.06817667 0.03317349 -0.096643634 0.117976755 -0.001752188 -0.09953794
0.09648401 -0.016431449 -0.08248939 -0.111115605 0.06860419 0.11776483 -0.039914098 -0.10351405
-0.07935711 0.12180114 0.087216504 -0.009186852 0.12350393 -0.03959351 -0.026404744 0.008063159
0.057332065 0.045152895 0.11199865 -0.0779019 0.007853099 0.06874072 0.045364883 0.05935513
-0.008441048 6.681692e-05 0.05944053 0.11569463 -0.011823939 0.087061204 0.06313022 -0.051156044
0.00802778 -0.023474857 -0.017303428 -0.10160629 0.039638773 0.08860003 0.111263 -0.08500996
0.026775107 0.039639957 -0.073186636 0.03179103 -0.053163305 -0.048464477 -0.06830783 0.08396502
0.07282698 0.07232923 -0.09890387 -0.021839684 -0.038736947 0.0025664768 0.067572884 0.04624594
0.06030738 -0.08213001 -0.11228271 0.008672545 0.035879105 -0.06345716 -0.105727844 -0.01542657
0.05142451 0.11628191 -0.07318261 0.08753827 0.06845556 -0.079470076 -0.08031827 0.055569425
0.07724544 0.07562366 -0.1202471 0.11757258 -0.025522962 0.09676236 0.111290276 -0.04406563
0.09147026 -0.08900421 0.09016474 0.031149354 -0.0038606622 -0.011061948 -0.034951445 -0.08672811
0.028960332 0.030838208 -0.0059651397 -0.065169066 0.07592691 -0.021719923 -0.054142952 0.034995846
-0.013625197 0.040234193 -0.11035836 0.11625111 -0.004375726 -0.011349338 -0.049837418 0.03688465
-0.015602487 0.09753087 -0.035715267 0.11245096 0.044513036 -0.096482426 0.012884415 0.024563584
0.099154405 -0.05282542 -0.10456765 0.08527532 0.10504691 0.093439415 -0.11040061 0.04930376
0.00426811 -0.076457605 -0.08250665 0.12646283 0.09083509 0.019909143 0.108488254 0.10644323
-0.11805584 -0.097083166 0.049630973 -0.11087354 0.05665577 -0.10541873 -0.0008286757 0.023969814
-0.0042666644 -0.073141776 0.091339864 -0.044945057 0.123957925 -0.036216233 -0.10490601 0.06362995
-0.01870355 -0.10492297 -0.08959157 -0.020631233 -0.11653132 0.102812536 -0.009532582 0.07616115
0.08331084 -0.060698826 -0.090540536 0.10994084 0.1229413 0.055930395 0.035107896 -0.11438039
-0.01053757 0.024655536 -0.03441514 -0.052080005 0.021074727 0.066670224 -0.0042356206 0.10212054
-0.042864777 -0.015914172 -0.033080585 0.009671389 0.050286304 0.09832707 0.120618604 0.03443489
-0.03158614 -0.120468445 -0.04822644 -0.119071305 0.066005364 0.07342285 -0.07789177 -0.07996831
0.018359754 -0.088816375 0.09112468 -0.017772587 0.10452275 -0.029708713 -0.08830673 0.081243515
0.07230327 0.10313319 -0.119307816 0.001552097 0.106551975 0.11171147 0.048445776 -0.09162574
0.059741512 -0.09471044 0.09319014 -0.01235416 -0.036980633 -0.07424139 0.106721796 0.12001078
-0.009698852 -0.0060457047 -0.078380056 0.09232863 -0.072142035 0.111795366 -0.07199826 0.07010195
0.060751565 -0.02033985 -0.07361286 -0.028511176 -0.11814148 -0.02122072 0.0493171 -0.08761485
0.07596245 -0.05216351 0.019762723 0.0363639 0.07156123 0.03399307 -0.07996994 -0.077089824

model.2.bias f4 [64]
00000000: 6512 fb3d f13c 8ebd ffb2 cdbc 5520 d23d
00000010: 4e01 ebbd 168a f53d e8cb fbbc ba6e 24bd
00000020: 01d8 ab3c 82cc 843d 43f8 a3bd 116c 41bd
00000030: 8f1d 923d c733 b33c e47f e7bd 114b 833d
00000040: ece1 d3bd 97b0 273d 2369 aabd 2094 35bd
00000050: 6ec4 d5bd 9149 36bd 9295 9d3c ceae 173c
00000060: eec1 2b3d 8ff6 283d e390 d23d 25d4 ffbd
00000070: 1fe6 163d cc22 b0bd f826 1b3d 7daf a1bd
00000080: 6210 71bd 0203 98bd 89a6 ee3d e08e 013e
00000090: 351d adbd b1db da3c 8e7c b13d 1e97 d73d
000000a0: 84d4 e43d 851d 97bd 9905 1ebc 2103 453d
000000b0: b2ca c0bc fcfd cb3c 0797 f93d 466b 913a
000000c0: b2a6 b6bd a1d6 d93d 30f6 3b3d f915 cdbb
000000d0: dfd1 4f3d bbdc e33d 078c cc3d 4749 99bc
000000e0: 58ce c0bd d5d6 3e3d fdc3 753b 8e9b 9bbd
000000f0: f8b2 c2bc fcad 853d a32c 623d 4988 573d
0.12259368 -0.069452174 -0.025109766 0.10260073 -0.11474858 0.119892284 -0.030736879 -0.04014466
0.020977022 0.06484319 -0.080063365 -0.0472222 0.07134544 0.021875275 -0.1130369 0.06410802
-0.103458256 0.040939894 -0.083208345 -0.044330716 -0.104378566 -0.044503752 0.01923636 0.009257985
0.041932993 0.04125076 0.10281541 -0.12491635 0.036840554 -0.08600387 0.03787896 -0.078948
-0.058853514 -0.07422449 0.11652858 0.12652159 -0.084528364 0.026716085 0.08666335 0.1052687
0.11173347 -0.07378677 -0.009644889 0.048098687 -0.023534153 0.024901383 0.12187009 0.0011094592
-0.08918513 0.1063664 0.04588908 -0.006258723 0.050737258 0.11126085 0.099876456 -0.0187117
-0.09414357 0.0465916 0.0037500851 -0.07598029 -0.02376698 0.065273255 0.05521835 0.052620206

model.4.weight f4 [1, 64]
00000000: 5714 cb3d 3836 683d c89e b83d b285 283c
00000010: fc2c dabd b367 d73d 9ece e7bd 7288 2bbd
00000020: e35f cb3d f775 3dbc a8ff 31bd 3fb2 94bd
00000030: a85c d7bc 33f2 40bd 5818 433d 12fb 4c3b
00000040: 6d85 71bd f7ce 90bd 6e79 1fbc 94b2 60bd
00000050: f5d3 373c 3429 fcba 73b8 2b3d ac4a ba3c
00000060: d43d 9cbd 120f d63d a51f e4bc b739 13bd
00000070: 289f 853d 409a 1bbc 1970 d3bc 61e2 96bd
00000080: 0210 7dbd f10e 94bd 8a18 bbbd aef2 ee3c
00000090: 59e0 a43a 0b81 a73d 7be7 9abd e248 e13d
000000a0: 500a 573d 8b9f 7dbd d6db 9f3c c9f1 2bbd
000000b0: 16b1 bbbc 4d27 953d 9938 8a3d e401 c13d
000000c0: 935f e2bd f132 ca3b e084 ec3d 6c09 e3bd
000000d0: c276 c43d 47fc b63d 0e9e f83c 7245 163d
000000e0: 026f edbd 1c8c 03bd 9af6 cb3c afbe 37bc
000000f0: e094 d83b 8b1a a93d b8e0 ae3d 3424 47bd
0.09915989 0.056692332 0.0901466 0.010285782 -0.10653111 0.10517826 -0.11318706 -0.04187817
0.09930398 -0.01156377 -0.043456703 -0.0726056 -0.0262893 -0.04710598 0.047630638 0.003127758
-0.058965135 -0.070707254 -0.009733541 -0.054857805 0.011219968 -0.0019238354 0.04192395 0.022740684
-0.0762898 0.10452093 -0.02784712 -0.035943713 0.06524497 -0.009497225 -0.025810288 -0.07367397
-0.061782844 -0.07229412 -0.0913554 0.029168453 0.0012579068 0.0817891 -0.07563683 0.110002294
0.05250007 -0.06191973 0.019514006 -0.04197863 -0.02291159 0.07282887 0.067490764 0.09424189
-0.110533856 0.0061706235 0.115487814 -0.110857815 0.09592964 0.08934837 0.030348804 0.036687322
-0.11593439 -0.03211604 0.024897862 -0.011214896 0.006609544 0.08257016 0.085389555 -0.04861851

exp_avg f4 [64, 96]
00000000: a436 af3f 301e 013f 7e17 aa3f fd2c b93e
00000010: a1c7 a8bd 0000 0000 ef18 b23f 695e 0b3f
00000020: b3e2 a93f 3771 c43e 3e87 c8bd 60bd f6bb
00000030: 876f b23f 99d6 063f d300 ab3f 83aa af3e
00000040: 0522 95bd dd07 76bc 3b43 ad3f f175 253f
00000050: a6e3 a63f 0207 b93e 322c bcbd 182d b5bc
00000060: ddd1 993f ef3e 203f e282 913f 2c03 a63e
00000070: 15e4 b7bd 9938 d5bc 93b1 8c3f 50bd 243f
00000080: ea22 843f 873d 9a3e fd71 90bd a923 f6bc
00000090: 5ef2 793f 2383 dd3e 639a 6e3f 7647 843e
000000a0: d578 8dbd ccd4 02bd 1604 673f 1de2 8e3e
000000b0: 9820 603f 36e2 703e 8b89 9abd bbdc 0bbd
000000c0: 62fb 5a3f 0d53 9a3e 5389 583f 9794 663e
000000d0: 49ae 7dbd 3d71 18bd b085 4d3f 955b af3e
000000e0: 0cde 443f 2337 4f3e fb4e 88bd aec9 1ebd
000000f0: 67ff 3f3f 3813 473e 410f 373f 72ee 403e
00000100: 1f17 3abd eda6 22bd d38b 283f 4e5d be3d
00000110: e9bb 263f fa49 333e 080f 85bd 36d8 24bd
00000120: 6789 183f 4770 533e 5c52 153f 7d78 1b3e
00000130: 9665 34bd ddb0 1bbd 72d1 073f 8184 6e3e
00000140: 4c18 053f fa38 0d3e ffe6 51bd 2487 18bd
00000150: 43d2 fa3e a476 413e 425d f43e efe1 fe3d
00000160: 663c 10bd 3090 14bd 7c75 f93e 5ab8 ff3d
00000170: d7e0 f53e 6bd4 003e ab2f 0cbd 8c09 21bd
00000180: ec9f e03f 1624 5f3f 6843 d63f cd1a ee3e
00000190: b1ff bcbd 0000 0000 78f1 c63f f5b1 033f
000001a0: 6ed2 be3f 8a36 e53e 72e4 c2bd 1332 0cbc
000001b0: 5525 b13f 0c2a 863e 29cd ab3f 3c13 af3e
000001c0: f08f 7ebd 338b 76bc cf0c b13f 74ef c23e
000001d0: 1373 a93f 086e b83e 33a6 d5bd d38f b6bc
000001e0: e596 af3f 9b44 b73e 181c a93f 3d4c ba3e
000001f0: a729 cebd 6c6a f3bc 8743 ad3f 5b6e 593e
00000200: 3022 a83f 9eb1 b43e b8b9 61bd 0394 16bd
00000210: b91f ac3f 2a2c d13e 6a25 a83f 9eb1 b43e
00000220: 1ace a9bd 9eb1 34bd d832 af3f 25af df3e
00000230: 9f58 a93f 9eb1 b43e cd93 c0bd 38cf 52bd
00000240: c1f5 a93f 7dcc fc3e dde0 a73f 9eb1 b43e
00000250: 5157 debd d1ec 70bd d282 ab3f 2235 1d3f
00000260: 69ab a63f 9eb1 b43e 878f e8bd 3585 87bd
00000270: 049f af3f 940b 023f a253 aa3f 9eb1 b43e
00000280: 04fc b6bd 0394 96bd f34e af3f b45f 423f
00000290: 96ec a83f 9eb1 b43e 7cfa aabd d0a2 a5bd
000002a0: a704 b13f 158a 5c3f 4d05 ab3f 9eb1 b43e
000002b0: 76e4 dabd 9eb1 b4bd f4ab ab3f 55a6 493f
000002c0: 5b3c a73f 2fd6 b33e d377 c5bd b3d2 c2bd
000002d0: 0d59 ad3f bad6 633f 6283 a63f 2066 af3e
000002e0: 4938 a9bd d1a1 ccbd 19c7 a43f 1168 613f
000002f0: 2f77 9f3f 8e86 a93e 8cf4 c7bd 2fe8 d3bd
00000300: 86bb 36c0 8f0a 0dbf 8b31 31c0 d7c2 41bf
00000310: 94ff 613e 0000 0000 43c0 33c0 dcbd 233e
00000320: 10c3 31c0 d7c2 41bf cf22 f63d 902c 813c
00000330: e296 3ac0 c0d5 50bf edb1 34c0 d7c2 41bf
00000340: c2b9 0c3e 902c 013d cafb 33c0 961e 0dbf
00000350: 514a 30c0 d7c2 41bf d746 4c3e d7c2 413d
00000360: 2172 37c0 ccf4 6dbf 5b63 34c0 d7c2 41bf
00000370: c792 653e 902c 813d 010c 39c0 34e0 45bf
00000380: 67d9 32c0 d7c2 41bf 54cb 7c3e b577 a13d
00000390: 35d6 38c0 f42d 9ebf 53a6 32c0 d7c2 41bf
000003a0: e9f0 1d3e d7c2 c13d ac33 39c0 2304 78bf
000003b0: 8cb8 33c0 d7c2 41bf 2bce 4b3e f70d e23d
000003c0: fb29 3bc0 2e28 8bbf 6674 35c0 d7c2 41bf
000003d0: 04c0 803e 902c 013e e64e 3ac0 b0ef afbf
000003e0: c091 33c0 d7c2 41bf 08db 8f3e 2352 113e
000003f0: 41a6 3dc0 05d6 80bf f0a8 35c0 d7c2 41bf
1.368855 0.5043669 1.3288419 0.36167136 -0.08241201 0.0 1.3913859 0.54440933
1.3272308 0.38367626 -0.097914204 -0.0075298995 1.3940285 0.526712 1.3359627 0.34309778
-0.07281879 -0.015016523 1.3536142 0.6463309 1.3038223 0.3613816 -0.09188117 -0.022116229
1.201717 0.6259603 1.1368067 0.32424295 -0.0897905 -0.026027964 1.0991691 0.6435137
1.0323155 0.30125067 -0.070529915 -0.030046301 0.9763545 0.43264112 0.93204325 0.2583577
-0.069078125 -0.03194122 0.9024061 0.27906886 0.87549734 0.23523793 -0.075457655 -0.03414605
0.8553983 0.30141488 0.8458454 0.2251762 -0.06193379 -0.037217367 0.80282116 0.3424956
0.76901317 0.20235877 -0.06655689 -0.038766555 0.7499909 0.19440925 0.7150765 0.1884096
-0.045432206 -0.039709974 0.65838355 0.0929514 0.6513048 0.17508689 -0.064970076 -0.040245257
0.5958466 0.20648299 0.58328795 0.15182681 -0.044042192 -0.038010467 0.53053963 0.23292734
0.519902 0.13791266 -0.051245686 -0.037238255 0.48988542 0.18892914 0.477274 0.12445437
-0.03521385 -0.03627032 0.48722446 0.12486334 0.48023102 0.12581031 -0.034225147 -0.039315745
1.7548804 0.8716444 1.6739321 0.46504822 -0.09228457 0.0 1.554244 0.51443416
1.4907968 0.44768173 -0.09516229 -0.0085568605 1.3839518 0.26203954 1.3421985 0.34194362
-0.06214899 -0.015047836 1.3832034 0.38073313 1.3238243 0.36021447 -0.104320906 -0.022285378
1.3717924 0.3579453 1.3211699 0.3638629 -0.10066538 -0.029713832 1.3536233 0.21233504
1.3135433 0.3529176 -0.055108756 -0.03676225 1.3447181 0.40854007 1.3136418 0.3529176
-0.08291264 -0.0441147 1.3687391 0.43688312 1.323017 0.3529176 -0.09403191 -0.05146715
1.3278123 0.49374762 1.3115498 0.3529176 -0.10856498 -0.058819596 1.3399298 0.614092
1.302106 0.3529176 -0.11355501 -0.06617204 1.3720403 0.50798917 1.3306773 0.3529176
-0.08934787 -0.0735245 1.3695968 0.7592728 1.31972 0.3529176 -0.08348557 -0.08087695
1.3829545 0.86148196 1.3360993 0.3529176 -0.10688107 -0.0882294 1.3411851 0.7876943
1.3065294 0.35124347 -0.09641995 -0.09512844 1.3542801 0.8899952 1.3008845 0.34257603
-0.08262689 -0.099918015 1.287326 0.8804942 1.2458247 0.3311047 -0.097634405 -0.1034702
-2.8551955 -0.55094236 -2.7686489 -0.75687927 0.22070152 0.0 -2.8086097 0.15990394
-2.7775307 -0.75687927 0.12018358 0.01576832 -2.9154592 -0.81576157 -2.8233597 -0.75687927
0.13742736 0.03153664 -2.812243 -0.55124795 -2.754536 -0.75687927 0.19948898 0.047304954
-2.8663409 -0.92951655 -2.8185642 -0.75687927 0.22419272 0.06307328 -2.8913577 -0.7729523
-2.7945192 -0.75687927 0.24686939 0.078841604 -2.8880742 -1.2357774 -2.7914016 -0.75687927
0.15423931 0.09460991 -2.8937788 -0.9688131 -2.8081388 -0.75687927 0.19902866 0.1103782
-2.9244373 -1.0871637 -2.8352294 -0.75687927 0.25146496 0.12614655 -2.9110656 -1.3745022
-2.8057709 -0.75687927 0.28096795 0.14191489 -2.9632723 -1.0065314 -2.8384361 -0.75687927
