modelPPO.pth (torch, 26778 bytes, 21 tensors)

shared.0.weight f4 [32, 5]
0.4296158 0.8935944 0.14986616 0.6387268 -0.037210725 0.98499316 -0.0035966043 0.4865158
-0.18170416 -0.19080932 0.2930968 -0.04282503 0.44770202 0.028389651 0.037600417 -0.37894973
-0.59802234 0.26489487 -0.32665005 -0.13601635 -0.32426676 -0.57764256 0.23184069 -0.1573546
0.3659732 0.06982108 0.05488108 0.4853179 0.046245415 -0.36867473 0.019550592 -0.1659261
-0.29974416 -0.36829355 0.7436082 -0.25579107 0.67422664 -0.0066366834 0.79035527 0.3634845
0.77102983 -0.051040765 0.8258627 0.03962953 0.17589626 -0.37427947 0.12367825 0.5036241
-0.21139282 0.048343893 0.063481696 -0.29894236 0.1989641 0.2443156 0.010328612 0.29701832
0.21807529 -0.55013883 -0.6039045 0.25824556 0.18692473 -0.24835679 0.22127227 -0.635122
-0.14555407 0.36301765 0.3697505 -0.47119066 -0.3151833 -0.026033511 -0.25727174 -0.15668742
0.13494383 -0.3642704 -0.4672833 0.4750468 0.22369118 0.09861465 0.42206547 0.20758633
-0.007462347 -0.3029863 0.3627397 0.1523915 0.3191591 -0.018228509 -0.43228772 -0.42134246
-0.5451869 -0.80907005 0.31892538 -0.25777635 -0.46795335 0.78749365 0.046727937 -0.3139037
-0.7689216 0.009836496 -0.4036767 -0.2605509 0.09003002 0.11909679 0.16064881 0.1329242
0.3586197 -0.30014348 -0.46775895 -0.30782706 -0.43734026 0.1341501 -0.1535319 -0.477048
0.51585406 -0.008316696 0.3323877 0.108757764 0.26673114 0.3179831 0.33466005 -0.35845083
-0.4752764 0.47751448 -0.44464776 0.46398315 0.040871166 0.22458614 -0.024308851 -0.018604629
-0.37494147 -0.5304438 0.08481637 -0.12095968 0.1840726 0.08759189 -0.97550404 -0.5337525
-0.31550425 0.3949781 0.21393546 -0.17639242 0.27176952 0.48793092 -0.056271017 -0.38526514
-0.5603482 -0.39356002 0.027534949 -0.5389378 -0.38850698 0.6765044 -0.02024362 0.032301433
0.018957958 -0.5318148 0.49499756 -0.28949723 0.0111843785 0.17373979 0.30972978 -0.79492176
00000000: 9af6 db3e 9ac2 643f 8476 193e 9983 233f
00000010: 466a 18bd 8328 7c3f 02b5 6bbb 9918 f93e
00000020: a810 3abe 8563 43be c910 963e 4c69 2fbd
00000030: 3339 e53e 6a91 e83c e502 1a3d b305 c2be
00000040: fe17 19bf 4da0 873e ad3e a7be df47 0bbe
00000050: 4b06 a6be 62e0 13bf a567 6d3e 9021 21be
00000060: d760 bb3e 5bfe 8e3d fcca 603d 967b f83e
00000070: d56b 3d3d efc2 bcbe 9028 a03c 88e8 29be
00000080: 1178 99be f990 bcbe 1b5d 3e3f 0cf7 82be
00000090: 1e9a 2c3f 8978 d9bb b954 4a3f a41a ba3e
000000a0: 3662 453f 1f10 51bd bd6b 533f 9352 223d
000000b0: 261e 343e 8fa1 bfbe 064b fd3d 82ed 003f
000000c0: 5c77 58be 3f04 463d b102 823d f90e 99be
000000d0: 3fbd 4b3e de2d 7a3e 5739 293c c912 983e
000000e0: 214f 5f3e e6d5 0cbf 7c99 1abf c338 843e
000000f0: 3269 3f3e 3e51 7ebe 3395 623e 5b97 22bf
00000100: 200c 15be 73dd b93e f04f bd3e e73f f1be
00000110: b55f a1be 3b44 d5bc 1fb9 83be ab72 20be
00000120: b72e 0a3e a681 babe c23f efbe 5639 f33e
00000130: 4d0f 653e 7af6 c93d f718 d83e 8391 543e
00000140: b486 f4bb 0521 9bbe 05b9 b93e 840c 1c3e
00000150: d268 a33e f453 95bc d154 ddbe 33ba d7be
00000160: 5e91 0bbf 371f 4fbf 304a a33e 43fb 83be
00000170: 9597 efbe 2f99 493f cb65 3f3d fcb7 a0be
00000180: 0cd8 44bf 4129 213c b6ae cebe ed66 85be
00000190: a961 b83d 05e9 f33d 1f81 243e 481d 083e
000001a0: 009d b73e 68ac 99be 1a7e efbe 829b 9dbe
000001b0: 10eb dfbe a55e 093e 7737 1dbe a33f f4be
000001c0: 030f 043f c042 08bc b82e aa3e 64bc de3d
000001d0: fc90 883e aece a23e 9058 ab3e de86 b7be
000001e0: 6e57 f3be c77c f43e dfa8 e3be 338f ed3e
000001f0: 8668 273d e9f9 653e 5b23 c7bc bc68 98bc
00000200: 54f8 bfbe 2acb 07bf 34b4 ad3d b5b9 f7bd
00000210: 877d 3c3e 6063 b33d a2ba 79bf 01a4 08bf
00000220: c689 a1be 923a ca3e e611 5b3e 37a0 34be
00000230: 6025 8b3e 15d2 f93e 707c 66bd 7941 c5be
00000240: fb72 0fbf b380 c9be f990 e13c d4f7 09bf
00000250: 63ea c6be 642f 2d3f f3d5 a5bc 824e 043d
00000260: b84d 9b3c 0425 08bf 5270 fd3e fb38 94be
00000270: af3e 373c d8e8 313e e794 9e3e fe7f 4bbf

shared.0.bias f4 [32]
0.20996329 0.046071105 0.50722915 -0.33866957 0.36947596 0.53694344 -0.18443106 0.3704731
0.1937201 0.47551474 0.5793504 -0.1298398 -0.24197906 0.16839238 -0.36007184 -0.12744732
0.56566155 -0.07789862 0.20532282 -0.33515316 0.49249998 0.21627079 0.12531836 0.5965855
0.12297522 0.47873712 -0.39398897 -0.2777451 -0.11537705 -0.5888951 0.42420727 -0.41295972
00000000: 9e00 573e 0eb5 3c3d c5d9 013f 1966 adbe
00000010: f42b bd3e 2075 093f 7fdb 3cbe a6ae bd3e
00000020: 905e 463e ab76 f33e 4f50 143f b9f4 04be
00000030: 5cc9 77be 0d6f 2c3e 565b b8be 8d81 02be
00000040: 32cf 103f 5089 9fbd 2540 523e 3299 abbe
00000050: f528 fc3e 1776 5d3e 7553 003e d4b9 183f
00000060: 6fda fb3d 081d f53e ecb8 c9be 9b34 8ebe
00000070: ce4a ecbd d4c1 16bf b231 d93e 756f d3be

shared.2.weight f4 [32, 32]
0.33385962 0.18288091 0.42664045 0.20818458 0.14726795 -0.040596593 0.063710414 -0.022199044
0.24439748 -0.07505089 0.060913935 0.00024441193 0.09838243 -0.0117406985 0.38871455 -0.0045628706
-0.14357989 0.0059288642 0.1727444 0.14361165 0.58334756 0.08188188 -0.068587415 0.469245
-0.39296827 0.0994535 0.17765224 0.28623497 -0.18550256 0.36733434 -0.15743035 0.16996069
-0.31476495 -0.31310865 0.52354956 -0.15659757 -0.06625179 0.28890875 -0.24202332 -0.06068671
-0.6834824 0.44410005 0.22917597 -0.0099471 -0.17227057 0.3329089 -0.18497743 -0.35135695
0.3726753 -0.1693371 0.4292744 -0.31012598 0.54414636 -0.007901627 0.087842934 0.21824758
-0.28623807 0.14595209 -0.65865964 -0.40338886 -0.32745603 -0.6209216 0.0114547955 -0.79186785
-0.18093362 0.057035677 0.5406642 0.049683135 -0.12139495 0.04826629 0.053882483 0.048489604
0.18336664 0.12792476 0.10644287 0.12258258 0.118867494 -0.14760414 0.15138389 -0.24420062
-0.03295205 0.09815367 0.35831803 -0.05121316 0.52186984 0.10421114 -0.093645826 0.5809286
-0.2184593 0.12811697 0.21636708 -0.0777457 -0.36573863 0.28520122 -0.00064791075 -0.045765914
0.58936995 0.17894742 0.37675145 -0.24342662 -0.41593805 0.1665791 -0.15478048 0.6735406
0.45729724 0.17077656 0.033737045 -0.3768212 -0.4425377 0.12091329 -0.2107024 -0.110429674
-0.0028983278 -0.4538304 0.084705204 -0.50665337 0.46696785 -0.5523646 -0.3405756 0.36820567
0.69270384 -0.21453238 0.22680189 -0.530781 -0.0932153 -0.05224417 -0.35785264 -0.14114743
-0.0672818 -0.936299 0.0075897304 -0.014703605 -0.1974671 0.15017413 -0.20910148 0.1560283
-1.651156 0.16358875 0.14992146 0.03869433 -0.43488258 0.14997536 -0.29847762 -0.24996623
0.12281226 0.076919824 0.31946567 -0.3706713 0.0030059046 -0.1963542 0.024885649 0.06499225
0.13402002 0.20043275 -0.40471992 -0.12192553 0.2557438 -0.74007094 -0.12252134 -0.18131338
0.3538537 -0.59550714 0.11191838 0.19379811 -0.21994758 0.09217845 -0.24251956 0.111367494
-0.6087796 0.073038235 -0.13584961 0.14560442 -0.034997266 0.11994081 0.29227766 -0.56334776
-0.2113447 0.009424259 0.06408426 0.1590221 0.26216245 -0.19094229 -0.14991666 0.40652478
-0.07670426 0.18049788 0.21927787 -0.033113614 -0.10798248 0.2398417 -0.38872734 0.17619674
-0.44986516 -0.4448219 -0.065051794 0.1160218 0.33514118 0.25287092 -0.70055354 -0.21996155
-0.65305984 0.1505327 0.3542868 -0.67472345 -0.24851601 -0.18881956 -0.21872362 -0.28228787
0.3910071 -0.08746234 0.27986583 -0.09863476 -0.84370273 0.14818643 0.17319833 0.010825337
0.23971939 0.04011131 -0.22591047 -0.069013104 0.17701744 -0.899858 0.07320153 -0.1602521
-0.78781486 -0.778847 0.31681758 -0.3565574 0.24352907 0.29627082 -0.94184005 -0.4555138
-1.0735116 0.2735914 0.41344485 0.022672366 -0.33650497 0.12131083 -0.20344275 -0.3094024
0.34614253 -0.030596439 0.21236826 -0.34158385 -0.19088107 -0.022104677 0.06648795 -0.008854297
-0.39777902 0.31115744 -0.6135576 -0.20565124 -0.18969776 -1.1134863 0.28009632 -0.40378785
00000000: a6ef aa3e 2245 3b3e 9e70 da3e 572e 553e
00000010: 69cd 163e 9d48 26bd 9b7a 823d c5da b5bc
00000020: 5543 7a3e 48b4 99bd e480 793d 6a24 8039
00000030: ba7c c93d 0f5c 40bc 9805 c73e 2284 95bb
00000040: 9b06 13be eb46 c23b e8e3 303e ef0e 133e
00000050: 4456 153f b0b1 a73d 8f77 8cbd e140 f03e
00000060: 2333 c9be 47ae cb3d 78ea 353e 648d 923e
00000070: 62f4 3dbe 3f13 bc3e 6c35 21be 2d0a 2e3e
00000080: df28 a1be c74f a0be 5807 063f 1d5b 20be
00000090: 05af 87bd d9eb 933e f6d4 77be a192 78bd
000000a0: b4f8 2ebf 1561 e33e 1bad 6a3e 29f9 22bc
000000b0: b267 30be 0973 aa3e b96a 3dbe 0fe5 b3be
000000c0: 4ccf be3e b466 2dbe dbc9 db3e d5c8 9ebe
000000d0: 2d4d 0b3f d375 01bc ffe6 b33d 4b7c 5f3e
000000e0: cc8d 92be 7774 153e eb9d 28bf fc88 cebe
000000f0: 51a8 a7be b8f4 1ebf e5ac 3b3c dab7 4abf
00000100: aa46 39be 3e9e 693d f868 0a3f 8b80 4b3d
00000110: ea9d f8bd e0b2 453d e1b3 5c3d 099d 463d
00000120: 77c4 3b3e b5fe 023e b8fe d93d 930c fb3d
00000130: cd70 f33d 8a25 17be 6104 1b3e ba0f 7abe
00000140: bbf8 06bd cb04 c93d 7675 b73e e4c4 51bd
00000150: 4399 053f a66c d53d 62c9 bfbd bdb7 143f
00000160: cbb3 5fbe 1831 033e 558f 5d3e 2339 9fbd
00000170: 1842 bbbe e505 923e 8ed8 29ba 0a75 3bbd
00000180: f3e0 163f fe3d 373e 91e5 c03e d444 79be
00000190: d5f5 d4be b693 2a3e c67e 1ebe 286d 2c3f
000001a0: dd22 ea3e 0de0 2e3e db2f 0a3d b5ee c0be
000001b0: 4d94 e2be 63a1 f73d 5fc2 57be f428 e2bd
000001c0: dff1 3dbb 755c e8be ec79 ad3d 09b4 01bf
000001d0: 6916 ef3e c467 0dbf ed5f aebe 7485 bc3e
000001e0: 0a55 313f 60ae 5bbe c13e 683e 43e1 07bf
000001f0: aae7 bebd fcfd 55bd 7638 b7be f488 10be
00000200: 0acb 89bd 4bb1 6fbf 46b3 f83b 64e7 70bc
00000210: d134 4abe 3fc7 193e b31e 56be e2c5 1f3e
00000220: 1459 d3bf cf83 273e 0385 193e f27d 1e3d
00000230: eea8 debe 2493 193e 0fd2 98be 26f7 7fbe
00000240: ff84 fb3d 2488 9d3d 0191 a33e a1c8 bdbe
00000250: b6fe 443b 1311 49be fddc cb3c a81a 853d
00000260: 8b3c 093e 3e3e 4d3e 7337 cfbe 18b4 f9bd
00000270: daf0 823e 4a75 3dbf 78ec fabd 37aa 39be
00000280: 502c b53e 2873 18bf 7735 e53d 0373 463e
00000290: f039 61be 0ec8 bc3d 0c57 78be a414 e43d
000002a0: fbd8 1bbf 1295 953d 291c 0bbe 5319 153e
000002b0: 4b59 0fbd 87a3 f53d 6ba5 953e 8f37 10bf
000002c0: bf6a 58be 3568 1a3c 9c3e 833d b0d6 223e
000002d0: 283a 863e 6086 43be c183 19be 0424 d03e
000002e0: 2017 9dbd 70d4 383e 618a 603e 24a2 07bd
000002f0: eb25 ddbd 1099 753e 4507 c7be eb6c 343e
00000300: ba54 e6be b2bf e3be e039 85bd d69c ed3d
00000310: a097 ab3e 4c78 813e 7a57 33bf 9a3d 61be
00000320: ee2e 27bf 3e25 1a3e 1465 b53e adba 2cbf
00000330: fb7a 7ebe ea59 41be 16f9 5fbe 0988 90be
00000340: 1532 c83e 751f b3bd 934a 8f3e 0501 cabd
00000350: e7fc 57bf 2fbe 173e e75a 313e c15c 313c
00000360: 0079 753e c24b 243d 1355 67be be56 8dbd
00000370: 0f44 353e 185d 66bf afea 953d 2019 24be
00000380: 3cae 49bf 8462 47bf ea35 a23e b18e b6be
00000390: af5f 793e cfb0 973e 6e1c 71bf 1b39 e9be
000003a0: d468 89bf 2c14 8c3e 0baf d33e 66bb b93c
000003b0: 614a acbe d071 f83d 4c53 50be fe69 9ebe
000003c0: 9839 b13e 62a5 fabc 1177 593e 14e4 aebe
000003d0: 5476 43be de14 b5bc d62a 883d 9d11 11bc
000003e0: b1a9 cbbe 0750 9f3e 1c12 1dbf 3d96 52be
000003f0: 2140 42be b886 8ebf c968 8f3e 48bd cebe

shared.2.bias f4 [32]
-0.075717054 0.24271652 0.09113336 -0.05961144 0.24255739 0.22541986 0.33258733 0.10245295
-0.111688875 -0.021757515 0.3121687 0.029823335 0.20496874 0.09994916 0.0893272 0.15805179
0.021505622 0.16937168 0.11596889 -0.029336935 0.2283849 0.06958486 -0.038355153 -0.057807423
-0.052323956 0.09025321 0.4055061 -0.11666229 0.13653325 0.032567784 0.056133073 0.03832295
00000000: 8b11 9bbd ae8a 783e 21a4 ba3d 202b 74bd
00000010: f760 783e 77d4 663e e348 aa3e dad2 d13d
00000020: 23bd e4bd d13c b2bc 93d4 9f3e 1150 f43c
00000030: 53e3 513e 25b2 cc3d 2ef1 b63d 54d8 213e
00000040: 8f2c b03c c56f 2d3e 1981 ed3d 0354 f0bc
00000050: bbdd 693e 8282 8e3d 4b1a 1dbd 7ac7 6cbd
00000060: a551 56bd add6 b83d 7f9e cf3e a4ec eebd
00000070: 5fcf 0b3e cc65 053d cbeb 653d 87f8 1c3d

actor.weight f4 [5, 32]
0.051925097 0.14896919 0.2932543 0.31296462 -0.106636144 0.23522854 -0.21566428 -0.041684825
0.25256416 0.14854848 0.13950472 -0.59293383 -0.3860281 0.34903538 -0.292568 0.26659024
0.063440345 0.124126785 -0.2052544 0.061779696 0.049109034 0.0763454 0.3126888 -0.010300505
0.034602035 0.121868156 -0.0028989143 0.19843233 -0.04125216 0.048745696 0.04326171 0.29988113
0.24736686 -0.29591373 -0.042975 0.74676824 0.18855569 0.12728651 -0.2252818 -0.9607856
-0.020034296 -0.046257194 -0.50093615 -0.5558226 -0.29755193 0.19682257 -0.090050966 0.06741482
0.011536066 -0.15272528 -0.1070522 -0.13950716 -0.86014956 -0.46556166 0.58017766 -0.19770776
-0.11934734 -0.061531134 -0.18231095 0.118922405 0.27028096 0.18067294 0.29228204 0.76039153
-0.23430856 0.32504633 -0.08146339 -0.59404296 0.76799506 0.17064649 0.39850545 0.76224065
0.03326963 0.18336093 0.40419802 0.74739635 0.6651654 -0.17546839 0.40120706 0.17035867
0.20828848 -0.03209224 0.47198832 -0.0052401065 -0.791706 0.025417132 -0.8856375 0.10583359
-0.2696424 -0.20532766 0.36429662 -0.19907196 0.06484636 -0.1421024 -0.1633202 -0.9524503
-0.09023924 0.15551059 0.1509907 -1.0601252 -0.32246467 -0.29313415 0.21956122 0.7528609
-0.021605324 0.24806555 0.56589884 0.5954587 0.23596919 -0.04303244 0.20917653 -0.015721913
0.11739684 -0.044405695 0.32206032 -0.114913054 1.0522221 0.72568303 -0.5528264 0.22608656
0.22952428 -0.08965971 0.028901167 0.07233311 -0.18992044 -0.17996024 -0.2526885 -0.72107273
0.112032585 -0.34385768 0.071056046 0.4307385 -0.76133925 -0.11571971 -0.3530752 -1.1173058
-0.10558757 0.08734361 -0.5239786 -1.3543805 -0.5160157 0.14435446 -0.21366471 -0.044296317
-0.23785233 -0.1957937 -0.20650175 0.2059449 0.37891176 -0.10845911 0.59981674 -0.16928905
0.19234045 0.14924066 -0.40273842 0.04310917 -0.06746989 0.19808708 0.061906364 0.8643549
00000000: 69af 543d 618b 183e 6d25 963e e63c a03e
00000010: 0d64 dabd c0df 703e 19d7 5cbe b5bd 2abd
00000020: 1750 813e 181d 183e 53da 0e3e 83ca 17bf
00000030: 7aa5 c5be c4b4 b23e 79cb 95be 847e 883e
00000040: 03ed 813d 2f36 fe3d 362e 52be b50c 7d3d
00000050: 8e26 493d fa5a 9c3d bf18 a03e 73c3 28bc
00000060: ddba 0d3d 0396 f93d b6fb 3dbb d831 4b3e
00000070: 06f8 28bd 91a9 473d 3133 313d 058a 993e
00000080: bd4d 7d3e 0182 97be 8e06 30bd 342c 3f3f
00000090: be14 413e 6557 023e 46b0 66be 0cf6 75bf
000000a0: f71e a4bc 2f78 3dbd 5a3d 00bf 644a 0ebf
000000b0: ba58 98be db8b 493e a46c b8bd c810 8a3d
000000c0: c501 3d3c 0464 1cbe 2f3e dbbd f7da 0ebe
000000d0: c332 5cbf 195e eebe 8686 143f e773 4abe
000000e0: 616c f4bd 1208 7cbd b9af 3abe 978d f33d
000000f0: 4462 8a3e 5402 393e fea5 953e 05a9 423f
00000100: 95ee 6fbe 796c a63e 47d6 a6bd 3313 18bf
00000110: 539b 443f f4bd 2e3e e808 cc3e 3422 433f
00000120: bc45 083d f8c2 3b3e 0bf3 ce3e 5e55 3f3f
00000130: 4848 2a3f fcad 33be 036b cd3e 8172 2e3e
00000140: 9349 553e 2773 03bd 74a8 f13e 33b5 abbb
00000150: 3fad 4abf 9737 d03c 24b9 62bf 48bf d83d
00000160: 920e 8abe 6a41 52be 1685 ba3e 85d9 4bbe
00000170: 2bce 843d 4b83 11be 693d 27be c8d3 73bf
00000180: 5acf b8bd 2b3e 1f3e 4e9d 1a3e 2fb2 87bf
00000190: 171a a5be ae15 96be a8d4 603e 7ebb 403f
000001a0: a6fd b0bc e504 7e3e bfde 103f fb6f 183f
000001b0: e8a1 713e c942 30bd 5f32 563e 3ecb 80bc
000001c0: c16d f03d bfe2 35bd 17e5 a43e 8957 ebbd
000001d0: 37af 863f 5dc6 393f 0886 0dbf 3c83 673e
000001e0: 6a08 6b3e 839f b7bd 24c2 ec3c 6223 943d
000001f0: 817a 42be 7f47 38be 6360 81be 3998 38bf
00000200: 5771 e53d 1d0e b0be d585 913d c289 dc3e
00000210: 21e7 42bf 75fe ecbd 46c6 b4be e003 8fbf
00000220: 4c3e d8bd 35e1 b23d 7623 06bf 575c adbf
00000230: 9b19 04bf a8d1 133e ecca 5abe 0e70 35bd
00000240: 908f 73be 257e 48be 3275 53be 38e3 523e
00000250: b900 c23e cf1f debd 978d 193f 1c5a 2dbe
00000260: e5f4 443e 8bd2 183e bb33 cebe 3e93 303d
00000270: a72d 8abd 57d7 4a3e 8791 7d3d 5d46 5d3f

actor.bias f4 [5]
-0.13499786 -0.1769331 0.04894838 0.09854375 -0.056567397
00000000: e13c 0abe f32d 35be 197e 483d 4ed1 c93d
00000010: 37b3 67bd

critic.weight f4 [1, 32]
0.40258875 1.0909604 0.34877887 -0.37111878 0.13403445 0.3623776 -0.683762 0.15368725
0.37673718 -0.65880615 0.8149078 0.044605657 0.59354675 0.9059165 -1.0736618 0.50438434
0.5928382 0.22732416 -0.5760309 -0.5396872 -0.20356777 0.28310776 -0.49398652 0.8556133
-0.5670201 0.4872916 0.96813124 0.3623886 -0.3931761 0.39243093 -0.4330496 -0.18261787
00000000: 1d20 ce3e 97a4 8b3f 2593 b23e 4803 bebe
00000010: 5440 093e 8f89 b93e 070b 2fbf 3160 1d3e
00000020: b2e3 c03e 85a7 28bf cc9d 503f 6cb4 363d
00000030: aef2 173f 25ea 673f c06d 89bf 551f 013f
00000040: 3fc4 173f aac7 683e c376 13bf f128 0abf
00000050: 1274 50be 80f3 903e cdeb fcbe 7909 5b3f
00000060: 3b28 11bf 497e f93e 73d7 773f 008b b93e
00000070: 614e c9be b5ec c83e adb8 ddbe 2e00 3bbe

exp_avg f4 [32, 5]
-0.08702827 -0.0177002 0.07541828 0.016971853 -0.07125307 -0.007762787 -0.013231508 -0.016172599
-0.0007168853 0.006824021 0.04169821 0.0024746798 -0.017489975 0.0069928267 0.065888785 0.00035354728
0.003370268 -0.0012932671 -0.0013732394 -0.005127252 0.024315275 0.015260827 -0.020724393 -0.0013225598
0.032833852 0.020781487 0.0068940436 -0.01466076 0.0001667785 0.026941366 -0.005251486 -0.0047626616
-0.003708317 -0.0046343654 -0.0025659737 -0.14376086 -0.035111576 0.14169894 0.024898058 -0.20708369
-0.15724282 -0.038166057 0.13782766 0.024507122 -0.1941406 0.04288557 0.004425404 -0.041000184
-0.0028346512 0.07051858 0.04644656 0.014108158 -0.037944157 -0.0045065796 0.060270987 -0.001481484
-0.0031717224 -0.0013137924 -0.0013825902 0.00051637297 -0.0025033688 -0.0010454251 -0.0024224266 -0.003160854
-0.002810535 -0.00042733876 -0.0021690356 0.0009673547 0.0029345641 0.005535861 -0.0062254416 -0.009484459
-0.0001772694 -0.0011231225 -0.0018588599 -0.017611593 -0.021783115 -0.012199751 -0.0019674448 0.0063813576
0.026334638 0.005915436 -0.03781284 -0.00061033247 0.05795747 0.04023515 0.009325918 -0.044987038
-0.01031212 0.044045486 -0.0038358134 -0.0033884728 -0.0031835113 -0.00063581544 0.0014716542 -0.015489993
-0.0018740237 0.013249955 -0.0009900893 -0.026523331 -0.018736826 -0.018364191 0.055935476 0.01469705
-0.03518518 0.031233963 0.015529859 -0.033780325 -0.009847877 0.03686936 0.009826662 0.009875954
0.00044701181 0.005343682 0.010942537 0.007595878 -0.0018906607 0.039078597 0.020870317 -0.0014588218
-0.15041736 -0.008465177 0.17916329 0.029315302 -0.26746756 0.029559935 0.0052504004 -0.029371398
-0.0035218562 0.037153937 -0.08180299 -0.0006376416 0.11154069 0.016612442 -0.13790639 0.0020650576
0.0033410173 0.0042701736 0.0038386222 0.0022903513 -0.050063185 -0.017151501 0.01819879 -0.0031525202
-0.052510254 -0.0115218805 -0.010660386 -0.009033044 -0.011203359 -0.006500336 -0.0024506222 -0.00555609
-0.009290012 -0.0022850449 0.013736543 -0.045389015 -0.0036742224 0.054074295 0.009089679 -0.064898334
00000000: e13b b2bd 0300 91bc e674 9a3d 8e08 8b3c
00000010: 21ed 91bd fa5e febb f8c8 58bc 667c 84bc
00000020: 5ced 3bba 0a9c df3b becb 2a3d 3d2e 223b
00000030: 2347 8fbc 1524 e53b b3f0 863d 505c b939
00000040: b7df 5c3b d882 a9ba 45fe b3ba 8202 a8bb
00000050: d430 c73c 8c08 7a3c 34c6 a9bc be59 adba
00000060: ca7c 063d f03d aa3c 6ee7 e13b af33 70bc
00000070: 43e1 2e39 24b4 dc3c a814 acbb 1a10 9cbb
00000080: 3c07 73bb e0db 97bb e529 28bb 0c36 13be
00000090: 28d1 0fbd 8719 113e 03f7 cb3c bf0d 54be
000000a0: 4304 21be 0354 1cbd b222 0d3e 29c3 c83c
000000b0: cbcc 46be c8a8 2f3d fb02 913b cfef 27bd
000000c0: 8ec5 39bb 0c6c 903d c03e 3e3d e725 673c
000000d0: 556b 1bbd eeab 93bb b6de 763d 5b2e c2ba
000000e0: acdc 4fbb 8f33 acba 0738 b5ba 345d 073a
000000f0: 8f0f 24bb a506 89ba 93c1 1ebb 5526 4fbb
00000100: f430 38bb 700c e0b9 6126 0ebb 1396 7d3a
00000110: d151 403b 2b66 b53b cafe cbbb b464 1bbc
00000120: 64e1 39b9 bd35 93ba fda4 f3ba 3046 90bc
00000130: 8172 b2bc 77e1 47bc 3ff0 00bb b51a d13b
00000140: bdbb d73c 46d6 c13b a3e1 1abd b8fe 1fba
00000150: d064 6d3d 9dcd 243d bccb 183c 5444 38bd
00000160: 2bf4 28bc 0a69 343d 4562 7bbb 2411 5ebb
00000170: 75a2 50bb daac 26ba 85e4 c03a bdc9 7dbc
00000180: cda1 f5ba 5716 593c e2c5 81ba 7547 d9bc
00000190: f97d 99bc 8070 96bc 991c 653d e5cb 703c
000001a0: 561e 10bd 5ede ff3c f370 7e3c 3d5d 0abd
000001b0: fd58 21bc 5304 173d 0200 213c c1ce 213c
000001c0: e95c ea39 0e1a af3b 5448 333c d8e6 f83b
000001d0: 0cd0 f7ba e110 203d 3af8 aa3c f035 bfba
000001e0: 0207 1abe 87b1 0abc 9576 373e a526 f03c
000001f0: 82f1 88be ad27 f23c 8d0b ac3b 499c f0bc
00000200: f1ce 66bb ba2e 183d 5388 a7bd 6727 27ba
00000210: 726f e43d d116 883c 5537 0dbe eb55 073b
00000220: f8f4 5a3b d0ec 8b3b 6591 7b3b b819 163b
00000230: 0e0f 4dbd 4e81 8cbc a115 953c 839a 4ebb
00000240: fe14 57bd 45c6 3cbc e6a8 2ebc 55ff 13bc
00000250: 4b8e 37bc c500 d5bb 9e9a 20bb dc0f b6bb
00000260: 2235 18bc b1c0 15bb 3d0f 613c d5e9 39bd
00000270: 39cb 70bb 027d 5d3d e1ec 143c 6be9 84bd

exp_avg_sq f4 [32, 5]
0.015113258 0.016581187 0.014688341 0.014211496 0.019044435 0.018860739 0.025358679 0.01699673
0.017142668 0.027499631 0.046404593 0.04543391 0.024247369 0.024488894 0.026688917 0.0013428596
0.00094285887 0.0008537019 0.00082611205 0.0012717718 0.013338937 0.011846003 0.0061607244 0.009494959
0.009268873 0.0028526383 0.002808373 0.0018793105 0.00271731 0.002253839 0.008312073 0.008876212
0.006309994 0.011059296 0.0018248152 0.01051906 0.010109478 0.009317602 0.0074316342 0.012733639
0.03936756 0.03733196 0.026417755 0.018859018 0.035278 0.0070769736 0.007500786 0.0048518283
0.0046767867 0.0065158177 0.0047315713 0.0047773332 0.0027689293 0.004121542 0.0039839484 0.006094708
0.0068133767 0.0039139884 0.0060283 0.0046805474 0.0031223558 0.003031779 0.0029027385 0.0043062726
0.0027510666 0.003091953 0.0035661033 0.0023876198 0.0027913619 0.0036100924 0.009939328 0.010610743
0.0039986325 0.008194954 0.0063477936 0.012053357 0.013381349 0.008046033 0.007949366 0.00938904
0.03424215 0.03521491 0.01308362 0.02890923 0.020597477 0.0012574438 0.0012681466 0.0010603722
0.0010703105 0.0017810205 0.0075262394 0.0069886465 0.0035387913 0.003352106 0.005340894 0.0035171204
0.0033783058 0.0022134096 0.0033261764 0.0034669272 0.11364921 0.09473171 0.057073068 0.047845673
0.070948265 0.0044151107 0.0035051939 0.0029561496 0.0031315754 0.003344426 0.016213119 0.016562873
0.005489684 0.014385092 0.007883372 0.07396271 0.07085281 0.035490904 0.036730103 0.04411357
0.053967744 0.05606044 0.039096117 0.027619498 0.04718543 0.0017697223 0.001768528 0.0014508391
0.0017383872 0.0016898087 0.01157604 0.011315523 0.010076183 0.008802776 0.018141404 0.0077381874
0.0070681064 0.0027388427 0.0063383505 0.0030406474 0.019524489 0.019887572 0.017466508 0.013952812
0.01688121 0.024900192 0.024407139 0.01794109 0.026586775 0.00865187 0.0048938966 0.0048904335
0.0023862543 0.0032176028 0.0029915168 0.005365429 0.004980158 0.003950159 0.0029129738 0.0073102685
00000000: 999d 773c 45d5 873c 5ea7 703c 56d7 683c
00000010: 1303 9c3c d681 9a3c 01bd cf3c ba3c 8b3c
00000020: c86e 8c3c e846 e13c be12 3e3d e818 3a3d
00000030: 6ba2 c63c ef9c c83c b7a2 da3c e402 b03a
00000040: 302a 773a f7ca 5f3a 718f 583a 95b1 a63a
00000050: 8f8b 5a3c bd15 423c e7df c93b bf90 1b3c
00000060: 79dc 173c 54f3 3a3b ae0c 383b 3253 f63a
00000070: e614 323b 25b5 133b 5c2f 083c 886d 113c
00000080: 11c4 ce3b 0d32 353c a32e ef3a 2358 2c3c
00000090: 39a2 253c dba8 183c 1185 f33b c1a0 503c
000000a0: e13f 213d 66e9 183d 0c6a d83c 3a7e 9a3c
000000b0: aa7f 103d f5e5 e73b 27c9 f53b 16fc 9e3b
000000c0: bb3f 993b a482 d53b 4c0b 9b3b 2d8b 9c3b
000000d0: ed76 353b 000e 873b c88b 823b 1eb6 c73b
000000e0: bf42 df3b ea40 803b 0c89 c53b 475f 993b
000000f0: 70a0 4c3b d0b0 463b df3b 3e3b a21b 8d3b
00000100: 3d4b 343b 5da2 4a3b 49b5 693b 9d79 1c3b
00000110: 48ef 363b 4d97 6c3b 90d8 223c afd8 2d3c
00000120: f606 833b 2144 063c 2701 d03b 727b 453c
00000130: 723d 5b3c 82d3 033c 0f3e 023c 7dd4 193c
00000140: 7f41 0c3d 823d 103d ae5c 563c 0dd3 ec3c
00000150: 0abc a83c d0d0 a43a f037 a63a 30fc 8a3a
00000160: a949 8c3a 2271 e93a ac9e f63b 0401 e53b
00000170: 11eb 673b 02af 5b3b ab02 af3b 7d7f 663b
00000180: 9166 5d3b da0e 113b fbfb 593b 6335 633b
00000190: ebc0 e83d b302 c23d 73c5 693d d3f9 433d
000001a0: 534d 913d a2ac 903b 65b7 653b f6bb 413b
000001b0: 1e3b 4d3b 282e 5b3b 60d1 843c ddae 873c
000001c0: cfe2 b33b 73af 6b3c 4229 013c c379 973d
000001d0: 471b 913d e95e 113d 4e72 163d 6eb0 343d
000001e0: 480d 5d3d a29f 653d 4023 203d 4942 e23c
000001f0: 8245 413d 07f6 e73a f4cd e73a 152a be3a
00000200: 98da e33a 927c dd3a 6ea9 3d3c be64 393c
00000210: 9316 253c 8539 103c 489d 943c 9f90 fd3b
00000220: 939b e73b 287e 333b f0b1 cf3b 9945 473b
00000230: d2f1 9f3c 43eb a23c ec15 8f3c 569a 643c
00000240: 774a 8a3c 7dfb cb3c 7bf1 c73c 31f9 923c
00000250: 82cc d93c 93c0 0d3c fb5c a03b ee3f a03b
00000260: b462 1c3b 6bde 523b 530d 443b 7bd0 af3b
00000270: 9830 a33b 5670 813b 97e7 3e3b fa8a ef3b

exp_avg f4 [32]
0.09136086 -0.027401682 -0.050184257 0.0010350724 -0.03404974 -0.027003933 0.0051006936 0.19174127
0.18643616 -0.06678708 -0.057006516 0.001417886 0.0035314 -0.005910628 0.0026408073 -0.016558936
-0.06665877 -0.05442533 -0.0042869886 0.026239999 0.061813217 -0.035334 -0.012844776 0.015947975
0.24769032 -0.043873042 0.15883656 -0.0020956253 0.041735828 0.012293042 -0.010641444 0.07432583
00000000: 671b bb3d 7e79 e0bc 028e 4dbd 44ab 873a
00000010: bd77 0bbd 5a37 ddbc b823 a73b d357 443e
00000020: 1fe9 3e3e aac7 88bd aa7f 69bd 5cd8 b93a
00000030: 106f 673b f1ad c1bb 6511 2d3b 9ba6 87bc
00000040: 6584 88bd 18ed 5ebd de79 8cbb 44f5 d63c
00000050: db2f 7d3d 62ba 10bd e572 52bc 54a5 823c
00000060: 88a2 7d3e 38b4 33bd 0da6 223e c256 09bb
00000070: 30f3 2a3d c168 493c 7359 2ebc 2438 983d

exp_avg_sq f4 [32]
0.043696746 0.057413418 0.06722618 0.0027101291 0.021198478 0.0048979665 0.013584261 0.0299136
0.07874859 0.015970696 0.00865679 0.00901786 0.0061943773 0.0067186677 0.012969169 0.024383994
0.047000233 0.0030593073 0.009976359 0.0065223277 0.16073023 0.007934362 0.023997393 0.0976571
0.09783185 0.00408606 0.028227989 0.011444443 0.03857225 0.031735245 0.007265298 0.011917988
00000000: 5cfb 323d 552a 6b3d e1ad 893d 6c9c 313b
00000010: 6ea8 ad3c 1f7f a03b 8590 5e3c 5e0d f53c
00000020: f146 a13d fad4 823c 35d5 0d3c a5bf 133c
00000030: 34fa ca3b 4528 dc3b a37c 543c f1c0 c73c
00000040: 5183 403d a97e 483b e273 233c 40b9 d53b
00000050: 7796 243e 20ff 013c 2e96 c43c 7200 c83d
00000060: 115c c83d 5be4 853b 623e e73c 7981 3b3c
00000070: f0fd 1d3d d1fc 013d bd11 ee3b aa43 433c

exp_avg f4 [32, 32]
0.0039932486 0.004030071 0.00846492 0.0043044803 0.0074591427 0.012023232 0.00012317394 0.0036622144
0.0061915144 0.010284061 0.008803235 -0.0017400794 -0.00023954111 -0.00029970933 0.0029120285 0.0024225207
0.008047393 0.0016361868 -3.3549302e-05 0.003751227 0.0045033023 0.0023434258 0.0054271547 0.0112929735
-0.0005687286 0.005753722 0.003827163 0.006053752 -0.0015669318 0.0001756684 0.00027345188 0.0039474405
0.010791812 0.011349995 -0.0058383862 -0.0038904317 -0.0061806017 -0.021611309 -1.2771016e-05 -0.0003207183
0.009308325 -0.020691376 -0.012738622 -0.0024845358 -0.0008799728 0.0019601847 -0.007668398 0.0054301107
-0.008807907 -0.011785537 -0.00011804501 -0.001396625 0.0010799376 -0.0014004421 -0.0040112124 -0.018329674
-0.0047982424 -0.017440913 -0.0142977955 -0.012878647 -0.0009604145 -1.7193782e-06 0.00048118422 -0.018081365
0.003473844 0.0040561445 -0.0007267863 0.000110589644 0.00048452296 -0.005496696 0.00012078418 0.00060327473
0.0038576373 -0.004639316 -0.0023840147 -0.0007590657 -1.4840202e-05 0.00101123 -0.0015290695 0.0024890052
-0.0009852995 -0.0019333408 -2.4308649e-05 0.0010533163 0.0012933993 0.0014643687 4.128584e-05 -0.0048136483
-0.0013278101 -0.0044553424 -0.0048432723 -0.0027671515 -0.0008770206 0.0001726932 0.0012425968 -0.0058045844
-0.0037700068 -0.004829872 0.01024587 0.0060334103 0.006944085 0.026776433 2.8565378e-08 0.0017188656
-0.0038502696 0.022317212 0.015081296 1.3872388e-09 1.0962473e-09 -0.0026071034 0.0077443095 -0.0029795603
0.009968487 0.0066337227 2.0871137e-05 0.0029112215 0.0004792582 0.00015453291 0.004842201 0.024241308
0.0031015323 0.01836156 0.015575048 0.01440074 -0.0008705396 9.114952e-09 -0.0048026396 0.019229753
0.00073049223 0.000496209 0.0035892266 0.0019066744 0.0009864912 0.0074785096 1.0083347e-06 -0.00063152326
0.00047885455 0.0045142937 0.004021945 -0.0002218201 -0.00034954716 -0.00059023 0.0022918424 -7.1938233e-09
0.0022143312 0.00115494 -3.7123144e-07 0.0010831414 -0.00014044638 -0.001490563 0.00076171296 0.007129384
-0.0005737045 0.0047201365 0.0056716553 0.0039738766 -0.000101825884 -3.203687e-08 -0.002093648 0.006235857
0.0005762277 0.0012770912 0.004734516 0.0032599512 0.0045401594 0.0072815297 6.125236e-05 0.0007877152
0.0026303388 0.005947223 0.0056725144 -0.0011791735 -9.47566e-05 -0.0010721203 0.002367663 0.00089697953
0.004754145 0.0015308073 -2.1074355e-05 0.003099565 0.0018193205 0.0012214505 0.0031067769 0.006384865
-0.000970487 0.0035723757 0.0031602597 0.004224214 -0.0025693502 9.856407e-05 -0.0006937953 0.0034379356
0.0026840488 -0.00022068447 -0.006034005 -0.00619681 -0.009447817 -0.009872385 -0.00021593447 0.000103595274
-0.0016256999 -0.009638427 -0.009000497 0.000860562 4.6934678e-05 0.0016048279 -0.0036678566 4.7519524e-08
-0.008287861 -0.0031781427 -8.28701e-06 -0.005869634 -0.0022672706 -0.0038062641 -0.0066300607 -0.007876149
0.0012977108 -0.0050839516 -0.004696735 -0.0072583705 0.004915131 -0.00031409602 0.00020718462 -0.0056953602
-0.00028893442 5.7374706e-05 -0.026652573 -0.013935687 -0.020236144 -0.05449908 2.9438757e-05 -0.007400014
-0.004079608 -0.04521027 -0.033086132 -0.000111996815 9.3719034e-05 -0.0002541754 -0.015537233 3.6920231e-09
-0.025422256 -0.016337866 1.1433661e-05 -0.008840991 -0.0077382657 -0.003547598 -0.015265112 -0.050205156
-0.0033223971 -0.0360704 -0.028719578 -0.02889141 -0.0018548983 4.2174524e-05 0.0030169892 -0.032751154
00000000: ccd9 823b b00e 843b 73b0 0a3c 990c 8d3b
00000010: d36b f43b 17fd 443c 4128 0139 c301 703b
00000020: 30e2 ca3b 7a7e 283c 723b 103c 6013 e4ba
00000030: 542d 7bb9 4e22 9db9 bbd7 3e3b 27c3 1e3b
00000040: 36d9 033c 5275 d63a 4ab7 0cb8 25d7 753b
00000050: 7090 933b 2994 193b 46d6 b13b 2a06 393c
00000060: bb16 15ba b889 bc3b 24d1 7a3b 8d5e c63b
00000070: 8261 cdba a133 3839 175e 8f39 8859 813b
00000080: 24d0 303c 54f5 393c ef4f bfbb 9df6 7ebb
00000090: a586 cabb 330a b1bc 1943 56b7 1526 a8b9
000000a0: f281 183c f680 a9bc a7b5 50bc 98d3 22bb
000000b0: faad 66ba 7176 003b 2f47 fbbb 12ef b13b
000000c0: 0a4f 10bc 2018 41bc ef8e f7b8 f50e b7ba
000000d0: b18c 8d3a 0a8f b7ba 7d70 83bb 1d28 96bc
000000e0: 933a 9dbb 3fe0 8ebc 4d41 6abc f600 53bc
000000f0: 53c4 7bba 63c5 e6b5 7447 fc39 5f1f 94bc
00000100: 6ea9 633b 68e9 843b ce85 3eba 5dec e738
00000110: 9207 fe39 a11d b4bb 834d fd38 1525 1e3a
00000120: 6ad0 7c3b 6705 98bb 213d 1cbb 09fc 46ba
00000130: 2ffa 78b7 408b 843a 0f6b c8ba 941e 233b
00000140: 2a25 81ba 2768 fdba 6dea cbb7 6e0f 8a3a
00000150: 4787 a93a 0ff0 bf3a 552a 2d38 cfbb 9dbb
00000160: ea09 aeba 1ffe 91bb 50b4 9ebb 1959 35bb
00000170: dbe7 65ba fa14 3539 a1de a23a 6234 bebb
00000180: 3812 77bb e743 9ebb 4bde 273c eab3 c53b
00000190: 358b e33b 405a db3c ee5f f532 8f4b e13a
000001a0: ce54 7cbb 96d2 b63c 8a17 773c 20a9 be30
000001b0: c6aa 9630 f0db 2abb fac3 fd3b ba44 43bb
000001c0: dd52 233c b35f d93b 6d14 af37 31ca 3e3b
000001d0: f244 fb39 1d0a 2239 53ab 9e3b b595 c63c
000001e0: 1443 4b3b fb6a 963c 7c2e 7f3c 15f1 6b3c
000001f0: ec34 64ba fc97 1c32 765f 9dbb b787 9d3c
00000200: 817e 3f3a 0614 023a 3b39 6b3b 60e9 f93a
00000210: 274d 813a 490e f53b 1e56 8735 cf8c 25ba
00000220: c50e fb39 a4ec 933b 85ca 833b 6198 68b9
00000230: 6d43 b7b9 aab9 1aba bc32 163b 8a2d f7b1
00000240: 501e 113b 5b61 973a a94d c7b4 32f8 8d3a
00000250: ca44 13b9 ff5e c3ba b1ad 473a 9c9d e93b
00000260: a864 16ba 60ab 9a3b 4bd9 b93b 4b37 823b
00000270: 5b8b d5b8 e998 09b3 9635 09bb 2956 cc3b
00000280: fd0d 173a 1264 a73a 0024 9b3b e8a4 553b
00000290: 9ec5 943b e699 ee3b 9c74 8038 ac7e 4e3a
000002a0: c361 2c3b ece0 c23b 80e0 b93b 7f8e 9aba
000002b0: 10b8 c6b8 6386 8cba cb2a 1b3b 4723 6b3a
000002c0: a9c8 9b3b 5fa5 c83a d5c8 b0b7 1222 4b3b
000002d0: 4476 ee3a 1419 a03a 119b 4b3b 2138 d13b
000002e0: 4868 7eba 851e 6a3b 5c1c 4f3b 466b 8a3b
000002f0: 8b62 28bb 2fb4 ce38 d0df 35ba fd4e 613b
00000300: dee6 2f3b 8967 67b9 e7b8 c5bb 9c0e cbbb
00000310: 04cb 1abc c9bf 21bc 786c 62b9 4a41 d938
00000320: 7015 d5ba 7eea 1dbc d276 13bc 5797 613a
00000330: badb 4438 1759 d23a 6c60 70bb 4518 4c33
00000340: cfc9 07bc 6348 50bb 7008 0bb7 0f56 c0bb
00000350: 7d96 14bb 8472 79bb fb40 d9bb f70a 01bc
00000360: f317 aa3a 4797 a6bb 12e7 99bb a0d7 edbb
00000370: 1b0f a13b 41ad a4b9 b33f 5939 25a0 babb
00000380: 1f7c 97b9 9fa5 7038 7f56 dabc 8252 64bc
00000390: 45c6 a5bc 6d3a 5fbd 40f3 f637 d17b f2bb
000003a0: 3bae 85bb 672e 39bd 5385 07bd d5df eab8
000003b0: 068b c438 d842 85b9 e18f 7ebc c2b6 7d31
000003c0: 5642 d0bc fdd6 85bc 33d3 3f37 ced9 10bc
000003d0: 4791 fdbb d17e 68bb 851a 7abc eca3 4dbd
000003e0: 93bc 59bb 8ebe 13bd 5245 ebbc aead ecbc
000003f0: 0f20 f3ba 8de4 3038 aeb8 453b 1326 06bd

exp_avg_sq f4 [32, 32]
0.0022466173 0.001086368 0.0007462233 0.0008223229 0.0015530325 0.0015832065 7.061397e-05 0.00067868
0.00090190605 0.0011638531 0.00078895525 0.0004709093 0.00016910085 0.0009380945 0.00040348835 0.00021825408
0.00053508533 0.0029029632 0.00030250844 0.0016644476 0.0003590711 0.0023025468 0.00025280708 0.0018524431
0.00014840919 0.0022050336 0.00033633853 0.00024399157 0.0008977559 5.1380037e-05 0.0006474274 0.00019651635
0.007966824 0.0033064021 0.0030100944 0.0014184304 0.0043076198 0.006393857 0.00027649428 0.0030630776
0.0027167038 0.0054188385 0.003052187 0.0027095443 0.00029804223 0.0049847304 0.0006080913 0.00078307884
0.0025579128 0.00495103 0.0013045302 0.002440365 0.0018299543 0.0045458344 0.0011473818 0.0073856753
0.0007294394 0.0073950356 0.0009491718 0.0011245427 0.0037841285 0.00013949737 0.0027168724 0.00082341064
0.0016803911 0.0008149507 0.00054824445 0.0004977022 0.00097470474 0.001142177 4.8818936e-05 0.00048797345
0.0006646401 0.00078868057 0.00052030355 0.00037476016 0.00010248021 0.0007296868 0.00023992654 0.00015400455
0.00035923132 0.0017652109 0.00017134927 0.0009995986 0.0002618498 0.0014160607 0.0001681218 0.0013741485
0.00010591644 0.0015149753 0.00022820437 0.00016013485 0.0006924419 3.3285043e-05 0.0004471406 0.00013654615
0.001958714 0.0009189819 0.000925125 3.520202e-05 0.00030306 0.0018878154 1.2189001e-05 0.00070173637
0.00083986035 0.000985499 0.0009278559 9.437071e-05 5.417527e-06 0.00042381728 3.2147575e-05 0.00018978068
0.0005887045 0.00040345537 0.0008657542 1.7075172e-05 0.00041935508 5.1275303e-05 0.00017824137 0.002380544
9.65122e-05 0.0013721781 0.000400282 0.00022197691 0.0006107698 1.9668707e-06 0.00023729063 0.00028996702
0.00022833403 0.00017738258 0.00018388436 2.5074141e-05 0.00014374855 0.0005670815 3.0895696e-06 8.033928e-05
1.5152954e-05 0.0003464895 0.00033300163 0.00045311148 1.9372716e-05 0.0008001017 4.4754634e-05 7.00417e-06
0.00016822392 0.00091019267 0.00028937942 7.408828e-05 8.0861e-05 0.00022387636 4.0358063e-05 0.0006429653
6.573091e-05 0.0012719573 0.0001481525 5.115943e-05 0.00064397685 9.391166e-07 0.00022098034 7.695641e-05
0.0014515964 0.00065821875 0.0004890907 0.00042485146 0.0007410485 0.0011788408 1.19411725e-05 0.0004308319
0.00046656223 0.0007837496 0.00053716195 0.00029065044 8.404278e-05 0.00063097355 0.00024210555 0.00012372184
0.00031854646 0.0017167385 0.00026043705 0.0008534083 0.00020472854 0.0010840824 0.00013748006 0.0013743308
0.00011197498 0.0015666945 0.00026299903 0.00018424541 0.0006845473 9.708314e-06 0.00027842566 0.00015620941
0.00018788416 6.196268e-05 0.00073404505 0.002398079 0.0044412804 0.0026920394 9.463016e-05 0.00031730696
0.00010503956 0.003171832 0.0020524017 0.00010422368 0.0004997014 0.00020208464 0.0011864136 3.5196283e-06
0.0014571863 0.008346177 0.00048891746 0.00486756 0.00025666546 0.006688687 0.00075009925 0.0019545679
0.00020158323 0.004376513 0.000682096 0.00071837765 0.0003261124 7.504583e-05 0.0013741162 0.00053009007
7.475716e-05 7.8361416e-05 0.00045075483 0.00024044602 0.00066593266 0.0013525233 8.543833e-06 0.00015336814
5.4666012e-05 0.0010295047 0.0009932361 9.407885e-05 5.502957e-05 0.00024547084 0.00018592812 1.2909067e-05
0.00058161997 0.0018505726 0.00077209534 0.00054745167 0.00018508434 0.00086401403 0.00020099839 0.0012682757
5.852956e-05 0.0016775796 0.00040156793 0.00027809825 0.00026115324 2.6978994e-06 0.00030903873 0.00030739195
00000000: fc3b 133b 7664 8e3a 339e 433a 2891 573a
00000010: 208f cb3a 9883 cf3a 9616 9438 72e9 313a
00000020: e46d 6c3a 6e8c 983a e4d1 4e3a 60e4 f639
00000030: aa50 3139 75ea 753a 4a8b d339 22db 6439
00000040: f844 0c3a a43f 3e3b ff99 9e39 9829 da3a
00000050: b541 bc39 53e6 163b 318b 8439 adcd f23a
00000060: 4a9e 1b39 5382 103b 9856 b039 fdd7 7f39
00000070: 6157 6b3a e580 5738 1eb8 293a f50f 4e39
00000080: 4887 023c 39b0 583b 0145 453b a0ea b93a
00000090: ef26 8d3b 8f83 d13b 6ff6 9039 eabd 483b
000000a0: ba0a 323b 8390 b13b 3307 483b 9c92 313b
000000b0: 8d42 9c39 f356 a33b 5168 1f3a 8847 4d3a
000000c0: a8a2 273b 403c a23b c5fc aa3a 88ee 1f3b
000000d0: 14db ef3a 39f5 943b bf63 963a 8903 f23b
000000e0: d937 3f3a 0e52 f23b d7d1 783a 6465 933a
000000f0: 24ff 773b 0a46 1239 8e0d 323b 27da 573a
00000100: 9240 dc3a 6aa2 553a 10b8 0f3a 3b78 023a
00000110: 5483 7f3a 1ab5 953a efc2 4c38 b0d6 ff39
00000120: 3e3b 2e3a 75bf 4e3a fb64 083a 757b c439
00000130: a5ea d638 7448 3f3a ca94 7b39 487c 2139
00000140: 3657 bc39 a65e e73a 38ac 3339 f704 833a
00000150: e348 8939 1d9b b93a da49 3039 c61c b43a
00000160: 751f de38 2392 c63a 254a 6f39 dfe9 2739
00000170: fd84 353a 8b9b 0b38 326e ea39 d42d 0f39
00000180: c55d 003b d5e7 703a 1684 723a e2a5 1338
00000190: 06e4 9e39 9370 f73a 5c7f 4c37 bbf4 373a
000001a0: 132a 5c3a dc2b 813a 5b3b 733a e4e8 c538
000001b0: 34c8 b536 cb33 de39 32d6 0638 ddff 4639
000001c0: 4a53 1a3a dd86 d339 c8f3 623a a73c 8f37
000001d0: e3dc db39 7010 5738 4ee6 3a39 e702 1c3b
000001e0: 9866 ca38 a8da b33a f1dc d139 79c2 6839
000001f0: 111c 203a 95fe 0336 38d1 7839 b706 9839
00000200: f36c 6f39 c6ff 3939 15d1 4039 4f56 d237
00000210: 35bb 1639 32a8 143a 6756 4f36 d37b a838
00000220: 7139 7e37 09a9 b539 b996 ae39 988f ed39
00000230: 9782 a237 ebbd 513a ecb6 3b38 5d05 eb36
00000240: 4465 3039 ff99 6e3a d9b7 9739 d85f 9b38
00000250: eb93 a938 5ac0 6a39 2446 2938 ac8c 283a
00000260: 03d9 8938 ceb7 a63a 6259 1b39 0594 5638
00000270: 8ed0 283a 9a17 7c35 f5b6 6739 a863 a138
00000280: 7e43 be3a 508c 2c3a 5236 003a 99be de39
00000290: ec42 423a 5583 9a3a f256 4837 47e1 e139
000002a0: ec9c f439 8c74 4d3a 54d0 0c3a 7162 9839
000002b0: 2040 b038 eb67 253a b7dd 7d39 54bb 0139
000002c0: 9502 a739 2f04 e13a 458b 8839 43b7 5f3a
000002d0: 66ac 5639 c517 8e3a 8628 1039 e422 b43a
000002e0: 1cd4 ea38 8b59 cd3a 22e3 8939 0032 4139
000002f0: 3173 333a e4e0 2237 a9f9 9139 25cc 2339
00000300: c502 4539 f6f1 8138 ee6c 403a 1729 1d3b
00000310: 2988 913b ed6c 303b 2e74 c638 385c a639
00000320: af48 dc38 83de 4f3b 9681 063b aa92 da38
00000330: 65fe 023a afe6 5339 6f81 9b3a c132 6c36
00000340: 0fff be3a 67be 083c b22a 003a 0e80 9f3b
00000350: 0e91 8639 c62c db3b 4fa2 443a 3518 003b
00000360: 1660 5339 da68 8f3b b0ce 323a 8251 3c3a
00000370: 11fa aa39 ec61 9d38 b01b b43a bef5 0a3a
00000380: f2c6 9c38 f755 a438 4a53 ec39 3d20 7c39
00000390: fc91 2e3a 2747 b13a 7c57 0f37 72d1 2039
000003a0: 2f49 6538 72f0 863a 792f 823a 334c c538
000003b0: 8dcf 6638 8ab2 8039 b3f5 4239 0594 5837
000003c0: db77 183a ea8e f23a 7166 4a3a dc82 0f3a
000003d0: 3313 4239 007f 623a 18c3 5239 453c a63a
000003e0: a37d 7538 3be2 db3a 8989 d239 b7cd 9139
000003f0: 65eb 8839 8f0d 3536 7a06 a239 7329 a139

exp_avg f4 [32]
0.010388965 -0.01918758 -0.0036991073 0.020269241 0.004213371 0.005784271 -0.009213287 -0.044591848
0.0002210796 -0.006149386 -0.04040358 -0.030386673 -0.027579058 0.0035335817 -0.011432906 -0.0039620134
0.0016058474 -0.00082945 -0.01077453 -0.0027914536 -0.038870696 -0.023506694 0.03802785 -0.00018220286
-0.003196655 -0.00032214413 -0.022368649 0.004122848 0.0138849 0.006951389 0.016245628 0.042659685
00000000: 7a36 2a3c 462f 9dbc b96c 72bb ae0b a63c
00000010: 5110 8a3b fb89 bd3b 54f3 16bc f1a5 36bd
00000020: 9ad1 6739 ca80 c9bb 397e 25bd 79ed f8bc
00000030: 7aed e1bc aa93 673b 1551 3bbc c7d3 81bb
00000040: 4c7b d23a 726f 59ba a787 30bc d2f0 36bb
00000050: e136 1fbd 1c91 c0bc 17c3 1b3d b50d 3fb9
00000060: f97e 51bb 74e5 a8b9 753e b7bc f518 873b
00000070: 7e7d 633c 7ac8 e33b 8d15 853c ecbb 2e3d

exp_avg_sq f4 [32]
0.002767349 0.011022227 0.0019042146 0.0022266537 0.0013230591 0.0018665447 0.0060301046 0.0024056372
0.0020220298 0.0048184665 0.006387743 0.0017387401 0.0035949089 0.0037141112 0.011460885 0.0028864
0.0016148004 0.0007979594 0.0037514523 0.0046165823 0.0038637659 0.001070576 0.004282751 0.004574796
0.0040814383 0.0031647703 0.008017279 0.0012321401 0.0018829086 0.0026022112 0.0024751695 0.002673994
00000000: 695c 353b 9296 343c d796 f93a 0ded 113b
00000010: 7f6a ad3a d9a6 f43a 2f98 c53b e5a7 1d3b
00000020: 0884 043b 3ae4 9d3b 4650 d13b 70e6 e33a
00000030: 9098 6b3b 7268 733b 70c6 3b3c c229 3d3b
00000040: b6a7 d33a 262e 513a edda 753b b346 973b
00000050: 3c37 7d3b 9252 8c3a 5256 8c3b 2ce8 953b
00000060: 96bd 853b 0968 4f3b e85a 033c c37f a13a
00000070: eecb f63a dc89 2a3b 7436 223b 2d3e 2f3b

exp_avg f4 [5, 32]
0.006056818 0.0017989035 0.006489528 -0.00017339257 0.0005678735 0.004987652 0.0033453042 0.0016419325
0.0047384454 0.0033000284 0.0030863 0.00067552796 0.0012151208 0.0023196852 -0.00073434465 0.0054976717
-4.093091e-05 0.005678255 0.00074249686 0.0020477173 0.0020465124 0.0003349317 0.0007482444 -8.016785e-05
0.002756374 0.0069840774 0.0024591829 0.0048072925 0.0017038429 0.0031350714 0.003907573 0.00067079643
0.040953 0.027773712 0.049426276 0.010950367 0.004321518 0.031411503 0.023782905 0.013373083
0.03127834 0.022381283 0.031777278 0.0066992072 0.014064906 0.025475955 -0.0037950256 0.03567104
-1.7755236e-05 0.0415776 0.0037557974 0.015538591 0.015799407 0.0002621266 0.018076593 -0.00013112684
0.016039446 0.041669838 0.027719146 0.033643577 0.012776437 0.019475877 0.028462863 0.020851478
-0.024299946 -0.016741538 -0.028246244 -0.0033457906 -0.003256447 -0.01675066 -0.017065177 -0.011163384
-0.017408065 -0.015524718 -0.019788668 -0.0063952664 -0.008520075 -0.014361852 -0.0007387763 -0.018601803
-4.711578e-05 -0.023624554 -0.0033583313 -0.009950671 -0.010348996 -0.0007932329 -0.010604275 -5.149455e-05
-0.008740366 -0.022524321 -0.017037675 -0.018467609 -0.009445653 -0.01160692 -0.017230637 -0.011221868
-0.029575698 -0.0040286654 -0.030908553 0.0023985638 -0.0018926276 -0.025816966 -0.015652748 -0.005578348
-0.02383051 -0.015890263 -0.010344016 -0.0017594649 -0.0038567472 -0.00956675 0.007442733 -0.02905845
0.00026042134 -0.026826587 -0.0035209516 -0.00921595 -0.00781259 -6.063485e-05 0.0014428007 0.00031800737
-0.014423258 -0.035691775 -0.0078891795 -0.02370961 -0.007925086 -0.014552371 -0.01912586 0.0026146334
-0.01736144 -0.015998019 -0.022719113 -0.009136173 -0.0020118107 -0.01378214 -0.007791498 -0.0048410133
-0.013731988 -0.0074664415 -0.017076092 -0.0019221137 -0.0077636875 -0.013145782 0.00076279347 -0.015499139
9.1043e-06 -0.019517729 -0.0005889978 -0.0066105565 -0.007870379 -0.0010829178 -0.012656331 0.00026545316
-0.0066576903 -0.018374125 -0.015088209 -0.015502815 -0.003924912 -0.008991938 -0.011644227 -0.0155982105
00000000: 4678 c63b 2fc9 eb3a 1ba6 d43b b7d0 35b9
00000010: 58dd 143a 756f a33b e43c 5b3b 1d36 d73a
00000020: f644 9b3b 4a45 583b 8643 4a3b ea15 313a
00000030: b044 9f3a dc05 183b 0981 40ba d025 b43b
00000040: 3bad 2bb8 a810 ba3b 1fa4 423a ff32 063b
00000050: c81e 063b c699 af39 d525 443a c91f a8b8
00000060: 48a4 343b b0da e43b 3e2a 213b 7e86 9d3b
00000070: 7b53 df3a c575 4d3b 190b 803b 63d8 2f3a
00000080: 55be 273d b285 e33c 3573 4a3d 2b69 333c
00000090: 859b 8d3b 59a9 003d 5ed4 c23c c71a 5b3c
000000a0: b71d 003d f458 b73c e428 023d 0685 db3b
000000b0: 7e70 663c f3b2 d03c f7b5 78bb cc1b 123d
000000c0: 14f1 94b7 464d 2a3d d323 763b 9395 7e3c
000000d0: c26d 813c 096e 8939 5d15 943c 187f 09b9
000000e0: 2865 833c fead 2a3d 4313 e33c d9cd 093d
000000f0: 4354 513c e08b 9f3c f32a e93c b8d0 aa3c
00000100: ae10 c7bc 8d25 89bc ab64 e7bc 0d45 5bbb
00000110: 1d6a 55bb ae38 89bc 45cc 8bbc a0e6 36bc
00000120: 5c9b 8ebc 635b 7ebc d81b a2bc 628f d1bb
00000130: c997 0bbc f94d 6bbc 70aa 41ba cf62 98bc
00000140: 2f9e 45b8 4888 c1bc 7317 5cbb 2408 23bc
00000150: d68e 29bc f5f0 4fba 8ebd 2dbc dafb 57b8
00000160: c133 0fbc ed84 b8bc 9892 8bbc 6249 97bc
00000170: f1c1 1abc f32a 3ebc 4427 8dbc eddb 37bc
00000180: bc48 f2bc e502 84bb ef33 fdbc 3931 1d3b
00000190: 0b12 f8ba 1a7e d3bc 313a 80bc 93ca b6bb
000001a0: 3438 c3bc 4c2c 82bc f379 29bc d89d e6ba
000001b0: 7bc1 7cbb dcbd 1cbc 2be2 f33b fd0b eebc
000001c0: 2989 8839 6ec3 dbbc c4bf 66bb 7ffe 16bc
000001d0: 6100 00bc 2d52 7eb8 5c1c bd3a 3aba a639
000001e0: 874f 6cbc 8a31 12bd 9e41 01bc a83a c2bc
000001f0: 38d8 01bc 116d 6ebc d6ad 9cbc 455a 2b3b
00000200: 9439 8ebc 470e 83bc 6f1d babc e3af 15bc
00000210: 95d8 03bb 7cce 61bc d34f ffbb 5da1 9ebb
00000220: 22fc 60bc 0da9 f4bb 29e3 8bbc 6fef fbba
00000230: 8866 febb 6861 57bc 34f6 473a 1af0 7dbc
00000240: acbe 1837 a5e3 9fbc f966 1aba 5e9d d8bb
00000250: c3f2 00bc b1f0 8dba 805c 4fbc 852c 8b39
00000260: c128 dabb 5585 96bc 8934 77bc 85ff 7dbc
00000270: 8c9c 80bb ec52 13bc 6ec7 3ebc a38f 7fbc

exp_avg_sq f4 [5, 32]
3.9145085e-05 2.9119541e-05 5.6042936e-05 1.0998523e-05 4.908998e-06 1.7521097e-05 1.8049435e-05 5.528858e-06
2.2283797e-05 1.4420027e-05 2.9953257e-05 2.1744554e-06 9.787072e-06 8.2427405e-06 1.0704519e-05 2.43704e-05
1.1255956e-06 3.361955e-05 3.848179e-06 2.3762746e-05 6.5145427e-06 8.3346695e-06 2.3808096e-05 4.5765605e-06
8.569108e-06 4.2243635e-05 2.7766553e-05 1.6119624e-05 1.451245e-05 2.6147856e-05 1.5374091e-05 4.45335e-05
0.0033419267 0.00094768015 0.0031706996 0.0055932254 0.00011895072 0.000769953 0.0004965909 0.00012686051
0.0011853505 0.00041879562 0.0009006268 5.0149476e-05 0.0003009926 0.00042706038 0.00033088302 0.0008924048
3.6284335e-05 0.0017934669 8.2242586e-05 0.0008437254 0.00029177227 0.0001885263 0.007202911 0.000100682926
0.00032258505 0.0024689294 0.0008598333 0.0012147741 0.00043257527 0.0024989669 0.0015631986 0.012487581
0.0006879706 0.0004784413 0.0009725028 8.395145e-05 0.00012643656 0.00034365244 0.0005634664 0.00018032076
0.00041857985 0.00042097337 0.00055583485 8.4871695e-05 0.0001744162 6.414557e-05 0.00032857587 0.00045618575
2.1675027e-05 0.0005823883 0.0001834651 0.0006433359 0.00011734636 0.00026599225 0.00027736046 8.7120556e-05
0.0001884972 0.00078576186 0.00047925534 0.00020051509 0.00042650104 0.0005212801 0.0003090486 0.00050304434
0.0011227574 0.0008851057 0.0015978874 0.00017398615 0.00013742938 0.00046851835 0.00081832847 0.0002509321
0.00064288673 0.00064394035 0.0009206347 0.00012180478 0.00032047383 0.0001912022 0.0003956643 0.0006679847
2.9956373e-05 0.00091843 0.0002277113 0.00090738613 0.00023687335 0.00030122194 0.0005310352 0.000106376174
0.00029246448 0.0011530662 0.00076468365 0.0003496691 0.0005949988 0.00078052393 0.0005045108 0.0010613331
0.002997341 0.0006303776 0.0026098927 0.0053890566 8.390593e-05 0.0005846639 0.0002803137 7.9921694e-05
0.0010037225 0.00026860024 0.0006378056 2.2004939e-05 0.00020554358 0.00029279012 0.0003486855 0.0006482617
3.0341462e-05 0.001506067 6.873101e-05 0.000656901 0.00031313818 0.00018746374 0.007042497 9.622699e-05
0.00031589984 0.0021374112 0.00058953604 0.0010648863 0.0003102034 0.002322615 0.0013734151 0.012136425
00000000: b72f 2438 bd45 f437 a50f 6b38 4c86 3837
00000010: f9b7 a436 45fa 9237 de68 9737 8784 b936
00000020: 17ee ba37 8bed 7137 2144 fb37 dcec 1136
00000030: 2733 2437 4d4a 0a37 8f97 3337 096f cc37
00000040: 2c13 9735 b802 0d38 9b1f 8136 1c56 c737
00000050: 7f97 da36 22d5 0b37 7fb7 c737 5b90 9936
00000060: 0ac4 0f37 c22e 3138 38ec e837 a138 8737
00000070: 807a 7337 1858 db37 9cf7 8037 7bc9 3a38
00000080: 3a04 5b3b bd6d 783a 83cb 4f3b 6047 b73b
00000090: 2e75 f938 acd6 493a a72d 023a dc05 0539
000000a0: c35d 9b3a cc91 db39 0b18 6c3a 9757 5238
000000b0: 8bce 9d39 13e7 df39 5e7a ad39 46f0 693a
000000c0: 0230 1838 c312 eb3a a779 ac38 742d 5d3a
000000d0: 03f9 9839 25af 4539 6606 ec3b bc25 d338
000000e0: a220 a939 c3cd 213b 7066 613a 0e39 9f3a
000000f0: 45cb e239 b5c5 233b 3ee4 cc3a b698 4c3c
00000100: ed58 343a 4ed7 fa39 8fef 7e3a 170f b038
00000110: 0e94 0439 402c b439 97b5 133a 7c14 3d39
00000120: d674 db39 17b6 dc39 72b5 113a 25fd b138
00000130: 7ee3 3639 e485 8638 b544 ac39 372c ef39
00000140: c4d2 b537 6bab 183a 8a60 4039 8ba5 283a
00000150: d917 f638 e074 8b39 b16a 9139 7eb4 b638
00000160: 55a7 4539 96fb 4d3a 9044 fb39 5c41 5239
00000170: 009c df39 84a6 083a cd07 a239 bcde 033a
00000180: 7d29 933a 7006 683a 3470 d13a 0d70 3639
00000190: eb1a 1039 78a3 f539 1885 563a 898f 8339
000001a0: 6687 283a 1bce 283a c056 713a 7171 ff38
000001b0: 4505 a839 737d 4839 2a71 cf39 b21b 2f3a
000001c0: d24a fb37 cbc2 703a c9c5 6e39 a7dd 6d3a
000001d0: 3561 7839 53ed 9d39 2b35 0b3a 4616 df38
000001e0: eb55 9939 7b22 973a 0d75 483a cb53 b739
000001f0: b2f9 1b3a 139c 4c3a 2641 043a 6e1c 8b3a
00000200: 0a6f 443b ed3f 253a bc0a 2b3b af96 b03b
00000210: a7f6 af38 2144 193a 11f7 9239 a29b a738
00000220: 578f 833a ead2 8c39 6932 273a 3f97 b837
00000230: 2f87 5739 a081 9939 c7cf b639 1bf0 293a
00000240: cb85 fe37 3967 c53a ae23 9038 e133 2c3a
00000250: b22c a439 ea91 4439 bfc4 e63b 79cd c938
00000260: 5c9f a539 cf13 0c3b 188b 1a3a a893 8b3a
00000270: cca2 a239 0337 183b 2a04 b43a dbd7 463c

exp_avg f4 [5]
0.003920467 0.030675814 -0.018281385 -0.017246438 -0.014750321
00000000: 4377 803b d84b fb3c d8c2 95bc 6748 8dbc
00000010: 55ab 71bc

exp_avg_sq f4 [5]
4.481302e-05 0.001822061 0.0010853328 0.0014796198 0.0015364018
00000000: 9df5 3b38 39d2 ee3a ba41 8e3a cdef c13a
00000010: 1761 c93a

exp_avg f4 [1, 32]
0.007855094 -0.0055238996 -0.0032689434 0.015364941 -0.008395459 -0.020867327 -0.0019801573 0.0002688089
-0.002984578 -0.0013983832 -0.009305711 0.0011420742 -0.002078442 -0.007542093 0.0065564634 -0.019114347
0.0007686801 -0.0064731743 0.0024786128 -0.00039384436 0.014336342 -0.002969216 0.027321756 -0.00030790118
-0.0019392458 -0.0097300885 -0.010246892 -0.004219963 -0.0010526414 0.009991354 0.0021869666 0.034492303
00000000: a7b2 003c d401 b5bb c53b 56bb 3cbd 7b3c
00000010: 1b8d 09bc f5f1 aabc 87c5 01bb ebee 8c39
00000020: e998 43bb f449 b7ba fb76 18bc a7b1 953a
00000030: 7836 08bb a923 f7bb 9ad7 d63b b195 9cbc
00000040: 4081 493a ec1c d4bb 3970 223b e57c ceb9
00000050: fae2 6a3c 2e97 42bb e0d1 df3c cc6d a1b9
00000060: 4b2e feba f36a 1fbc 95e2 27bc 9e47 8abb
00000070: c9f8 89ba c7b2 233c 3653 0f3b cd47 0d3d
