modelA2C_player_1.pth (torch, 154896 bytes, 21 tensors)

model.0.weight f4 [64, 6]
000000 7a 78 bb be 50 31 c1 be a9 24 b0 be c5 a3 f5 3b
       -0.36615354 -0.37732935 -0.3440297 0.0074963295
000010 e7 7e b6 3c e6 8a a0 3e 6a 81 01 3e 6f e0 d1 3e
       0.022277309 0.3135597 0.12647024 0.40991542
000020 39 7c ab 3e ea 27 4d 3e 96 a7 9c be 3f 73 39 bd
       0.33493212 0.20034757 -0.30596608 -0.045275923
000030 c1 e2 8f be 01 e3 ab be 96 c4 4c be 0b 89 02 3e
       -0.28102687 -0.33571628 -0.19996867 0.1274759
000040 db 00 a1 3e 26 17 18 bd 1a 26 a9 be b6 42 1d 3e
       0.31445965 -0.03713145 -0.33036882 0.1535748
000050 10 32 15 bd f2 ce be 3e c8 de 77 3e ae 61 22 be
       -0.036424696 0.37267262 0.24206078 -0.15857574
000060 e7 98 07 3e 70 a7 bc be 56 95 27 be 8a 45 7b be
       0.13241921 -0.36846495 -0.16365561 -0.24538246
000070 a2 8c c5 bc 7a 64 26 bd fa 19 09 3e 66 00 bf 3d
       -0.02411491 -0.040623166 0.13388816 0.09326248
000080 13 5f 1a 3c 0b 87 c0 3d 43 c7 56 3d af 78 51 be
       0.0094220815 0.094007574 0.052436125 -0.20456193
000090 35 0f 47 3d af 49 76 3c 6a 42 b2 3e 3d 7a c0 bd
       0.048598487 0.015032216 0.34816295 -0.09398315
0000a0 06 95 6a 3e 46 76 aa be 61 33 80 3e 8b d0 56 bd
       0.2290841 -0.3329336 0.250392 -0.052444976
0000b0 b8 73 b4 bd f5 f6 a5 3e 6f 5c 7c 3d 80 a1 98 3e
       -0.08811134 0.32414976 0.06161159 0.29810715
0000c0 19 94 53 be ce 05 3c 3d 05 70 bb 3e 68 9b 98 be
       -0.20661964 0.045903973 0.36608902 -0.29806066
0000d0 9d 86 51 3e ce ac a8 3e 61 09 87 bd 25 da c3 3e
       0.20461507 0.3294434 -0.06593586 0.3825237
0000e0 09 df b7 be 7a 8e 91 be cf 1a 98 be a4 8b 79 3e
       -0.3591235 -0.28429013 -0.29707953 0.24369675
0000f0 5f a6 af bd 62 77 55 3e 82 7a cf 3e ac ea e5 bd
       -0.08576655 0.20846322 0.40523154 -0.11226401
000100 f2 f4 b0 be 17 83 8b be c4 20 ed 3c 1c 5b fb 3a
       -0.34561878 -0.2724845 0.028946288 0.0019176933
000110 66 0a ab 3e 40 83 8e bd f7 52 8d 3e 9e f7 93 3c
       0.3340637 -0.06958628 0.2760236 0.018062409
000120 f0 97 e2 bd 87 1b b9 be e8 fb d0 bd 65 23 ce bd
       -0.11064136 -0.36153814 -0.10204297 -0.10065345
000130 36 de ad 3e 19 d6 6c be 2a d9 c8 3e 77 a2 71 be
       0.33958596 -0.23128547 0.39228183 -0.23597132
000140 12 02 c2 3d e8 a4 ce 3e 81 7d 92 be 9e 35 d0 be
       0.09473051 0.40360188 -0.28611377 -0.40665907
000150 ab cf aa 3d ba 46 8c 3d a4 ad b1 bd e2 2f 85 3e
       0.08340391 0.068494275 -0.086756974 0.26013094
000160 82 83 80 3d 5f 7b b9 3e aa a0 6a be 31 8b 10 be
       0.06275083 0.36226937 -0.22912851 -0.14115597
000170 51 c4 f4 3d 30 52 56 be e3 a5 24 be 83 af 39 bc
       0.11951507 -0.2092979 -0.16078906 -0.011333349
000180 38 3a 34 3e 80 ef f5 3b 7b ee 03 be ba c7 38 3d
       0.17600334 0.0075053573 -0.12883942 0.04511235
000190 cc 8c b6 3d bd f6 b8 3d 13 26 9f be 85 60 a9 be
       0.089135736 0.090314366 -0.31083736 -0.3308145
0001a0 ba fc aa be cc 5d 8b 3e 32 17 5d be c1 fc 8e bd
       -0.3339594 0.2722 -0.2159088 -0.06981803
0001b0 88 bf 94 bd 56 bb 46 3e 02 38 eb bb 1c 1d b2 3e
       -0.07263094 0.194074 -0.0071783075 0.34787834
0001c0 7a 19 a5 bd d9 5c b4 3e 11 76 73 3d a6 02 54 3e
       -0.080615 0.35227087 0.05943877 0.20704135
0001d0 64 8e 16 3e b5 3a 62 3e 73 71 7b 3e fd 3f bc be
       0.14702755 0.22092707 0.24554996 -0.3676757
0001e0 80 7c bf 3e 5a da f4 bb 30 47 a6 bd b1 e1 b6 3e
       0.37399673 -0.0074723186 -0.08119047 0.35719064
0001f0 30 af 94 3e e1 f0 c0 be d4 3b cc 3d 48 8c 09 3d
       0.29039907 -0.37683776 0.09972349 0.03358105
000200 91 a6 fe 3d 45 f6 19 3e 63 36 ff 3d 49 6d 9a be
       0.12434114 0.1503535 0.12461545 -0.30161503
000210 b1 a7 c4 be 28 e2 7b be a5 ae c5 3e 3e c0 80 be
       -0.38409188 -0.2459799 0.38609806 -0.2514667
000220 97 bf 33 be 05 fb 16 3e c1 c8 68 be f5 1b ba be
       -0.17553554 0.14744194 -0.22732832 -0.36349455
000230 01 43 fb bb 34 a7 c0 bd d2 fb 99 be 53 f7 1d be
       -0.0076678996 -0.094068915 -0.30074936 -0.15426378
000240 f0 1a 34 be 34 0c 88 3e 9c 24 ea 3d ef f0 97 3c
       -0.17588401 0.2657181 0.11432764 0.018547503
000250 bd ec 9a 3e 25 56 ad 3e 86 45 d0 bd 9f 3d 2f 3d
       0.30258742 0.33854786 -0.101695105 0.042783376
000260 89 11 0b be 7b b6 38 3d 82 1a 68 3b e9 07 8d be
       -0.13580908 0.045095902 0.003541619 -0.27545097
000270 89 9e bb 3e 90 eb 5d 3c 17 40 62 3d 8f e3 58 be
       0.3664439 0.013544932 0.055236902 -0.21180557
000280 4c a5 54 be eb b3 96 bd cd 64 1c be c6 b1 11 3d
       -0.20766181 -0.073585354 -0.15272827 0.03556993
000290 24 3f b2 be db e3 41 3e 05 85 a5 be 25 c2 12 3e
       -0.34813797 0.18934576 -0.32328048 0.14331873
0002a0 6a 0e c5 3e 26 4d d6 bb 38 23 ae 3e 40 7c 99 3d
       0.3848756 -0.0065399585 0.34011245 0.07494402
0002b0 89 e3 80 be 62 07 af 3d 19 dc 20 3e e4 a1 84 3e
       -0.25173596 0.0854633 0.1570896 0.25904763
0002c0 d7 f0 a3 3e 99 bc c5 be b7 11 8c 3d 0c 77 a0 3e
       0.32019684 -0.3862045 0.06839316 0.31340826
0002d0 71 2c d0 3e 30 d7 13 3e 93 a7 aa 3e 97 3a e5 3d
       0.40658906 0.14437556 0.33330974 0.11192816
0002e0 1d b8 54 3e 2a 2c a5 be 44 23 d2 3d fd d1 5e 3e
       0.20773359 -0.32260257 0.10260633 0.21759792
0002f0 b7 48 5c be d1 ea a3 3e f8 d3 a5 3c 25 4c 0a 3c
       -0.21512114 0.32015088 0.020242676 0.008441006
000300 f1 8b 11 3e 5d b2 63 be 7a 88 b7 bc 47 f0 80 3d
       0.1421354 -0.22236009 -0.022403944 0.06295829
000310 09 0a 82 3e 54 24 0b 3e f1 13 37 be c9 fd af 3d
       0.2539828 0.13588077 -0.17878701 0.085933276
000320 02 f9 9e be 99 b2 9c 3e 40 c4 a8 be 14 52 9a 3d
       -0.31049353 0.3060501 -0.32962227 0.075351864
000330 79 8c f5 bd aa 1a 29 3e ea 52 0a 3e 41 56 78 be
       -0.11989684 0.16514078 0.13508192 -0.24251653
000340 ad 11 dd bd c7 eb 61 be 29 85 5c bd 59 ad 85 be
       -0.10794387 -0.22062598 -0.05383793 -0.26108816
000350 9b e5 ee 3c ea b8 c5 3e 88 20 a4 3e d6 41 ac 3e
       0.029162219 0.3861764 0.3205607 0.3364398
000360 48 36 8a 3e 3c 0f b2 be a1 da 11 3e 0e 62 cf 3d
       0.26994538 -0.34777248 0.14243557 0.10126124
000370 77 ee 9b 3d 26 73 8a 3e f4 0c 0a 3c 09 88 1a bc
       0.07613843 0.27040976 0.00842594 -0.009431847
000380 86 5f 90 be 1f 1f fe bd 26 6c 0d be 26 0d 0d be
       -0.2819788 -0.1240828 -0.13810787 -0.13774547
000390 f8 15 83 be 57 0a 14 3e 4e 9f aa be 21 33 ba be
       -0.25602698 0.1445707 -0.33324665 -0.36367133
0003a0 f4 9a 99 be 30 f4 5b be 97 fb 98 3c 33 92 c0 3e
       -0.30001032 -0.21479869 0.018674655 0.3761154
0003b0 11 31 94 be c5 da 95 3e a7 86 f4 3d 53 dc ce bd
       -0.28943685 0.2926847 0.119397454 -0.10100617
0003c0 88 c7 88 be 23 1d 31 3e 78 22 35 3d 73 51 13 3e
       -0.2671473 0.17296271 0.044222325 0.14386539
0003d0 9d 8c 8d be 5b 80 a0 be 9e 78 ba be 3e 23 30 be
       -0.27646342 -0.31347927 -0.3642015 -0.17200944
0003e0 0c 34 8f be 5e a1 06 3e 3c fc 7b be 90 71 88 be
       -0.27969396 0.13147494 -0.24607939 -0.2664914
0003f0 0e f6 c8 be 87 b8 bf 3c 9e 53 8e 3e d9 33 bd be
       -0.39250225 0.02340342 0.2779817 -0.3695362

model.0.bias f4 [64]
000000 38 6e 22 3d a6 4e c9 3e f7 71 c2 be 14 8c 19 3e
       0.039655894 0.39317816 -0.37977573 0.14994842
000010 3e 1f 71 be 89 64 e1 bd 11 1c 28 be 90 73 6a be
       -0.23547074 -0.11005504 -0.16416956 -0.22895646
000020 4a 2f 5c 3e 0d d6 bf be 98 ae d9 3d 65 ff b3 be
       0.21502414 -0.37467995 0.10629004 -0.35155788
000030 11 41 71 3e 5b 40 40 bc 1e 74 a8 3e c7 4c ac bc
       0.23559977 -0.011734094 0.3290109 -0.021032704
000040 80 97 1a be a5 64 31 3e 65 fe 57 3c 19 44 1a bb
       -0.15096855 0.17323549 0.013183211 -0.0023539125
000050 20 3d 70 3d 42 b9 5d be 0b ff 51 be 71 bd be 3e
       0.058652043 -0.21652701 -0.20507447 0.37253907
000060 3e ff fc bc 9b 3d 9c 3d 19 a4 9b be 7e 8d c2 3e
       -0.030883428 0.07628938 -0.30398634 0.37998575
000070 0e d8 b7 3d 60 d1 fc bd 1f 15 1d 3e 88 a5 67 3d
       0.08976756 -0.123446226 0.15340088 0.056554347
000080 46 b2 ca be f4 e4 b7 be cc d8 ba bd dd 1d 01 3e
       -0.39589137 -0.35916865 -0.09123382 0.12609048
000090 bd c9 41 be 2e 32 8d 3c 8a 56 4d 3e d9 92 ab be
       -0.18924613 0.017235842 0.20052543 -0.33510473
0000a0 c3 d3 5a be be e8 cc 3e cb 03 88 3e d7 31 e8 bd
       -0.21369843 0.40021318 0.26565394 -0.11337631
0000b0 20 ea 83 be d7 cd 3e 3e 49 20 82 be ac b1 9f be
       -0.2576456 0.18633209 -0.25415257 -0.3119024
0000c0 9b 13 a3 be 64 50 b8 be f8 85 bd be e1 34 6c be
       -0.31850895 -0.35998833 -0.37016273 -0.23067047
0000d0 17 c4 8b be 04 de 82 be bb 2f 8f be 38 58 c5 be
       -0.27298042 -0.2556001 -0.27966103 -0.38543868
0000e0 86 dd b3 3e 64 d4 19 be a3 be 6d 3e da 2c 27 3e
       0.35129946 -0.15022427 0.23217253 0.16325703
0000f0 de a3 7d be 9c d3 0b 3e 93 f7 95 3e 0c 95 93 bd
       -0.24769542 0.13654941 0.29290447 -0.07206163

model.2.weight f4 [64, 64]
000000 24 11 d7 3a 1c 66 44 bd 2b 4e f5 3d 70 96 7c 3c
       0.0016408307 -0.04794894 0.119778 0.0154167265
000010 40 76 aa 3b e0 2a d9 bd ba 5b ab bd 45 96 00 bd
       0.005202085 -0.10603881 -0.08367105 -0.03139331
000020 fc b1 6b 3d 5e 1c f1 bd 9d 36 88 bd 44 e6 99 3d
       0.057542786 -0.11772989 -0.06651042 0.07514623
000030 21 fa fd bd 90 fc ab bd f7 d9 99 3c 80 7c 4b 3c
       -0.12401224 -0.08397782 0.018780692 0.01241982
000040 50 eb c8 3c b7 fc 4d 3d fc 7d 74 3c cc 81 64 bd
       0.024526268 0.050289836 0.014922615 -0.055787846
000050 51 9f ec 3d 1d 83 71 bd 8d 8e e8 3d 2e 5a 8d 3c
       0.11553825 -0.05896293 0.113553144 0.017254915
000060 37 b4 9e bd 83 a1 cb bc 54 47 4d bd 27 e1 95 3c
       -0.07749217 -0.024857288 -0.050116852 0.018295838
000070 6c 7a c9 bd 08 1d de bd 50 1d 54 bc ae 70 d4 bd
       -0.09837803 -0.10845381 -0.012946442 -0.103730544
000080 20 9f 25 bc 33 9b 99 3d 21 aa b8 bd e2 76 72 bc
       -0.010108739 0.07500305 -0.090168245 -0.014798852
000090 c6 ab c0 3d ac 57 c3 3d d4 b3 a4 bd fa 49 2f 3d
       0.09407763 0.095382065 -0.08042112 0.04279516
0000a0 d7 14 e9 3d 02 67 bb 3d 72 09 23 bd c0 ef 42 3b
       0.11380928 0.091505066 -0.03980393 0.0029744953
0000b0 b0 4d d9 bd b0 9c 1b bc 7e b3 de 3d 82 c5 9e 3d
       -0.10610521 -0.009497806 0.10874079 0.077525154
0000c0 f0 81 dc 3d c8 4f 8d 3c fb ed 43 bd 8a 89 ae bd
       0.10766971 0.017249957 -0.047834378 -0.08522327
0000d0 b7 30 f3 bd d4 26 7a 3d 60 39 f5 3b ae 8c ab bd
       -0.11874526 0.061072186 0.0074836463 -0.08376442
0000e0 90 58 ce bd f2 34 19 bd 64 59 f4 3c a1 19 cb 3d
       -0.10075486 -0.03740401 0.029827781 0.09916998
0000f0 e8 b1 9c 3d 02 ba 83 3d f6 72 d0 3c 20 0b 96 bc
       0.076511204 0.064319625 0.025445443 -0.018315852
000100 4a 16 c5 3d 0e df 00 be 70 62 65 bd 2a 03 da 3d
       0.09623392 -0.12585089 -0.05600208 0.10645135
000110 97 d0 ee 3a 37 ca 90 bd 98 a2 be 3d ec 32 44 3c
       0.0018220124 -0.070698194 0.09308356 0.011975031
000120 5d c1 eb 3d 57 b3 c0 bd 93 84 59 bd 50 83 b4 3d
       0.115114905 -0.09409206 -0.05310495 0.08814108
000130 24 6c f7 bd 35 b9 5c 3c e3 96 cc 3c 0f ff 87 3d
       -0.12081173 0.013471891 0.024974292 0.066404454
000140 ff 60 b5 3d ec be 86 bd 8a 78 f7 3d b6 e6 da 3d
       0.08856391 -0.06579384 0.12083538 0.10688536
000150 ba f5 c3 bd 05 a6 bc 3d b7 d4 fe bd 1a 08 a9 3d
       -0.09568353 0.09211353 -0.12442916 0.082534984
000160 11 ea 98 bd ba 77 5e bd 98 84 31 3d ea c5 c2 3d
       -0.074665196 -0.0543134 0.043339342 0.09510405
000170 8a d5 4a 3d d7 bf cc bd 19 57 8b bd 3c cf 93 bd
       0.049520053 -0.09997528 -0.06803722 -0.07217261
000180 48 f3 38 3b ef 8b 8b 3a a4 b4 e3 3d e2 53 49 bd
       0.0028221179 0.0010646562 0.11118439 -0.049152263
000190 39 35 dc bd 83 3d 05 3d 03 f0 f7 3d e6 28 e4 bd
       -0.10752339 0.032529365 0.121063255 -0.11140613
0001a0 3e 40 07 3c 5b 74 51 3c 26 6d 83 3d ea f5 aa bd
       0.008255063 0.012784089 0.06417303 -0.08347686
0001b0 1e a0 7d 3d 14 6e 56 3c d5 7f 65 bc 81 d4 9e 3d
       0.061920278 0.013087768 -0.014007528 0.07755376
0001c0 a5 55 ae 3b 64 42 31 3d 27 26 b2 bb 5b 5f d8 bd
       0.005320268 0.043276206 -0.005436677 -0.105650626
0001d0 5c 64 04 3c 6b de 82 3d 58 07 94 3d f3 9f ae 3d
       0.008080568 0.06390079 0.07227963 0.08526602
0001e0 41 25 54 bd 0c 25 b8 3d 43 6b e4 3d 6b 7e e3 bd
       -0.05179334 0.08991441 0.11153271 -0.11108097
0001f0 71 28 9c bc 38 2f 48 bd 44 37 74 ba 72 84 96 3d
       -0.019062253 -0.048873156 -0.00093160965 0.07349481
000200 2a b9 dc 3d 29 ea 39 3d 3a 90 c4 3d c0 ac ed bd
       0.10777505 0.04538933 0.095978215 -0.11605215
000210 f4 9f a2 3d 61 db 31 3d 93 db d0 3d 33 98 49 bd
       0.07940665 0.043422107 0.101981305 -0.049217414
000220 4f 14 ac 3c ab 9c 83 bd c0 a2 15 bd e8 cc 88 3c
       0.021005778 -0.064263664 -0.036532164 0.01669927
000230 86 02 f9 bd 96 42 06 3d 63 de 9b bd fc 43 5f bd
       -0.121586844 0.032778345 -0.07610776 -0.054508194
000240 74 0c 68 3c 1c da 12 bd 43 e5 e2 3d a0 82 bb bc
       0.014163125 -0.035852537 0.110788845 -0.022889435
000250 99 89 46 bd 6a b6 d8 3d cf cc f0 3d 30 83 1e 3d
       -0.048471067 0.10581668 0.11757814 0.03869933
000260 2f 6b 25 bc 70 d9 44 bd 24 33 a1 3d e8 25 cd 3c
       -0.010096355 -0.048058927 0.078710824 0.02504249
000270 f5 b4 e9 3d dd 77 e9 3c 65 15 93 bd 0f c5 f5 bd
       0.11411468 0.028499538 -0.07181815 -0.120004766
000280 ec 42 13 bd 38 ba eb bd 62 58 de 3d 32 8f 20 3b
       -0.035952494 -0.11510128 0.108567014 0.0024499414
000290 c6 64 23 bd a0 26 fc 3c 86 86 9a 3c fa 2d c3 3d
       -0.039891027 0.030780137 0.018862974 0.09530254
0002a0 80 c5 31 bb 50 15 a5 bd 68 b0 f7 3b e5 9e 1a 3d
       -0.0027125776 -0.08060706 0.007558871 0.03774919
0002b0 d9 51 e4 bc d4 4e ba 3c ca 66 97 bc bb f8 83 bd
       -0.02787106 0.022742666 -0.01848163 -0.06443926
0002c0 f8 f6 d3 bd 60 b5 c9 3b 46 81 e0 3d b4 07 b2 bd
       -0.1034984 0.006155655 0.10962157 -0.086928755
0002d0 29 04 ca bd f3 9d d3 3b 1c 6a 2c bd db 6c bb bd
       -0.09864075 0.006458038 -0.04209338 -0.09151622
0002e0 5f fc 4e bd 16 46 f4 3d 5f d0 1d bd df be 5f bd
       -0.05053365 0.1192743 -0.038528796 -0.05462539
0002f0 65 fc 0c bc 72 2f e6 bd 9c 6a 19 3d cc 2e d1 3d
       -0.008605097 -0.11239518 0.037455186 0.10214004
000300 e0 d3 c7 bd 40 f3 1c ba 6c bf 9a bd 53 41 ad bc
       -0.09757209 -0.0005987175 -0.07556042 -0.021149313
000310 ae 9f bb bd c2 e8 24 bd b8 f4 c2 bd 18 79 0f 3d
       -0.09161316 -0.040261038 -0.09519333 0.035027593
000320 f0 01 21 bd f8 a2 8d 3d e2 0c dd bc ba 65 8b bd
       -0.03930849 0.069158494 -0.026983682 -0.06806512
000330 c0 58 eb 3d 53 cb cf 3d d2 15 8b bd d0 c0 e6 bd
       0.11491537 0.10146203 -0.06791271 -0.11267245
000340 b2 47 1e 3d ac db 0e 3d a0 a7 ab bc b5 c8 f6 3d
       0.038642593 0.034877464 -0.020953953 0.120500006
000350 1e b9 2d bd e8 21 e0 3d 83 65 b0 3d ec a6 f7 bd
       -0.04241287 0.10943967 0.08613112 -0.12092385
000360 50 a8 bf bd 56 95 50 3d 78 70 ee 3d b0 59 9d bd
       -0.09358275 0.050923668 0.116425455 -0.07683122
000370 9a 16 ce 3d 8d dd d6 bd b9 1c 36 3d c4 7f de bd
       0.10062905 -0.10491476 0.044460986 -0.10864213
000380 23 65 45 3d c9 4a e9 3d e4 31 86 3d 54 cb 21 bd
       0.048192155 0.11391217 0.06552485 -0.03950055
000390 36 6f c7 3d 00 2a 4b bc 34 13 79 3d 41 e6 ef 3d
       0.09738009 -0.01240015 0.06080933 0.11713839
0003a0 70 bd 96 3d b0 11 a6 bd fc 60 96 bd 29 a5 8f 3d
       0.07360351 -0.081088424 -0.07342717 0.07013924
0003b0 b7 8e d9 3d 63 c8 13 3d 74 c5 5e bd 4c 2e 10 3d
       0.10622924 0.036079776 -0.054387525 0.035200402
0003c0 94 a1 d6 bd c0 ab 7c 3c 01 67 06 bd 3e db 8d 3d
       -0.10480037 0.015421808 -0.032813076 0.06926583
0003d0 3a 2f e0 bd 88 7c 63 bd f1 c6 b8 bc d8 7f e6 bd
       -0.10946508 -0.055538684 -0.0225558 -0.11254853
0003e0 85 ae d8 bd 8e cf a0 bd 8a c0 82 bd 99 d0 94 3d
       -0.10580162 -0.07852088 -0.0638438 0.07266349
0003f0 a6 59 76 3d 30 d1 b3 3d 2a 0a 20 3c 5a ad c9 bd
       0.06014409 0.08780134 0.009768048 -0.09847517

model.2.bias f4 [64]
000000 2a f9 84 3d 7f 82 94 3b e7 ac e0 3d 93 c4 3c bd
       0.06492837 0.004532158 0.109704785 -0.046085905
000010 d4 28 55 3d 74 4a 47 bd f2 cb 3c 3c 33 cf eb bd
       0.05204089 -0.04865499 0.011523234 -0.115141295
000020 cd 77 e7 bd 4d ac 94 bd 67 86 37 3c 10 6b f5 3b
       -0.11302147 -0.07259426 0.011201478 0.0074895695
000030 67 f1 7c bd a4 16 e2 3d 4a 88 03 bd a0 52 c2 bd
       -0.061753657 0.110394746 -0.032112397 -0.09488416
000040 fa a2 81 3d 3c f2 a9 3d ec 3f c1 3d 12 1c c9 bd
       0.063299134 0.08298156 0.0943602 -0.09819807
000050 f2 ce c5 3d 76 4b ef 3d 7e 56 d7 bd 5d b1 f5 3d
       0.09658612 0.11684315 -0.10514544 0.1199672
000060 a0 d8 97 3b 43 39 68 3c 13 e4 a1 3c 3c ea 95 bd
       0.004633978 0.0141738085 0.019762075 -0.07320067
000070 50 80 67 3c 80 32 2b b8 16 e3 ec 3d be 8e d0 bd
       0.014129713 -4.081661e-05 0.11566751 -0.10183476
000080 53 72 34 3d 19 93 10 3c b8 aa 6b 3d 04 58 18 3d
       0.04405434 0.008824133 0.057535857 0.037193313
000090 70 76 0c bd d4 7a 6e 3d 07 17 fa 3d 17 e1 48 3c
       -0.03429264 0.058222607 0.12211423 0.012260697
0000a0 b9 7f 1c bd ee 6b 3b 3b d4 68 e4 3d f0 e2 8d 3d
       -0.038207743 0.0028598267 0.11152807 0.069280505
0000b0 a4 50 2a bd d6 c1 5b bd aa 60 68 bd f6 17 8c bd
       -0.04158081 -0.053651653 -0.05673281 -0.06840508
0000c0 f2 31 de bd ee a3 2d bd 57 e5 d8 3d 83 b6 99 bd
       -0.1084937 -0.042392664 0.10590618 -0.075055145
0000d0 d8 7a e8 3d f9 bc ef 3d 71 41 63 bc 24 a6 25 bc
       0.113515556 0.117059655 -0.013870583 -0.010110412
0000e0 e0 ff 23 3d cd ff 93 bd a6 5c c2 bd b3 f1 e2 bd
       0.040038943 -0.072265245 -0.094903275 -0.11081257
0000f0 19 57 aa 3d b2 fd 9e bc e4 97 8c bd 30 6f 25 3c
       0.08317394 -0.01940808 -0.06864908 0.01009731

model.4.weight f4 [6, 64]
000000 a5 e2 5a 3c 15 54 d3 3c 35 f9 fd 3d 37 5d e3 bd
       0.0133597 0.02579693 0.12401048 -0.11101764
000010 38 4e 66 bc 40 f8 d5 3c 6d d4 a3 3d 82 8c 58 3c
       -0.014056735 0.026119351 0.079995014 0.013217093
000020 76 48 88 bd aa 12 29 bd c3 67 84 bd d7 39 53 3c
       -0.06654446 -0.041277565 -0.064651035 0.012892208
000030 e7 21 14 3d 70 1a 9d 3d 58 26 93 3d 22 ad 53 bd
       0.036165144 0.07671058 0.07185048 -0.051678784
000040 02 b5 bb bc 72 8b fa bc 89 39 50 3b 2e 0f 93 3d
       -0.02291346 -0.03058407 0.0031772575 0.0718063
000050 1f 8f 00 3d 7c e3 62 bd e6 e1 e4 3c 52 85 94 bd
       0.03138649 -0.055392727 0.027939748 -0.07251991
000060 ea 29 a9 3d f3 d3 ed bd 49 56 97 bd 2b bb 98 3d
       0.082599476 -0.11612692 -0.073895045 0.074575745
000070 20 ee e2 3d d2 2f 67 3d 64 fe b0 bd 40 b4 e0 bd
       0.11080575 0.05644209 -0.08642271 -0.1097188
000080 7e 64 52 3d 20 5e 11 bc b6 cf 83 3c 94 93 f5 bd
       0.051365368 -0.008872539 0.016090255 -0.11991039
000090 2b 3e be bb 09 f6 e3 3d 29 df ca 3d de f6 de 3d
       -0.005805751 0.11130912 0.09905846 0.1088693
0000a0 2d 14 aa bd e4 e4 9b bd 5c 51 d6 3c e2 99 d9 bc
       -0.083046295 -0.07612017 0.026161842 -0.026562635
0000b0 db de b1 bd a0 10 a7 3d 5b 12 8e bd c6 f8 8d bd
       -0.086850844 0.08157468 -0.06937095 -0.069322154
0000c0 d9 1f 13 3d c1 6c 8a bc 26 78 ec 3b a6 ef 2c 3d
       0.035919044 -0.016897561 0.0072164712 0.042220734
0000d0 7e f7 f4 bb b2 03 89 3c 26 3b 88 bd 02 43 bd 3d
       -0.0074757924 0.016725395 -0.06651907 0.09241296
0000e0 21 6e 7a 3d 6a d9 86 3c 3f bf e1 3d 77 12 ad bd
       0.061140183 0.016461093 0.110228054 -0.084507875
0000f0 17 fe f8 3d aa a9 f3 bd c5 77 45 3d 02 70 3a 3d
       0.12157839 -0.11897595 0.048209924 0.045516975
000100 31 fa 2d bd c4 46 d7 3d 45 e5 4e bc 8b 3b bb bd
       -0.04247493 0.10511544 -0.012627904 -0.09142216
000110 b7 c9 ad 3d 40 aa 7b 3c 32 41 b1 bd 69 61 fd bd
       0.0848574 0.015360415 -0.08655013 -0.12372095
000120 56 57 60 3c bd 05 a3 3d 24 6c bf 3d b1 31 5d 3d
       0.0136926975 0.07960079 0.09346798 0.054002468
000130 94 f0 6f bd ac cd ea 3d 43 43 f6 3d f6 b2 ad bd
       -0.058579043 0.1146501 0.12024548 -0.084814
000140 7f 3a af bd 85 bc c4 3c 26 4e d1 bd a6 03 49 bc
       -0.08556079 0.024015674 -0.10219984 -0.012268936
000150 a2 a9 76 3c d0 b4 c6 3b 68 c2 93 bb 75 0d 6c bd
       0.015055092 0.006064035 -0.004509259 -0.05763002
000160 5a 9c e4 bd 9b d2 91 bd 00 20 b0 bd 22 57 25 3d
       -0.11162634 -0.07120248 -0.085998535 0.0403663
000170 34 34 1c bd 3f b1 b5 3c de 9a ce 3d 99 d5 f4 3d
       -0.038135722 0.022179244 0.10088132 0.11954803
000180 d4 b1 2d bd f7 d6 9e 3d 49 7e 99 bd 70 f5 04 bc
       -0.04240592 0.07755845 -0.0749479 -0.0081151575
000190 a1 81 06 bd 2c 67 55 3d 08 c0 fc bd 23 c9 1d 3d
       -0.032838468 0.052100345 -0.123413146 0.038521897
0001a0 0d 0a c8 bd bc b1 55 bd 1f 32 d1 3d f4 bc ea bd
       -0.09767542 -0.052171454 0.10214638 -0.11461821
0001b0 73 34 fa 3d 20 e6 9d bd d7 7e 14 bd 3e ab 95 3d
       0.12217035 -0.077099085 -0.036253776 0.073080525
0001c0 a7 49 92 bd 67 50 a8 3c 2c e6 21 3b 13 61 e2 bc
       -0.07142954 0.020546151 0.0024703844 -0.02763418
0001d0 3e 6a 3d 3c cb d6 ea bd 44 f0 a6 bd 45 13 bb bd
       0.011560975 -0.1146675 -0.08151296 -0.09134535
0001e0 2c aa a4 3d da 39 88 bd 63 43 a6 bd 33 48 82 bd
       0.0804027 -0.06651659 -0.08118322 -0.06361427
0001f0 95 38 ce 3b 4d 95 a3 bc 1b 33 d7 3d f9 33 e8 3d
       0.006293366 -0.019968653 0.105077945 0.11338038
000200 bf 86 ae 3d a0 9d d9 bb 43 da 66 3c e1 bd 67 3d
       0.085217945 -0.006641105 0.014090124 0.056577567
000210 2e 7b e9 bd f0 c5 5d 3c 48 d6 af bc 0f c8 ba bd
       -0.11400448 0.0135359615 -0.021464482 -0.091201894
000220 2e 1f 71 bd 94 a7 b3 bc 24 f2 95 bd 9e 05 dd bd
       -0.058867626 -0.021930493 -0.07321575 -0.10792087
000230 e4 9a 25 bc 39 cd d6 3c f8 68 d4 3d e1 96 65 bc
       -0.01010773 0.026220905 0.10371584 -0.014013023
000240 b3 17 c9 3c 95 0b 20 3d c3 c6 f9 3d 9c 01 2e bc
       0.024547433 0.039073545 0.12196114 -0.010620501
000250 da 9f 8a bd 00 4d d3 3d 9f 1e 86 3d e6 fb 57 bd
       -0.067687705 0.10317421 0.06548809 -0.052730463
000260 a0 b4 4c bc 7b 27 58 3d 63 93 aa 3d 2b 7a 1a 3c
       -0.012494236 0.052772027 0.08328893 0.009428541
000270 1d f9 90 bd 0a 52 4d bd 5f a0 61 3d 08 b0 fb 3c
       -0.070787646 -0.050127067 0.055084582 0.030723587
000280 2b a1 be 3d bd 67 d4 3d 46 d6 c2 3b 20 44 e7 bd
       0.09308084 0.10371349 0.0059459535 -0.11292291
000290 8c 8c 80 bc 85 91 d0 3d 00 b2 3f 3d 78 39 23 bd
       -0.015692018 0.10184006 0.046800613 -0.03984973
0002a0 58 7f b5 3b d8 20 f1 bd fb eb b5 3d 3c 11 b6 bc
       0.005538862 -0.117738426 0.088829 -0.022225015
0002b0 ca f5 ec 3d bc 97 08 bb 84 10 7a 3d d4 18 c3 3d
       0.11570318 -0.0020842394 0.061050907 0.0952622
0002c0 fc 57 9e bd 85 34 b9 3d 12 f1 47 3d 30 be e6 bd
       -0.077316254 0.090432204 0.048813887 -0.11266744
0002d0 3b 8d f8 3c 1a 5d cd 3d 3c 6f b9 3c 03 24 11 3d
       0.030340781 0.10027523 0.022636048 0.035434734
0002e0 c3 74 6f 3d 0b 2e a4 3d 5a aa 65 3d 09 0d e8 bc
       0.058460962 0.080165945 0.056070663 -0.028326528
0002f0 fb b1 bf bc a8 2b b8 3c 2a 78 88 3a 92 f8 b1 bd
       -0.023400297 0.022481754 0.0010411788 -0.08689989
000300 8b 88 55 3d 6a b8 a8 bd 91 19 8b bc ba 51 1f 3d
       0.05213217 -0.08238299 -0.016979964 0.0388963
000310 26 ee 6f 3d 0c 9f 21 3d 21 df 5a bd 29 52 bc 3a
       0.058576725 0.03945832 -0.05343545 0.0014367747
000320 be b6 90 3d a1 e3 22 3d 08 91 c3 3b d7 11 c7 bd
       0.07066105 0.039767865 0.005968217 -0.097201996
000330 f6 4b 9a 3d 62 25 9a bd 56 06 a5 bc 4b 9a 3d bc
       0.0753402 -0.075266615 -0.020144623 -0.011572431
000340 e1 a9 78 3c cf 3a cb bd 5b db 86 3d f9 70 b8 3d
       0.015177221 -0.09923326 0.065848075 0.09005923
000350 1c 2c 13 3c 6c ce 12 bc fd 83 b0 bd de f1 5f bd
       0.008982684 -0.008960348 -0.08618925 -0.054674022
000360 18 b3 9f 3c 5a 15 29 bd 74 6b ed 3d e1 71 e3 bd
       0.019494578 -0.041280128 0.11592761 -0.11105705
000370 f1 61 9d bd 1f 6f 0f bd 14 93 78 bc b5 e9 f2 bd
       -0.076846965 -0.035018083 -0.015171785 -0.11860982
000380 94 d6 a1 bd 66 e7 aa bb 0c 15 05 bd 60 b8 61 bd
       -0.07902256 -0.005215573 -0.032490775 -0.055107474
000390 6d 90 30 bd 0f 6f f3 bd 4b 1e 69 bd ca e7 bd bd
       -0.043106485 -0.11886417 -0.056913655 -0.09272726
0003a0 f4 1b ef bc 97 68 d1 bc 3b a5 d7 bd 76 a5 af 3d
       -0.029188134 -0.025562568 -0.10529562 0.08576481
0003b0 c6 39 da bd c0 1f 0e 3d 26 c4 a8 bd 2a 6d f2 3d
       -0.10655551 0.034698248 -0.08240537 0.11837228
0003c0 11 db 92 3d 78 8c c8 3d 07 02 9f 3d 93 40 14 bd
       0.0717069 0.09792417 0.077640586 -0.036194395
0003d0 b9 5c 95 bd 19 52 90 bc d6 28 8e 3d 78 bb 74 3c
       -0.07293076 -0.017617272 0.069413826 0.014937274
0003e0 e9 75 34 3d 42 b2 1d 3d 9f 6f e9 3d eb 60 c1 3d
       0.04405776 0.038500078 0.11398243 0.09442314
0003f0 a6 31 91 bd a9 fe 8a bb c2 3d 7c bd 62 42 d2 bd
       -0.07089548 -0.0042417836 -0.061582334 -0.10266568

model.4.bias f4 [6]
000000 54 77 cd 3d 01 f2 9e bd b5 31 c3 bd f4 0a 9a 3d
       0.10032526 -0.07761002 -0.09530965 0.075216204
000010 54 dc 87 3c e6 68 84 3b
       0.016584553 0.004040825

model.0.weight f4 [64, 96]
000000 ea 5c 1d 3d f0 0d fb bb a0 5e 7b 3d de 9d 8a 3c
       0.038418688 -0.0076615736 0.06136954 0.01692098
000010 07 dd 4c bd 62 90 75 bd b9 9a 67 3d d4 ce 57 bd
       -0.050015476 -0.059952147 0.05654404 -0.05268748
000020 68 bc 8c bd 47 0f 41 bd 51 20 97 3d ab 3f c0 bc
       -0.06871873 -0.04713371 0.07379211 -0.02346786
000030 5e f5 c1 bc 36 20 2d bd 49 79 bb 3d 37 02 d7 bc
       -0.02367657 -0.042267047 0.09153993 -0.026246173
000040 df d3 9e bd 4d b7 40 bd 21 8b 80 3c 82 db bd 3d
       -0.07755255 -0.04704981 0.015691342 0.092703834
000050 7a 4f 53 3d 51 48 cd 3c 4d bf 8e bd 5d 4f 94 bc
       0.051589467 0.025058897 -0.069700815 -0.01810425
000060 e1 5c 80 bd a0 a1 6b bd b9 1c 8e bd 9f 2d e2 bc
       -0.06267715 -0.057527184 -0.06939072 -0.027609644
000070 85 83 14 3d 95 49 a8 bd af a0 bf bc 99 15 d9 bc
       0.03625824 -0.0821716 -0.02339205 -0.026499556
000080 90 3f 84 3d cf ea b5 3d 19 9a 56 3d af 7a b4 3d
       0.06457436 0.08882677 0.052393053 0.088124625
000090 0c b0 af bd bc e9 13 bc d4 85 0b 3c 78 7c 5a bd
       -0.085785 -0.009027895 0.008515794 -0.05334136
0000a0 c0 2a 25 3d a1 e7 a3 3a 00 a5 41 bd ce 61 3b bd
       0.040323973 0.0012504944 -0.047276497 -0.04574757
0000b0 db a5 82 3d 42 ee 1b 3d 01 29 a3 bb 68 7e be 3b
       0.06379291 0.038069017 -0.0049792533 0.0058134086
0000c0 19 57 80 3d b8 c7 01 3d c0 42 9a bd 45 13 81 3d
       0.062666126 0.031684607 -0.07532263 0.063025035
0000d0 0d c6 e5 bc 17 f3 84 3d 32 c4 93 3d 16 1b 92 3d
       -0.02804854 0.06491678 0.07215156 0.071340725
0000e0 a5 bb 9a 3d 07 f7 c4 3d 65 14 9d bd a0 d0 7f 3d
       0.075553216 0.09617429 -0.076699056 0.06245482
0000f0 56 84 55 bc 9f 91 ef 3c 5e d5 53 3d 7a 9f 8b 3d
       -0.01303204 0.029244242 0.051717155 0.06817527
000100 61 b0 ce 3c a8 c1 82 3d 9a 53 35 bd 78 63 ca 3b
       0.025230588 0.06384593 -0.04426918 0.0061764084
000110 dc cf af bd cb 52 0b 3d d1 bf 62 bd 04 85 16 3d
       -0.08584568 0.034014504 -0.05535871 0.036747947
000120 cf 20 83 bc db cc bd 3d b9 8c 50 bd 74 4e 79 bd
       -0.016006855 0.09267589 -0.050915454 -0.060865834
000130 89 36 5f 3d 63 c7 ec 3c ef 01 81 bd de cb b7 bc
       0.05449537 0.028903669 -0.06299197 -0.022436079
000140 77 a5 21 3b db d2 1f bd 26 f6 e7 bb 96 ad 10 bd
       0.0024665275 -0.039019447 -0.0070789037 -0.035321794
000150 b7 a1 52 3d de af bb 3d 0b 06 9a bd 7a 1d 52 3d
       0.051423755 0.091644034 -0.07520684 0.051297642
000160 10 59 8e 3b aa f7 33 3d f8 5e 33 3d c1 ca 5e 3d
       0.004344113 0.043937363 0.04379174 0.05439258
000170 04 95 a6 3d b5 33 40 bd 6a 8f 19 bc cb 55 a5 bd
       0.08133891 -0.04692431 -0.0093725715 -0.08073004
000180 83 11 9b 3d 29 f6 a2 bc 2d 49 07 3d 8c 44 4a 3d
       0.075716995 -0.019892769 0.03302877 0.049381778
000190 e6 6b aa bd 7e 2c c5 bd 94 81 50 3d b5 a4 21 3d
       -0.08321361 -0.09627627 0.050904825 0.039463717
0001a0 a3 35 47 bd 6f 8b af 3d 4b 2d 68 bd 12 4d 56 3d
       -0.048635136 0.08571517 -0.05668382 0.052319594
0001b0 a2 6b c0 bd 9e 8e a7 bd b3 20 41 bd 18 e0 ce 3d
       -0.09395529 -0.08181499 -0.047150325 0.10101336
0001c0 7a fb 83 bd 2e 71 60 bd 54 48 84 bd e4 82 79 3d
       -0.0644445 -0.054795437 -0.06459108 0.060915843
0001d0 1b ef 84 bd c2 a3 b2 bb fb 38 24 bd e4 87 b1 ba
       -0.06490918 -0.0054516504 -0.040093403 -0.0013544527
0001e0 c1 80 8d bd 9e 0d 63 bd 95 da 96 bd 38 3e 38 3d
       -0.069093235 -0.05543291 -0.0736591 0.04498121
0001f0 a7 07 d2 3c 0b 0e 86 3c 25 e1 d6 3c a0 16 52 bd
       0.025638415 0.016364118 0.026230404 -0.051291108
000200 5b 1a 81 bd 51 ed 1d bd 05 e8 4d 3d 9b 73 80 bc
       -0.06303855 -0.0385564 0.0502701 -0.015680125
000210 45 8a 46 bd c7 4c 2c bd bd 3e a1 bd 7f 8b 90 3d
       -0.048471708 -0.042065408 -0.078732945 0.07057857
000220 71 bc bc bd 70 96 b3 bd 38 6b bc 3b eb d2 50 3d
       -0.0921563 -0.08768928 0.005750086 0.050982397
000230 35 c2 83 3d 8e 39 c4 3d 88 4d 7c 3d f6 05 be bd
       0.064335264 0.0958129 0.061597377 -0.09278481
000240 e9 25 34 3d 37 b8 ae bd de 0a b9 3d 46 0c b2 3d
       0.043981466 -0.0853123 0.09035276 0.08693747
000250 f2 97 08 bd 8e 97 77 bc c6 23 81 bb 11 e1 b6 3d
       -0.03334803 -0.015111817 -0.003941032 0.08929647
000260 11 15 2a bd f6 90 bc bd ba 2c 0e 3b fa ec 74 bb
       -0.041523997 -0.092073366 0.002169414 -0.0037372694
000270 20 dc bb bd 82 c0 5e 3d 89 55 68 3d ac 53 0d bd
       -0.09172845 0.05438281 0.056722198 -0.034503624
000280 53 a4 81 3d e8 12 96 3d 45 e5 aa bd 64 54 c5 3c
       0.063301705 0.07327825 -0.08344511 0.024088092
000290 49 9a 68 3d 89 6a 80 3c bc a8 99 bc 40 1b 81 bc
       0.056787763 0.0156758 -0.018757217 -0.015760064
0002a0 02 23 27 3d 49 fc 66 3d 32 f3 ac bb b6 48 b0 bd
       0.04080487 0.05639294 -0.0052780146 -0.086076185
0002b0 34 33 8e bd b1 8a 88 bd 76 11 c5 bd 1f bb 48 3c
       -0.0694336 -0.06667078 -0.09622471 0.012251644
0002c0 55 43 80 3d 58 5c b0 bd e2 a2 8e 3c e9 7e 46 3d
       0.062628426 -0.08611363 0.017411653 0.048460875
0002d0 b9 09 8e bd 19 5d 52 bd 71 ee 97 3c 83 81 ad 3d
       -0.06935448 -0.051358316 0.018546315 0.08471968
0002e0 e3 25 7f 3d 73 b2 a8 3d b8 cd fd 3b b7 5d 35 3c
       0.06229199 0.082371615 0.007745471 0.011069707
0002f0 48 1e 16 3c b1 70 4b 3d 1d b3 44 bd 80 c8 3f bd
       0.009162493 0.049668018 -0.04802238 -0.04682207
000300 60 39 00 bc a9 19 ca bd d3 16 ec 3b 27 23 a1 3d
       -0.007826179 -0.098681755 0.0072048693 0.07868033
000310 c1 2e a7 3d 7d 25 79 bd 1a 6c 67 bd 02 72 1d 3d
       0.081632145 -0.060826767 -0.056499578 0.038438804
000320 16 cb 8e 3d 37 34 46 3d 33 65 bc bd 86 a8 dd ba
       0.06972329 0.04838964 -0.0919899 -0.0016911186
000330 2e b0 25 3d 3d 42 b7 bd c0 fa fb bc db dc 89 3d
       0.04045122 -0.08948181 -0.030759215 0.06731578
000340 c7 57 71 bc bf f1 99 bd de 8d 80 3d 8e 66 17 3d
       -0.0147304 -0.075168125 0.06277059 0.03696304
000350 81 fb 36 bc c8 3c ad 3d e8 2e 6d bc 66 ab 76 3b
       -0.011168362 0.08458859 -0.014476515 0.0037638783
000360 5c a4 87 bc fc 1e 3a bc fb cd a2 3d 0f 84 dc 3c
       -0.016557865 -0.011359926 0.07949444 0.02691844
000370 d5 ea 00 bd 01 4b 79 bd 96 18 9d 3c f1 3c 86 bc
       -0.031473953 -0.060862545 0.019176763 -0.016386481
000380 45 ae e1 3c d5 18 6c 3c 46 89 40 3d 58 40 85 3b
       0.027548919 0.014410217 0.047005914 0.0040665083
000390 26 7c 88 3d 63 77 8c 3d e5 54 78 3d 25 d2 a1 3d
       0.066643044 0.06858709 0.060627837 0.0790141
0003a0 b4 1c 05 3c 3a 36 9d bd de dc bb ba a5 d0 fb 3c
       0.008124519 -0.076763585 -0.0014332791 0.030739138
0003b0 d9 87 a0 3d c2 4c 8d 3d 7f c5 62 3d 1c ef a5 bd
       0.07838411 0.06899406 0.05536413 -0.08102247
0003c0 de 72 65 bd a7 d9 8d 3d f8 a7 ae bd c6 23 8c 3d
       -0.05601775 0.069262795 -0.08528131 0.06842761
0003d0 2b c2 ab 3b dc 30 4f 3c 77 92 86 3d 42 4d d2 bd
       0.0052416525 0.012645926 0.06570905 -0.10268642
0003e0 10 87 0d bd 61 2d f2 bc f2 5e b8 3d 3e 36 7c bd
       -0.034552634 -0.029562654 0.090024844 -0.061575167
0003f0 c7 1b c6 bd 2a 7b 26 bd 20 a4 ab 3d 11 31 ab bc
       -0.09673267 -0.040644802 0.08380914 -0.02089742

model.0.bias f4 [64]
000000 15 9d 08 bd 82 cc 18 3c 4e 68 9e 3c b2 24 cc bd
       -0.03335293 0.009326102 0.019336846 -0.099679366
000010 fb 20 9c bd d5 f1 e2 3c 93 61 2f 3d 2a 44 09 3d
       -0.07623478 0.027703205 0.042817663 0.033512272
000020 e4 1c d0 bc 44 4e 0b bd a8 6c c7 3d d8 74 c4 3c
       -0.025404401 -0.034010187 0.097375214 0.023981497
000030 4b 1a d1 3d 6f 72 ca bd 09 e7 9b 3c 78 d0 fa 3c
       0.10210093 -0.09885108 0.019031065 0.030616984
000040 87 27 9e bd 91 68 a7 bc 3f d5 c2 3d f8 41 1b 3d
       -0.07722383 -0.020435603 0.0951333 0.03790471
000050 75 a5 8e 3d f7 90 c7 bd 2a 15 fc bc b0 c1 9c bd
       0.06965152 -0.09744447 -0.03077181 -0.076541305
000060 27 71 91 3d e6 7d 87 3c 60 fa 85 bd b2 f1 1c 3d
       0.0710166 0.016539525 -0.06541896 0.038316436
000070 76 af 66 3d 45 96 6f 3d f7 bb c9 3d 51 5f 4e 3b
       0.056319676 0.058492918 0.098503046 0.0031489918
000080 29 fc e3 3c 75 78 92 3d 46 f6 fa bc 8e eb 98 3d
       0.0278302 0.071518816 -0.03063501 0.074668035
000090 e1 4b 0e bc a5 01 04 3d bf 10 47 bd 57 dc f7 bc
       -0.008685083 0.03222813 -0.048599955 -0.030256433
0000a0 6c 71 74 bc b8 49 b4 3d 86 41 76 3c bf b6 23 3d
       -0.01491962 0.08803123 0.01503027 0.039969202
0000b0 dd f8 0c 3d fe f4 a5 bd b8 dc ad bd 52 92 42 bc
       0.034417022 -0.08103369 -0.084893644 -0.011875706
0000c0 16 b9 7e bd 75 89 b4 3d 34 22 68 3c b4 b9 a4 bb
       -0.06218823 0.0881528 0.014168311 -0.0050270204
0000d0 6b 6d ab 3d a5 73 d3 bd f4 20 46 bd 68 8e c8 3d
       0.08370479 -0.10324792 -0.04837127 0.09792787
0000e0 35 40 5a 3d 26 a0 9f 3d a6 7d 11 bd 1b 05 0d 3c
       0.05328389 0.07794218 -0.03552022 0.008607174
0000f0 00 c5 3d bd 2b 0b 94 3d d6 8e 43 bd 39 ca 8e 3c
       -0.046330452 0.072286926 -0.04774364 0.017430412

model.2.weight f4 [64, 64]
000000 d8 3c ce 3c 34 f6 0f 3d 74 88 eb bd e9 54 15 3c
       0.025175497 0.035146907 -0.11500636 0.009114482
000010 55 95 00 3e 3e bc 18 bd b9 e2 f1 bd 21 f0 ac 3d
       0.12556966 -0.037288897 -0.11810822 0.084442385
000020 ee 43 d4 bc 12 f1 70 3c f1 1e 6d bd c6 71 e8 3b
       -0.025911298 0.014705913 -0.057890836 0.007093641
000030 7f 42 d8 3d e0 7a d0 bd 93 70 c2 bc 5d 5f 21 3d
       0.10559558 -0.101796865 -0.02373532 0.039397586
000040 e2 12 c1 bd 02 10 c8 bd 79 f4 98 3c 30 5d b4 3d
       -0.0942743 -0.09768678 0.018671261 0.088068366
000050 db 64 ca bd 1d aa 17 bb 76 51 95 3c 02 cd 8f 3d
       -0.09882518 -0.0023142167 0.01822732 0.07021524
000060 ea d6 9a bd c9 b6 7c 3d c9 6d f6 3c 52 cc 8d bd
       -0.07560523 0.061697755 0.030081647 -0.06923737
000070 49 77 da 3d b6 3d bf bd 52 9b 9e bd 33 a8 c1 3d
       0.10667283 -0.09337942 -0.07744469 0.094559096
000080 8a 1c bd bc 7b f4 ef bd 49 a1 e1 bb b6 8f ee 3d
       -0.023084898 -0.11716553 -0.0068856818 0.116485044
000090 00 a9 8c 3d 9d e0 58 bd 4a 5b 12 3d da 8d c3 bd
       0.06868172 -0.052948583 0.03573159 -0.095485404
0000a0 6e 79 ed bd da cc 9c bd 59 0b ca bd ef 3c de 3d
       -0.115954265 -0.0765626 -0.09865446 0.10851466
0000b0 30 8b bd 3d 68 80 38 3d c4 f4 bf bd 59 9f 3b bd
       0.092550635 0.045044333 -0.09372857 -0.045806263
0000c0 03 f2 0c 3d be 06 c0 3d d1 03 cb bd c7 90 c1 bd
       0.034410488 0.09376286 -0.09912837 -0.09451442
0000d0 14 d5 51 bd 03 29 ff bb 19 81 39 bd bf 8a 3f 3c
       -0.051228598 -0.0077868714 -0.045289133 0.0116907945
0000e0 70 19 86 3d 69 ea c9 3c 7f 5d c2 3d b9 ba 8e 3c
       0.065478206 0.024647908 0.09490489 0.01742302
0000f0 b8 7e cb 3c 9b 91 e8 bd 26 72 77 bd 63 e5 fd 3b
       0.024840698 -0.11355897 -0.060411595 0.0077482923
000100 31 34 64 3d ec 68 8a 3d da 3a 44 3d 3f 6d 6c bd
       0.055713836 0.067582935 0.047907688 -0.057721373
000110 13 82 f2 bd f6 63 39 3d ae c7 17 bd 8d 88 f9 bd
       -0.11841216 0.045261346 -0.037055664 -0.12184248
000120 f8 2b 42 3d ac ad 15 bd a5 a0 aa 3d ae 5e c2 bd
       0.047405213 -0.03654258 0.08331422 -0.09490715
000130 90 63 7f bd 27 06 a9 bd 05 66 37 bd c1 cb 32 bd
       -0.06235081 -0.082531266 -0.044775028 -0.043651346
000140 87 b7 50 bc 0d 6e b7 bd 69 8e a1 3d 72 cf e9 bd
       -0.012739069 -0.089565374 0.07888491 -0.1141652
000150 74 2d 12 3d 7a 29 27 bd 41 1c 85 bd 39 ab e7 bd
       0.03568788 -0.04081104 -0.0649953 -0.11311955
000160 9b 25 4d 3c 1f 98 0f 3c 8f 3d a7 3d c6 f7 87 bd
       0.012521173 0.008764296 0.08166038 -0.06639056
000170 5e b9 57 bd 54 0a 09 3b 00 a0 bb 3b 0a 78 f6 3d
       -0.052667014 0.0020910697 0.0057258606 0.120346144
000180 62 03 b4 bd ef 96 06 3c 16 2b c9 bd 14 ad a0 3d
       -0.08789708 0.008214696 -0.09822671 0.07845512
000190 00 b9 90 3d df 54 cd bd 55 f2 b4 bd 48 6a ba bd
       0.07066536 -0.100259535 -0.08835284 -0.09102303
0001a0 7e 11 60 bd eb ff 58 bd e1 f3 ad 3d 6c 91 96 bd
       -0.05470418 -0.052978437 0.08493782 -0.07351956
0001b0 bb db 61 3d 6e 74 95 3d 85 dd 9d bd 87 4b 5d bd
       0.055141192 0.07297598 -0.07708267 -0.054027107
0001c0 30 ac 27 3c ba c9 c1 bd a0 75 c6 bd 93 42 b0 3d
       0.010233924 -0.094623044 -0.09690404 0.08606448
0001d0 46 0b 0d 3c 5c 59 36 3d 15 95 cf bd bf 01 f5 3d
       0.008608645 0.044518813 -0.10135857 0.11963224
0001e0 e3 74 f2 3d f1 68 41 bd 5b c1 ee bd 20 f3 d9 bc
       0.118387006 -0.04721922 -0.116579734 -0.026605189
0001f0 b8 08 10 3d 1e 3f 13 bc 5f 33 fe 3c a0 60 84 bd
       0.035164565 -0.008987216 0.031030355 -0.06463742
000200 c0 df 9d bc b1 4a a2 3d 64 e0 95 3d f4 c5 8d 3d
       -0.019271731 0.079244025 0.0731819 0.06922522
000210 45 7f 64 bd 92 cc 30 3c da 8b f1 3d 60 44 94 bd
       -0.055785436 0.010790961 0.11794253 -0.07239604
000220 d2 a1 ec 3d 6b 03 87 3c 80 17 59 3d 42 df 19 3d
       0.11554302 0.016481122 0.053000927 0.03756643
000230 33 41 df 3d 2c d3 ef bd 9a e8 3a 3d aa b1 8e 3d
       0.10901108 -0.117102 0.045631982 0.069674805
000240 71 58 ec bd a2 be 06 bd ab 05 ca 3b c7 2b 3f 3d
       -0.11540306 -0.032896645 0.0061652265 0.04667261
000250 77 30 f5 bd 50 0f 91 3d ec a2 8d bd 35 78 91 3d
       -0.119721346 0.07082999 -0.069158405 0.07103006
000260 76 82 9b bd 39 97 d1 3c f6 d2 e8 3d 43 d4 01 be
       -0.07593243 0.025584804 0.113683626 -0.12678628
000270 e3 61 a6 bd ee 70 8d bd 67 c6 a5 bd bd 4b c0 3d
       -0.08124139 -0.06906305 -0.08094483 0.09389446
000280 9c ad 91 bc 34 b1 c3 3d 1c 9c a4 3d 71 d8 36 bc
       -0.017782979 0.09555283 0.08037588 -0.011160002
000290 f3 3e f3 bd a0 0a c6 bd 71 5e f3 bb 0d ee 4e 3d
       -0.11877241 -0.09669995 -0.00742703 0.05051999
0002a0 5b ee e2 3d 9d b9 b4 3c 98 1f 8d 3d 07 81 1f 3d
       0.11080619 0.022061164 0.06890792 0.03894141
0002b0 85 06 33 bd ac da 7c bd 92 bf 26 3d 2c c3 a9 bc
       -0.04370739 -0.06173198 0.04071004 -0.020722948
0002c0 6c 03 89 3d 02 84 c4 3d 4f 0d c2 3d 36 6c bb 3c
       0.06690106 0.09595491 0.09475195 0.022878747
0002d0 96 dc e8 bc 90 04 31 3d a7 7c 96 bd c2 02 84 bd
       -0.028425496 0.04321724 -0.07347994 -0.064458385
0002e0 b6 de cc bd af 1d c1 bd 7b db a7 bc a7 91 d7 3d
       -0.10003416 -0.0942949 -0.020490399 0.10525828
0002f0 65 5c 6b 3d 82 2b c9 bd 0a f9 65 bd 11 75 54 bd
       0.05746116 -0.098227516 -0.056145705 -0.051869456
000300 0a c0 9b 3d 29 7b 7c bc 25 84 82 bc 0b 47 93 3d
       0.07604988 -0.015410223 -0.015932152 0.07191285
000310 b3 0e c8 3d c0 38 ec bd 5d 79 03 bc d7 97 0a bd
       0.09768429 -0.11534262 -0.008024541 -0.033836212
000320 fb 62 ea 3d 07 ba 39 bd 4e 1a f3 bd 70 b4 74 bd
       0.1144466 -0.045343425 -0.118702516 -0.05974239
000330 eb 79 65 bd 1d dd 38 bd 6a a7 50 bc d5 32 d8 bd
       -0.056024473 -0.045132745 -0.012735227 -0.105565704
000340 7c e8 5d bc 57 22 b3 3d a8 b1 ed bd b4 8c ca bc
       -0.013544198 0.08746784 -0.11606151 -0.024725296
000350 74 8f 3c 3c d0 12 f2 3d bd b4 82 3d 7c 91 f7 bd
       0.011508811 0.118199944 0.06382129 -0.12088296
000360 d7 33 e8 bc 68 2e 92 bd cb 19 86 3c 40 21 75 bd
       -0.028345032 -0.071377575 0.01636972 -0.059846163
000370 d2 41 4e bd 65 d4 a9 bd 98 eb 98 3d bc 2e 61 bd
       -0.05035574 -0.08292464 0.07466811 -0.05497621
000380 a9 e3 c1 3c d2 f9 8c 3c ba 69 cd bd c9 b0 08 3d
       0.023668127 0.017208967 -0.10029931 0.03337172
000390 46 fa bc bc 88 51 c8 3d e4 41 79 bc 7a 52 a3 ba
       -0.023068558 0.09781176 -0.015213463 -0.0012460493
0003a0 b5 a2 b4 bd 4a 67 cb 3a 40 29 79 3d 9c 91 38 3d
       -0.088200964 0.0015518453 0.060830355 0.04506074
0003b0 f8 04 ad bd 32 c3 2b 3d 85 02 21 3d 4a d2 c5 3d
       -0.08448213 0.0419342 0.039309043 0.0965925
0003c0 69 60 97 bd 85 33 b9 bc 50 15 b1 bc 0d 9a cf bc
       -0.07391436 -0.022607574 -0.021616608 -0.025342012
0003d0 1d 94 b4 3d b4 46 e5 3d 8c 93 c9 3d 8d c8 fc bd
       0.08817313 0.11195126 0.098425955 -0.123429395
0003e0 81 28 60 bb ee 36 1c bd 86 0b 96 3d 69 07 d2 3d
       -0.003420383 -0.038138323 0.07326417 0.102553196
0003f0 2a a5 e9 3d ee f5 bb bb 80 43 58 3c 58 c6 bb bc
       0.11408456 -0.005736104 0.013199687 -0.022921726

model.2.bias f4 [64]
000000 a2 1d 8e 3d aa 78 0b bd 7f c6 bb 3c 6b 31 48 3d
       0.06939246 -0.03405062 0.022921799 0.048875254
000010 ae 7c 1f bd 6e 38 7a 3d 18 b1 c4 3d d7 b6 59 bd
       -0.038937263 0.06108897 0.096040905 -0.053152885
000020 80 1d 7a bd 94 18 81 3d 18 69 e6 bd 44 a5 2c bd
       -0.06106329 0.06303516 -0.11250514 -0.042149797
000030 25 e1 93 3d 29 9f 16 3d 4f 4e c4 bd 02 7a 6e bc
       0.07220677 0.03677288 -0.09585249 -0.014555456
000040 7c 9f e0 3d 15 ae db bd cf 9c cb bd 9e 64 f5 3c
       0.10967919 -0.10726563 -0.09942018 0.029955205
000050 d5 ca b5 3c 62 4a 26 3d 6e a1 ee 3d a4 79 00 bc
       0.022191444 0.04059828 0.11651884 -0.007841501
000060 94 bd 0a 3d 3a 1f 0e bd 26 65 00 3e 85 55 bc bd
       0.033872202 -0.03469775 0.12538585 -0.09195999
000070 a0 f7 38 3d 3c d7 df 3d 2c 19 8f bd f1 42 01 3e
       0.04515803 0.109297246 -0.06987223 0.12623192
000080 a3 5d cd bd 30 98 62 bc 3a 67 9b 3d 73 de e6 bc
       -0.100276254 -0.01383023 0.07588048 -0.028182244
000090 1b 12 c1 3d 77 8e 34 3d 2e 4a 51 bd fc a0 00 be
       0.094272815 0.044081178 -0.051096134 -0.1256141
0000a0 86 8e 75 3c 2f 08 c4 3b 66 18 c8 bd b1 bf c8 bd
       0.0149875935 0.005982421 -0.09770279 -0.09802187
0000b0 6d 65 9c bc 55 2f c3 3d ab 14 02 bd dc ba c3 3c
       -0.019091332 0.09530512 -0.03175799 0.023892812
0000c0 fb d8 28 3d c0 c2 93 3d 55 aa c1 bc a1 5e b5 3d
       0.041222554 0.0721488 -0.023640791 0.0885594
0000d0 9d 90 a3 3d 37 05 29 3d 5b bf 99 bd 37 0d 09 bd
       0.07986567 0.04126474 -0.07507201 -0.03345987
0000e0 1a ee f8 bd 0b 23 d5 3d b2 8f f7 3d 28 91 96 bd
       -0.12154789 0.104070745 0.120879546 -0.07351905
0000f0 29 6d cb 3d a5 96 f7 bd bc b0 25 3d 1c f1 2d bc
       0.0993293 -0.1208928 0.04045175 -0.010616567

model.4.weight f4 [1, 64]
000000 85 01 a9 3d fe a1 cc bd b6 ae f6 bd 3f 68 a1 bd
       0.08252243 -0.09991835 -0.12045042 -0.078812115
000010 97 df 71 3d d2 5c 86 3d 80 ca e0 bd 8d 08 b5 bc
       0.059051123 0.06560673 -0.10976124 -0.022098804
000020 36 b0 df bd 44 67 ed 3d 07 42 a1 3d e4 06 d3 3d
       -0.109222814 0.11591962 0.07873922 0.10304049
000030 9a 16 ce 3d 12 56 5d bb 80 3e e8 bd a0 7e a8 bd
       0.10062905 -0.0033773226 -0.11340046 -0.08227277
000040 6c 27 b2 bd 09 04 bd 3d 63 8e d4 bd 06 eb 87 3d
       -0.086989254 0.09229285 -0.103787206 0.06636624
000050 63 bb 45 3d 60 a3 25 3c 7f 86 12 3c fb 7f 8c bd
       0.04827441 0.010109752 0.008943199 -0.06860348
000060 b2 c1 e3 3d 41 18 e6 bd 19 af e6 3d 03 5b 0c 3d
       0.11120929 -0.11235095 0.11263866 0.034266483
000070 2e a6 a6 3d a6 eb 80 3d 6a ad 09 3d 4e 7a 75 3d
       0.08137165 0.06294946 0.033612646 0.059931092
000080 25 f4 b4 bd 5c 06 3d bd c5 12 57 3d 5c e9 84 bb
       -0.088356294 -0.046148643 0.052508134 -0.004056139
000090 33 96 8f 3d 4b 64 81 3d 74 2c 02 bd 7c 0c df bd
       0.0701107 0.063179575 -0.031780675 -0.10891053
0000a0 9c 8d 36 bd 41 db d3 3d 29 5a 40 3d eb e9 36 bd
       -0.044568643 0.10344554 0.046960983 -0.044656675
0000b0 38 e6 1a 3d 8e 41 ed bc 31 db c4 ba 87 6c b1 3d
       0.03781721 -0.028961923 -0.0015018937 0.08663278
0000c0 7d 9c e6 bd d5 75 81 bd 03 bc 87 3d ee c5 e2 bc
       -0.112603165 -0.06321303 0.06627657 -0.02768227
0000d0 71 42 37 3d 2c 92 b3 3d aa 28 22 3d 6d c4 75 3d
       0.044741098 0.087681144 0.03958956 0.06000178
0000e0 aa 81 e7 3d c8 75 10 bc 87 10 a5 3c cf 6c 2b bd
       0.11304028 -0.008817144 0.020149482 -0.041851815
0000f0 2d b5 e2 bd a0 64 84 bd 80 83 50 b8 ac a7 a5 3d
       -0.11069713 -0.06464505 -4.9713533e-05 0.080886215
