modelPPO_player_0.pth (torch, 27102 bytes, 21 tensors)

shared.0.weight f4 [32, 5]
0	0x3ee7fe28	0.45311093
1	0xbe6008b3	-0.21878318
2	0x3eca32ac	0.39491785
3	0x3e1a52b0	0.15070605
4	0xbe924c3a	-0.2857378
5	0xbc03e6a3	-0.008050594
6	0x3e27625a	0.16346112
7	0x3e8bdd1e	0.27317137
8	0x3e8a093a	0.26960164
9	0x3eb5e370	0.35525084
10	0x3e36e018	0.17858922
11	0xbe9ab9cc	-0.30219877
12	0x3b1fac1c	0.002436406
13	0xbe1fb5c4	-0.15596682
14	0xbece3d5b	-0.40281186
15	0xbc6769f6	-0.014124384
16	0x3e3603ba	0.17774859
17	0x3eb3b4bd	0.3509883
18	0x3e2baa2e	0.16764137
19	0x3d34962a	0.04408852
20	0x3cf4ec86	0.02989794
21	0x3d771d94	0.060330942
22	0x3e02d683	0.12777142
23	0x3e2ab412	0.16670254
24	0x3b895d05	0.004191997
25	0xbefc1287	-0.49232885
26	0xbf0599dd	-0.521879
27	0x3e869adc	0.26290023
28	0x3d2fc4cd	0.042912293
29	0x3d7e91a7	0.062150624
30	0x3eb0b2c8	0.345114
31	0xbe0a9f93	-0.13537435
32	0xbe91fbff	-0.2851257
33	0x3eb3080e	0.34967083
34	0xbf079e47	-0.5297589
35	0xbdcb7ef8	-0.09936327
36	0x3e40d05e	0.18829486
37	0xbe9cde09	-0.3063815
38	0x3d59a8e2	0.053139575
39	0xbe5c10df	-0.21490811
40	0x3dd1c1a7	0.102420144
41	0xbe809c60	-0.25119305
42	0x3dac1b23	0.084036134
43	0x3e9a17a2	0.30096155
44	0x3e767088	0.24066365
45	0x3ecb9eb1	0.3976951
46	0xbeaf4400	-0.34231567
47	0xbf0197b0	-0.5062208
48	0x3f035e25	0.5131553
49	0xbdab6449	-0.08368737
50	0x3f0e45f2	0.5557548
51	0x3e4e4f80	0.20147514
52	0x3df4a982	0.119463935
53	0xbe773559	-0.24141444
54	0x3cec193b	0.028820625
55	0x3d1287b5	0.03577395
56	0xbea3fa76	-0.32027024
57	0xbe304804	-0.17214972
58	0x3e14894a	0.14505497
59	0x3e7db5aa	0.2477633
60	0x3ecbae58	0.3978145
61	0x3ee0ccea	0.43906337
62	0xbeb1f080	-0.347538
63	0x3e00288c	0.12515467
64	0x3e58f734	0.2118805
65	0x3ee596b7	0.4484155
66	0x3ecf066c	0.40434587
67	0xbe34e1aa	-0.17664209
68	0xbe40beee	-0.18822834
69	0x3e0d32a0	0.13788843
70	0xbe724cca	-0.23662105
71	0xbeaf4afc	-0.34236896
72	0x3ecd3ffa	0.40087873
73	0x3e4f1a39	0.20224847
74	0x3ed1d590	0.40983248
75	0xbd4fabc8	-0.050700933
76	0x3e80a70b	0.25127444
77	0xbea8dc0a	-0.32980376
78	0xbec2ef1c	-0.3807305
79	0xbe8e4bf7	-0.27792332
80	0xbef9f369	-0.4881852
81	0xbe03f69b	-0.12887041
82	0xbda089f3	-0.07838812
83	0xbed74516	-0.42044896
84	0x3e934c22	0.28769022
85	0x3f00ad1f	0.5026416
86	0x3d03eafb	0.032206517
87	0xbe19ed5a	-0.15031949
88	0x3dcd4f9d	0.10024951
89	0x3e3b0ec4	0.18267351
90	0x3e077964	0.132299
91	0x3d606988	0.054788142
92	0xbd00c153	-0.03143437
93	0x3c90c41d	0.01767164
94	0x3eebbcd2	0.46042496
95	0x3eb56741	0.3543034
96	0xbe66ddb0	-0.22545505
97	0xbe4f8c04	-0.20268255
98	0xbd898b6e	-0.06716047
99	0x3ed7f810	0.42181444
100	0x3ec0de85	0.3766977
101	0xbd4bce11	-0.049757067
102	0x3e698391	0.22804095
103	0xbdf3c2a3	-0.119023584
104	0xbee1588a	-0.44012862
105	0xbe73c5e0	-0.23805952
106	0xbf006dc3	-0.50167483
107	0xbe870de2	-0.2637778
108	0xbe219f53	-0.15783434
109	0x3ed9ff6a	0.42577678
110	0xbeaca383	-0.337185
111	0xbedaf2c7	-0.4276335
112	0xbee2636a	-0.44216472
113	0xbe95c14c	-0.29249036
114	0x3dca0045	0.09863333
115	0x3e3860fc	0.18005747
116	0x3e4cae86	0.1998845
117	0x3d2ac918	0.041695684
118	0x3c934f95	0.017982284
119	0x3deb9e6d	0.11504827
120	0xbe24c4df	-0.16090725
121	0x3c870199	0.016480254
122	0x3efaaeb5	0.48961416
123	0xbe8fcbde	-0.28085226
124	0x3dfcff9e	0.123534426
125	0x3edd825b	0.43263516
126	0x3df60f73	0.120146655
127	0x3e0b148d	0.13582058
128	0xbe9c949f	-0.3058214
129	0xbbb3a5da	-0.0054824175
130	0x3e888ab8	0.26668334
131	0x3e3fc1ea	0.18726316
132	0xbc8a16f3	-0.016856646
133	0xbe854442	-0.2602864
134	0xbece7ab9	-0.40328005
135	0x3e8f49b0	0.27985907
136	0x3e8b5612	0.27214104
137	0xbecb5d98	-0.39719844
138	0x3da0a65e	0.07844232
139	0xbe5981a6	-0.21240863
140	0xbe5c2160	-0.21497107
141	0x3c3a3e5a	0.011367405
142	0x3dfaab00	0.12239647
143	0xbed2bab7	-0.41158077
144	0x3ee14a59	0.44002035
145	0xbef1e285	-0.47243133
146	0xbf071b8b	-0.527764
147	0x3dcdaf7a	0.10043235
148	0x3bd23eb4	0.006416166
149	0xbdc84394	-0.097785145
150	0xbe0b30c5	-0.13592823
151	0x3ea9d131	0.33167413
152	0xbe4e4eb9	-0.20147218
153	0x3bfdea19	0.007748854
154	0x3ec0da1e	0.3766641
155	0xbe3e5e2f	-0.18590616
156	0xbe220424	-0.15821892
157	0xbd70ba0f	-0.05877119
158	0x3ee5777b	0.4481772
159	0xbe87aa70	-0.2649722

shared.0.bias f4 [32]
0	0xbe86fffe	-0.26367182
1	0x3f096463	0.536688
2	0xbe937ca0	-0.2880602
3	0x3f26ca0c	0.6515205
4	0x3ebb304b	0.36560282
5	0x3ecec31b	0.4038323
6	0x3bcf5151	0.0063268323
7	0xbe53d130	-0.20685267
8	0x3f011c40	0.5043373
9	0xbde5f87d	-0.11229036
10	0xbe420f6f	-0.189512
11	0x3e6aa58c	0.22914714
12	0xbec26dac	-0.37974298
13	0x3e9c1011	0.30481008
14	0x3e8ad17f	0.27112958
15	0x3e9c716f	0.30555293
16	0x3e44f98a	0.19235817
17	0x3eed75ad	0.46378842
18	0x3edc0fd0	0.42980814
19	0x3e23ab48	0.15983307
20	0xbea892e2	-0.32924563
21	0x3dbe47fd	0.092910744
22	0x3ef53d16	0.47898167
23	0x3ed10471	0.408237
24	0x3e97a715	0.2961966
25	0x3f1a3351	0.6023455
26	0x3e2f056e	0.17091915
27	0x3eeb72df	0.45986077
28	0xbebe8389	-0.37209728
29	0xbdec3acd	-0.11534653
30	0x3e4481f3	0.19190197
31	0xbebd76e6	-0.37004775

shared.2.weight f4 [32, 32]
0	0xbdcdbffd	-0.100463845
1	0x3e83116d	0.25599232
2	0x3cab1ab0	0.020886749
3	0x3e23307f	0.15936469
4	0x3ea6a002	0.3254395
5	0x3d2f523d	0.042803038
6	0xbc07c266	-0.008286094
7	0xbd9cde2d	-0.07659564
8	0xbd86b94d	-0.06578312
9	0x3e7f492e	0.2493026
10	0xbeb2f5c6	-0.34953135
11	0x3c87a854	0.016559757
12	0xbe484596	-0.19557795
13	0x3e6b833d	0.22999282
14	0xbe18ebac	-0.14933652
15	0x3dd83ee9	0.10558874
16	0x3dc55f26	0.09637289
17	0x3cc892ea	0.024484117
18	0x3e962662	0.2932616
19	0x3e8fee1f	0.2811136
20	0x3d805438	0.062660635
21	0x3de39d0b	0.11113938
22	0xbca0a1ab	-0.01960834
23	0x3e88d1ec	0.26722658
24	0xbd1a891a	-0.037728406
25	0x3ebbfd4d	0.3671669
26	0x3e5ab640	0.21358585
27	0x3eaddee8	0.33959126
28	0x3e80e792	0.25176674
29	0xbe60f461	-0.21968223
30	0x3e0ad068	0.13556063
31	0xbd92b9d5	-0.07164351
32	0xbda2533b	-0.07926031
33	0x3ca5ec9c	0.020254426
34	0xbe30b09c	-0.17254871
35	0x3d43f948	0.047845155
36	0x3cf71911	0.03016332
37	0xbd57f43a	-0.052723147
38	0xbdd9d4af	-0.10636269
39	0xbde109f9	-0.1098823
40	0x3c80a7b6	0.01570497
41	0xbb913ba0	-0.0044321567
42	0xbcda52d7	-0.02665083
43	0xbc36b476	-0.011151424
44	0x3d985f02	0.07439996
45	0xbe3a16c5	-0.18172748
46	0xbd927af3	-0.07152357
47	0x3da804e5	0.082040586
48	0xbd890344	-0.06690076
49	0xbba6a050	-0.0050850287
50	0xbcd27a9f	-0.025693236
51	0x3de6ded6	0.11272971
52	0x3defba95	0.117055096
53	0xbdb8fda9	-0.09032757
54	0xbe03790c	-0.12839144
55	0x3d698e38	0.057020396
56	0x3d800f93	0.062529705
57	0xbd154fd5	-0.036453087
58	0x3db4cb0a	0.08827789
59	0xbd8da691	-0.06916536
60	0x3cbe9942	0.023266438
61	0x3cfb01c1	0.030640485
62	0x3c9548f3	0.018223261
63	0xbdfd218e	-0.12359916
64	0xbd391a33	-0.045191
65	0xbb90c36b	-0.004417827
66	0xbdff8e8e	-0.12478362
67	0x3d966dd9	0.073451705
68	0xbe1d3d73	-0.15355472
69	0x3e516193	0.20447378
70	0xbdcbf195	-0.099581875
71	0x3e344684	0.17605025
72	0xbcbe80c8	-0.023254767
73	0x3d2c2720	0.0420295
74	0x3d8c729e	0.06857799
75	0x3e44ccd9	0.19218768
76	0xbe7af94d	-0.24509163
77	0xbe56a792	-0.2096236
78	0x3d3f515c	0.04670845
79	0xbc7c35c8	-0.015393682
80	0x3d51cd4c	0.051221177
81	0xbe3e32f0	-0.18574119
82	0xbe053ce1	-0.13011505
83	0xbe048f12	-0.12945202
84	0xbe70be27	-0.23510037
85	0x3db2dac7	0.08733135
86	0x3e410727	0.18850385
87	0xbb9c3851	-0.0047674556
88	0xbd247b42	-0.04015661
89	0xbe4a21b4	-0.19739419
90	0xbe60ffda	-0.219726
91	0xbdf3ce22	-0.11904551
92	0xbe2b7551	-0.16743971
93	0x3e93919f	0.28822038
94	0x3dad78f4	0.084703356
95	0xbd438372	-0.047732778
96	0xbe910fa6	-0.2833225
97	0xbaf6d6d7	-0.0018832338
98	0x3e2e391c	0.17013973
99	0x3dfb05dd	0.12256978
100	0x3d9b085b	0.07569953
101	0xbdfd648a	-0.12372692
102	0x3e549e54	0.20763522
103	0xbdb631a5	-0.08896188
104	0x3d85d933	0.06535568
105	0x3e618637	0.22023855
106	0xbe04bb23	-0.12962012
107	0xbdce12bf	-0.10062169
108	0xbe01cda5	-0.12676103
109	0xbd0ca769	-0.034339342
110	0xbe5a6f62	-0.21331552
111	0x3e4119d3	0.18857507
112	0xbe045374	-0.1292246
113	0x3e616187	0.2200986
114	0x3e66310b	0.22479646
115	0x3e440932	0.19144133
116	0xbe69d6c2	-0.2283583
117	0x3dea0edf	0.11428618
118	0x3e019ad0	0.12656713
119	0x3e7ce284	0.24695784
120	0xbcb28d0f	-0.021795778
121	0xbd259bd9	-0.04043183
122	0x3e4e4760	0.20144415
123	0x3da4fa32	0.080555335
124	0xbcab4402	-0.020906452
125	0x3dae641c	0.08515188
126	0x3cf28dcd	0.029608632
127	0xbe107528	-0.14107192
128	0xbe8e32ca	-0.27773124
129	0x3e9156cb	0.2838653
130	0xbe20ebf8	-0.15715015
131	0x3ea51d48	0.32248902
132	0x3ee2cd1b	0.44297108
133	0x3d0cf9d0	0.034417927
134	0x3d899c7f	0.067193024
135	0x3d9def88	0.077117026
136	0x3e81c7b5	0.25347677
137	0x3e96b8fb	0.29438004
138	0xbe18641b	-0.14881937
139	0x3d81a561	0.06330372
140	0xbe4f508f	-0.20245574
141	0xbd24de2c	-0.040250942
142	0xbe73e562	-0.23817971
143	0x3e4088b7	0.18802153
144	0x3e05acb8	0.13054168
145	0x3eb2e2f5	0.3493878
146	0x3eb503d5	0.35354486
147	0x3eb68b28	0.35653043
148	0xbdcef7df	-0.101058714
149	0xbe7db674	-0.24776632
150	0xbe13e888	-0.14444172
151	0x3e8819fd	0.26582327
152	0x3e4fb572	0.2028406
153	0x3ec950a4	0.39319336
154	0x3e197f6d	0.14990015
155	0x3e820f9e	0.2540254
156	0x3e2d76fd	0.16939922
157	0xbe395383	-0.18098263
158	0x3d28e562	0.04123438
159	0xbc81f83e	-0.015865441
160	0xbe725c8b	-0.23668115
161	0x3d627989	0.055291686
162	0x3e3f5205	0.18683632
163	0x3e17bf39	0.1481904
164	0x3dcad8f8	0.09904665
165	0xbd889a8f	-0.06670105
166	0xbda68f00	-0.08132744
167	0x3da2486f	0.07923972
168	0x3d20de3c	0.03927444
169	0xbc93e340	-0.018052697
170	0xbe4a8119	-0.1977581
171	0x3d85bb2a	0.06529839
172	0xbe873e35	-0.26414648
173	0xbbbbf35f	-0.005735799
174	0xbe67a6a6	-0.22622165
175	0x3e1c32f3	0.1525381
176	0x3e17f3b4	0.14839059
177	0xbc7f6d8b	-0.015590082
178	0x3e69b77e	0.22823903
179	0x3df5a751	0.11994804
180	0xbe7bac6d	-0.24577494
181	0xbc9dd0e7	-0.019264651
182	0x3e1b9106	0.15192041
183	0x3d414446	0.04718425
184	0xbd4a95f2	-0.049459405
185	0x3e4fdb02	0.20298389
186	0x3d259a4e	0.04043036
187	0x3ccdcbe4	0.025121637
188	0x3e284655	0.1643308
189	0x3df05975	0.117358126
190	0x3e8196c1	0.2531033
191	0xbcb2d5dc	-0.021830492
192	0xbd2e6972	-0.04258103
193	0xbda229cb	-0.079181276
194	0xbddffc66	-0.10936813
195	0xbd63d9b8	-0.055627555
196	0x3d8812f1	0.06644238
197	0x3e8a45ff	0.27006528
198	0x3d116d73	0.03550477
199	0x3d86093c	0.0654473
200	0x39ddd778	0.00042312942
201	0xbdd9cffe	-0.106353745
202	0xbd31faaa	-0.043451943
203	0x3d7d2191	0.06179959
204	0xbc944f03	-0.018104082
205	0x3b475bcb	0.0030419703
206	0x3dd02088	0.10162455
207	0x3d9ebcff	0.07750892
208	0xbc6c3596	-0.014417073
209	0xbda48a65	-0.08034209
210	0xbe5cf1b7	-0.21576582
211	0xbe04828e	-0.12940428
212	0x3bc2d920	0.0059462935
213	0x3ea1e71a	0.3162163
214	0x3e741fa7	0.238402
215	0xbdda7150	-0.10666144
216	0x3e0e41bf	0.13892268
217	0xbe21b1fd	-0.15790553
218	0xbe7306b4	-0.23733026
219	0xbda260ee	-0.07928644
220	0xbe4928f3	-0.19644527
221	0x3e00366f	0.12520765
222	0xbdc3ad68	-0.09554559
223	0x3d5a9367	0.05336323
224	0xbd20d8c8	-0.03926924
225	0xbcce5f1a	-0.025191832
226	0xbe317e5b	-0.17333357
227	0x3e0f08be	0.13968179
228	0x3b9d0e9a	0.0047930004
229	0x3e897011	0.26843312
230	0x3d980661	0.07423092
231	0xbd3215b1	-0.043477718
232	0x3da438d2	0.0801865
233	0x3e66bc69	0.2253281
234	0xbd258387	-0.040408637
235	0x3e3d5921	0.18491031
236	0xbca8d16d	-0.020607674
237	0xbe204ead	-0.15655012
238	0x3e58ee6e	0.21184704
239	0x3dccf314	0.10007301
240	0xbd389a88	-0.045069247
241	0xbe0e4902	-0.13895038
242	0xbe2d7c8d	-0.16942044
243	0xbda86758	-0.08222836
244	0xbdb4eff5	-0.08834831
245	0x3ea3c85a	0.31988794
246	0x3c88a99c	0.016682439
247	0xbe4b9559	-0.1988119
248	0xbd37a323	-0.044833314
249	0xbe28e3e7	-0.16493188
250	0xbe528e1b	-0.20562021
251	0xbd4eff84	-0.050536647
252	0xbe843136	-0.25818795
253	0x3e7ba6ca	0.24575344
254	0xbe9af61d	-0.30265895
255	0x3dbf1f8b	0.09332188

shared.2.bias f4 [32]
0	0x3dcb2a33	0.09920158
1	0xbe20ab85	-0.1569043
2	0x3e1ad564	0.15120465
3	0x3dba5175	0.09097568
4	0x3e2bb121	0.16766788
5	0xbdd9afdc	-0.10629246
6	0xbdbf3e5c	-0.09338066
7	0x3e0b6bf9	0.13615407
8	0x3dfc8e18	0.1233179
9	0x3d843f1b	0.06457349
10	0x3e70e6ec	0.2352559
11	0x3d44c055	0.048034985
12	0x3ced2c93	0.028951919
13	0xbe2056f2	-0.15658167
14	0x3e192104	0.14954
15	0xbcc48801	-0.023990633
16	0x3e78be72	0.24291399
17	0xbd10a53a	-0.035313822
18	0x3cf0d799	0.02939968
19	0x3e1553ae	0.14582703
20	0xbe367ecc	-0.17821807
21	0x3e4804fd	0.19533153
22	0x3e0ba133	0.13635711
23	0x3e4b9783	0.19882016
24	0x3dae74cb	0.0851837
25	0x3d1534f6	0.03642746
26	0x3c83d906	0.016094696
27	0x3e70cd8f	0.23515914
28	0xbc5d43cc	-0.013504934
29	0xbe1b3448	-0.15156662
30	0xbdc4e72d	-0.09614406
31	0x3e9b5d0d	0.3034443

actor.weight f4 [5, 32]
0	0xbdbee8d0	-0.09321749
1	0xbde4e581	-0.11176587
2	0x3c5dc70c	0.013536226
3	0xbd4bceca	-0.049757756
4	0x3d4dc0b6	0.05023261
5	0xbc8474f4	-0.016169049
6	0xbe067162	-0.1312919
7	0xbe22d67f	-0.15902136
8	0x3ddba3b5	0.10724584
9	0xbdd7db5d	-0.10539887
10	0xbb6faeb4	-0.0036572637
11	0xbbf220a8	-0.007389147
12	0xbe49262b	-0.19643466
13	0xbdc862c3	-0.09784462
14	0xbdef0454	-0.116707474
15	0x3d8dbfbf	0.06921338
16	0xbdb23f26	-0.08703451
17	0xbd8e3ee3	-0.069455884
18	0xbe1d0297	-0.15333019
19	0xbe171b20	-0.14756441
20	0xbd8ac0fc	-0.0677509
21	0xbd30969d	-0.043112386
22	0xbe12fb35	-0.1435364
23	0x3db4df9e	0.08831714
24	0xbd9e2715	-0.07722298
25	0xbe82f742	-0.25579268
26	0xbe2f8962	-0.17142251
27	0xbdb3ab05	-0.08772854
28	0xbe64d5d7	-0.22347198
29	0x3c3c3e60	0.011489481
30	0x3e02d994	0.12778312
31	0xbe35f878	-0.17770565
32	0xbdacd4b8	-0.084390104
33	0x3dd6f6ad	0.104962684
34	0xbd505c9a	-0.05086956
35	0x3e31bb87	0.17356692
36	0xbe2ebad5	-0.17063458
37	0x3e6bd35f	0.2302985
38	0x3e0219a0	0.12705088
39	0x3d7f2c37	0.062298026
40	0x3e10f904	0.14157492
41	0x3e1da8b5	0.15396388
42	0xbe5780d3	-0.21045236
43	0xbc97765e	-0.018489059
44	0xbdd1bcbc	-0.10241076
45	0xbd652600	-0.055944443
46	0xbe8553d7	-0.26040527
47	0xbde51827	-0.11186247
48	0xbe82a123	-0.25513563
49	0x3d77c6b1	0.06049222
50	0xbe0b7852	-0.13620117
51	0xbdf382dc	-0.11890194
52	0xbdee3a10	-0.11632168
53	0xbdf74ae7	-0.12074833
54	0xbe20c606	-0.1570054
55	0xbe07369c	-0.13204426
56	0xbe2c1c79	-0.16807736
57	0xbe9592e8	-0.29213643
58	0x3d962d97	0.07332914
59	0xbe6b9c75	-0.23008902
60	0xbdafe1c3	-0.085879825
61	0x3e2a3da1	0.16625072
62	0xbda4b29d	-0.0804188
63	0xbe76c17a	-0.24097243
64	0xbd79f884	-0.06102802
65	0x3ddb8b2c	0.10719904
66	0xbe3a8d26	-0.18217906
67	0x3e219de4	0.15782887
68	0x3dd5babc	0.104360074
69	0xbdf4773f	-0.11936807
70	0x3ce55e93	0.027999198
71	0x3e1a5e2e	0.15074989
72	0xbd51b957	-0.051202144
73	0xbe1a422f	-0.1506431
74	0x3d05a604	0.032629028
75	0xbe1e571e	-0.1546292
76	0x3e366db3	0.17815284
77	0xbda147b6	-0.07875006
78	0x3dbaee27	0.09127455
79	0xbde6db36	-0.1127228
80	0x3e7874fc	0.24263376
81	0x3d876342	0.06610729
82	0xbe073f26	-0.13207683
83	0x3e7403e9	0.23829617
84	0xbd0d9283	-0.034563553
85	0x3e8d2b96	0.27572316
86	0x3cf8ff47	0.030395163
87	0xbcf965f9	-0.030444132
88	0x3de65409	0.11246497
89	0x3e06b78a	0.13155952
90	0xbe48bf4d	-0.19604225
91	0x3e494100	0.19653702
92	0x3d491821	0.049095277
93	0xbd471060	-0.0485996
94	0xbdd438c9	-0.103623934
95	0x3d3f494b	0.046700757
96	0xbcb0e9fb	-0.021595946
97	0x3d17737a	0.03697536
98	0xbd8fac8e	-0.07015334
99	0xbdd074cd	-0.10178528
100	0x3d3b4a6d	0.045725275
101	0xbd7ba18f	-0.06143337
102	0xbe20c5a7	-0.15700398
103	0xbd0aadce	-0.03385716
104	0x3dd45152	0.10367073
105	0xbe291eff	-0.1651573
106	0x3e21a90b	0.15787141
107	0xbc9b4842	-0.018955354
108	0xbc7862f0	-0.015160307
109	0x3cf85e80	0.030318499
110	0x3d64bc54	0.055843666
111	0xbdd6ef74	-0.10494891
112	0xbda0d2e8	-0.07852727
113	0xbcb9285b	-0.02260225
114	0x3e51d069	0.20489658
115	0x3e5159d9	0.2044443
116	0x3e179637	0.14803396
117	0x3e287860	0.1645217
118	0x3e80e51d	0.251748
119	0xbce6d963	-0.02817983
120	0x3d99ab3e	0.07503365
121	0x3e36ecfa	0.17863837
122	0xbd8a4ce2	-0.067529455
123	0x3c3626a9	0.011117616
124	0x3e280717	0.16408955
125	0x3da8ba6e	0.08238684
126	0x3c80413e	0.01565611
127	0x3e78d8a0	0.24301386
128	0x3da3e50b	0.08002671
129	0x3e1664ec	0.14686936
130	0xbc02c133	-0.007980633
131	0x3e000b33	0.12504272
132	0xbe97a71b	-0.2961968
133	0xbd1a1262	-0.037615187
134	0x3e565837	0.20932089
135	0xbd7679dd	-0.06017481
136	0x3d191aed	0.037379194
137	0xbe1abc6f	-0.15110944
138	0xbe3abc94	-0.18236
139	0x3c8e56c6	0.017375361
140	0xbde4ec33	-0.11177864
141	0x3cb166f0	0.02165553
142	0x3b81e117	0.0039636004
143	0xbe2ee8a2	-0.1708093
144	0xbe5f6015	-0.21813996
145	0x3e1ef451	0.15522887
146	0xbd808dfe	-0.06277083
147	0xbe0e0c31	-0.13871838
148	0x3d9a9e37	0.07549708
149	0xbe5a60b9	-0.2132596
150	0xbeadb521	-0.33927253
151	0xbcb95665	-0.022624204
152	0xbea1e59a	-0.31620485
153	0xbeddc3d9	-0.43313482
154	0x3e42109c	0.18951648
155	0xbdc5bd66	-0.096552655
156	0xbe55b9fb	-0.20871727
157	0x3e31fd27	0.17381726
158	0xbda9b9dd	-0.08287404
159	0xbe6efe0c	-0.23339099

actor.bias f4 [5]
0	0xbca084d8	-0.019594595
1	0xbd8d4cc3	-0.06899407
2	0xbd9422c8	-0.072331965
3	0x3c6712e1	0.014103622
4	0xbe1a6bd5	-0.15080197

critic.weight f4 [1, 32]
0	0x3e9b0157	0.3027446
1	0xbd8bd0e7	-0.06826954
2	0xbe2b8455	-0.167497
3	0x3e271194	0.163153
4	0x3ece23ba	0.40261632
5	0x3e0a5120	0.13507509
6	0xbeaacda5	-0.3336002
7	0xbe958a15	-0.2920691
8	0xbe316a1d	-0.17325635
9	0xbd1cc363	-0.038272273
10	0x3e9d194b	0.3068336
11	0xbec2f93e	-0.38080782
12	0xbe9bc60e	-0.3042454
13	0x3ab05f80	0.0013456196
14	0xbe90d34d	-0.2828621
15	0xbe0bf587	-0.1366788
16	0x3ed900d2	0.42383438
17	0x3e33ebaa	0.17570367
18	0xbe72a796	-0.23696741
19	0x3ed306cb	0.4121612
20	0x3dc84176	0.09778111
21	0x3e9712bb	0.29506478
22	0x3ebed816	0.37274235
23	0x3ede887d	0.43463507
24	0xbe2c601a	-0.16833535
25	0x3e3d61ca	0.18494335
26	0xbe50b2f3	-0.20380764
27	0x3ea8bab4	0.32954943
28	0x3e410c52	0.18852356
29	0xbd353420	-0.044239163
30	0xbde9ede3	-0.114223264
31	0x3e905990	0.2819333

exp_avg f4 [32, 5]
0	0x3a450d7c	0.0007516963
1	0xb91b64d1	-0.00014819509
2	0xba15d643	-0.00057158264
3	0xba007827	-0.00049007166
4	0xb9fc8222	-0.00048162142
5	0x3cfa2518	0.030535266
6	0x3d1fe54b	0.03903703
7	0xbc953fcf	-0.018218903
8	0xbc83936b	-0.016061505
9	0xbcb22e06	-0.021750461
10	0xbc7e121a	-0.015507245
11	0xbcc62fa0	-0.024192631
12	0xbc516ae5	-0.012781833
13	0xbc392740	-0.011300862
14	0xbc70f791	-0.014707462
15	0x3cda05f2	0.026614163
16	0x3d9482e1	0.07251526
17	0x3cb484e8	0.02203603
18	0x3ca0c67b	0.019625893
19	0x3d16be6e	0.0368027
20	0x3cd8398a	0.026394624
21	0x3d8ac477	0.06775754
22	0x3cd5b2d0	0.026086241
23	0x3cbe1ac5	0.023206124
24	0x3d21e557	0.039525356
25	0x3c8f5509	0.017496603
26	0x3c4d3f2f	0.012527271
27	0x3b8031bb	0.0039121783
28	0x3b5df2c3	0.003386662
29	0x3a0c436f	0.00053506246
30	0x3ab58322	0.0013848285
31	0x3c87874a	0.016544003
32	0x3b59de0d	0.0033243925
33	0x3b3f2a5f	0.0029169542
34	0x3c0cdd4d	0.008597684
35	0xbc223873	-0.009901154
36	0xbc9a2cc0	-0.018820167
37	0xbc114a9a	-0.008867884
38	0xbc001d23	-0.007819447
39	0xbc6375c3	-0.013883057
40	0x3b99f634	0.004698539
41	0x3c9c055b	0.019045522
42	0x3cf4a2d0	0.029862791
43	0x3cd8da78	0.026471362
44	0x3d0fbed4	0.035094097
45	0x3d06d730	0.032920063
46	0x3d82d73a	0.063887075
47	0x3ca647b8	0.02029787
48	0x3c92b7cd	0.017909909
49	0x3cdec2ac	0.027192436
50	0xbca1229a	-0.01966982
51	0xbce9e672	-0.028552268
52	0x3c53b6e6	0.012922024
53	0x3c3b7586	0.011441594
54	0x3c7460d5	0.014915665
55	0x3bbe75d1	0.0058123847
56	0x3c01d463	0.007924172
57	0x3c1b25f2	0.009469496
58	0x3c08fc69	0.0083609605
59	0x3c199360	0.009373516
60	0xbd10db68	-0.035365492
61	0xbd41bcfb	-0.047299366
62	0x3ccd61fc	0.025071137
63	0x3cb53843	0.022121554
64	0x3cdae3f0	0.026720017
65	0x3c763cb7	0.015029124
66	0x3d063599	0.03276596
67	0x3c69b411	0.014264123
68	0x3c4da7ab	0.012552182
69	0x3c8dde6a	0.01731797
70	0x3c8fdcb4	0.017561294
71	0x3ca9f60a	0.020747203
72	0x3c8688ec	0.016422711
73	0x3c6bbd66	0.014388418
74	0x3c5297a1	0.012853534
75	0xbb8282b7	-0.0039828676
76	0x3bfbb9f3	0.007682079
77	0xb96d740e	-0.00022645315
78	0xb9430321	-0.00018597815
79	0x3b6de3ca	0.0036299103
80	0x3b410d45	0.0029457372
81	0xbab25d07	-0.0013608047
82	0xbbdd51a0	-0.006754115
83	0xbbc5cf07	-0.0060366425
84	0xbc0f8477	-0.008759609
85	0x3d2848a8	0.041084915
86	0x3d9c4f1a	0.07632275
87	0x3d14cdf7	0.036329236
88	0x3d031bd0	0.032008946
89	0x3d44fb0d	0.048090983
90	0x3c62f848	0.01385314
91	0x3ce25ab1	0.027631136
92	0xbd003291	-0.031298224
93	0xbce3bc73	-0.02779982
94	0xbd068985	-0.032845993
95	0x3c3cda44	0.011526648
96	0x3d170290	0.03686768
97	0x3c032e30	0.008006617
98	0x3be7a8c4	0.007069679
99	0x3c8f0b08	0.017461315
100	0xbc547024	-0.0129661895
101	0xbcd0e2b8	-0.025498733
102	0xbb8de12f	-0.0043298225
103	0xbb77d37a	-0.003781526
104	0xbc142df2	-0.009044157
105	0x3ca93bd2	0.020658407
106	0x3c28f93d	0.010313329
107	0xbba08772	-0.004898959
108	0xbb928e83	-0.004472555
109	0xbc2fc8f5	-0.010729064
110	0x3a43858a	0.00074585585
111	0x3b34efa7	0.0027608664
112	0x3a9f78e8	0.001216677
113	0x3a86963f	0.0010268165
114	0x3ab53b55	0.0013826886
115	0x3d2f61be	0.042817824
116	0x3d9e63ed	0.07733903
117	0x3d241b66	0.04006519
118	0x3d108223	0.035280358
119	0x3d54791f	0.051873323
120	0xba384951	-0.0007029968
121	0x3b4843de	0.003055803
122	0x3bff2dd7	0.007787447
123	0x3be31035	0.0069294223
124	0x3c132d4a	0.008982966
125	0x3c1fd6b8	0.009755783
126	0x3d49c2d0	0.049258053
127	0x3c6bf83a	0.014402444
128	0x3c5321d3	0.012886482
129	0x3ce43413	0.027856862
130	0xbba68df5	-0.0050828406
131	0x3c8cb136	0.017174345
132	0xb9c1d32a	-0.00036969158
133	0xb9487bcf	-0.00019119609
134	0x3c02dbf2	0.007987009
135	0x3bbe1944	0.0058013517
136	0x3cf8bc3b	0.030363193
137	0x3c19d59b	0.009389306
138	0x3c074575	0.008256306
139	0x3c927771	0.01787922
140	0xb7c97def	-2.401971e-05
141	0xb7b3f716	-2.1453521e-05
142	0x36b5611b	5.405525e-06
143	0xb7ac4e42	-2.054044e-05
144	0xb713396e	-8.775254e-06
145	0x3c9cefa2	0.019157235
146	0x3b2cbca3	0.0026357553
147	0xbca3ebd4	-0.020009913
148	0xbc92279b	-0.017841151
149	0xbd036c82	-0.032085903
150	0x3c191808	0.009344108
151	0x3c55d92e	0.013052268
152	0xbb8d5f03	-0.004314305
153	0xbb795db9	-0.0038050248
154	0xbbc77349	-0.006086741
155	0xb3a47c61	-7.6594695e-08
156	0xb2915cb1	-1.6922373e-08
157	0xb36f786c	-5.5756047e-08
158	0x33534c56	4.9196693e-08
159	0xb3d3ab10	-9.856569e-08

exp_avg_sq f4 [32, 5]
0	0x3a0844a0	0.0005198214
1	0x399f48f0	0.00030381186
2	0x3942be87	0.00018572259
3	0x39449981	0.00018749201
4	0x39fa70e8	0.00047767838
5	0x3c2aab50	0.010416821
6	0x3be22e79	0.0069025126
7	0x3b8f1bd5	0.0043673315
8	0x3b35abe4	0.0027720863
9	0x3b76157e	0.0037549431
10	0x39ac0c90	0.00032815756
11	0x3991f342	0.00027837796
12	0x3979c174	0.00023818557
13	0x39895786	0.00026195886
14	0x39c36ca9	0.00037274256
15	0x3ca12bae	0.019674148
16	0x3c6d2e44	0.014476363
17	0x3c04ecd7	0.008113108
18	0x3bb2674a	0.005444442
19	0x3c0e6afb	0.008692498
20	0x3c71330c	0.014721643
21	0x3c3382bb	0.010956462
22	0x3bd30e71	0.0064409305
23	0x3b8f6e9b	0.004377199
24	0x3bdcc70d	0.006737596
25	0x3ba1b861	0.0049353098
26	0x3b90cb1e	0.0044187447
27	0x3b6c9265	0.0036098
28	0x3b49abb1	0.0030772502
29	0x3b530b8c	0.0032202927
30	0x3b0e0c20	0.0021674708
31	0x3afdaf01	0.0019354523
32	0x3ab2358a	0.0013596278
33	0x3a5f34d7	0.00085146487
34	0x3aaa75f3	0.0013005122
35	0x3a72db37	0.0009264233
36	0x3a53b190	0.000807547
37	0x3a62646e	0.0008636181
38	0x39f4a97c	0.00046665582
39	0x3a3fe9fd	0.0007320939
40	0x3a8db342	0.0010810869
41	0x3a6be666	0.00089988706
42	0x3a3d6c63	0.0007225929
43	0x3a28a647	0.00064334687
44	0x3a5cdfae	0.0008425665
45	0x3b5824e6	0.0032980978
46	0x3b3ad0bc	0.0028505763
47	0x3b3ec5cd	0.0029109598
48	0x3a352bac	0.00069111097
49	0x3aec0bb0	0.0018008854
50	0x3a854157	0.0010166568
51	0x3a19f272	0.0005872614
52	0x3a02e04f	0.0004992531
53	0x3a0adb9d	0.0005297007
54	0x3a84e9a8	0.0010140436
55	0x39e81239	0.00044264065
56	0x39e333e3	0.00043335473
57	0x39a2e0ba	0.00031066482
58	0x3993b7aa	0.00028174865
59	0x399c6c75	0.00029835445
60	0x3ade6f6b	0.0016970461
61	0x3a7e3028	0.0009696507
62	0x3a5e80fd	0.00084878487
63	0x3a21d232	0.0006172984
64	0x3abead2b	0.0014547458
65	0x3a811865	0.0009849189
66	0x3a52e3c5	0.00080448046
67	0x3a81a4cd	0.0009891033
68	0x3a9af834	0.0011823238
69	0x3a722bfc	0.00092381216
70	0x3bf5e1c8	0.007503722
71	0x3bd6762c	0.006544849
72	0x3b8f2da6	0.0043694554
73	0x3b64ceb2	0.003491324
74	0x3b687cf3	0.0035474866
75	0x3b30d5eb	0.0026982974
76	0x3b13a037	0.0022525915
77	0x3aabae3b	0.0013098189
78	0x3a893a4a	0.0010469642
79	0x3a99795c	0.0011709142
80	0x3a97b628	0.0011574673
81	0x3a8462fd	0.0010100302
82	0x3a750d4d	0.000934799
83	0x3a550092	0.000812539
84	0x3a697543	0.0008905718
85	0x3c08242d	0.008309406
86	0x3c0a0ce5	0.008425926
87	0x3bfbb4b0	0.0076814517
88	0x3bbfd1bc	0.0058538597
89	0x3baa012d	0.0051881284
90	0x3c842712	0.016131911
91	0x3c59dba7	0.013296998
92	0x3c12e8ea	0.008966664
93	0x3bdb2d41	0.0066887443
94	0x3b5dea56	0.00338616
95	0x3bc3cb46	0.00597516
96	0x3bc06e98	0.005872559
97	0x3bad143e	0.005281954
98	0x3b81a56a	0.0039564865
99	0x3b09bb27	0.0021016093
100	0x3a1f708f	0.0006082141
101	0x39cbd1dc	0.00038875535
102	0x39953d76	0.00028465287
103	0x39a505f7	0.00031475697
104	0x3a35ccef	0.00069351395
105	0x3c060ba0	0.008181483
106	0x3bfeabb1	0.007771932
107	0x3bd85af0	0.0066026375
108	0x3bb50082	0.005523742
109	0x3bba8519	0.005692136
110	0x391eb0cf	0.0001513392
111	0x390d4fd4	0.00013476546
112	0x39271b7e	0.00015936603
113	0x3920e44b	0.00015343835
114	0x39449a70	0.00018749549
115	0x3c35f6bc	0.011106189
116	0x3c04f45b	0.0081148995
117	0x3be7f85a	0.0070791664
118	0x3bbc4087	0.005744997
119	0x3bced02f	0.0063114385
120	0x3aa96897	0.0012924847
121	0x3a77f708	0.0009459113
122	0x39fa8d1a	0.00047788845
123	0x3a334128	0.0006838017
124	0x3a417099	0.0007379144
125	0x3cba7ab4	0.022763588
126	0x3c9b65e4	0.018969484
127	0x3c57ea30	0.013178393
128	0x3c3506ba	0.011048967
129	0x3c4e800e	0.012603773
130	0x3c3f5aef	0.011679395
131	0x3c23f72b	0.01000766
132	0x3befac0a	0.00731421
133	0x3bd446c8	0.0064781643
134	0x3be8d859	0.007105869
135	0x3c16c6ad	0.009202641
136	0x3bf9038c	0.0075993
137	0x3ba73ec9	0.00510392
138	0x3b8c082a	0.004273434
139	0x3b9c4bcc	0.004769778
140	0x390f9c79	0.00013695833
141	0x3904cfdd	0.00012665936
142	0x38012c4a	3.0797244e-05
143	0x3822ffa0	3.886188e-05
144	0x38199ca2	3.662392e-05
145	0x3c58c850	0.013231352
146	0x3c40f429	0.011776962
147	0x3c2e842d	0.01065163
148	0x3c123dd8	0.0089258775
149	0x3c2114eb	0.009831647
150	0x3abc3718	0.0014359681
151	0x3a91dc15	0.0011128212
152	0x3a95d321	0.0011430719
153	0x3a27e2fe	0.0006404369
154	0x3996abfe	0.00028738374
155	0x3911b85f	0.00013896961
156	0x39051c71	0.00012694464
157	0x38a21f66	7.7306104e-05
158	0x37b5cdca	2.167271e-05
159	0x38f646f0	0.00011743407

exp_avg f4 [32]
0	0x3a45f0cb	0.00075508346
1	0x3cc9c850	0.02463165
2	0x3c8e13a4	0.01734335
3	0xbcf62193	-0.030045306
4	0xbd118ad2	-0.03553278
5	0xbbaadba0	-0.0052141696
6	0xbb92b3d8	-0.0044770055
7	0x3c44ccc2	0.012011709
8	0xbd263a53	-0.040582966
9	0xbce0f7a2	-0.02746183
10	0xbc8fa24b	-0.017533442
11	0xbc522d04	-0.012828115
12	0xbd0aef76	-0.033919774
13	0xbc9dbe6d	-0.019255841
14	0xbcb52fa3	-0.022117442
15	0x3998a5a4	0.0002911511
16	0x3c17576b	0.009237151
17	0xbd4914fc	-0.049092278
18	0x3d2e54ef	0.042561468
19	0xbc319b42	-0.010840239
20	0x3bbe53b5	0.0058083185
21	0x3bdfddca	0.0068318592
22	0xbacede90	-0.0015782882
23	0xbd5da769	-0.054114733
24	0xbc2e2915	-0.010629912
25	0xbca1b085	-0.019737491
26	0x39a9807f	0.0003232993
27	0xbc4faa9d	-0.012674955
28	0x37d094b0	2.486477e-05
29	0x3cdfcb61	0.027318658
30	0x3bbf702c	0.0058422294
31	0x33a1fea8	7.5434684e-08

exp_avg_sq f4 [32]
0	0x3a21a6c4	0.00061665126
1	0x3c439e11	0.011939541
2	0x3a101356	0.00054960453
3	0x3ca0d88d	0.01963451
4	0x3c762901	0.0150244245
5	0x3c0046f1	0.007829414
6	0x3b16868a	0.0022968375
7	0x3aa31d4c	0.0012444644
8	0x3ad57f2d	0.0016288512
9	0x3b8e381f	0.0043401862
10	0x3ac5667b	0.0015060449
11	0x3a2c0b81	0.00065629935
12	0x3b08ada1	0.0020855444
13	0x3b2bc5e5	0.0026210484
14	0x3c416c9c	0.01180568
15	0x3b30b4d9	0.0026963262
16	0x3b156978	0.002279846
17	0x3c862132	0.01637325
18	0x3ca38f56	0.019965809
19	0x3c2c8711	0.010530249
20	0x3a6110c5	0.00085855677
21	0x3c642273	0.013924229
22	0x39d49baf	0.00040551784
23	0x3c9247ae	0.017856445
24	0x3acdd81b	0.0015704663
25	0x3ce729fc	0.028218262
26	0x3c80ee8d	0.01573875
27	0x3c35f2e1	0.01110527
28	0x391f4303	0.00015188385
29	0x3cc7e9f2	0.024403546
30	0x3b126ece	0.0022343877
31	0x393fb78b	0.00018283555

exp_avg f4 [32, 32]
0	0xb6d95a25	-6.477598e-06
1	0x3a5443ff	0.00080972904
2	0xbb66ceae	-0.0035218406
3	0x3b112fee	0.0022153812
4	0x3a591748	0.0008281362
5	0x3bbd37bc	0.0057744663
6	0xbb27af92	-0.0025586826
7	0x3aa790fc	0.0012784298
8	0xb9af340b	-0.00033417376
9	0xbb3aa837	-0.0028481612
10	0x3bdad2e2	0.006677971
11	0x3a1f03cf	0.0006065936
12	0x3bc8492d	0.006112239
13	0x3c07d530	0.008290574
14	0x3a4d6a4b	0.0007835968
15	0x3b3bf22c	0.0028678281
16	0x3b75347d	0.0037415319
17	0x3b21c88d	0.0024686188
18	0x3b1f4467	0.0024302246
19	0x39287259	0.00016064326
20	0x3acfac16	0.0015844132
21	0x3ba7da03	0.0051224246
22	0xbb247a3f	-0.0025097278
23	0x3b5621c9	0.0032673946
24	0x3ac9097f	0.0015337913
25	0x3b0bedbe	0.0021351422
26	0x3ab163e6	0.00135338
27	0x3b4afdd0	0.0030974038
28	0x34d87967	4.0321467e-07
29	0x3bdc90f9	0.0067311493
30	0x3b487789	0.0030588827
31	0xb37532fa	-5.708987e-08
32	0x00000004	6e-45
33	0x00000004	6e-45
34	0x00000004	6e-45
35	0x00000004	6e-45
36	0x00000004	6e-45
37	0x00000004	6e-45
38	0x00000004	6e-45
39	0x00000004	6e-45
40	0x00000004	6e-45
41	0x00000000	0.0
42	0x00000004	6e-45
43	0x00000004	6e-45
44	0x00000000	0.0
45	0x00000004	6e-45
46	0x00000004	6e-45
47	0x00000004	6e-45
48	0x00000004	6e-45
49	0x00000004	6e-45
50	0x00000004	6e-45
51	0x00000000	0.0
52	0x00000004	6e-45
53	0x00000004	6e-45
54	0x00000004	6e-45
55	0x00000004	6e-45
56	0x00000004	6e-45
57	0x00000004	6e-45
58	0x00000004	6e-45
59	0x00000004	6e-45
60	0x00000004	6e-45
61	0x00000004	6e-45
62	0x00000004	6e-45
63	0x00000004	6e-45
64	0x332e2f72	4.0555683e-08
65	0x367e71b6	3.7915138e-06
66	0x3a0b50ad	0.0005314451
67	0x39cc159d	0.00038926015
68	0x399d1fdb	0.00029969108
69	0xbafc08c2	-0.0019228684
70	0x3acb9a95	0.001553374
71	0x39a3f4bb	0.0003127212
72	0xb955ddd3	-0.00020395899
73	0x3980a424	0.00024536357
74	0x094c9991	2.4627813e-33
75	0xb9f9a23b	-0.00047613852
76	0x00000004	6e-45
77	0x39d24da0	0.00040112156
78	0xb9ecb83a	-0.00045150687
79	0x3aac000c	0.0013122573
80	0xbabed27f	-0.0014558582
81	0x3a714e6a	0.0009205105
82	0x386cf9a0	5.6499266e-05
83	0x38b3db54	8.576238e-05
84	0x35d573a7	1.5903396e-06
85	0xbad384b7	-0.0016137575
86	0xba44308e	-0.0007484042
87	0x3a115d41	0.0005545207
88	0xb9fadff1	-0.00047850565
89	0x3aff70a9	0.0019488531
90	0x3af7eff6	0.0018916118
91	0x3b05b18b	0.0020400013
92	0xb444deb4	-1.8334941e-07
93	0xbb0100eb	-0.0019684385
94	0x3833dc7f	4.288228e-05
95	0x33445f28	4.572135e-08
96	0x36737dd8	3.6283072e-06
97	0xb83035dd	-4.2011834e-05
98	0xba8d6199	-0.0010786533
99	0xbaf892bf	-0.0018964632
100	0xbaada826	-0.0013248965
101	0x3b93a467	0.0045056823
102	0xbba22c0a	-0.0049490975
103	0xba806988	-0.0009797076
104	0x390aa6f6	0.00013222903
105	0xbaaf973a	-0.001339651
106	0xbad4aa7c	-0.0016225125
107	0x3a521748	0.00080143334
108	0xba6d1370	-0.0009043729
109	0xbbb864b5	-0.0056272396
110	0x3a23223d	0.00062230584
111	0xbbc37a37	-0.005965497
112	0x3b53a1c4	0.0032292465
113	0xbbb2abb2	-0.0054525966
114	0xba91e927	-0.0011132107
115	0xba9a1f4e	-0.0011758597
116	0xba64b936	-0.00087251083
117	0x3b6619fb	0.00351107
118	0x3a5f7caa	0.00085253513
119	0xbb5d92c8	-0.0033809412
120	0x3a81d91a	0.000990662
121	0xbc020786	-0.007936364
122	0xbbe4d470	-0.0069833323
123	0xbc0812d4	-0.00830527
124	0x34b212bf	3.3168723e-07
125	0x3b927518	0.004469525
126	0xba11dc54	-0.00055641425
127	0xb3411b2d	-4.496103e-08
128	0xb713d022	-8.8103425e-06
129	0x3a6c1b9d	0.00090068
130	0xbbc65430	-0.0060525164
131	0x3a7bd5b5	0.0009606735
132	0xb94b9d1e	-0.0001941812
133	0x3ab0a3a9	0.0013476509
134	0xbbd24d6c	-0.006417921
135	0x3a12c081	0.00055981433
136	0xbaecd7f6	-0.0018069732
137	0xbb713df2	-0.0036810604
138	0x3be4cf12	0.0069826925
139	0xbaafddf9	-0.0013417593
140	0x3bd8601b	0.0066032535
141	0x3bfd0c27	0.007722396
142	0x3a802d70	0.0009779166
143	0xbba4ae8b	-0.00502569
144	0xb9a0966c	-0.0003062965
145	0x3a5539e6	0.0008133933
146	0x3b095a1a	0.0020958246
147	0xba165cec	-0.00057358923
148	0x3acdcc0e	0.0015701072
149	0x3b0fc304	0.0021936307
150	0xbc6104b6	-0.013734033
151	0x3b233e11	0.002490882
152	0x3a95a675	0.0011417406
153	0xbb2a4a36	-0.0025984175
154	0xbb51dc34	-0.003202212
155	0xbb2d2ea1	-0.0026425498
156	0x34e94533	4.344998e-07
157	0x3b903ac0	0.004401535
158	0x3b54954a	0.0032437616
159	0xb3d511e8	-9.9218425e-08
160	0x354f1214	7.7139816e-07
161	0x39db56da	0.00041835645
162	0xb9d4b282	-0.0004056879
163	0x3b03f1a4	0.0020133043
164	0x3a87c9ab	0.0010359784
165	0x3c176ac0	0.00924176
166	0x39638d6c	0.00021701091
167	0x3aab76f6	0.0013081718
168	0x3a6ff31a	0.00091533514
169	0xbad04fa0	-0.0015892871
170	0x3b6accee	0.0035827714
171	0x3b0e58e4	0.0021720463
172	0x3b528cae	0.0032127309
173	0x3b84b3f9	0.0040497747
174	0x3a0d944c	0.0005400821
175	0x3beedc4c	0.007289445
176	0x3bec7fd9	0.007217389
177	0x3a9c57a1	0.0011927971
178	0x3abb81e8	0.0014305683
179	0x399590f9	0.00028527508
180	0x3a47b95c	0.0007618868
181	0x3be09f59	0.006854933
182	0x3c0f6a88	0.008753426
183	0x3ad9fc8c	0.0016631051
184	0x3ae17648	0.0017201388
185	0x3b4108e1	0.0029454755
186	0x3b39fb20	0.0028378442
187	0x3b95718d	0.0045606554
188	0x350dca93	5.282138e-07
189	0x3c041a8b	0.008062969
190	0x3ad477e9	0.0016210052
191	0xb293386e	-1.7138714e-08
192	0x3528ba91	6.2856367e-07
193	0x36ef98c7	7.1405407e-06
194	0xb9b01c62	-0.00033590483
195	0xb88de7b9	-6.766566e-05
196	0xb7f5f9c1	-2.9322577e-05
197	0xbbe9cb54	-0.0071348343
198	0x3a810539	0.0009843475
199	0x382cec68	4.1228166e-05
200	0xba98eb4b	-0.0011666802
201	0x39f05623	0.00045840544
202	0xaffbddcd	-4.5814233e-10
203	0xbb0a9efd	-0.0021151893
204	0x00000004	6e-45
205	0x3a4fe2fb	0.0007930246
206	0xba3fed70	-0.0007321453
207	0xbb1f503b	-0.0024309296
208	0xbbbfed70	-0.005857162
209	0x3aab15b5	0.0013052734
210	0xb80396d1	-3.1373293e-05
211	0xb6018cd7	-1.9304478e-06
212	0x36d63f48	6.385064e-06
213	0xbbb07981	-0.005385578
214	0xbc0b6c4a	-0.008509705
215	0x3a4ac48a	0.0007734975
216	0xbaabf6ad	-0.001311978
217	0x3aa4330b	0.0012527419
218	0x3a8a5eac	0.0010556779
219	0x3a1df5c5	0.0006025697
220	0xb4d8c97e	-4.037974e-07
221	0xbbc0d150	-0.005884327
222	0x38b8310e	8.782941e-05
223	0x339c04d4	7.265194e-08
224	0x351847fc	5.6729164e-07
225	0x36b464c8	5.3761505e-06
226	0xbaf3bd74	-0.001859589
227	0xba648eec	-0.0008718807
228	0xba291ecd	-0.0006451428
229	0xbc37fa5b	-0.011229123
230	0xba8c7460	-0.0010715835
231	0xba05c25e	-0.00051025103
232	0xbb0ad63f	-0.002118483
233	0x39952a03	0.00028450796
234	0xb0802a4f	-9.325251e-10
235	0xbb69494d	-0.003559667
236	0x31cecdfd	6.0188072e-09
237	0x3a2531b6	0.0006301658
238	0xba3d7930	-0.0007227836
239	0xbbf7af9a	-0.007558775
240	0xbc18d914	-0.009329099
241	0x3a4a16c2	0.00077090797
242	0xb93e7504	-0.00018163404
243	0xb967db2b	-0.00022111523
244	0x3780507a	1.5296264e-05
245	0xbc05a3e2	-0.0081567485
246	0xbc85e9fb	-0.016346922
247	0x39f4ad1c	0.00046668283
248	0xbaea77d8	-0.00178885
249	0xba9ff5ec	-0.0012204028
250	0xbac3b6ea	-0.0014931832
251	0xbb2faf81	-0.002680749
252	0xb4f3c2a0	-4.5403885e-07
253	0xbc0bbd1c	-0.008528974
254	0x3899769f	7.3177034e-05
255	0x334284dd	4.5289983e-08

exp_avg_sq f4 [32, 32]
0	0x373c95bc	1.1240536e-05
1	0x380c0aa5	3.3388515e-05
2	0x38709329	5.7357513e-05
3	0x3903ad2e	0.00012557648
4	0x3826bf8c	3.9755876e-05
5	0x3ad30d32	0.0016101955
6	0x39035e0c	0.00012528169
7	0x3789621d	1.637736e-05
8	0x3928b766	0.0001609005
9	0x3821ac2a	3.854573e-05
10	0x383fa082	4.5687433e-05
11	0x39714ac6	0.00023011406
12	0x3764dd19	1.3641337e-05
13	0x3946054b	0.00018884723
14	0x3912ac57	0.00013987847
15	0x3a415c5c	0.00073761283
16	0x3a85d210	0.0010209698
17	0x3913a037	0.00014078697
18	0x388abfae	6.616056e-05
19	0x38249f2f	3.92489e-05
20	0x37e33027	2.7082931e-05
21	0x3a50cda0	0.0007965211
22	0x3b4aaa9b	0.0030924443
23	0x389a417b	7.355489e-05
24	0x3904f8a0	0.00012681121
25	0x3999b838	0.00029319688
26	0x395db84a	0.00021144855
27	0x39bdff7c	0.0003623924
28	0x35d0c440	1.5554324e-06
29	0x3a3e49a3	0.00072588975
30	0x37f871db	2.9616922e-05
31	0x37cbe8c8	2.4307883e-05
32	0x2bb50010	1.2860841e-12
33	0x2bf7b2e0	1.7600053e-12
34	0x2a160b9f	1.3326708e-13
35	0x2deb2da9	2.6736684e-11
36	0x2ca90b25	4.804506e-12
37	0x2c5c51c2	3.1309265e-12
38	0x29e4f31c	1.0167407e-13
39	0x1f8cd360	5.9642e-20
40	0x228c6fab	3.806531e-18
41	0x00000000	0.0
42	0x2bdf9d71	1.5888802e-12
43	0x1c84ecb2	8.796212e-22
44	0x00000000	0.0
45	0x2c9c5c58	4.444039e-12
46	0x2534d5cc	1.5684948e-16
47	0x2db924d0	2.1048413e-11
48	0x2aead144	4.1711957e-13
49	0x2b11e5e4	5.1833386e-13
50	0x2427a314	3.6350485e-17
51	0x00000000	0.0
52	0x2cfab6f6	7.12574e-12
53	0x2098d08e	2.5887812e-19
54	0x2a12ccbf	1.303844e-13
55	0x2cea9ec1	6.6683052e-12
56	0x2db275be	2.0288545e-11
57	0x2e3515ab	4.117388e-11
58	0x2dfc8046	2.8706048e-11
59	0x2d0027a9	7.284764e-12
60	0x1f43674e	4.1378308e-20
61	0x24c47cd1	8.52129e-17
62	0x1f87e682	5.755607e-20
63	0x211d0eff	5.3213516e-19
64	0x33dd4ef7	1.0305478e-07
65	0x371990c0	9.153213e-06
66	0x37b73c5a	2.1843403e-05
67	0x3868c45c	5.5495984e-05
68	0x378d2d5c	1.6829632e-05
69	0x3a058438	0.00050932495
70	0x381ff8b0	3.8140162e-05
71	0x36aae20d	5.0927106e-06
72	0x38779c5a	5.9035003e-05
73	0x3799bbac	1.8326413e-05
74	0x2dd0d52d	2.3741531e-11
75	0x389dee9f	7.53079e-05
76	0x2cc36fbe	5.554639e-12
77	0x35e43386	1.7002319e-06
78	0x381da727	3.758739e-05
79	0x39977a7e	0.00028892228
80	0x39ac0304	0.00032808643
81	0x3736f7b4	1.0905718e-05
82	0x3785850a	1.5916787e-05
83	0x372f41d7	1.0446142e-05
84	0x34f3d61f	4.541807e-07
85	0x397b7983	0.00023982492
86	0x3a8bfb6d	0.0010679789
87	0x36ccd47c	6.10441e-06
88	0x387b9355	5.9980277e-05
89	0x389be0df	7.4328615e-05
90	0x384b990f	4.854152e-05
91	0x38cb4159	9.691966e-05
92	0x34bd61fc	3.5275286e-07
93	0x39646f54	0.00021785247
94	0x36e59a92	6.842726e-06
95	0x36ed3b4d	7.070054e-06
96	0x36ac92f9	5.1431093e-06
97	0x37b0e2ee	2.1086507e-05
98	0x37c20c52	2.313234e-05
99	0x38976afc	7.2201685e-05
100	0x37c6f706	2.3718469e-05
101	0x3a159e2b	0.0005707468
102	0x38ab593c	8.1705366e-05
103	0x36fd76a9	7.5538014e-06
104	0x388a544e	6.596056e-05
105	0x3801d571	3.095478e-05
106	0x37d79cf7	2.570309e-05
107	0x38b0de52	8.4337444e-05
108	0x37225c09	9.677381e-06
109	0x38d558d9	0.000101731806
110	0x38560701	5.10281e-05
111	0x39925b4d	0.00027915314
112	0x39b82025	0.00035119164
113	0x38adcbd1	8.2872466e-05
114	0x37eadb44	2.7997077e-05
115	0x37832a1d	1.5636027e-05
116	0x3762cdda	1.3518578e-05
117	0x39943d78	0.00028274558
118	0x3a8e9728	0.0010878788
119	0x3834b876	4.3087137e-05
120	0x3867923a	5.5210876e-05
121	0x392c108f	0.00016409367
122	0x38e4da7a	0.00010912582
123	0x3947de01	0.00019060822
124	0x34f3f007	4.543692e-07
125	0x3989a594	0.00026254042
126	0x3741be6d	1.1548033e-05
127	0x370bf7aa	8.342709e-06
128	0x3799ae57	1.8320205e-05
129	0x386b5cb8	5.6114717e-05
130	0x38d96343	0.00010365855
131	0x3970635d	0.000229252
132	0x389206ec	6.963112e-05
133	0x3b243775	0.002505747
134	0x396c5aca	0.00022540535
135	0x37f10e7e	2.8736187e-05
136	0x398323e6	0.00025013014
137	0x388d79ef	6.746116e-05
138	0x38ac64b1	8.220354e-05
139	0x39bc1496	0.00035873492
140	0x37d539c2	2.5418474e-05
141	0x39b38a49	0.0003424457
142	0x394b2731	0.00019374189
143	0x3aae3b4d	0.001329282
144	0x3ad2aca1	0.0016073176
145	0x398a2bc7	0.00026354028
146	0x38ee5d48	0.00011366099
147	0x3894c24b	7.09338e-05
148	0x384382ba	4.661337e-05
149	0x3a9bfe61	0.0011901372
150	0x3ba39afc	0.004992841
151	0x390dae6a	0.00013511782
152	0x3970ab4d	0.00022951998
153	0x3a17d1b0	0.0005791439
154	0x39d90e84	0.0004140028
155	0x3a34cd85	0.000689708
156	0x3607192b	2.0131217e-06
157	0x3a8c5427	0.0010706232
158	0x3858f75b	5.172878e-05
159	0x38072928	3.2224838e-05
160	0x363858c1	2.7469798e-06
161	0x3719c6cd	9.165798e-06
162	0x379c7599	1.865141e-05
163	0x381111a0	3.458711e-05
164	0x373931bd	1.103844e-05
165	0x39fee155	0.0004861454
166	0x380b49e2	3.320899e-05
167	0x3697ffbc	4.529922e-06
168	0x38439542	4.663063e-05
169	0x373d4a4e	1.1282578e-05
170	0x372209ed	9.6582635e-06
171	0x38892739	6.539975e-05
172	0x36354aca	2.7014635e-06
173	0x38250d85	3.9351657e-05
174	0x383c342d	4.4871285e-05
175	0x3958497c	0.0002062674
176	0x39a0d9a2	0.00030679727
177	0x37ee3d4f	2.840036e-05
178	0x3783a752	1.5694332e-05
179	0x37117c61	8.671633e-06
180	0x36dd38dd	6.592933e-06
181	0x397d2273	0.00024140794
182	0x3a6f2cb4	0.0009123788
183	0x37834186	1.5646929e-05
184	0x3826a776	3.9733444e-05
185	0x38900af4	6.868495e-05
186	0x385a0685	5.1981322e-05
187	0x38aa036e	8.1068705e-05
188	0x352868c9	6.273736e-07
189	0x3973d390	0.00023253099
190	0x36dc09bb	6.5576437e-06
191	0x370691c9	8.020966e-06
192	0x34e56328	4.272672e-07
193	0x380c615a	3.3469267e-05
194	0x389e25c4	7.5410615e-05
195	0x394eb64e	0.00019713605
196	0x387c95b8	6.022092e-05
197	0x3af315de	0.0018545946
198	0x390b8d77	0.00013308773
199	0x379b989c	1.8548504e-05
200	0x39604ccb	0.00021390912
201	0x3885e729	6.384991e-05
202	0x2f94a47c	2.7037916e-10
203	0x398e9a6c	0.00027199404
204	0x2a942c43	2.6320794e-13
205	0x36daefc1	6.5248173e-06
206	0x3915c7f3	0.00014284234
207	0x3a8b3ab4	0.0010622353
208	0x3a9f207c	0.0012140418
209	0x381e5eb8	3.775835e-05
210	0x38753329	5.84602e-05
211	0x381a8b91	3.6846443e-05
212	0x35c3ea6e	1.459686e-06
213	0x3a6632be	0.0008781365
214	0x3b7fbe44	0.003902332
215	0x37b4b42a	2.1541568e-05
216	0x395d31fd	0.00021094824
217	0x3985b2e2	0.00025501015
218	0x3932c9b8	0.00017050549
219	0x39b88f81	0.00035202134
220	0x35d0df16	1.5562134e-06
221	0x3a4faf0d	0.0007922508
222	0x37d974f8	2.5922884e-05
223	0x37d95275	2.5906813e-05
224	0x351e930e	5.907358e-07
225	0x37f488e6	2.9150815e-05
226	0x3884b126	6.327247e-05
227	0x39228c14	0.00015501707
228	0x384d2ff9	4.8920487e-05
229	0x3ae0eb09	0.001715989
230	0x38f92936	0.000118809214
231	0x3783f91e	1.5732421e-05
232	0x3946d9b5	0.00018963854
233	0x3857bcac	5.143571e-05
234	0x312eed11	2.545509e-09
235	0x3980b263	0.0002454697
236	0x329a9cd1	1.7999271e-08
237	0x36eaacfb	6.993881e-06
238	0x391ce74c	0.00014963484
239	0x3a604581	0.0008555279
240	0x3a908a07	0.0011027463
241	0x3800b19b	3.0682986e-05
242	0x38504f6f	4.9665043e-05
243	0x37fc7544	3.0095347e-05
244	0x35b7321d	1.3649147e-06
245	0x3a5b5298	0.00083664944
246	0x3b61b8ce	0.0034442428
247	0x3791b6cf	1.7370474e-05
248	0x39320271	0.00016976312
249	0x3941cc48	0.00018482015
250	0x39058d31	0.00012736466
251	0x398e4867	0.00027138295
252	0x35decc4d	1.6599748e-06
253	0x3a4b2f19	0.00077508535
254	0x37aeffd8	2.0861553e-05
255	0x37e6fa75	2.7534765e-05

exp_avg f4 [32]
0	0x3ab5159c	0.0013815644
1	0x00000004	6e-45
2	0x3a675a63	0.00088254194
3	0xbb9dfd24	-0.0048214365
4	0xbbf79a0e	-0.0075562065
5	0x3bf2feed	0.0074156434
6	0xbb75b305	-0.0037490737
7	0xbc1c9743	-0.009557548
8	0x3af8159d	0.001892734
9	0x00000004	6e-45
10	0xbc2194b7	-0.009862117
11	0xbb995dca	-0.00468037
12	0xbc71e71d	-0.014764574
13	0x00000000	0.0
14	0xbc8c84ec	-0.017153226
15	0x00000004	6e-45
16	0xbc8f3fbe	-0.01748645
17	0xba3c32ce	-0.00071792013
18	0xbbafaf78	-0.0053614937
19	0xbbb7b13a	-0.005605844
20	0x00000004	6e-45
21	0xbc17b91a	-0.00926044
22	0xbbceae5a	-0.0063074054
23	0xbb020eaa	-0.0019845166
24	0xbc332166	-0.010933256
25	0xbc0a1832	-0.00842862
26	0x3ba69306	0.0050834445
27	0xbc422743	-0.011850181
28	0xbb25f80a	-0.0025324845
29	0x00000000	0.0
30	0x00000004	6e-45
31	0x394918d3	0.00019178102

exp_avg_sq f4 [32]
0	0x3ab39240	0.0013700202
1	0x2e33387f	4.0750067e-11
2	0x3a166931	0.00057377206
3	0x3a0fcbc9	0.00054853834
4	0x3b1c5402	0.0023853783
5	0x39ca8615	0.0003862834
6	0x3b080f2d	0.0020760999
7	0x3adfd622	0.0017077366
8	0x3a1e69f0	0.00060430076
9	0x2932e7e4	3.9725073e-14
10	0x3a86f964	0.0010297713
11	0x3b2ecc09	0.0026671907
12	0x3b00bc2d	0.0019643412
13	0x00000000	0.0
14	0x3ada7582	0.00166671
15	0x2d703c39	1.3655793e-11
16	0x3b3594a2	0.0027707
17	0x3a02743f	0.00049764285
18	0x3aa4116a	0.0012517397
19	0x3b2d9d74	0.0026491554
20	0x29ea6e6f	1.0410845e-13
21	0x3ac90f0f	0.0015339571
22	0x3ad26608	0.0016052136
23	0x3b337965	0.002738559
24	0x3a35ff41	0.0006942638
25	0x3a32ff2c	0.00068281847
26	0x3a632ec0	0.0008666329
27	0x3ae54332	0.0017491339
28	0x39ea938b	0.00044741886
29	0x00000000	0.0
30	0x2a6a81b9	2.0828382e-13
31	0x3ab47e2a	0.001377051

exp_avg f4 [5, 32]
0	0xbb88b1ab	-0.0041715703
1	0x80000004	-6e-45
2	0x3814a477	3.543912e-05
3	0xbb355fa8	-0.0027675424
4	0xbb8df3a5	-0.004332023
5	0xbab4ae24	-0.0013784808
6	0x3884e8b2	6.3375934e-05
7	0x39145702	0.00014146793
8	0x391943c6	0.00014616465
9	0x00000004	6e-45
10	0xbb575d4d	-0.0032862008
11	0xb8aefd95	-8.3442e-05
12	0x38f11a38	0.00011496659
13	0x00000000	0.0
14	0xb91acc56	-0.00014762706
15	0x00000004	6e-45
16	0xbb818d10	-0.0039535835
17	0xba6f161b	-0.00091204204
18	0xb8eb7b28	-0.00011228613
19	0xbba9a045	-0.0051765763
20	0x80000004	-6e-45
21	0xbb8f0f76	-0.0043658568
22	0xbb428e4b	-0.0029686864
23	0xbb8658bd	-0.004099934
24	0xb836337d	-4.3440134e-05
25	0xbb417f83	-0.0029525466
26	0x38caf75b	9.678184e-05
27	0xbba4408e	-0.0050125783
28	0xbb36bf1d	-0.0027884908
29	0x00000000	0.0
30	0x80000004	-6e-45
31	0xbb6f615e	-0.0036526541
32	0x3c1573a0	0.009121805
33	0x80000004	-6e-45
34	0x3c794298	0.015213631
35	0x3c19e67d	0.009393332
36	0x3bbf2f48	0.005834494
37	0x3c29cb13	0.010363358
38	0x3c79eeda	0.015254701
39	0x3c822f23	0.015891617
40	0x3c6462bf	0.0139395585
41	0x80000004	-6e-45
42	0xbb0ec4eb	-0.0021784853
43	0x3c77933c	0.015110787
44	0x3c788fd6	0.015171012
45	0x00000000	0.0
46	0x3b93b02e	0.0045070862
47	0x00000004	6e-45
48	0x3b7a8c3e	0.0038230564
49	0x3bd3baff	0.0064615007
50	0x3bb33c8e	0.005469865
51	0x3c03fb3b	0.0080555035
52	0x80000004	-6e-45
53	0x3be6984c	0.007037198
54	0xba565a5e	-0.0008176918
55	0x3beee968	0.007291008
56	0x3a8ae5b3	0.001059702
57	0xb972f51b	-0.00023170227
58	0x3c671838	0.014104895
59	0x3c1f9eef	0.009742483
60	0xba53340e	-0.0008056768
61	0x00000000	0.0
62	0x80000004	-6e-45
63	0x3c077ab1	0.008268998
64	0xbd5e9485	-0.054340858
65	0x00000004	6e-45
66	0xbc75da4e	-0.015005661
67	0xbd0134f5	-0.031544644
68	0xbd6889d8	-0.056772083
69	0xbc8b142d	-0.016977394
70	0xbc7b98ae	-0.015356226
71	0xbc88b974	-0.016689993
72	0xbc74c500	-0.014939547
73	0x00000004	6e-45
74	0xbd141de8	-0.036161333
75	0xbc67e59f	-0.014153867
76	0xbc817df5	-0.015807131
77	0x00000000	0.0
78	0xbb38cebb	-0.0028199393
79	0x00000004	6e-45
80	0xbd39c339	-0.045352194
81	0xbc6ec52a	-0.014573375
82	0xbb83045c	-0.0039983224
83	0xbd7fb029	-0.06242386
84	0x00000004	6e-45
85	0xbd5fb0d0	-0.05461198
86	0xbcea68d9	-0.028614448
87	0xbd41e76c	-0.04733984
88	0x38668314	5.495835e-05
89	0xbd0b9c7f	-0.034084793
90	0xbc6f5849	-0.014608451
91	0xbd7fb8a7	-0.062431958
92	0xbd2740e2	-0.04083336
93	0x00000000	0.0
94	0x80000004	-6e-45
95	0xbd3ab6f5	-0.045584638
96	0x3d792518	0.06082639
97	0x00000004	6e-45
98	0xbb30abf9	-0.0026957972
99	0x3d01ac2b	0.031658333
100	0x3d8ae762	0.06782414
101	0x3c26e02b	0.010185282
102	0xbb2de259	-0.0026532619
103	0xbb2bf3fc	-0.0026237955
104	0xbb047d02	-0.0020216112
105	0x80000004	-6e-45
106	0x3d56d53c	0.05244945
107	0xbb406f29	-0.0029363132
108	0xbb2cde6c	-0.002637769
109	0x00000000	0.0
110	0xbad38de0	-0.0016140305
111	0x80000004	-6e-45
112	0x3d69c6db	0.05707441
113	0x3c2c49ea	0.010515669
114	0xbada867d	-0.0016672161
115	0x3d98030f	0.074224584
116	0x00000004	6e-45
117	0x3d8342ec	0.06409249
118	0x3d2c566a	0.0420746
119	0x3d647862	0.05577887
120	0xba8c3fe5	-0.0010700194
121	0x3d3e3c5d	0.046444286
122	0xbb10853e	-0.0022052075
123	0x3d93025c	0.071781844
124	0x3d5bfd45	0.053708334
125	0x00000000	0.0
126	0x00000004	6e-45
127	0x3d50e765	0.051001925
128	0x3bac0c7b	0.005250511
129	0x00000004	6e-45
130	0x3b176df0	0.00231063
131	0x3b8de886	0.0043306975
132	0x3b9c6b8f	0.004773564
133	0x3b59a7c0	0.003321156
134	0x3b1fc54b	0.002437907
135	0x3b31eb55	0.0027148325
136	0x3b1620d4	0.002290775
137	0x00000004	6e-45
138	0x3b182217	0.0023213679
139	0x3b1d1052	0.0023966026
140	0x3b30e29f	0.0026990545
141	0x00000000	0.0
142	0x3a2e54a8	0.0006650188
143	0x00000004	6e-45
144	0x3b8a5e2a	0.004222651
145	0x3b0d52a2	0.0021564146
146	0x3a467862	0.0007571039
147	0x3bc57b51	0.0060266634
148	0x80000004	-6e-45
149	0x3bae0cc1	0.005311579
150	0x3b103e3e	0.0022009755
151	0x3b9c4a9d	0.004769637
152	0x3934f126	0.00017255972
153	0x3b2caf16	0.0026349477
154	0x3b11cedc	0.0022248542
155	0x3bc3a461	0.005970523
156	0x3af584b0	0.001873156
157	0x00000000	0.0
158	0x80000004	-6e-45
159	0x3b95fa83	0.0045769825
